bipedal_walker_gravity_DSP.pth (torch, 94662 bytes, 6 tensors)

layer1.weight f4 [128, 25]
0	0xbcce57ed	-0.02518841
1	0xbe3b2139	-0.18274392
2	0x3dbdd546	0.09269194
3	0xbf2989e5	-0.66226035
4	0xbdbf2bc4	-0.093345195
5	0x3c907e2a	0.017638285
6	0xbdbc58a4	-0.09196594
7	0xbba30d7f	-0.004975974
8	0xbc9596dc	-0.018260412
9	0x3d95b68d	0.073102094
10	0x3cba4b26	0.022740912
11	0xbcbb8b95	-0.022893706
12	0x3c27de8e	0.010245932
13	0x3d1bb582	0.038014896
14	0x3dd36ce0	0.10323501
15	0x3d72170a	0.059104003
16	0x3d1d7bc9	0.03844813
17	0x3d81f4dd	0.06345532
18	0x3dd7b9c5	0.105334796
19	0x3de9b6c1	0.11411811
20	0x3d316756	0.04331144
21	0x3de99687	0.11405664
22	0x3d88063d	0.06641815
23	0x3d1c84d2	0.038212605
24	0xbcac3972	-0.021023486
25	0x3d8333b9	0.0640635
26	0x3e1f8798	0.15579069
27	0x3d35171c	0.044211492
28	0x3f107629	0.564303
29	0x3dbc4e51	0.09194625
30	0x3c264f56	0.010150751
31	0x3d1a5f72	0.03768868
32	0x3d8c7624	0.06858471
33	0xbc5e835b	-0.013581122
34	0x3ddba7a4	0.10725334
35	0x3d9e9a9a	0.07744332
36	0x3caa18ae	0.020763721
37	0x3cd196d7	0.025584621
38	0x3d608054	0.054809883
39	0x3d2bee98	0.041975588
40	0xbd399636	-0.045309268
41	0xbd3cb13f	-0.046067473
42	0x3c0e7abf	0.008696257
43	0xbc9849f9	-0.01858996
44	0xbd399671	-0.045309488
45	0x3d24913d	0.040177573
46	0xbd74ed0e	-0.059796385
47	0xbd0d673e	-0.034522288
48	0x3c641980	0.013922095
49	0x3d46e3bd	0.048557032
50	0x3d315ee1	0.043303374
51	0x3e3b4561	0.18288185
52	0xbdc8e3af	-0.09809052
53	0x3e160695	0.14650948
54	0xbd68db6a	-0.056849875
55	0x3d143fcf	0.036193665
56	0x3d8cfb7b	0.068839036
57	0xbda28534	-0.07935563
58	0x3d436932	0.047707744
59	0xbd74534b	-0.059649747
60	0xbdf8450a	-0.12122543
61	0xbd34dfe3	-0.044158828
62	0xbd6af315	-0.057360727
63	0xbd9401b1	-0.07226885
64	0x3d271293	0.040789198
65	0xbd136a52	-0.035990067
66	0xbc18bb5d	-0.009322015
67	0x3d40abe5	0.04703893
68	0xbc19ca5b	-0.009386624
69	0x3baf003e	0.005340605
70	0xbd8beab9	-0.06831879
71	0x3d450dc1	0.04810882
72	0xbd4c37c2	-0.049857862
73	0xbd40f386	-0.047107242
74	0x3d5ba497	0.053623762
75	0x3da8f251	0.08249343
76	0x3e9de6ce	0.30840153
77	0xbddb85a4	-0.10718849
78	0x3e3cd994	0.18442374
79	0x3cac01b5	0.020996908
80	0xbc7ba9cd	-0.015360308
81	0x3cb6602f	0.02226266
82	0x3cd86f78	0.02642034
83	0xbd0c4da0	-0.034253716
84	0xbcb32fb0	-0.021873325
85	0xbcebc08e	-0.02877834
86	0xb9b4ed78	-0.00034509203
87	0x3c3e22f9	0.011605018
88	0xbbec5ce5	-0.0072132223
89	0xbc994c0e	-0.018713024
90	0x3ceb8b66	0.028752994
91	0xbd91bb73	-0.07115831
92	0x3d3cfe1a	0.046140768
93	0x3d4c1a4f	0.049829777
94	0xbc107bdc	-0.008818593
95	0xbd199817	-0.03749856
96	0x3b070922	0.0020604809
97	0x3d6aff32	0.05737228
98	0x3dba14a8	0.09085971
99	0xbbfa88e6	-0.007645714
100	0xbe8a23da	-0.26980478
101	0x3e345d72	0.17613772
102	0x3d39ad0c	0.045331046
103	0x3df20c61	0.11818767
104	0xbe25b9ff	-0.16184233
105	0xbcccc5cf	-0.024996666
106	0xbae5ac52	-0.0017522669
107	0xbafab7fa	-0.0019128316
108	0xbd80ef26	-0.06295614
109	0xbe3a520f	-0.18195365
110	0xbc8775b2	-0.016535614
111	0xbd395342	-0.045245416
112	0xbcbfd370	-0.023416251
113	0xbbaafd40	-0.005218178
114	0xbd9d1784	-0.07670501
115	0x3d3d2354	0.04617627
116	0x3cd85c95	0.026411334
117	0xbd83bbc0	-0.06432295
118	0xb894b248	-7.0903974e-05
119	0x3d6201a2	0.05517734
120	0x3c806b6e	0.015676226
121	0xbba6e273	-0.005092913
122	0xbd0be05f	-0.034149524
123	0x3db0ee90	0.08639252
124	0x3c8e01e2	0.017334882
125	0x3dfbc66f	0.122937076
126	0x3e379f4a	0.17931858
127	0x3c6299a8	0.01383058
128	0x3e2915f9	0.16512288
129	0x3dbbc8fc	0.09169194
130	0x3cd2543e	0.025674935
131	0xbc8bfaca	-0.017087359
132	0xbbdbda9b	-0.0067094094
133	0x3cae5f0d	0.021285558
134	0x3dc8e51f	0.098093264
135	0x3d9a9027	0.07547026
136	0x3d35ae47	0.044355657
137	0xbd0c6c2a	-0.03428284
138	0xbc84143d	-0.016122932
139	0xbd9534b3	-0.07285442
140	0x3d1f9d3a	0.038968302
141	0x3cdaf8d3	0.026729977
142	0xbcdfc80c	-0.02731707
143	0xbd4096f4	-0.04701896
144	0xbd9b4256	-0.07581012
145	0x3cd77dd1	0.026305111
146	0xbc590d66	-0.013247823
147	0xbcc744f7	-0.024324877
148	0x3d6b7bd0	0.057491124
149	0xbd014cd6	-0.031567417
150	0x3d40eaa8	0.047098786
151	0x3e3bbd13	0.18333845
152	0xbcf65091	-0.030067714
153	0x3ebff453	0.37491092
154	0x3b569ea6	0.003274837
155	0x3cdd3806	0.027004253
156	0xbd29b831	-0.041435424
157	0xbd12fd4a	-0.035886087
158	0x3d9e415b	0.07727309
159	0x3dca1e3e	0.098690495
160	0x3da1d8f3	0.07902708
161	0x3d463c41	0.048397306
162	0x3d25206f	0.040314134
163	0x3da0f019	0.07858295
164	0x3d374e97	0.044752683
165	0xbd8d2278	-0.0689134
166	0xbd3a3178	-0.045457333
167	0x3d33e858	0.043922752
168	0xbd70be31	-0.05877513
169	0x3cc92b79	0.024556862
170	0xbd130676	-0.035894834
171	0xbda80bde	-0.082053885
172	0xbc6a4614	-0.0142989345
173	0x3d68d90e	0.056847624
174	0x3c1d3156	0.009594282
175	0x3e34e4e6	0.17665443
176	0x3dbfe418	0.09369677
177	0xbde7fd3b	-0.11327597
178	0x3f01c698	0.50693655
179	0x3d1184b3	0.035526942
180	0x3da7f2c6	0.08200602
181	0xbb29679f	-0.0025849117
182	0x3d18a132	0.037263103
183	0xbcc84f27	-0.024451805
184	0x3db0d871	0.08635033
185	0x3d27075f	0.040778514
186	0x3cc2f9df	0.023800788
187	0x3c465804	0.0121059455
188	0xbcb93660	-0.022608936
189	0x3c942343	0.01808322
190	0xbca4dde3	-0.020125335
191	0xbdc48695	-0.09595982
192	0xbd0ad62e	-0.033895664
193	0xbd40ba69	-0.047052775
194	0xbd4f144c	-0.050556466
195	0xbdb04a21	-0.08607889
196	0xbdbcc1d4	-0.09216657
197	0xbd9484d3	-0.07251897
198	0x3c8963d0	0.016771227
199	0xbc208a78	-0.0097986385
200	0x3e1a3816	0.15060458
201	0x3e863cbe	0.26218218
202	0xbe6113ae	-0.21980163
203	0x3e3b58b7	0.18295561
204	0x3d3a704d	0.045517255
205	0xbd201418	-0.039081663
206	0x3c1f645b	0.009728516
207	0xbc834682	-0.016024832
208	0x3d0ea42c	0.034824535
209	0x3d2ecd5e	0.042676322
210	0xbd0bc7ee	-0.034126215
211	0xbb62566e	-0.003453638
212	0xbd13ef4c	-0.036116883
213	0xbc0b1d71	-0.008490906
214	0x3bb7fc7c	0.0056148153
215	0xbd416357	-0.04721388
216	0x3d1fc643	0.039007436
217	0xbd591ca1	-0.05300582
218	0xbd3afed2	-0.04565317
219	0xbce1f5f0	-0.027583092
220	0x3b8e8121	0.0043488895
221	0x3bd68517	0.0065466273
222	0xbd29f6c0	-0.041495085
223	0xbb800fb8	-0.003908124
224	0x3d1befb7	0.038070407
225	0xbbec6249	-0.007213865
226	0x3e2e5421	0.1702428
227	0xbcb515e3	-0.022105163
228	0x3ecd7b21	0.40133002
229	0x3da88e04	0.08230212
230	0x3d47abcb	0.04874782
231	0x3c4cec15	0.012507458
232	0xbce22645	-0.027606139
233	0x3c0c805b	0.008575524
234	0x3dbdbb12	0.092641965
235	0x3d67520a	0.056474723
236	0x39375865	0.0001748517
237	0xbcf965a5	-0.030443976
238	0x3bb3453c	0.0054709
239	0xbc08a726	-0.008340633
240	0x3c9a901d	0.018867547
241	0xbd831b49	-0.064016886
242	0x3d5663cd	0.05234127
243	0xbc7ff4fd	-0.015622375
244	0xbd79cf5d	-0.060988773
245	0xbd79c27c	-0.06097649
246	0x3cbfac11	0.023397477
247	0x3d243a2f	0.04009455
248	0x3da3d440	0.07999468
249	0xbd16705c	-0.036728248
250	0xbe0dd958	-0.13852441
251	0x3bf6d1fc	0.0075323563
252	0x3d6d6e1c	0.057966337
253	0x3da5182e	0.080612525
254	0x3d08e8d2	0.03342516
255	0x3d964326	0.07337026

layer1.bias f4 [128]
0	0xbdc0a0c7	-0.09405666
1	0x3e1f7a20	0.1557393
2	0x3e0224ab	0.127093
3	0x3de7dcc0	0.113214016
4	0x3e0a533f	0.13508318
5	0x3d05673a	0.032569148
6	0x3e07bfc5	0.13256748
7	0x3dbec44f	0.09314787
8	0x3de142e6	0.10999088
9	0x3e206a6b	0.15665595
10	0x3dbcfe93	0.09228244
11	0x3db3dcf6	0.08782379
12	0xbac7ebf9	-0.001525282
13	0x3e0ff8d3	0.14059763
14	0x3dd8bed4	0.105832726
15	0x3d12b18e	0.03581386
16	0xbdaefe6e	-0.08544622
17	0x3d18532c	0.037188694
18	0x3dfc348e	0.123147115
19	0x3c15983f	0.009130537
20	0x3d402e0e	0.04691892
21	0xbdabb6dc	-0.08384487
22	0x3e3ddb2f	0.18540643
23	0x3d4541bd	0.048158396
24	0xbdc106f4	-0.09425154
25	0xbd437c6e	-0.047726087
26	0x3d273d68	0.040830046
27	0x3dce8d82	0.10085584
28	0xbdbe02ac	-0.09277853
29	0x3db07526	0.08616094
30	0xbdd386b5	-0.10328428
31	0x3cc212f2	0.023690674
32	0x3dc329bc	0.095294446
33	0xbdbc3576	-0.09189884
34	0x3bd223f9	0.0064129797
35	0xbcc14803	-0.023593908
36	0x3da533ef	0.08066546
37	0xbd9d217e	-0.07672404
38	0x3b916cef	0.0044380347
39	0x3e396cb6	0.18107876
40	0x3dbc61bb	0.09198328
41	0xbd36927e	-0.0445733
42	0x3e1ccb66	0.15311965
43	0xbcc5cc10	-0.024145156
44	0x3d2192d4	0.039446667
45	0x3c8f5de1	0.01750082
46	0x3d893db5	0.06701223
47	0x3db76a4c	0.089558214
48	0x3cdb88fa	0.026798714
49	0xbde38703	-0.11109736
50	0x3c5edd9a	0.013602639
51	0x3dae3684	0.08506492
52	0x3c9c3e2c	0.019072615
53	0xbbc140d2	-0.0058976198
54	0x3d7953f6	0.060871087
55	0x3e07a329	0.13245834
56	0xbdb0093a	-0.0859551
57	0x3dbc98d2	0.09208836
58	0xbdb0a4c6	-0.08625178
59	0x3d9ab619	0.075542636
60	0x3dc4833c	0.095953435
61	0xbdb94e75	-0.090481676
62	0x3d316612	0.043310232
63	0x3d884e5b	0.0665557
64	0x3dd2364e	0.10264264
65	0x3db33efb	0.08752247
66	0x3d3cce2b	0.046095055
67	0xbcfc099a	-0.030766297
68	0x3db9ecb9	0.090783544
69	0x3dbb40bb	0.09143206
70	0x3e2607f8	0.16213977
71	0xbe157e4e	-0.14598963
72	0x3d00bc3e	0.03142952
73	0x3d8efdc6	0.06981997
74	0xbd3b6bf6	-0.045757256
75	0x3df2619e	0.11835025
76	0x3de68b85	0.1125708
77	0xbdb7151b	-0.089395724
78	0x3e20679d	0.15664525
79	0xbdac23de	-0.084052786
80	0x3ca1f8c5	0.019771943
81	0x3dbe8daa	0.09304364
82	0xbddba3fa	-0.107246354
83	0x3c0156a5	0.007894193
84	0x3e29ae4f	0.165704
85	0x3df0683f	0.11738633
86	0x3ccd0046	0.025024544
87	0x3cb722f3	0.022355532
88	0x3dc9dd42	0.09856655
89	0x3e3fba57	0.18723427
90	0xbd66b073	-0.05632062
91	0xbd5d3043	-0.054001104
92	0x3dbeab65	0.09310035
93	0x3de6424d	0.112431146
94	0x3d550c32	0.052013583
95	0x3e493e26	0.19652614
96	0xbd25cce9	-0.04047862
97	0x3e32d45a	0.17463818
98	0x3da8718e	0.08224784
99	0x3c85e005	0.016342172
100	0x3e17c488	0.14821064
101	0xbd465074	-0.04841657
102	0xbe15770f	-0.14596198
103	0x3c0fb8b2	0.008772062
104	0xbbe0cc10	-0.0068602636
105	0x3dbf4a93	0.09340396
106	0xbc9ef87d	-0.019405598
107	0xbd39c2d2	-0.04535181
108	0x3e1bf257	0.15229164
109	0x3d8247da	0.06361361
110	0x3bbdca77	0.005791958
111	0x3e25e8c8	0.1620208
112	0xbd97c916	-0.07411401
113	0x3dc60bf3	0.09670248
114	0x3dfbd537	0.12296527
115	0xbdb0c81e	-0.08631919
116	0xbb6696a2	-0.0035185
117	0x3d99ec62	0.075157896
118	0x3d8c96b7	0.06864684
119	0x3e034a23	0.1282125
120	0x3dbd70ca	0.092500284
121	0x3e22dfe3	0.15905719
122	0x3e40587f	0.18783759
123	0x3d2f024e	0.042726807
124	0x3e6d1a04	0.23154455
125	0x3e0d49a8	0.13797629
126	0x3dc3c063	0.09558179
127	0x3d9cc0f5	0.07653991

layer2.weight f4 [128, 128]
0	0xbd90d046	-0.07070975
1	0x3d41f9fd	0.047357548
2	0x3ca35f98	0.019943044
3	0x3c313e22	0.010818036
4	0xbcc9a40d	-0.024614358
5	0x3cbefee8	0.023314908
6	0x3c8a3869	0.016872602
7	0x3dade53c	0.084909886
8	0x3d1142d0	0.035464108
9	0x3cbe76f5	0.023250083
10	0xbd1f259a	-0.03885422
11	0x3c3cc37d	0.011521217
12	0x3d16088e	0.036629252
13	0x3c9aeb6a	0.018911082
14	0x3a62d85d	0.00086534565
15	0x3c8db68d	0.017298961
16	0xbd0db2b3	-0.03459425
17	0xbd02550a	-0.03181938
18	0xbb0dd056	-0.002163907
19	0xbb833ff7	-0.004005428
20	0x3cba43f9	0.02273749
21	0xbb80088b	-0.0039072684
22	0x3becd940	0.0072280467
23	0xbc9e2399	-0.019304084
24	0xbd2631b6	-0.04057475
25	0xbc85d38a	-0.016336221
26	0x3cbe41c8	0.023224726
27	0x3c6432fe	0.013928173
28	0xbcb278b1	-0.021786066
29	0xba16e996	-0.0005756853
30	0xbccecd9c	-0.025244527
31	0x3b5b857b	0.0033496309
32	0x3d0db0f5	0.034592588
33	0x3b42cd21	0.0029724317
34	0x3c9805d6	0.01855747
35	0x3ca85cec	0.020552121
36	0x3d21f833	0.03954334
37	0xbccd1343	-0.025033599
38	0xbb1293db	-0.002236596
39	0x3d2896b5	0.04115935
40	0x3bdcf77b	0.006743369
41	0xbc4257f0	-0.011861786
42	0x3d688ab5	0.056772906
43	0xbd39213b	-0.045197707
44	0xbc1af04f	-0.009456708
45	0xbc7b2a62	-0.015329929
46	0x3bbb67c4	0.005719157
47	0xbc3eca71	-0.0116449455
48	0x3bb179b1	0.005416118
49	0xbbbf5647	-0.0058391425
50	0x3dbd3c5f	0.092400305
51	0xbc5fe722	-0.013665946
52	0xbcb9bfff	-0.022674559
53	0x3d1779d8	0.036981434
54	0x3aef5e84	0.0018262421
55	0x3ca5f238	0.0202571
56	0xbd883e56	-0.06652515
57	0xbc79d18f	-0.015247717
58	0xbcb7bf15	-0.022429982
59	0x3cbef327	0.023309303
60	0x3d9ec303	0.07752039
61	0xbd245e53	-0.040129017
62	0x3d4b512f	0.04963797
63	0x3ae029ab	0.0017102262
64	0x3c656754	0.014001686
65	0x3cb6aa70	0.022298068
66	0xbb79fa93	-0.0038143739
67	0xbd010b44	-0.031504884
68	0xbc97abd4	-0.018514551
69	0x3c0b107d	0.008487818
70	0xbc9190bb	-0.017769208
71	0xbdb61180	-0.088900566
72	0x3cf387bc	0.02972781
73	0x3bb1b8f4	0.0054236595
74	0xbcbe7d49	-0.0232531
75	0x3ccee7d6	0.025257032
76	0x3cb782c9	0.02240123
77	0xbc7f23b8	-0.015572481
78	0x3c67c8c9	0.014146992
79	0xbc86ca15	-0.016453782
80	0xbc479225	-0.01218084
81	0x3c4a114f	0.012333228
82	0xba34e53f	-0.00069006154
83	0xbb6e361b	-0.0036348167
84	0x3cfc1c47	0.030775202
85	0x3d023bbe	0.031795256
86	0x3d097a4b	0.033563893
87	0x3d1dd58a	0.038533725
88	0x3d7b7e9c	0.06140004
89	0x3d134583	0.035954963
90	0xbd0c6267	-0.03427353
91	0xbda6d975	-0.081469454
92	0x3bf3d53b	0.0074411905
93	0x3d40e506	0.047093414
94	0xbd29a5b5	-0.041417796
95	0x3ce16dee	0.027518239
96	0x3d154ac7	0.036448266
97	0xbcae6a12	-0.021290813
98	0x3c3a855e	0.011384336
99	0x3b2c418f	0.0026284193
100	0x3d09effb	0.03367613
101	0xbd8b8d82	-0.068141
102	0xbeaf054b	-0.34183726
103	0xbcfd60c9	-0.03092994
104	0x3b055397	0.0020344013
105	0xbcaab046	-0.020836007
106	0x3ca6e88f	0.020374564
107	0xbcaa0c94	-0.02075795
108	0x3c97d3c1	0.01853359
109	0x3d3bb203	0.045824062
110	0x3cb34a71	0.021886082
111	0x3d02db4a	0.03194741
112	0x3979e4b6	0.00023831692
113	0x3d2532be	0.040331595
114	0xbcca7d75	-0.024718026
115	0xbdb615be	-0.08890866
116	0x3d0b7212	0.034044333
117	0x3d3645b8	0.044500083
118	0xbcba731e	-0.02275997
119	0xbc39b3c1	-0.011334361
120	0x3c49f4d1	0.012326435
121	0xbb364d4c	-0.0027817069
122	0xba32590a	-0.0006803429
123	0xbc4c64b3	-0.01247518
124	0x3bbf431c	0.0058368575
125	0x3cf643b8	0.030061588
126	0x3c4b0ce8	0.012393214
127	0xbd14c277	-0.03631827
128	0xbc8ac3d9	-0.01693909
129	0x3caef5fb	0.021357527
130	0x3c91558c	0.017740987
131	0x3c81bce8	0.015837148
132	0x3caec481	0.021333935
133	0x3d24dcc7	0.040249612
134	0x3caedbc9	0.021345036
135	0x3d401cdd	0.046902526
136	0x3b4a10ae	0.0030832696
137	0x3ce8a244	0.028397687
138	0x3cbe588e	0.023235586
139	0x38f54b20	0.000116965035
140	0x3c3865b3	0.011254716
141	0x3e01cdd3	0.12676172
142	0x3cb0dac7	0.021588696
143	0x3cc212f0	0.02369067
144	0x3cdc2256	0.026871841
145	0x3d249ed1	0.04019052
146	0xbbfcbb6e	-0.007712773
147	0x3cc00596	0.023440164
148	0x3ca8a888	0.020588174
149	0x3c7fc835	0.015611698
150	0x3d1a762c	0.037710354
151	0x3d3f009a	0.046631433
152	0xbd22c6b0	-0.039740264
153	0xbbda11d1	-0.006654956
154	0xbc0e87e2	-0.008699389
155	0x3c8ce45f	0.01719874
156	0xbced71e1	-0.028984966
157	0xb9db44b7	-0.00041822132
158	0xb91f344a	-0.00015182901
159	0x3cff3d1c	0.031157069
160	0x3cc1b95a	0.023647953
161	0x3cb4a635	0.02205191
162	0x3b5628e8	0.003267819
163	0x3c422d9b	0.0118516935
164	0x3cfbba2b	0.03072842
165	0xbbbaa9be	-0.0056965044
166	0x3d2ca257	0.042147007
167	0x3d1a4b1b	0.037669282
168	0x3dd958ee	0.10612665
169	0xbc4aafc7	-0.01237101
170	0x3bfd6951	0.007733502
171	0xbe8bd0ee	-0.27307838
172	0x3d2ad347	0.041705396
173	0xbce315d9	-0.027720379
174	0x3adeb4ed	0.0016991176
175	0x3cd6999e	0.026196297
176	0xbc822406	-0.015886318
177	0xbd402734	-0.046912387
178	0xbb48b30f	-0.0030624305
179	0x3c990ac3	0.01868189
180	0xbc2b8475	-0.010468592
181	0x3c061beb	0.008185367
182	0xbc1d88bc	-0.00961512
183	0x3cf71d7d	0.030165428
184	0xbd0665dd	-0.03281199
185	0x3cbdc645	0.023165831
186	0x3c996173	0.018723225
187	0x3ca223f5	0.019792536
188	0xbb497778	-0.0030741375
189	0xbcb2dc84	-0.021833666
190	0xbd042704	-0.03226377
191	0x3ce33474	0.027734973
192	0x3d328717	0.043585863
193	0xbbba2a4d	-0.005681312
194	0x3d379a4c	0.044824883
195	0x3cf4b4fb	0.029871454
196	0xbc385f99	-0.011253261
197	0x3ac8a786	0.0015308715
198	0xbbbd278e	-0.0057725376
199	0xbd213092	-0.03935296
200	0xbd1f0a15	-0.038827974
201	0xbcb9bcd6	-0.022673052
202	0xbdbb65bd	-0.091502644
203	0x3d9d5b4e	0.076834306
204	0xba81e49d	-0.0009910051
205	0xbd54823a	-0.051882006
206	0x3c6ca054	0.014442522
207	0x3b7baa45	0.003840105
208	0xb98e6644	-0.00027160544
209	0xbc648ab3	-0.013949084
210	0xbd2281c5	-0.03967454
211	0xbdbf807c	-0.09350678
212	0x3c0ef213	0.008724707
213	0x3d4970f1	0.049179975
214	0x3cdf5e37	0.027266605
215	0xbbfefa27	-0.0077812853
216	0x3c97da6a	0.018536765
217	0xbc548345	-0.01297075
218	0x3c3e045d	0.01159772
219	0xbbbc0192	-0.005737492
220	0xbbbb218b	-0.0057107857
221	0x3cb03e99	0.021514224
222	0x3b970c1f	0.0046095992
223	0x3d366ed2	0.04453928
224	0xbc677f76	-0.01412951
225	0xbb79f57b	-0.0038140703
226	0x3c3fdb06	0.011709934
227	0x3c8018d4	0.015636839
228	0x3cbfe0a9	0.023422556
229	0x3cbbade9	0.022910075
230	0xbaab94d2	-0.0013090617
231	0x3c96a6f7	0.018390162
232	0x3cc7b89b	0.024380019
233	0x3cbade0e	0.022810962
234	0xbc4883e6	-0.012238478
235	0x3d8b7d97	0.06811064
236	0x3d25a4e6	0.040440463
237	0x3d129204	0.035783783
238	0xbc4f1c37	-0.012641004
239	0xbb116647	-0.0022186206
240	0x3c7261ef	0.014793857
241	0xbc15442d	-0.009110493
242	0x3d0517cd	0.0324934
243	0x3c209ef0	0.009803519
244	0xbd33c244	-0.043886438
245	0x3d0f01be	0.03491377
246	0x3d1448cc	0.036202237
247	0x3d0b4095	0.033997137
248	0x3c23ba38	0.0099931285
249	0x3d26f4c9	0.04076079
250	0x3c43c0c0	0.011947811
251	0xbc938f9c	-0.018012814
252	0x3d6f4930	0.058419406
253	0xbc078cd5	-0.008273323
254	0x3d27df87	0.040984657
255	0x3b9008c7	0.0043955776

layer2.bias f4 [128]
0	0x3cfaedb0	0.030630916
1	0x3d1b2808	0.037879974
2	0x3c840d72	0.016119692
3	0x3bbe7d25	0.0058132582
4	0x3a80412f	0.0009785051
5	0x3c8a98bf	0.016918538
6	0x3d33998e	0.043847613
7	0x3d112496	0.03543528
8	0xbc1843a8	-0.009293474
9	0xbc7876e4	-0.0151650645
10	0x3d01ba0f	0.03167158
11	0x3d4a3e1e	0.049375646
12	0xbca718cc	-0.020397566
13	0x3ca132b9	0.019677507
14	0x3d7c1111	0.061539713
15	0xbc1e156a	-0.00964866
16	0x3d1dfd26	0.0385715
17	0x3ca2d50b	0.019876977
18	0x3d01ea9f	0.031717893
19	0xb8b1fc6a	-8.4870335e-05
20	0x3d48538c	0.0489078
21	0x3e455d75	0.19273932
22	0x3c9c1d93	0.01905707
23	0x3d37c317	0.044863787
24	0x3c5541de	0.013016192
25	0xbcb6b9e9	-0.022305446
26	0x3d44bfbf	0.048034426
27	0xbd934376	-0.071906015
28	0xbc265fec	-0.0101547055
29	0x3c899fe4	0.016799875
30	0x3ce7afaf	0.028282015
31	0x3d094444	0.03351237
32	0x3d8923a3	0.0669625
33	0x3d10274d	0.03519373
34	0x3c59ce30	0.013293788
35	0xbca27dee	-0.019835439
36	0xbc79603f	-0.015220701
37	0x3c85e05e	0.016342338
38	0xbc300295	-0.010742803
39	0xbc654769	-0.013994076
40	0xb917c7a3	-0.00014474853
41	0xbb0f339a	-0.0021850825
42	0x3c5586a6	0.013032591
43	0xbcbbaa2c	-0.022908293
44	0xbc90958f	-0.01764944
45	0x3951bd54	0.00020002323
46	0xbcd4e9c0	-0.025990367
47	0x3ce09b05	0.02741767
48	0xbb8a63ed	-0.004223338
49	0x399e20d6	0.00030160573
50	0xbc1ce919	-0.009577059
51	0x3c44194b	0.011968921
52	0x3c895ace	0.016766932
53	0x3c91b8bb	0.017788282
54	0xbbb8bf0f	-0.0056380103
55	0x3c766eec	0.015041094
56	0xbb958166	-0.0045625446
57	0x3ca240ce	0.019806292
58	0x3d6fe602	0.058568962
59	0xbbfd93a6	-0.0077385483
60	0x3d012aaf	0.031534847
61	0x3d3ae995	0.045632917
62	0xbd2febf6	-0.04294964
63	0xbc4e56ab	-0.012593905
64	0x383287a0	4.2564818e-05
65	0x3b440a9b	0.0029913548
66	0xbb136a92	-0.002249394
67	0x3da125a7	0.0786851
68	0xbbb7e467	-0.0056119445
69	0x3c569208	0.01309634
70	0xbbcc4bb2	-0.0062346095
71	0x3d5a834f	0.053347882
72	0x3ca71c9f	0.02039939
73	0x3d254f38	0.040358752
74	0x3cf7c463	0.030245012
75	0xbc99c1ba	-0.018769134
76	0xbb3a8d67	-0.002846563
77	0xbb490c08	-0.0030677337
78	0x3ca2b3ea	0.01986118
79	0x3ca12d95	0.019675056
80	0xbc0a37ce	-0.008436156
81	0x3ccd36d7	0.025050564
82	0x3cb4edc7	0.022086037
83	0xbc8118f3	-0.015758967
84	0xbcdb229d	-0.026749903
85	0xbcb0d7e3	-0.021587318
86	0x3e3f779c	0.18697971
87	0x3d5295a1	0.05141223
88	0x3c609c0b	0.013709079
89	0xbc512d94	-0.012767214
90	0xbcd79cf1	-0.026319953
91	0x3d29dc81	0.041470055
92	0xbca3d5e9	-0.019999461
93	0x3d340cd6	0.043957554
94	0x3c42a5fc	0.011880394
95	0x3d68a48c	0.05679755
96	0x3d2fc5df	0.042913314
97	0x3d3fc258	0.0468162
98	0x3cd859e1	0.026410045
99	0x3d21d0f4	0.039505914
100	0x3b337d36	0.0027387864
101	0x3d300c9e	0.042980783
102	0x3c59f84c	0.0133038275
103	0x3caf8bc9	0.02142896
104	0x3c0dfd10	0.008666292
105	0x3c9cead7	0.01915495
106	0xbb78b97d	-0.0037952357
107	0xbc9bf2cb	-0.019036671
108	0x3cf7cd76	0.030249339
109	0x3caae628	0.0208617
110	0x3c03774f	0.008024051
111	0xbd045b78	-0.032313794
112	0x3cb6fbb8	0.022336826
113	0x3c85e634	0.016345121
114	0x3cafe75e	0.02147263
115	0x3d7fb7ce	0.06243115
116	0x3cc12a4c	0.023579739
117	0xbcea9616	-0.02863602
118	0xbc83d57f	-0.016093014
119	0xbcab0140	-0.02087462
120	0x3c0f5ddd	0.008750406
121	0x3c824753	0.01590315
122	0x3beecf79	0.0072879163
123	0x3d8d7caf	0.06908547
124	0x3d2ceef2	0.042220064
125	0x3cf6a788	0.030109182
126	0x3d579862	0.052635558
127	0x3cc25e82	0.023726705

layer3.weight f4 [24, 128]
0	0xbcaf4279	-0.021394001
1	0xbd3ff4dc	-0.046864375
2	0xbd91bb10	-0.071157575
3	0xbd35d602	-0.044393547
4	0x3d11849b	0.035526853
5	0x3db2a29c	0.087224215
6	0xbe824be9	-0.2544854
7	0xbdb05f37	-0.08611911
8	0x3dbfebdf	0.09371161
9	0x39a0deaa	0.00030683476
10	0xbdaba608	-0.08381277
11	0xbda4bc81	-0.08043767
12	0x3dbff43b	0.09372755
13	0xbd954306	-0.07288174
14	0xbd80f761	-0.06297184
15	0x3c61dab9	0.013785058
16	0xbdc0dbfd	-0.094169594
17	0xbc8453e9	-0.016153293
18	0xbd3c3e61	-0.045957927
19	0x3e3fdd72	0.18736818
20	0xbe22a2fd	-0.15882488
21	0xbeb09a1d	-0.3449258
22	0xbd2f079f	-0.042731877
23	0xbd7d7d03	-0.0618868
24	0xbd3e5630	-0.046468914
25	0x3dbfc06b	0.09362873
26	0xbd783197	-0.060594168
27	0xbf3d4958	-0.7394004
28	0xbcb9d4bf	-0.022684453
29	0x3d343953	0.04399998
30	0x3e71ef16	0.2362636
31	0xbd94eb16	-0.072714016
32	0xbda0117e	-0.07815836
33	0xbe147eca	-0.14501491
34	0x3d874f57	0.0660693
35	0xbcf9dda3	-0.030501192
36	0x3e337934	0.17526704
37	0xbd5d6079	-0.05404708
38	0xbc825009	-0.015907304
39	0x3f1004b8	0.562572
40	0xbdbd9f62	-0.092589155
41	0xbd8accd4	-0.06777349
42	0x3d81a771	0.06330765
43	0xbcbbe34e	-0.022935536
44	0x3d3d9284	0.046282306
45	0x3e074f9a	0.1321396
46	0x3d59499c	0.053048715
47	0xbd0acc68	-0.033886343
48	0xbc715db3	-0.014731812
49	0x3db40642	0.08790256
50	0x3daef871	0.0854348
51	0x3c89ebc8	0.016836062
52	0xbcd39360	-0.02582711
53	0xbda70260	-0.0815475
54	0x3e674906	0.2258645
55	0xbdbaaa16	-0.091144726
56	0x3dac11a2	0.08401801
57	0xbd41cdb2	-0.047315307
58	0xbdaad4d8	-0.08341378
59	0x3e1adec6	0.15124044
60	0xbd6fc39e	-0.058536164
61	0xbd8dffbd	-0.06933544
62	0x3f17e97d	0.5934065
63	0x3e217715	0.15768082
64	0x3db8c0d1	0.09021152
65	0x3bc87650	0.0061176196
66	0x3db72b0f	0.0894376
67	0xbeb8e460	-0.36111736
68	0xbde23674	-0.11045542
69	0x3e17f461	0.14839317
70	0x3dbc8ffc	0.0920715
71	0xbdb001dc	-0.08594105
72	0xbdaa6378	-0.083197534
73	0xbd3b4eef	-0.045729574
74	0xbddfe618	-0.10932559
75	0x3d08d32a	0.033404507
76	0xbd3fb367	-0.04680195
77	0x3de9ce43	0.114162944
78	0xbc5265c3	-0.012841645
79	0x3e1edba2	0.15513471
80	0x3d94d482	0.07267095
81	0x3d3e6202	0.046480186
82	0xbcbffe49	-0.023436682
83	0x3da0902c	0.078399986
84	0x3db29e05	0.08721546
85	0x3e8a7906	0.2704546
86	0xbf023630	-0.50863934
87	0xbd93cbba	-0.07216592
88	0xbda83dba	-0.082148984
89	0x3d8b26d5	0.06794516
90	0x3d5e6c4f	0.05430251
91	0xbd8be44a	-0.06830652
92	0x3bce57c8	0.0062970854
93	0xbc40bd96	-0.011763951
94	0x3e2ca5b1	0.16860081
95	0xbdaa567d	-0.083172776
96	0xbe1d09e8	-0.1533581
97	0xbe3da755	-0.18520863
98	0xbe35814a	-0.17725101
99	0xbd545673	-0.051840257
100	0x3e15d4d6	0.14631972
101	0xbd2efef1	-0.0427236
102	0x3db64669	0.089001484
103	0x3db75730	0.089521766
104	0x3b9e6c7c	0.0048347097
105	0xbdbe1197	-0.09280699
106	0xbcbf4f29	-0.023353176
107	0x3e229df6	0.1588057
108	0x3d62b37a	0.055346943
109	0x3ca442ad	0.020051325
110	0xbcad6a84	-0.021168955
111	0x3db0ad96	0.08626859
112	0xbd17751b	-0.036976915
113	0x3e18c631	0.14919354
114	0x3cbc91ee	0.023018803
115	0xbdbf1c75	-0.093315996
116	0xbdb05000	-0.08609009
117	0xbc26c624	-0.010179076
118	0x3e53dd80	0.20689964
119	0x3dbd154b	0.09232577
120	0xbcb457e3	-0.022014564
121	0xbe0d24b4	-0.13783532
122	0xbd70bed8	-0.058775753
123	0xbda9fa9c	-0.08299753
124	0xbec14aa4	-0.3775226
125	0xbdbb3ad0	-0.09142077
126	0xbe188742	-0.14895347
127	0x3dcbd64b	0.099529825
128	0xbd7eca81	-0.06220484
129	0xbca23f97	-0.019805713
130	0xbd31df6a	-0.043425955
131	0xbd8eab66	-0.069662854
132	0xbc2d42b3	-0.010574984
133	0x3d8a9190	0.06766045
134	0xbdcda054	-0.10040346
135	0xbd367ab4	-0.044550613
136	0x3e62d603	0.22151951
137	0xbd09d247	-0.0336478
138	0xbd3be54f	-0.045872983
139	0xbd002718	-0.031287283
140	0x3e0214a3	0.12703185
141	0xbc3516df	-0.011052816
142	0xbdad7278	-0.08469099
143	0xbdba2683	-0.09089377
144	0xbddde67c	-0.10834977
145	0x3cdfb49d	0.027307803
146	0xbc8d21e9	-0.017228084
147	0x3e95d30c	0.29262578
148	0xbe3fef15	-0.18743546
149	0xbe9ca1f9	-0.30592325
150	0xbc7c7870	-0.015409574
151	0xbd38babe	-0.045099966
152	0xbd1656d0	-0.036703885
153	0x3dbf4d2e	0.09340893
154	0xbd3238a1	-0.043511037
155	0xbf1b8d3b	-0.60762376
156	0xbc3282aa	-0.010895411
157	0x3dde3410	0.10849774
158	0x3e9d654f	0.30741355
159	0xbdbdca0a	-0.092670515
160	0xbcbde20b	-0.023179075
161	0xbd402528	-0.046910435
162	0x3d11f1b7	0.035630908
163	0x3c9ded2b	0.01927813
164	0x3e30f70d	0.17281742
165	0xbd9a82b7	-0.07544463
166	0x3cbfcdfd	0.023413653
167	0x3f0b6040	0.5444374
168	0xbdbf7f7e	-0.09350489
169	0xbda67d26	-0.08129339
170	0x3cd7cfdc	0.026344232
171	0x3cb8a6c6	0.022540461
172	0x3c8894b5	0.016672472
173	0x3e4150bd	0.18878455
174	0x3d09adaa	0.033612885
175	0x3b9f193b	0.0048553026
176	0xbcb93e56	-0.022612732
177	0x3d3ff39d	0.046863187
178	0x3e0b4bb4	0.13603097
179	0xbc8652e1	-0.016396942
180	0xbcda1eec	-0.026626073
181	0xbd73e586	-0.059545062
182	0x3e2a6b7d	0.16642566
183	0xbdbbd5fe	-0.09171675
184	0x3e0e3e17	0.13890873
185	0xbd9f68bc	-0.07783648
186	0xbd2b8c8f	-0.041882094
187	0x3dc71899	0.097214885
188	0xbd229401	-0.03969193
189	0xbd65f3e5	-0.0561408
190	0x3f275168	0.6535859
191	0x3d8decab	0.069299065
192	0x3d911df0	0.07085788
193	0x3c79bdcd	0.015243006
194	0x3db1217a	0.08648963
195	0xbe890dfd	-0.26768485
196	0xbdc262c6	-0.09491496
197	0x3e3fd845	0.18734844
198	0x3d991d7c	0.07476327
199	0xbd8ecd02	-0.06972696
200	0xbd79b759	-0.06096587
201	0xbd464bcf	-0.04841214
202	0xbdbfd94d	-0.09367619
203	0x3ccbff66	0.024902057
204	0xbd0c31bd	-0.03422712
205	0x3dbd6acd	0.09248886
206	0xbdb8861d	-0.09009955
207	0x3e11c58d	0.14235516
208	0x3dd86271	0.10565651
209	0x3e01dc3d	0.1268167
210	0xbd53236d	-0.051547457
211	0x3d6c0e1a	0.057630636
212	0x3e009e3d	0.12560363
213	0x3e0bb861	0.13644554
214	0xbf1b90f8	-0.6076808
215	0xbd3bc731	-0.04584426
216	0xbd8cabec	-0.06868729
217	0x3c693b6a	0.014235357
218	0x3e8fb22f	0.2806563
219	0xbd6bf49a	-0.057606317
220	0xbbbf2904	-0.005833747
221	0xbd8595d8	-0.06522721
222	0x3e1bb21e	0.15204665
223	0xbd3db8f6	-0.04631897
224	0xbe092ee6	-0.13396797
225	0xbe437029	-0.19085754
226	0xbdbf1f3f	-0.093321316
227	0xbc404c45	-0.011736934
228	0x3eb3c650	0.35112238
229	0xbd6b9651	-0.0575164
230	0x3dd28c48	0.10280663
231	0x3d3fe8bf	0.046852823
232	0x3caaa606	0.02083112
233	0xbe08a24d	-0.13343163
234	0xbc3fbe75	-0.011703123
235	0x3d437ea4	0.047728196
236	0x3e3ffd0b	0.18748872
237	0x3ca70246	0.020386826
238	0x3b381ac6	0.002809213
239	0x3e09de4d	0.13463707
240	0xbd7a0e34	-0.0610487
241	0x3dbdbb85	0.09264282
242	0xbbb8e4ab	-0.0056424937
243	0xbddcec91	-0.10787309
244	0xbdbffbd3	-0.093742035
245	0x3c5ed552	0.013600664
246	0x3e09b97e	0.13449666
247	0x3e099b02	0.13438037
248	0x3a736f86	0.00092863326
249	0xbe754589	-0.23952307
250	0x3c63335a	0.013867224
251	0xbd3c1ba0	-0.045924783
252	0xbf110861	-0.5665341
253	0xbdbe2296	-0.092839405
254	0xbe5dc381	-0.2165661
255	0x3dce3ca0	0.10070157

layer3.bias f4 [24]
0	0xbcb33912	-0.0218778
1	0x3bf4c5a2	0.0074698487
2	0xbd1ffb9b	-0.03905831
3	0x3bd4747c	0.0064836126
4	0xbb7e58e2	-0.0038810303
5	0xbcd03778	-0.025417075
6	0xbcb0db47	-0.021588935
7	0xbce3a0d4	-0.02778665
8	0xbc7b84ac	-0.015351456
9	0xbcda1372	-0.0266206
10	0x3c9b2f0a	0.018943328
11	0xbc329972	-0.010900842
12	0x3c193331	0.009350584
13	0xbcecf5c2	-0.02892578
14	0x3c4a1e76	0.012336364
15	0xbcff1460	-0.031137645
16	0xbcaeda54	-0.021344341
17	0xbbc0a736	-0.005879308
18	0x3cad8c67	0.021185113
19	0x3b62449c	0.0034525758
20	0x3c8f3ee4	0.017486043
21	0xbcc3a77c	-0.023883574
22	0x3ca12874	0.01967261
23	0x3ba20808	0.004944805
