cartpole_v1_best_model.pth (torch, 72542 bytes, 6 tensors)

layer1.weight f4 [128, 4]
0	0x3e88d12f	0.26722094
1	0xbe58a736	-0.21157536
2	0xbddae0fe	-0.10687445
3	0x3e66cc5e	0.22538897
4	0xbeee4204	-0.4653474
5	0x3e988576	0.29789323
6	0xbdcf73be	-0.10129498
7	0x3e83721b	0.25672993
8	0x3d9a5f83	0.07537749
9	0xbd89b99e	-0.06724857
10	0x3e15a18d	0.14612408
11	0x3d02ba6a	0.03191606
12	0x3e3af23b	0.18256466
13	0xbe4778ae	-0.1947963
14	0xbd1546bd	-0.036444414
15	0xbd38534b	-0.04500131
16	0x3d995db2	0.07488574
17	0x39e5973f	0.0004379097
18	0x3ede7ac6	0.43453044
19	0x3e1ccafa	0.15311804
20	0xbe417fe2	-0.1889644
21	0xbe9c4c69	-0.30527046
22	0xbdb0ce45	-0.08633093
23	0xbe5956f6	-0.21224579
24	0xbe25833e	-0.16163346
25	0x3cbcdfb2	0.023055885
26	0x3e98b6ab	0.29826865
27	0x3e8b5c95	0.27219072
28	0xbef8fd31	-0.4863067
29	0x3e99cd68	0.30039525
30	0x3e1b57f6	0.15170273
31	0x3ef841f0	0.48487806
32	0x3ea71367	0.3263199
33	0xbeeb30e7	-0.45935747
34	0xbef3d0d8	-0.47620273
35	0xbe72e2f1	-0.23719384
36	0x3ee0bc0c	0.43893468
37	0xbdaa84f1	-0.08326138
38	0x3e5b0e09	0.21392073
39	0xbe6dddf0	-0.23229194
40	0x3f001d02	0.5004426
41	0xbe5a7c36	-0.21336445
42	0x3ec22f7f	0.37926862
43	0x3c19968d	0.009374273
44	0xbe86d3e5	-0.26333538
45	0x3e838d48	0.25693727
46	0xbe87da37	-0.26533672
47	0x3e168a71	0.14701249
48	0xbe13cd89	-0.14433874
49	0xbd60781e	-0.054802053
50	0xbef60c65	-0.4805633
51	0xbe740b99	-0.23832549
52	0x3e886fcf	0.26647803
53	0xbe0251b2	-0.12726477
54	0x3f00eea4	0.50364137
55	0x3ed0338f	0.40664336
56	0xbca25623	-0.019816464
57	0xbeadaf88	-0.33922982
58	0x3e9e91bc	0.30970562
59	0x3e251898	0.16122663
60	0xbe9fe8c3	-0.3123227
61	0x3ea69a97	0.32539818
62	0x3e9b9325	0.303857
63	0x3ee30d72	0.44346195
64	0xbe97a659	-0.296191
65	0xbdc75509	-0.09733016
66	0x3bae7fb7	0.0053252834
67	0x3db430b9	0.087983556
68	0xbec1d282	-0.37855917
69	0xbeb4db2f	-0.35323474
70	0x3e89aa67	0.2688782
71	0xbdf3edfc	-0.11910626
72	0x3e850a12	0.25984246
73	0x3d01d684	0.03169872
74	0x3e26c01d	0.16284223
75	0x3ddd4c9d	0.108056284
76	0x3e4b2a41	0.19840337
77	0x3e8480f2	0.25879627
78	0xbef2a272	-0.4738956
79	0x3e76a660	0.24086905
80	0xbeab0ed0	-0.3340974
81	0xbebea888	-0.37237954
82	0x3ccce600	0.025012016
83	0xbdb6c494	-0.08924213
84	0x3e98c2eb	0.2983621
85	0xbe9823fa	-0.29714948
86	0xbedff6ce	-0.43742985
87	0x3ebe8595	0.3721129
88	0xbd911568	-0.07084161
89	0x3e9d3a48	0.30708528
90	0x3e1be012	0.15222195
91	0xbecd3c35	-0.40084997
92	0x3dcda9a7	0.10042124
93	0x3df5e4f5	0.12006561
94	0xbeab5c13	-0.33468685
95	0xbe72dce5	-0.23717077
96	0x3e331f82	0.17492488
97	0x3d9cf199	0.076632686
98	0xbe4ba85f	-0.19888447
99	0xbe0ca33a	-0.13734141
100	0x3eea53cb	0.45767054
101	0xbdd99de7	-0.106258206
102	0x3e9721bb	0.29517922
103	0x3e6c2a09	0.2306291
104	0xbea895d9	-0.32926825
105	0xbedbf18e	-0.4295773
106	0x3ef7e4c5	0.48416725
107	0x3cf6dc03	0.030134207
108	0x3eb6681d	0.35626307
109	0x3ddd9a1d	0.108204104
110	0x3e20881b	0.1567692
111	0x3ebd52b7	0.3697717
112	0x3efd70d1	0.49500135
113	0xbea5052c	-0.32230508
114	0x3d59beea	0.053160585
115	0x3ebaae33	0.36461028
116	0x3eb5eade	0.35530752
117	0x3e9b1289	0.3028758
118	0xbebe4882	-0.37164694
119	0xbeb45f11	-0.3522878
120	0xbe969662	-0.29411608
121	0x3d91783c	0.07103011
122	0x3f00e27a	0.50345576
123	0xbea5e15a	-0.32398492
124	0x3e8decb9	0.27719668
125	0xbe8dff26	-0.27733725
126	0xbef545d2	-0.4790483
127	0xbdd70caa	-0.10500462
128	0x3e976940	0.29572487
129	0x3ef18e4a	0.4717887
130	0xbe9b7ae8	-0.30367208
131	0x3dce547e	0.10074709
132	0x3ee01420	0.43765354
133	0x3ea71d52	0.32639557
134	0x3ea2c09c	0.31787574
135	0x3eb8e8cc	0.3611511
136	0x3ea0ffc7	0.31445143
137	0x3e026ca9	0.12736763
138	0xbeaf6198	-0.34254146
139	0xbed60694	-0.41801894
140	0xbe6780a7	-0.2260767
141	0xbd851ee9	-0.06500036
142	0xbe98bf89	-0.2983363
143	0x3e432dd9	0.19060458
144	0x3e11ddab	0.14244716
145	0xbe0101c8	-0.12598336
146	0x3e515179	0.20441236
147	0x3e326082	0.17419627
148	0x3e9ff7c1	0.3124371
149	0x3eaa8366	0.33303374
150	0xbe28fe17	-0.16503178
151	0x3efc6ee7	0.49303362
152	0xbd392a0d	-0.04520612
153	0x3c4b6af4	0.012415636
154	0xbef759c3	-0.4831067
155	0xbeb4c5e1	-0.3530722
156	0xbe974993	-0.2954832
157	0xbe5e2c0b	-0.21696489
158	0x3eb8261d	0.35966578
159	0xbe2409d8	-0.1601938
160	0xbeb0ce30	-0.3453231
161	0x3e5c1aa0	0.21494532
162	0x3e0a88a9	0.13528694
163	0x3e9a43cb	0.30129847
164	0xbe846fdc	-0.25866592
165	0x3dddf549	0.108378
166	0xbe3a57e3	-0.18197589
167	0xbde600d3	-0.11230626
168	0xbecef59e	-0.40421766
169	0xbe722017	-0.23645054
170	0xbe144d11	-0.14482524
171	0x3e641b48	0.22276032
172	0x3deb414b	0.11487063
173	0x3e0ad48c	0.13557643
174	0x3ef6ec20	0.48227024
175	0x3ef32b72	0.47494084
176	0x3eb38e2b	0.35069403
177	0x3cc5c46d	0.024141515
178	0xbeb5250b	-0.35379824
179	0x3ec3dc02	0.3825379
180	0xbdfffe47	-0.124996714
181	0xbd25868c	-0.040411517
182	0xbedc7bbb	-0.4306315
183	0xbdca36ba	-0.098737195
184	0xbea34aeb	-0.31893095
185	0x3ef6bedc	0.4819249
186	0xbee6bb45	-0.4506475
187	0xbed29ddb	-0.4113606
188	0xbc95f515	-0.01830534
189	0xbe8b138c	-0.2716335
190	0x3e387f56	0.18017325
191	0xbe43a5e1	-0.19106247
192	0xbe655cdb	-0.22398703
193	0x3d1f34f5	0.038868863
194	0x3eb9c9b0	0.36286688
195	0xbeb97fb2	-0.36230236
196	0x3e73c20d	0.23804493
197	0x3ea83524	0.32853043
198	0x3ef34da0	0.4752016
199	0xbeb7d126	-0.35901755
200	0x3ddb2d5f	0.10702013
201	0xbec4cf29	-0.384393
202	0x3ee20836	0.4414689
203	0xbe37622f	-0.17908548
204	0x3e9a28ec	0.30109346
205	0x3c73d21d	0.014881638
206	0xbd1f75a7	-0.03893056
207	0xbc82a88e	-0.015949514
208	0x3dcc4f22	0.09976031
209	0x3e75e670	0.24013686
210	0x3d9cf199	0.076632686
211	0x3e184567	0.14870225
212	0xbee7e2e9	-0.45290306
213	0x3eb542bf	0.35402486
214	0x3ee56550	0.44803858
215	0x3ed93143	0.42420396
216	0x3eba5add	0.36397448
217	0xbebb17d6	-0.36541623
218	0xbe3a2d4d	-0.18181343
219	0x3ee3f6d6	0.44524258
220	0xbebec701	-0.37261203
221	0x3ef487d8	0.4775989
222	0xbecf8314	-0.40529692
223	0xbec0520a	-0.3756259
224	0x3e7d6011	0.24743678
225	0xbebae933	-0.36506042
226	0xbde231a2	-0.11044623
227	0x3ebd5cd1	0.36984876
228	0x3ed7b97a	0.42133695
229	0x3eff09cd	0.49812165
230	0xbdfcba1b	-0.12340184
231	0xbed520fd	-0.4162673
232	0x3f005211	0.50125223
233	0xbddc97d1	-0.10771144
234	0xbe4f53dc	-0.20246834
235	0x3dfec2c3	0.124394916
236	0xbeb027b8	-0.34405303
237	0x3eb83d89	0.35984448
238	0x3e9aa592	0.30204445
239	0xbedaf1e9	-0.42762688
240	0xbed236d5	-0.4105746
241	0xbd335936	-0.04378625
242	0x3e56fe88	0.20995533
243	0xbc6d3148	-0.014477082
244	0xbe81c6a4	-0.25346863
245	0x3c3b3d0b	0.011428128
246	0xbef08eae	-0.46983856
247	0xbeb4e1c0	-0.35328484
248	0xbeab30ee	-0.33435768
249	0x3ee00fc3	0.43762025
250	0x3ee692c4	0.45033848
251	0xbe477b8e	-0.19480726
252	0x3d250afe	0.040293686
253	0x3e781829	0.24227966
254	0x3d501411	0.050800387
255	0xbe8a2a98	-0.2698562

layer1.bias f4 [128]
0	0xbec3f14b	-0.3827003
1	0x3ebbc869	0.36676338
2	0x3ea03917	0.31293556
3	0xbefb816e	-0.49122185
4	0xbeca2339	-0.39479998
5	0xbea7090c	-0.3262409
6	0xbe8af430	-0.27139425
7	0x3db184fd	0.086679436
8	0xbefb10a6	-0.4903614
9	0xbebdbcd8	-0.3705814
10	0x3e82a131	0.25513604
11	0xbe27a404	-0.16371161
12	0xbe4bae46	-0.19890699
13	0xbed0784a	-0.40716773
14	0x3e63db90	0.22251725
15	0x3d4a8097	0.04943904
16	0xbe35b884	-0.17746168
17	0xbe9d5cb2	-0.30734783
18	0x3dff9f5e	0.12481569
19	0x3e0af93d	0.1357164
20	0x3e6dcffa	0.23223868
21	0x3e2e6d91	0.17033984
22	0xbd4e5d3f	-0.050381895
23	0xbec61e31	-0.3869491
24	0x3eaffb49	0.34371403
25	0x3ca22cdd	0.019796783
26	0xbea8b68e	-0.32951778
27	0x3eeae5c4	0.45878422
28	0x3e948c8a	0.29013473
29	0xbecd04c5	-0.400427
30	0xbe773322	-0.241406
31	0xbe2c9444	-0.16853434
32	0xbe8fc961	-0.28083327
33	0x3e854b78	0.2603414
34	0xbeb778e0	-0.35834408
35	0x3ef9ca87	0.4878733
36	0xbe46bb96	-0.19407496
37	0x3ea26845	0.31720176
38	0x3d4f0c8f	0.050549086
39	0xbe5dd34b	-0.21662633
40	0x3eb1dd87	0.34739324
41	0xbec34861	-0.38141158
42	0xbe81a078	-0.2531774
43	0x3d9b9cc7	0.07598262
44	0x3ec6fef1	0.3886638
45	0xbe5b4f09	-0.21416868
46	0xbe905cd4	-0.28195822
47	0xbea2b2fa	-0.31777173
48	0xbe568820	-0.20950365
49	0xbe23e5fb	-0.160057
50	0xbdcd0653	-0.10010972
51	0xbe91987a	-0.28436643
52	0x3e288ba3	0.16459517
53	0x3cbd3370	0.023095816
54	0xbea3f9df	-0.32026574
55	0xbe85c568	-0.26127172
56	0x3df908ec	0.12159905
57	0x3c482f77	0.012218348
58	0x3ec173f5	0.3778378
59	0xbd332d78	-0.043744534
60	0xbecf5433	-0.40493926
61	0xbebd49de	-0.3697042
62	0xbdf88b4c	-0.12135944
63	0xbdb4e503	-0.08832743
64	0x3dbbcd7e	0.09170054
65	0xbdfe1f67	-0.12408333
66	0x3e470f78	0.19439495
67	0xbe19c804	-0.15017706
68	0x3ecbff83	0.39843377
69	0x3dd7f8a3	0.105454706
70	0xbe1f5c10	-0.15562463
71	0x3eef2f65	0.46715847
72	0x3e15950c	0.14607638
73	0xbead44d7	-0.33841583
74	0xbe8e6f9c	-0.27819526
75	0x3ea1a8c4	0.3157407
76	0x3e8156d9	0.25261572
77	0x3eca6b6e	0.39535087
78	0xbbe6d026	-0.007043856
79	0x3ec0b379	0.37636927
80	0x3e8cfa66	0.2753479
81	0x3e3306e0	0.17483091
82	0xbdccdcf7	-0.10003083
83	0x3ef802e9	0.4843972
84	0x3e00b394	0.12568504
85	0xbdee24d9	-0.11628122
86	0x3c5b3d4e	0.013381315
87	0x3efbc093	0.4917036
88	0x3ea74b17	0.32674477
89	0xbc8d0983	-0.01721645
90	0x3f035cbf	0.51313394
91	0x3e800397	0.2500274
92	0xbe8a4642	-0.27006727
93	0xbedd0808	-0.4317019
94	0x3ea2e0bb	0.3181208
95	0x3efaac78	0.48959708
96	0xbe951c75	-0.29123273
97	0x3e671717	0.22567402
98	0x3d2c369f	0.04204428
99	0xbded9415	-0.1160051
100	0xbdfc7320	-0.12326646
101	0x3e25fc50	0.16209531
102	0x3dd45172	0.10367097
103	0x3eb6d267	0.357074
104	0x3e3e0e22	0.18560079
105	0x3e8156e0	0.25261593
106	0x3eefb1d2	0.46815354
107	0x3e3fc40c	0.1872713
108	0x3dbb5e72	0.091488734
109	0xbe2ca0f3	-0.16858272
110	0x3ec47ee9	0.38378075
111	0x3d7a1883	0.061058532
112	0x3eaabbad	0.3334631
113	0x3efef50e	0.49796337
114	0xbdb46a56	-0.088093445
115	0x3ec0a606	0.37626666
116	0xbd945c68	-0.072441876
117	0x3ee5884f	0.44830558
118	0x3ed70af1	0.42000535
119	0xbe1ccccc	-0.15312499
120	0x3d12333a	0.035693385
121	0xbe4dfe8a	-0.2011663
122	0xbe56a833	-0.209626
123	0xbdc9191e	-0.09819244
124	0x3c85a3e6	0.016313504
125	0xbe34e036	-0.17663655
126	0xbef198bd	-0.47186843
127	0xbe91dd7b	-0.2848929

layer2.weight f4 [128, 128]
0	0xbb2508ef	-0.0025182327
1	0xbbdca7b3	-0.0067338585
2	0x3db21e90	0.086972356
3	0x3d931a1d	0.07182715
4	0x3d6693de	0.05629336
5	0x3d10daad	0.035364795
6	0xbd85415a	-0.065066054
7	0x3dc84e66	0.09780578
8	0xbda72614	-0.0816156
9	0xbcedfae4	-0.029050298
10	0xbd2ce409	-0.04220966
11	0x3d022739	0.031775687
12	0xbd969693	-0.073529385
13	0xbd17838c	-0.036990687
14	0xbd23b18c	-0.039964244
15	0xbd25eb54	-0.04050763
16	0xbd267015	-0.040634234
17	0x3dadc38a	0.08484562
18	0x3c507564	0.012723301
19	0x3d49591b	0.049157243
20	0xbd8ea9c7	-0.06965976
21	0x3dbfec4e	0.093712434
22	0x3c166db3	0.009181428
23	0xbda6156a	-0.08109553
24	0x3db5ed05	0.088830985
25	0xbc2bf956	-0.010496458
26	0x3dadb02d	0.084808685
27	0xbd24be4a	-0.040220536
28	0xbd868d88	-0.06569964
29	0xbd681baa	-0.056667008
30	0x3d3c650a	0.045994796
31	0xbbaa64b5	-0.0051999935
32	0xbd969296	-0.07352178
33	0x3d18a158	0.037263244
34	0x3ae82d22	0.0017713646
35	0x3d5593e6	0.052143
36	0xbd1eaece	-0.038740925
37	0xbd317428	-0.043323666
38	0x3dbb39fb	0.09141918
39	0xbd3e9481	-0.046528343
40	0x3da74b4e	0.0816866
41	0x3d92bb10	0.071645856
42	0xbd602ea2	-0.054731973
43	0xbcdb13d1	-0.026742848
44	0x3cf2f239	0.029656516
45	0xbdaaa130	-0.08331525
46	0x3d49d01c	0.049270734
47	0xbd1c1744	-0.038108125
48	0xbce2daf2	-0.027692292
49	0xbd337c5c	-0.04381977
50	0x3d2d61c3	0.04232956
51	0xbd66a4f8	-0.05630967
52	0xbd40480b	-0.046943706
53	0xbc22ebcf	-0.009943916
54	0xbd24802f	-0.040161308
55	0xbd825784	-0.063643485
56	0x3d4baeba	0.04972718
57	0xbb7daef9	-0.0038709028
58	0x3da992ee	0.08279978
59	0x3db93f57	0.09045284
60	0xbd66d57e	-0.056355946
61	0xbd53005f	-0.051514026
62	0xbbb6d2d7	-0.0055793333
63	0x3d9fc7c2	0.07801773
64	0x3ce20419	0.027589845
65	0xbcb19735	-0.021678546
66	0x3da8414b	0.08215579
67	0x3dbf047c	0.09327027
68	0x3dc14a99	0.094380565
69	0xbd44ac5e	-0.048015945
70	0xbc0d00f8	-0.008606188
71	0x3a338e7e	0.0006849541
72	0x3dd5dbe4	0.104423314
73	0xbd11b4d8	-0.035572857
74	0xbd4f702c	-0.050644085
75	0x3cc73ee6	0.024321984
76	0xbb9888f3	-0.0046549975
77	0x3d7dab54	0.06193097
78	0x3d1d2c86	0.03837254
79	0xbcf6c613	-0.030123746
80	0x3dbb3c82	0.091424
81	0x3d957fc7	0.07299762
82	0x3cea69fc	0.02861499
83	0xbd6dadc9	-0.058027063
84	0x3d683b93	0.05669744
85	0x3d8ebc40	0.069694996
86	0x3d64a06a	0.055817045
87	0xbc7afdb2	-0.015319275
88	0x3cb97c5a	0.022642303
89	0xbbb78b24	-0.0056013037
90	0x3dd1ead4	0.10249868
91	0x3deb71af	0.11496293
92	0xbc0075c2	-0.007840576
93	0xbd7a0eea	-0.06104938
94	0x3da2fa4c	0.079578966
95	0x3d85d011	0.06533826
96	0x3d3fdb19	0.046839807
97	0xbd5022df	-0.050814506
98	0x3d31c4bb	0.043400507
99	0xbce687fa	-0.02814101
100	0xbd51c55f	-0.05121362
101	0xbd17e5ac	-0.037084267
102	0x3d59d4c4	0.053181425
103	0x3d4fa701	0.050696377
104	0xbd49ef48	-0.049300462
105	0x3d8f6a3e	0.07002686
106	0x3dc5eb87	0.09664064
107	0x3dc6277c	0.096755
108	0x3da1bb70	0.07897079
109	0xbb9a3294	-0.0047057364
110	0x3daa7090	0.08322251
111	0x3db0cdf0	0.086330295
112	0x3d7ece6b	0.062208574
113	0xbd34bfee	-0.04412835
114	0xbd1d792d	-0.03844564
115	0x3db3a056	0.08770816
116	0x3dbd327b	0.09238144
117	0x3da253d8	0.07926148
118	0xbc7bc68b	-0.015367161
119	0x3ba7060f	0.005097158
120	0xbd5750a9	-0.052567158
121	0xbd2555d4	-0.040365055
122	0x3da19586	0.078898475
123	0xbd7c959a	-0.06166611
124	0xbc0f4abd	-0.008745846
125	0x3caa5ed5	0.020797173
126	0xbd592b3b	-0.053019743
127	0x3c9dc867	0.019260598
128	0xbc10b23d	-0.008831558
129	0x3d628096	0.05529841
130	0xbd452405	-0.048130054
131	0x3c47cbb4	0.012194563
132	0xbda0c4c3	-0.07850029
133	0x3d511833	0.05104847
134	0x3dba4673	0.09095468
135	0xbc9a4340	-0.018830895
136	0x3c180cb1	0.00928037
137	0xbd3a79b8	-0.045526236
138	0xbd1dd150	-0.038529694
139	0xbd374e56	-0.04475244
140	0xbd2c6d40	-0.042096376
141	0x3cbd8123	0.023132866
142	0x3b8996b9	0.0041988757
143	0x3c962061	0.018325986
144	0xbd863221	-0.0655253
145	0xbd6185ae	-0.055059128
146	0xbd70a9a4	-0.058755532
147	0xbd310213	-0.04321487
148	0x3db8bbee	0.0902022
149	0x3d3d295c	0.04618202
150	0xbd75db4d	-0.060023595
151	0xbc71a2dc	-0.014748301
152	0x3d13e3d1	0.036105935
153	0x3d71db17	0.05904683
154	0x3db1beaf	0.08678948
155	0x3d20720b	0.03917126
156	0x3d9cebd5	0.07662169
157	0xbcb36635	-0.021899322
158	0x3b9decfa	0.0048195096
159	0xbd474d11	-0.04865748
160	0x3ced2a48	0.028950825
161	0x3dcdcc42	0.10048725
162	0x3d80bf94	0.06286541
163	0x3dd9d40f	0.1063615
164	0xbd0a1771	-0.03371376
165	0x3bdb27c4	0.00668809
166	0x3d4780d7	0.048706856
167	0x3d893904	0.06700328
168	0xbd8241cd	-0.06360207
169	0xbd31c091	-0.043396536
170	0x3ca14686	0.019686949
171	0xbd1ec536	-0.038762294
172	0x3d4ccf7e	0.050002567
173	0xbbc566e2	-0.0060242275
174	0xbbc982fb	-0.0061496473
175	0x3d3cc98d	0.04609065
176	0x3d9792a9	0.0740102
177	0x3dd6c2e0	0.10486388
178	0x3d2ddafe	0.042445175
179	0xbb1e5e59	-0.0024165122
180	0x3dc1e624	0.09467724
181	0x3da81251	0.082066186
182	0xbd12f9b0	-0.03588265
183	0x3d69eebe	0.057112448
184	0x3cbb2057	0.02284257
185	0xbc1f3823	-0.009717974
186	0xbb064577	-0.0020488182
187	0x3b561263	0.0032664768
188	0xbd7d465e	-0.061834686
189	0xbcdce55d	-0.026964838
190	0x3d4c0219	0.049806688
191	0x3daf85fe	0.08570479
192	0x3d16c9a7	0.036813404
193	0xbd9d82d9	-0.07690973
194	0x3d9ab53f	0.07554101
195	0xbc938b23	-0.018010681
196	0x3de1bda0	0.11022496
197	0xbd8a1e93	-0.06744113
198	0xbc1848b2	-0.009294676
199	0x3dac6eb1	0.0841955
200	0x3d8c6d96	0.06856839
201	0xbd0c4d14	-0.034253195
202	0xbd9cb418	-0.07651538
203	0x3caa29cb	0.020771882
204	0x3d454aff	0.048167225
205	0xbd2ec13e	-0.04266476
206	0xbd4b280c	-0.04959874
207	0x3ca59862	0.020214263
208	0x3c212f9d	0.009838012
209	0x3d95144c	0.07279262
210	0xbd9dd532	-0.077066794
211	0x3bce0bf1	0.0062880446
212	0xbd613868	-0.054985434
213	0xbb407444	-0.0029366175
214	0xbc69fbd6	-0.014281234
215	0x3d3768e5	0.04477777
216	0xbd721896	-0.05910548
217	0xbd41032e	-0.047122173
218	0xbd05bfa4	-0.032653466
219	0xbd3b4cfd	-0.04572772
220	0x3d76acea	0.060223497
221	0xbc3cc99a	-0.011522675
222	0xbca53d9b	-0.020170977
223	0x3da4a7aa	0.08039792
224	0xbca43b08	-0.02004768
225	0x3d73ffe9	0.059570227
226	0xbc7f90c1	-0.015598477
227	0xbd85d773	-0.06535234
228	0x3d2d3ea1	0.042296056
229	0x3da271f1	0.07931889
230	0xbd944501	-0.07239724
231	0x3ccbb0e0	0.024864614
232	0x3d441ab3	0.047877025
233	0x3ce78c55	0.028265158
234	0x3cee96f6	0.029124718
235	0x3b8d4c42	0.004312069
236	0xbd1fae95	-0.038984854
237	0x3cbb3d13	0.02285627
238	0xbd147787	-0.036246803
239	0xbd6caa1c	-0.057779416
240	0xbc66ae0a	-0.01407958
241	0xbd306abf	-0.04307055
242	0x3c9a6046	0.018844735
243	0x3da116f1	0.07865704
244	0x3db47380	0.088110924
245	0xbd07b18b	-0.033128303
246	0x3d8b32b6	0.06796782
247	0x3da408c2	0.08009483
248	0x3c50f207	0.012753016
249	0x3d3e235d	0.046420444
250	0x3d79d747	0.06099632
251	0x3d9e7b97	0.07738417
252	0x3d714886	0.058907054
253	0x3d22a5d6	0.039708935
254	0xbd095fb9	-0.033538554
255	0xbd43e8b6	-0.047829352

layer2.bias f4 [128]
0	0x3d879c61	0.06621624
1	0xbd08a54f	-0.033360776
2	0xbae5ccbb	-0.0017532328
3	0xbd697fa1	-0.057006482
4	0xbd5ea666	-0.05435791
5	0x3d9909c3	0.07472565
6	0xbbe5a96b	-0.0070087216
7	0x3d022aab	0.031778973
8	0x3d657735	0.056021888
9	0x3d093834	0.033500865
10	0xbc974eb0	-0.018470138
11	0xbcc1b35f	-0.023645101
12	0x3cd65b16	0.02616648
13	0x3dd0cc4d	0.10195217
14	0x3cc5371c	0.02407413
15	0x3c0f8c27	0.008761442
16	0x3d91cb10	0.07118809
17	0xbd16d6bf	-0.03682589
18	0xbd803ea5	-0.062619485
19	0xbcb8b848	-0.02254881
20	0x3ddee476	0.10883419
21	0x3a8e9d8f	0.0010880696
22	0xbd857fc1	-0.06518508
23	0x3d990b4e	0.07472859
24	0x3dac1de9	0.084041424
25	0x3d17d940	0.03707242
26	0x3c14269d	0.009042409
27	0xbd33df87	-0.043914344
28	0x3c0ec5f4	0.008714188
29	0x3d5d0fbb	0.05397008
30	0xbd13ed7b	-0.03611515
31	0xbcc56267	-0.024094773
32	0x3cf1510b	0.02945759
33	0x3d4ac1e1	0.049501304
34	0xbc68842b	-0.014191668
35	0xbbce97e1	-0.0063047265
36	0xbd829d16	-0.06377618
37	0x3ce5b6a0	0.028041184
38	0xbc8f8d64	-0.017523475
39	0x3dbb563a	0.09147306
40	0x3d257540	0.04039502
41	0xbd7c37fc	-0.06157683
42	0xbd84a601	-0.06476975
43	0xbd8503a7	-0.06494837
44	0xbda7f269	-0.08200533
45	0x3d896189	0.067080565
46	0xbc2199e8	-0.009863354
47	0x3d4446f0	0.047919214
48	0x3d44818d	0.04797511
49	0xbce9656d	-0.028490746
50	0x3d9b0254	0.075688034
51	0x3ba2565c	0.0049541425
52	0x3d8be64b	0.06831034
53	0x3c89a12c	0.016800486
54	0x3d141d47	0.036160734
55	0x3dafb74f	0.08579885
56	0x3c7f750a	0.015591869
57	0x3d2feb3c	0.042948946
58	0x39e7fe91	0.0004424942
59	0xbd9fce99	-0.07803077
60	0x3d481acd	0.048853684
61	0xbd83539d	-0.06412432
62	0xbc134f80	-0.008991122
63	0x3d8c2e4d	0.06844769
64	0xbccd7ea5	-0.025084803
65	0xbd88025c	-0.06641075
66	0x3d87856b	0.06617244
67	0x3d30f4ed	0.04320233
68	0x3dbeab6a	0.093100384
69	0x3d23e98e	0.040017657
70	0xbd818672	-0.063244715
71	0x3d8ae806	0.06782536
72	0xbd33ed64	-0.043927565
73	0x3d11b2ed	0.035571028
74	0xbdae4241	-0.08508731
75	0x3d6aae60	0.057295203
76	0x3da3e494	0.08002582
77	0x3c148d49	0.009066888
78	0xbcfecdc3	-0.031103974
79	0x3d949256	0.07254474
80	0x3d98b542	0.07456447
81	0xbc0bac28	-0.008524932
82	0x3d8809c2	0.06642486
83	0x3bc20a6c	0.0059216525
84	0xbd5cb2c7	-0.053881433
85	0x3da36dfd	0.07979963
86	0xbd02d3c6	-0.031940244
87	0xbd79f9a6	-0.0610291
88	0x3d253966	0.040337943
89	0x3d0ab75b	0.033866268
90	0x3d2f80f9	0.042847607
91	0xbd3f8db3	-0.046765994
92	0x3ccb7e0b	0.024840375
93	0x3d584e4d	0.05280905
94	0x3cba2730	0.022723764
95	0xbd701dea	-0.05862228
96	0x3cd8a6dd	0.026446754
97	0x3d5d2975	0.053994615
98	0xbcac114d	-0.021004343
99	0xbd04af18	-0.032393545
100	0xbd997d5e	-0.07494615
101	0x3dc06afc	0.09395406
102	0x39fb639c	0.00047948665
103	0xbccaf70e	-0.024776008
104	0x3d8542f6	0.065069124
105	0xbd503a8d	-0.05083709
106	0x3cf7da95	0.030255595
107	0xbd14bbff	-0.0363121
108	0xbcb0b50d	-0.021570707
109	0x3bb139c0	0.0054084957
110	0xbc85cb03	-0.016332155
111	0x3dafabaa	0.08577664
112	0x3d465324	0.048419133
113	0x3d19dd1d	0.037564386
114	0x39744edc	0.0002329903
115	0xbcc24c99	-0.023718165
116	0xbd23bdc2	-0.03997589
117	0xbc36e5af	-0.011163159
118	0x3d04b4cd	0.032398988
119	0x3d8fcfc1	0.07022048
120	0xbd88935a	-0.0666873
121	0xbd6eb8c2	-0.058281668
122	0xbc05196c	-0.008123737
123	0x3d7dff15	0.062010843
124	0x3cfff260	0.031243503
125	0xbd3df9c6	-0.04638078
126	0x3d64ddf2	0.055875726
127	0x3d471e7a	0.04861305

layer3.weight f4 [2, 128]
0	0x3d167ac6	0.03673818
1	0x3d8a703f	0.067596905
2	0x3de3f37d	0.11130426
3	0x3d573acb	0.052546304
4	0xbd49fb89	-0.04931215
5	0x3d41e330	0.047335804
6	0x3c31442a	0.010819474
7	0x3dbd6307	0.092474036
8	0x3d8ae4ff	0.06781959
9	0x3a142300	0.00056509674
10	0x3c59ebef	0.01330088
11	0x3d796afe	0.06089305
12	0x3dd2b55a	0.10288496
13	0x3d95d291	0.07315553
14	0x3c8a06b9	0.016848909
15	0x3da73a8b	0.08165463
16	0x3d8ee164	0.069765836
17	0x3dbb0bdd	0.09133122
18	0xbafbfe7c	-0.0019225623
19	0x3d706584	0.058690563
20	0x3c303599	0.010754966
21	0x3d8b6eca	0.06808241
22	0xbd1d2834	-0.03836842
23	0x3cd5bd09	0.026091116
24	0xbd19bf29	-0.03753582
25	0xbbbb1cb1	-0.0057102074
26	0x3d44af30	0.048018634
27	0x3c3cce5b	0.011523808
28	0xbdb3ec4a	-0.08785303
29	0x3d161d1a	0.036648847
30	0xbd1d5ba0	-0.03841746
31	0x3cbf0626	0.023318361
32	0x3d35fac8	0.044428617
33	0xbbc7bfdc	-0.0060958695
34	0x3d695508	0.056965858
35	0xbd9e7f54	-0.0773913
36	0x3c3f3c99	0.011672162
37	0x3dac1581	0.08402539
38	0x3cd879e6	0.026425313
39	0x3db6ed1a	0.08931942
40	0xbce1a34e	-0.02754369
41	0x3d423d3b	0.047421675
42	0xbd8d7bf8	-0.06908411
43	0xbc47d151	-0.012195901
44	0xbd4f1db3	-0.050565433
45	0x3d236710	0.03989321
46	0x3d4b7cfa	0.049679734
47	0xbc0b3f3a	-0.008498961
48	0xbd408e96	-0.04701098
49	0xbd1ed880	-0.03878069
50	0x3d825162	0.06363179
51	0xbcaff7b0	-0.021480411
52	0xbda7f2e0	-0.082006216
53	0x3d7e2b8d	0.062053252
54	0x3c2efbf4	0.0106801875
55	0x3d9f4aea	0.077779606
56	0x3d8cc860	0.06874156
57	0xbc08db6f	-0.008353098
58	0xbd9923f6	-0.07477562
59	0xbba3dc03	-0.0050005927
60	0xbbb23017	-0.0054378617
61	0x3cf3b501	0.029749395
62	0xbda30454	-0.0795981
63	0xb931f2bd	-0.00016970462
64	0xbd9880cb	-0.0744644
65	0xbd2b9d5f	-0.041898128
66	0xbdaa26d2	-0.08308186
67	0x3da029d7	0.0782048
68	0x3db88a06	0.09010701
69	0xbd0a6d34	-0.03379555
70	0xbca24b13	-0.019811189
71	0x3d999c05	0.075004615
72	0x3c980e5a	0.01856153
73	0x3c0e0455	0.008668025
74	0xbc253370	-0.010083064
75	0xbd94f323	-0.07272937
76	0xbd650730	-0.055915058
77	0x3d962226	0.07330732
78	0xbd5252d0	-0.051348507
79	0x3d99dd04	0.075128585
80	0xbceb8d18	-0.028753802
81	0xbd78156d	-0.06056731
82	0xbd52e3ad	-0.05148666
83	0x3d60208c	0.05471854
84	0xbd9369ea	-0.07197936
85	0x3d467b67	0.04845753
86	0x3d39f0af	0.04539555
87	0x3cf311ea	0.029671628
88	0xbd880182	-0.066409126
89	0xbd859bdb	-0.06523868
90	0xbc7238f3	-0.014784086
91	0xbcff57ae	-0.031169739
92	0xbc88d41d	-0.016702706
93	0x3d3092ae	0.043108635
94	0x3d2cc57f	0.042180534
95	0x3da95cde	0.08269666
96	0xbd231585	-0.039815444
97	0xbca07715	-0.019588033
98	0x3de63de9	0.11242277
99	0xbc0fae75	-0.008769621
100	0xbd1de26d	-0.038546015
101	0x3d8969b8	0.067096174
102	0xbd7bc210	-0.06146437
103	0x3d585941	0.052819494
104	0xbd14ca8d	-0.03632598
105	0x3ca7fbc4	0.020505793
106	0xbcdac0a5	-0.026703188
107	0xbd86bb4a	-0.06578691
108	0xbb859091	-0.0040760715
109	0x3c942147	0.018082274
110	0xbd062b05	-0.03275587
111	0x3cec4477	0.02884124
112	0xbd8ab0e8	-0.067720234
113	0xbd411b01	-0.047144894
114	0x3d530a80	0.051523685
115	0x3dab2549	0.08356721
116	0x3d5c76d9	0.05382428
117	0xbd4f173a	-0.05055926
118	0x3d94ae8f	0.07259857
119	0xbd69febf	-0.05712771
120	0x3d676185	0.056489486
121	0x3cecb28a	0.028893728
122	0xbc8d5324	-0.017251559
123	0xbd8e6d03	-0.06954386
124	0xbd869009	-0.06570441
125	0xbda5b91d	-0.08091948
126	0xbbb2c1fc	-0.0054552536
127	0x3db0f2d7	0.08640068
128	0x3d75b92a	0.05999104
129	0x3dc1eac7	0.09468608
130	0xbd476fec	-0.04869072
131	0x3da3812c	0.07983622
132	0xbc350852	-0.011049347
133	0x3d8a6ed5	0.06759421
134	0xbd73ae67	-0.059492495
135	0xbd21e0a6	-0.039520882
136	0x3dbda31a	0.09259625
137	0x3d6df9c9	0.05809954
138	0xbd59b9b3	-0.053155612
139	0xbd2e2fd6	-0.04252609
140	0xbb4471ad	-0.0029974983
141	0x3de9f62e	0.11423908
142	0x3d952da0	0.07284093
143	0xbbf1edae	-0.00738307
144	0x3d0eb47c	0.034840092
145	0x3d9d6a1c	0.076862544
146	0xbd832a13	-0.064045094
147	0x3c342616	0.0109954085
148	0x3dbeaadb	0.09309932
149	0x3d1e456a	0.038640417
150	0x3d16dd9f	0.036832448
151	0x3dca783a	0.09886213
152	0x3d1e3866	0.038628004
153	0xbdb4651b	-0.08808347
154	0xbd045291	-0.032305304
155	0xbce8b907	-0.02840854
156	0xbd98b47c	-0.074563
157	0x3dae0598	0.08497161
158	0x3b3f3587	0.0029176192
159	0x3dd3145b	0.10306617
160	0x3c5d5805	0.013509755
161	0x3cc9a829	0.024616318
162	0xb9ec408c	-0.0004506152
163	0x3da7f477	0.08200925
164	0x3d79ac4a	0.060955323
165	0xba4c0b49	-0.0007783664
166	0x3ce3f65e	0.027827438
167	0x3bbcf71d	0.005766763
168	0xbd16b7e2	-0.036796458
169	0xbd9250a3	-0.071442865
170	0x3d36d58b	0.044637244
171	0x3d68285a	0.056679107
172	0xbd6ed434	-0.05830784
173	0x3d78eba0	0.060771585
174	0xbd4b0257	-0.04956278
175	0xbd89b442	-0.067238346
176	0x3cb3e6df	0.021960674
177	0x3c925d82	0.017866854
178	0xbc272207	-0.010200984
179	0xbb9734c7	-0.004614446
180	0x3ca093dd	0.019601757
181	0xbd4d7dc1	-0.050168756
182	0x3d8f8c64	0.07009199
183	0xbcde240a	-0.027116794
184	0x3c533644	0.012891356
185	0xbdb156b0	-0.086591125
186	0xbcdb51b8	-0.026772365
187	0x3c28472a	0.010270873
188	0xbd0b1d39	-0.033963416
189	0xbd88d346	-0.06680922
190	0xbcb6d705	-0.022319326
191	0xbd30a516	-0.04312619
192	0x3da75ddf	0.08172201
193	0x3dd21043	0.10257008
194	0xbb161c3a	-0.0022905008
195	0xbc7cdaca	-0.015433023
196	0x3d93ee79	0.072232194
197	0xbbac2dab	-0.0052544675
198	0x3dc534ee	0.09629236
199	0x3daa4803	0.083145164
200	0x3dbd8e3a	0.09255643
201	0x3de6afb9	0.11263985
202	0xbcb9b1e0	-0.022667825
203	0xbd86175a	-0.06547423
204	0xbc8e6195	-0.017380515
205	0xbd872da1	-0.066005
206	0x3d6acd8d	0.057324935
207	0x3c2035f9	0.009778493
208	0x3d62d6b5	0.05538054
209	0xbd850cbc	-0.064965695
210	0x3d2c6844	0.042091623
211	0x3cc647d5	0.024204174
212	0x3dc8a77e	0.097975716
213	0xbd32dcd2	-0.043667622
214	0x3d42a17e	0.047517292
215	0xbd432c4d	-0.04764967
216	0xbbcacc2f	-0.0061888914
217	0x3d8d011a	0.06884976
218	0xbd0b54f0	-0.03401655
219	0x3d73c361	0.0595125
220	0x3d273da6	0.040830277
221	0x3cbaa919	0.02278571
222	0x3d9776f1	0.07395733
223	0x3d09c6d9	0.0336369
224	0xbd692fbf	-0.0569303
225	0x3de5a283	0.11212637
226	0x3dbc495c	0.0919368
227	0xbd0c2888	-0.03421834
228	0x3d6cb9d2	0.0577944
229	0x3c1935a0	0.009351164
230	0x3cd6f34b	0.026239058
231	0x3cf9e7c0	0.030506015
232	0xbd96d71c	-0.073652476
233	0x3ddd4fe6	0.10806255
234	0x3db073a4	0.08615807
235	0xbd9ede02	-0.077571884
236	0xbd9dc0be	-0.07702778
237	0x3daf11de	0.0854833
238	0x3d36cf11	0.044631068
239	0x3c2734c5	0.010205452
240	0xbcace53d	-0.021105403
241	0x3dbae3fa	0.09125514
242	0x3da38679	0.07984633
243	0xbd885744	-0.066572696
244	0xbcdc6b4f	-0.026906637
245	0xbd117913	-0.035515856
246	0xbd7942a8	-0.060854584
247	0xbc53c01c	-0.01292422
248	0x3d6584e5	0.05603494
249	0xb9133fab	-0.0001404273
250	0xbd6d3ea7	-0.057921078
251	0xbc39758c	-0.011319529
252	0xbbb7cd00	-0.0056091547
253	0xbd3eb80f	-0.04656225
254	0x3d3081ac	0.043092415
255	0xbd7debb4	-0.061992362

layer3.bias f4 [2]
0	0x3d3049d5	0.04303916
1	0x3c179e0c	0.00925399
