cartpole_v1_best_model_NoDSP.pth (torch, 73114 bytes, 6 tensors)

layer1.weight f4 [128, 5]
000000 7b 26 78 bd e5 24 b4 3d 48 08 40 be dd a5 34 3b
       -0.060583573 0.087960996 -0.18753159 0.0027564683
000010 49 89 ff 3c 61 28 09 be f6 5c 85 bd e5 b3 07 3e
       0.031193392 -0.1339431 -0.065118715 0.13252218
000020 7f ef 21 3e d8 9d 13 3e c9 6e f3 3d 0f bf 05 3d
       0.15814017 0.14415681 0.11886365 0.03265291
000030 d2 6f 02 3e f0 df 09 3e ee a0 8c 3d 90 b4 c6 3c
       0.12737969 0.13464332 0.068666324 0.02425602
000040 40 19 a0 3b 93 4d 8f 3e b4 8e c0 3d 22 90 c3 bd
       0.0048858225 0.27988872 0.094022185 -0.095489755
000050 14 86 b7 3d 17 c4 25 bd d0 e8 02 be 55 d9 ed bb
       0.0896112 -0.04047021 -0.12784123 -0.007258574
000060 fd d4 91 3c e0 2a b7 bc 15 dc d2 3c ba 18 76 be
       0.017801756 -0.022359312 0.025739709 -0.2403287
000070 2c 9d 06 be 2b 2d 96 bd 49 42 d1 bd 09 55 01 be
       -0.13145894 -0.07332834 -0.10217721 -0.12630095
000080 69 12 80 bf 25 a0 15 bf 7f 97 23 3d 67 72 df bc
       -1.0005618 -0.58447486 0.0399394 -0.027276231
000090 30 87 f3 3c 9a cc a6 3e b1 ed ce bd d8 7b 37 3e
       0.029727548 0.32577974 -0.1010393 0.17918336
0000a0 2f 92 34 be 04 cb 71 bd 62 f3 85 bd 3c 76 42 bd
       -0.1763389 -0.0590315 -0.06540562 -0.04747604
0000b0 cd 51 96 3d 23 bd 38 3e d6 3d d2 3d bf 21 8d be
       0.07339821 0.180409 0.102657005 -0.2756481
0000c0 79 57 8d 3c 30 39 a7 bd 4e e8 15 3e 9a 76 0e be
       0.017253624 -0.081652045 0.14639398 -0.1391243
0000d0 88 6c d5 3e 6d 87 3c 3e 25 61 1b 3d 8f 75 92 3d
       0.41684365 0.18411036 0.03793444 0.07151329
0000e0 2e 2c 39 bb a4 e4 cb bd 1f 9e da bd 35 db c1 bd
       -0.0028255093 -0.09955719 -0.106746905 -0.094656385
0000f0 b4 76 e6 3c 6d 3d a3 3b 62 7a 7e bd 59 57 14 be
       0.028132774 0.0049816878 -0.062128432 -0.14486445
000100 07 58 3b bd be b9 c4 3d 7c 9d b3 3d cf 04 e4 bd
       -0.045738246 0.0960574 0.08770272 -0.1113373
000110 91 ed f1 3d 24 93 60 be d0 03 b2 bd f4 d4 0c bd
       0.1181289 -0.2193113 -0.086921334 -0.034382775
000120 55 f1 1c be 07 26 87 bc 39 09 c1 3d 90 b6 cd bd
       -0.15326436 -0.016497625 0.09425587 -0.10044587
000130 4d f9 7a bd cc 37 cb bd ce 15 8a 3b 18 60 e7 bc
       -0.061272908 -0.09922752 0.004214025 -0.028244063
000140 bf c8 40 bd f8 41 91 3a 9d 6b 9d be 2e 15 79 bd
       -0.047066446 0.0011082282 -0.30746165 -0.060811214
000150 0a 4f 99 3d a9 51 e8 3d 3f 1c f9 3d 13 89 35 3e
       0.07485779 0.113437004 0.12163591 0.17728071
000160 22 c4 ec 3d 38 c1 73 3e 9d 09 08 bd 0a 74 ea bc
       0.11560847 0.23804176 -0.033212293 -0.028619785
000170 46 9c 06 be 30 87 7c bc da 63 1c 3e 6e 86 c3 bb
       -0.13145551 -0.015413091 0.15272465 -0.005966953
000180 47 1f 53 3d b2 28 0e be e6 15 7b 3d 85 95 0a bd
       0.0515435 -0.13882712 0.06130018 -0.033834
000190 04 fc dc 3d b4 01 ae bc d6 89 93 be 3a ce 95 bd
       0.10790256 -0.021241046 -0.28816098 -0.07314725
0001a0 f6 fe 5b bc ab f0 b2 bd 3c 9e 48 be b6 22 79 3e
       -0.013427487 -0.0873731 -0.19591612 0.24329647
0001b0 1d 3e de 3d bc c2 72 39 df 68 4d 3e f4 42 03 3e
       0.10851691 0.00023151463 0.20059536 0.1281851
0001c0 7b 15 d7 3f 96 9a bf 3e 3c 0d 25 bd 85 0f b5 3d
       1.680343 0.37422627 -0.040295824 0.08840851
0001d0 ce 9c 29 3e ce f5 c1 bd 2b 65 50 bc 9b 71 8b 3e
       0.16563722 -0.09470712 -0.012719433 0.27235112
0001e0 4c 0f 2a 3e 39 b2 54 3e 66 92 95 3e 9d 42 08 3e
       0.16607398 0.20771112 0.29213256 0.13306661
0001f0 bd 1a 0c bd 6b 90 35 bd fd 83 cb bb ce 8d b6 bf
       -0.034205187 -0.04432718 -0.0062108026 -1.4262025
000200 3b 6c ca be 31 5b c5 bc 7b 5a fd 3a a8 69 b5 39
       -0.39535698 -0.024091335 0.0019329333 0.0003460173
000210 ac 75 53 bd 00 3a ae bd b5 79 66 bc 42 73 86 bd
       -0.051625893 -0.08507156 -0.014067103 -0.065649524
000220 d2 53 9e ba 30 e1 5e 3e c2 fa d2 bd 7d fc f9 3d
       -0.0012079424 0.2176559 -0.103017345 0.122063614
000230 91 06 71 bd 51 ba d3 bc 66 96 b5 bf 10 e9 cf be
       -0.058844153 -0.025845679 -1.4186523 -0.406075
000240 64 a3 57 3d 44 4f df bd fd f8 ae 3d 4a cd 57 bd
       0.052646056 -0.109037906 0.085435845 -0.052686013
000250 70 ec 08 3e 5b c9 c3 3d 6f 46 46 3e 5d 68 e4 3d
       0.13371444 0.0955989 0.19362806 0.11152718
000260 27 8a 09 3e d5 ca 84 3d 86 96 00 3a 61 55 b3 3d
       0.13431607 0.06484 0.0004905242 0.08756519
000270 57 95 30 3d 2b ce db 3e 44 08 8a 3e 75 79 e1 3d
       0.04311117 0.4293073 0.2695943 0.11009494
000280 a0 5d b1 3d 58 d0 55 3e 8c 13 a1 3e 6f 49 85 3c
       0.08660436 0.20880258 0.31460226 0.016270367
000290 e6 17 22 bd f4 45 cd 3c fc c1 8e bd e8 3e 26 3e
       -0.039573573 0.02505777 -0.06970593 0.16234934
0002a0 84 83 b4 bd 97 7a c9 bb 5e 4e 54 3d 80 23 d5 ba
       -0.08814147 -0.006148647 0.05183255 -0.001626119
0002b0 3f d1 93 be 9a 1d 13 be d6 82 c1 3d fe 7c 07 3c
       -0.2887058 -0.14366761 0.09448783 0.008269547
0002c0 f4 eb 64 3c 67 df 1b 3e 40 35 b4 3d ba 24 0d be
       0.013972271 0.1522194 0.08799219 -0.13783541
0002d0 83 e4 79 bd d6 c0 a7 bd 9d 56 4a 3d f9 47 94 bc
       -0.06100894 -0.081910774 0.049399007 -0.018100725
0002e0 ea d8 0c 3e b7 bd ee 3d 3b b2 65 3d 50 8f 02 3e
       0.13754621 0.11657279 0.056078177 0.12749982
0002f0 a6 81 2c bd 6b a0 62 3d 7d ff 5b 3e 6f f5 ae 3d
       -0.04211583 0.055328768 0.2148418 0.085429065
000300 96 88 74 be 0c d6 09 be f7 30 b0 bc e7 ec d4 3d
       -0.23880228 -0.13460559 -0.021507723 0.10396748
000310 cc 9b 08 bd 7f d4 c0 be c9 ff c5 bd ae f9 93 bd
       -0.033351704 -0.37662122 -0.09667928 -0.07225357
000320 90 de 8a bd 47 35 02 bd c7 22 66 3e 6b fb e7 3d
       -0.06780732 -0.03178909 0.22474204 0.11327251
000330 fc 65 fc bd 2e 22 ca bc 52 48 35 3c 45 54 95 bf
       -0.123241395 -0.024674501 0.011064606 -1.1666342
000340 ea b1 10 bf 25 19 2b 3d 9d 1b 29 be 71 79 ed bd
       -0.56521475 0.041772027 -0.1651444 -0.11595429
000350 14 ab 0c 3e f6 d0 9f 3e a0 be f7 bd de ee 23 be
       0.13737136 0.31214112 -0.12096906 -0.1600909
000360 76 7a 03 be b6 25 98 3e c6 3a 3c bd b7 65 84 bc
       -0.12839684 0.2971627 -0.04595449 -0.016161783
000370 c3 8d 34 3e d2 05 a2 3d 17 4a b9 bc 03 36 a0 bd
       0.17632203 0.079112664 -0.022618337 -0.07822802
000380 94 6d 56 bd 87 0e d2 3c c2 0e 8e bc 7a 7c 89 3c
       -0.052350596 0.025641693 -0.017341021 0.016782988
000390 51 d5 de 3d 6f 01 4e bc c7 44 f4 bc f2 7c cd bd
       0.108805306 -0.012573584 -0.029817952 -0.10033597
0003a0 6a 25 47 be f8 15 2a be 77 e9 fe 3d 94 a6 19 be
       -0.19447866 -0.16609943 0.12446874 -0.15004951
0003b0 ac 89 eb bd 4a c5 80 be 0d 26 79 3e 9b a8 f2 bb
       -0.11500868 -0.2515052 0.24330921 -0.0074053532
0003c0 24 02 04 3e be 6d 08 3e 25 0a b9 3e cb 6a de 3d
       0.12891442 0.13323113 0.36140552 0.10860213
0003d0 80 11 0f bc 05 3d 5f 3d 9e 42 ba 3c 79 e8 de bd
       -0.0087322 0.054501552 0.022736844 -0.108841844
0003e0 76 b7 c3 bd 02 5d 5a bd c6 39 43 3c 3d 0e 20 bd
       -0.09556477 -0.053311355 0.01191563 -0.03907608
0003f0 26 f0 82 3f 32 42 58 3e 27 8e 4f 3d bf cf bb 3d
       1.0229537 0.21119002 0.050672676 0.09170484

layer1.bias f4 [128]
000000 c1 b8 a7 3e 49 6b 13 be b5 c2 bf 3e 68 24 d1 bd
       0.32758144 -0.14396395 0.37453237 -0.10212022
000010 06 3a a7 3e ca 18 3e be 9d 7e 8d bd 32 9f 96 3e
       0.32661456 -0.18564144 -0.06908915 0.2941833
000020 1e c1 1c be e6 da 36 3e b4 f2 e6 3c b6 b0 18 be
       -0.15308043 0.1785694 0.028191902 -0.1491116
000030 5f e9 c3 3e 5f 6a 1e 3e 83 3b 3e be 5e 98 b8 3e
       0.38263986 0.15470265 -0.1857739 0.36053747
000040 91 f3 61 3e ca 45 b8 bd 6c a8 b4 3e d5 35 9a 3e
       0.2206557 -0.08997686 0.35284746 0.30119196
000050 11 3d d0 3e 7d 4e 7b be a9 f4 f1 3c 99 79 3c bd
       0.4067159 -0.2454166 0.029535608 -0.046014402
000060 bc 4e e3 bc 86 b4 65 3e d8 be 2f be 20 cc bd 3e
       -0.027747504 0.22432145 -0.17162645 0.37069798
000070 91 26 84 be 33 ab c0 3e 8c 07 54 3e fa 24 1f be
       -0.25810674 0.37630615 0.20706004 -0.15541449
000080 92 80 b9 3e d7 59 c9 3e da 45 8b be 3f 3d 79 bd
       0.36230904 0.39326355 -0.2720173 -0.060849424
000090 7f 9e ac 3e 60 67 4b be 33 ee 91 3e cf 9b d4 3e
       0.33714673 -0.19863653 0.28502044 0.41525123
0000a0 d8 3e a4 3e ac ed 98 be dd b1 d7 bc a5 89 34 3e
       0.32079196 -0.2986883 -0.026329929 0.17630632
0000b0 2d 5d 9a 3e c8 8b b9 3e b6 09 a9 3e df dd ac 3e
       0.30149212 0.36239457 0.3301522 0.33763024
0000c0 f3 92 0c be 9b 8f cb 3e 4f 85 38 be 62 31 81 bd
       -0.13727932 0.39758 -0.18019603 -0.06308247
0000d0 9b fa 71 3e 48 1b c9 3e c6 ea 47 be fe ee 9e 3e
       0.23630755 0.39278626 -0.19523153 0.31041712
0000e0 ba d9 18 3e 70 d7 1b be 8c 38 80 be c0 95 91 3e
       0.14926806 -0.15218902 -0.25043142 0.28434563
0000f0 bb 7d a7 3e 97 f4 4a be d8 f6 50 be b8 66 d1 bd
       0.32713112 -0.19819866 -0.20406663 -0.1022467
000100 a3 81 81 3e 2b 01 2e 3e a2 1c 2b be de 43 b6 bd
       0.25294217 0.16992633 -0.16710141 -0.088996634
000110 93 a7 5b 3e 2a e7 89 be 85 f8 17 be 5e 5b 9b 3e
       0.21450643 -0.26934177 -0.14840896 0.30343145
000120 d7 a1 f4 bd f3 f7 1b 3d 2b 95 12 be cb f6 c9 bd
       -0.11944931 0.03807826 -0.14314716 -0.09861525
000130 a0 b4 42 be 77 93 4c be 46 ea 95 be 4f 63 c9 3e
       -0.19014215 -0.19978128 -0.292803 0.3933358
000140 9e 7a 3e be 59 cc a7 bd f7 78 d6 3e 1b 8d 23 3e
       -0.18601462 -0.08193273 0.41889164 0.15971796
000150 fd 51 71 be 11 f9 44 be d9 23 cd 3e 42 ce 83 3e
       -0.23566432 -0.19235636 0.40066412 0.257433
000160 1f 29 c0 3e 6e bc 82 be bb 0e 3a be e9 9a ca 3e
       0.37531373 -0.25534385 -0.18169682 0.39571312
000170 5b 25 45 be c5 0c d0 3d cb 45 85 be ff 15 66 be
       -0.19252531 0.101586856 -0.2602981 -0.22469328
000180 e6 fd 1b be 3c 34 77 be a3 54 ce 3e 6f 56 ee bd
       -0.15233573 -0.2414102 0.40298948 -0.1163758
000190 bc 9a 4a 3c 1e 60 a9 3e 1c 7d aa 3e 81 e8 9e 3e
       0.012365993 0.33081144 0.33298576 0.3103676
0001a0 e1 e6 0a be 7a 36 c6 3e a9 36 3a 3e e2 32 33 be
       -0.13564636 0.38713437 0.18184914 -0.17499879
0001b0 72 7f 1e 3e fa 1c 37 be ca 04 f5 bd 06 55 3f be
       0.15478304 -0.17882147 -0.11963804 -0.18684778
0001c0 8a b5 eb bd e0 2f 4e be 58 47 db bd eb 96 46 be
       -0.11509235 -0.2013545 -0.10706967 -0.19393508
0001d0 da 12 ab 3e 75 22 a7 3e 41 51 90 3e e6 1b a3 3e
       0.3341282 0.32643476 0.28186992 0.31857222
0001e0 85 8f a1 3e e3 ba 3e bd 7c 8c a8 3e 14 18 a8 3e
       0.3155481 -0.046564948 0.3291968 0.3283087
0001f0 c5 ae 7e be 68 ab 4a bc bd 6d fb bd 27 47 4c be
       -0.24871357 -0.012369968 -0.1227679 -0.19949017

layer2.weight f4 [128, 128]
000000 e6 50 82 bc 66 b8 68 bb b0 69 0c 3a 57 f4 35 bc
       -0.015907716 -0.00355103 0.0005356325 -0.011105618
000010 63 40 b7 bc 66 30 16 3c db 31 65 bb 46 1f 01 bd
       -0.02236957 0.0091668125 -0.0034972343 -0.031523965
000020 0e 6c 47 bc f5 b0 ce 3b f7 d2 66 3b 0c 7a ac 3c
       -0.012171758 0.006307716 0.003522096 0.02105429
000030 9e d2 56 3c 65 aa 0c 3c 84 6f b3 3c ee fa 40 bc
       0.0131117385 0.008585547 0.02190376 -0.011778576
000040 34 1e 3c bc c2 68 cb 3c cd 44 01 3c b0 fc 3b 3c
       -0.01148181 0.024830226 0.007889939 0.01147382
000050 7b d7 87 bb 65 41 f7 b9 5d ed 48 3c 48 f3 40 3c
       -0.0041455603 -0.00047160234 0.012263623 0.011776753
000060 4e c6 d1 bc 91 0d e9 bc 33 57 df 3c 68 47 d4 3c
       -0.025607254 -0.028448852 0.02726326 0.025912955
000070 c0 0e 9d bc c8 97 90 bc 7b e4 e1 bc a8 8d 73 bc
       -0.019172072 -0.0176505 -0.027574768 -0.014865316
000080 07 91 65 bc 0f 44 02 3c 7a e5 b6 bc 2d d5 03 3c
       -0.014011628 0.007950797 -0.02232622 0.008046431
000090 ef 40 b3 3c 94 8d a1 bc 20 8e f9 3b 22 65 e1 bc
       0.021881549 -0.01972083 0.0076158196 -0.027514044
0000a0 2f 07 ba 3b a0 68 bf bc ba 7b 7b 3c 8f 08 99 bc
       0.005677126 -0.023365319 0.015349323 -0.018680839
0000b0 d1 8d c1 bb f4 f9 ac 3b 9a 5e b6 bc 22 63 f2 3b
       -0.0059067984 0.00527882 -0.022261906 0.0073970715
0000c0 ee e5 b0 bc e7 99 81 3c c9 75 5a 3b 9d 01 6b bc
       -0.021594014 0.015820457 0.0033334366 -0.014343646
0000d0 03 ab e8 bc a5 63 99 bc c9 57 23 bb 60 36 3e 3c
       -0.028401857 -0.018724272 -0.002492415 0.011609644
0000e0 5f 0c ab 3c a9 b0 e6 bb 9d 27 5e 3c 1d 6c a5 bc
       0.020879922 -0.0070401025 0.013559249 -0.020193154
0000f0 d5 70 8b bc 10 6a 9b 3c a1 45 0c ba 40 46 e0 3b
       -0.017021576 0.018971473 -0.00053509517 0.006844312
000100 e2 7a 6c ba 93 b2 ad 3c e7 40 c6 bc 82 f5 c3 b9
       -0.00090209965 0.021203315 -0.02420087 -0.00037376216
000110 12 b1 80 39 05 bb 6d 3c 3a f7 da 3c 7d a3 7c 3b
       0.0002454599 0.014509921 0.026729215 0.0038549595
000120 70 84 e2 3c 20 42 7e bc 8d da 9d 3b e0 55 f8 ba
       0.027651042 -0.015518695 0.004817313 -0.0018946491
000130 c3 ba 46 3c ed 0e d4 3c fc aa b0 3b 1f 03 3a bc
       0.012129488 0.025886023 0.0053914767 -0.011353283
000140 fd 83 78 bc 3a 4b 0e 3c ee d6 34 bc 84 b3 1d bc
       -0.015168187 0.008684928 -0.011037571 -0.009625319
000150 95 0f 01 39 11 5d f9 bb 82 30 0d 3a b0 2f bf 3a
       0.00012308203 -0.0076099713 0.00053859514 0.0014586356
000160 e3 0e ac 3b c3 98 2a 3b 56 ce 80 bb eb 0a 2b 3b
       0.005250798 0.0026030994 -0.003930847 0.0026099037
000170 77 92 32 bb d2 5e 98 bc f0 2a c6 3c 9f 20 31 bc
       -0.0027247944 -0.018599901 0.024190396 -0.010811
000180 80 7d 54 bc 67 a5 67 bb 7c d4 7e bc cc af c2 3c
       -0.012969375 -0.003534639 -0.01555359 0.023765467
000190 f7 a3 cd 3c c8 19 e3 bc 2b de 64 bc b9 96 3a bc
       0.025102599 -0.027722254 -0.013968985 -0.011388474
0001a0 65 73 2b bc 36 e0 d7 bc d9 37 a5 bb bc 59 02 bb
       -0.010464524 -0.02635203 -0.005042058 -0.0019889912
0001b0 4c 0b 94 ba 8f d4 8e bc ca af b4 3c dd 83 68 3c
       -0.0011294871 -0.01743534 0.022056479 0.014191595
0001c0 7b 17 b0 bc 2b c0 a9 3c ed 94 c3 bc 73 17 cd bb
       -0.021495571 0.020721516 -0.023874724 -0.006258899
0001d0 bd 03 10 bc 35 de a1 bc c5 29 f7 bc 38 8f 15 3b
       -0.008789954 -0.019759277 -0.030171284 0.002282096
0001e0 89 24 bb bb e2 75 7a bb d3 68 5b 3c d0 1d 95 bc
       -0.0057111424 -0.0038217236 0.013391691 -0.018202692
0001f0 e6 03 68 ba 06 bc 3a bb 67 4e b4 3c 8f f0 fe 3b
       -0.00088506786 -0.0028493418 0.022010041 0.0077801417
000200 86 92 47 3e 25 32 7c bc aa 77 59 3e 49 98 9e bd
       0.19489488 -0.015392815 0.21237054 -0.0774389
000210 7f 57 3a 3e 03 91 0d bd c5 21 03 be 61 f3 29 3e
       0.1819744 -0.034562122 -0.12805851 0.16596748
000220 81 64 dd bd 20 cd 39 3e 9c d1 0a bd 4e b1 c7 bd
       -0.10810185 0.18144655 -0.033891305 -0.09750615
000230 77 f1 a6 3e 24 7f 26 3e 93 db b0 bd 75 63 62 3e
       0.32606098 0.16259438 -0.086356305 0.22108252
000240 b8 d3 3f 3e 50 3c 3e 3d d3 b5 35 3e 20 8a 6a 3e
       0.18733108 0.046444237 0.17745142 0.22904253
000250 3a 74 52 3e 19 20 4b bd b5 b0 19 be 7f c8 b2 3d
       0.2055215 -0.049591158 -0.15008815 0.08729648
000260 53 bc 72 3b 87 d7 06 be b5 df 44 be 15 72 34 3e
       0.003703852 -0.13168155 -0.19225962 0.17621644
000270 30 4e 11 bf ee 83 1c 3e a5 67 f8 3d 58 1b b0 bd
       -0.5675993 0.15284702 0.121291436 -0.085989654
000280 f3 b5 cd 3d 2e db 25 3e de eb 7f be 07 a6 03 bd
       0.1004447 0.16196892 -0.2499232 -0.032140758
000290 64 0e 21 3e b2 99 dd bd c9 d7 48 3e ea 58 86 3e
       0.15728146 -0.10820331 0.19613566 0.2623971
0002a0 8d 5c ab 3e 4d cf 82 be ba 95 40 3d a7 e3 87 3d
       0.33469048 -0.25548783 0.04701779 0.06635218
0002b0 53 62 83 3e 1d 02 16 3e 01 b8 08 3e 9d fc 85 3d
       0.25660953 0.14649244 0.13351442 0.06542323
0002c0 6a 43 36 be 8b e7 c5 3e 04 51 7d be 62 84 04 be
       -0.17799154 0.38653216 -0.24737936 -0.12941125
0002d0 d8 d4 98 3d 68 12 17 3e 18 b8 66 bf 2e 8c 6c 3e
       0.07462472 0.14753115 -0.90124655 0.2310035
0002e0 23 fa f4 3d 8e 11 6c 3d 7d 74 cc be 3d 23 21 3e
       0.11961772 0.05763393 -0.39932624 0.15736099
0002f0 eb f0 a5 3d cd 97 18 be 1a 64 94 be 09 e0 90 bd
       0.08102592 -0.14901657 -0.2898262 -0.07073981
000300 28 21 da 3d 10 46 99 3d a8 b7 90 bd e9 61 ce bd
       0.10650855 0.074840665 -0.0706628 -0.10077269
000310 ab 70 0b 3e b0 fd e3 be 8f 88 8e bc 0c 09 33 3e
       0.13617198 -0.44529486 -0.0173991 0.1748392
000320 de 40 e4 bd b8 ae bb bb f8 9f b3 3c 81 70 03 bd
       -0.11145185 -0.005727615 0.021926865 -0.032089714
000330 8e 43 7a bd 58 4b f4 be 9c 5d b0 bd 5d 57 2f 3e
       -0.06109958 -0.47713733 -0.086116046 0.1712317
000340 c6 8a 4d be d3 8a 9f 3d 67 2b 37 3e 89 f1 35 3e
       -0.20072469 0.077901505 0.1788765 0.1776792
000350 15 95 a4 3d 5d 9f 4d bd 4f 93 6a 3e a2 2c 02 3e
       0.08036248 -0.05020081 0.22907756 0.12712339
000360 99 71 0f 3e 2d cb 8d be ea 7d 15 bd b6 db e3 3d
       0.14008178 -0.27694073 -0.036497034 0.11125891
000370 f6 2e 99 be 79 61 13 3e fe 98 54 bf 33 05 08 bf
       -0.2991864 0.14392652 -0.8304595 -0.53132933
000380 05 00 11 be a3 f1 97 be 04 83 72 3e 6a 46 3e bd
       -0.14160164 -0.29676542 0.23682791 -0.04645387
000390 f2 5b 51 bc 53 5d 19 3e 96 30 21 3e c8 ec 40 3e
       -0.012778269 0.14977007 0.1574119 0.18840325
0003a0 7a 20 9e bd 35 a7 23 3e 51 9e 92 3d 05 3f 2c bc
       -0.07721038 0.15981753 0.07159103 -0.010513072
0003b0 53 f6 50 3d 2c a7 79 be 5e 33 4b bd d5 48 95 be
       0.051016163 -0.24380177 -0.049609534 -0.2915713
0003c0 b0 9a 13 3d 8f 14 a0 bd d3 36 97 be c1 ea c7 be
       0.036036193 -0.07816421 -0.29534015 -0.3904629
0003d0 37 e8 32 3e 6e 5d 15 3e 20 23 28 3e 4c 82 e1 3d
       0.17471395 0.14586422 0.16419649 0.1101118
0003e0 9b ca 15 3e a5 47 af 3b 53 9f 1a 3e 80 f3 e8 3d
       0.14628069 0.005349117 0.1509984 0.11374569
0003f0 17 7a 32 be 86 1b 4a 3d 74 9b 80 be eb 88 b5 bd
       -0.17429386 0.049342655 -0.251186 -0.08864006

layer2.bias f4 [128]
000000 b6 4c aa 3c fe d5 87 3e 38 f0 c5 bd 25 26 8a bc
       0.020788532 0.2653045 -0.09664959 -0.016863892
000010 ca ab 20 bc f4 cd c0 3c b0 bf 38 3e 8e d8 86 3e
       -0.009806583 0.023535706 0.18041873 0.26337093
000020 2f c5 34 3e 5f a7 61 3c c4 b9 3c 3e 58 16 df bc
       0.17653345 0.013772815 0.18430239 -0.027232334
000030 65 88 64 3e 3a 6b 07 bd ff c5 4a 3e 98 e1 55 3e
       0.22317655 -0.033061244 0.19802092 0.20886838
000040 9a c6 7d 3c b5 77 24 3d e7 bc 51 3e 28 45 4e b9
       0.015489245 0.040153224 0.20482217 -0.00019671454
000050 1c 75 40 3e 40 14 c2 bc 4c 95 5e 3c 46 35 49 3e
       0.18794674 -0.023691297 0.0135854 0.19649228
000060 7b 05 e8 bc e8 e0 af bc 12 cf 52 3e 93 63 e4 bc
       -0.028322926 -0.021469548 0.20586804 -0.027879512
000070 fe fc 82 3e fd 87 65 3e 7e 02 73 3e 32 f4 91 39
       0.25583643 0.22415157 0.2373142 0.00027838495
000080 2f 5e 58 3e 6b 23 d9 bc fa 39 72 3e 3c 2a 70 3e
       0.21129678 -0.026506146 0.23654929 0.23453611
000090 58 fc 80 3d ec 51 8a 3c 9e f1 82 3e c6 c0 71 bd
       0.06298131 0.016884767 0.25574964 -0.059021734
0000a0 ea 60 06 3e 75 63 38 bd ce 14 9c bc db ef 55 3e
       0.13122907 -0.045016725 -0.01905289 0.20892279
0000b0 e0 33 37 3e c1 cf 95 3c fc d8 73 3c 78 71 39 3e
       0.17890882 0.018287541 0.014883276 0.18109691
0000c0 ef 03 50 3e aa 28 47 3e 7d ff 27 bb cf be 88 3e
       0.20314 0.19449106 -0.002563446 0.26708075
0000d0 ed aa ea bc cf fe 55 3e b0 08 58 3e 79 2d 87 3c
       -0.028645957 0.20897983 0.21097064 0.016501175
0000e0 8c 8e dd bc 0c 08 68 3e e5 b3 35 3e f8 2e 70 3e
       -0.02704551 0.2265932 0.17744406 0.23455417
0000f0 91 2b 3c bc 6b 5b fb ba ab 62 4f bc df ff 58 3e
       -0.011484996 -0.0019177025 -0.012657802 0.21191357
000100 1f 23 5c 3e bf 83 68 3e d6 a3 64 3e 0e 41 a3 bb
       0.21497773 0.22706507 0.22328123 -0.0049821204
000110 a7 00 89 3e ae a3 3c 3e ba d9 e1 3d 6c f1 ed bc
       0.2675831 0.18421814 0.11027856 -0.029045783
000120 57 01 89 3e 32 0e 75 3e 54 ca 74 3e b4 d2 37 3e
       0.26758835 0.23931196 0.23905307 0.1795147
000130 8d 43 5c bd 4f 37 3f 3e e1 45 56 3e 60 0d 81 3e
       -0.05377536 0.18673442 0.20925094 0.25205517
000140 a9 4d 89 bd 74 b8 1d 3e 9f d1 6d 3e 20 58 b1 3a
       -0.067042656 0.15402395 0.23224495 0.0013530292
000150 67 9e 72 3e 8c b3 02 3c b8 7d 7b bd ac d0 1f 3e
       0.23693238 0.007977378 -0.06139919 0.15606946
000160 5d 3c 16 bd fc 28 6c 3e 05 18 40 3e ff b4 45 bc
       -0.03667866 0.2306251 0.18759163 -0.012067079
000170 75 90 02 bd 4b 5f 71 3e f2 9d 2c bd dc 25 4f 3e
       -0.031876046 0.23571508 -0.042142816 0.20229286
000180 16 e6 5c 3e 94 7d 20 bd 97 0d 2e bd 18 83 71 3c
       0.21572146 -0.03918226 -0.04249343 0.014740728
000190 e4 42 7f bd 26 be 60 3e c3 c0 af bc 18 ab 91 bd
       -0.06231965 0.21947536 -0.02145422 -0.07112712
0001a0 ac 54 80 3c 40 bf 5c 3e d8 7e 5b 3e 4f 6d c4 3d
       0.015665375 0.21557331 0.21435106 0.095911615
0001b0 aa ab b9 3d bd 17 41 3e 32 b3 51 3e df 0b 6f bc
       0.090659454 0.18856712 0.20478514 -0.014590233
0001c0 2b 39 e4 bc 11 9c 28 bd 91 db 92 bd 7f bd a8 bc
       -0.027859291 -0.04116446 -0.07170785 -0.020598171
0001d0 ad 68 27 3d 53 d1 2f bd 59 d6 68 3e ba 20 3d 3c
       0.04087131 -0.042924237 0.22738017 0.011543447
0001e0 f3 0f 42 3e 54 7b b9 3d f9 c0 60 3e 6e c1 81 3e
       0.18951397 0.09056726 0.21948613 0.25342888
0001f0 df 83 61 3e 25 84 5a 3e 46 93 06 3e d5 67 90 bd
       0.22022961 0.21339472 0.13142118 -0.070510544

layer3.weight f4 [2, 128]
000000 56 2b 92 bb b1 c2 ca 3e d5 c0 db be 64 03 04 bc
       -0.0044607325 0.39601663 -0.42920557 -0.008057449
000010 12 b5 18 ba c8 83 88 bb 8b d5 ba 3e 63 76 9b 3e
       -0.00058253214 -0.0041661 0.36491045 0.3036376
000020 3f 03 94 3e 28 d4 69 be 03 a9 aa 3e dc 15 94 3b
       0.28908727 -0.22834837 0.3333207 0.0045192074
000030 75 4d e2 3e 27 c1 f6 be 7e 3f b0 3e fe 47 a3 3e
       0.4419972 -0.4819424 0.3442344 0.31890863
000040 55 ed db be 35 85 e0 be d0 16 b5 3e 3e 6d 57 bc
       -0.42954507 -0.4385163 0.35368967 -0.013148604
000050 57 8a b3 3e 41 8e 35 bf b8 f6 2d bc f5 cf ec 3e
       0.35066482 -0.7092019 -0.010617904 0.4625241
000060 e5 7b 80 3b ea 39 c4 bc 75 af e0 3e 7e a3 9a 3c
       0.0039210194 -0.023953397 0.43883863 0.018876787
000070 b1 67 d0 3e ae 5f d6 3e 7a e5 9f 3e 65 d4 7f bb
       0.4070411 0.41869873 0.31229764 -0.003903651
000080 70 59 a9 3e b9 2b 9f be f6 19 ba 3e 50 93 91 3e
       0.33076048 -0.31088045 0.36347932 0.28432703
000090 8b bf a9 be 9c 45 ba bc 4d f0 b0 3e dc fc 05 bf
       -0.33153948 -0.02273827 0.34558335 -0.5233896
0000a0 b6 88 8f 3e ce 38 eb bc bb 0f 62 bc bb 23 b7 3e
       0.2803399 -0.02871361 -0.013797696 0.35769448
0000b0 e4 de ce 3e d3 c6 64 bc 0f 75 b5 bc 48 d3 ea 3e
       0.40404427 -0.013963419 -0.022150544 0.4586432
0000c0 a4 7c d0 3e 7e 4e bb 3e 04 dc cf bc 50 8a a8 3e
       0.40720093 0.36583322 -0.025373466 0.32918024
0000d0 c8 03 77 bc 20 6d c5 3e 6a fe a2 3e 75 ef 3c bc
       -0.015076585 0.38559818 0.31834728 -0.0115317
0000e0 3e 63 f9 bd 09 84 ef 3e a1 fe 54 be b9 4a c5 3e
       -0.12177132 0.46780422 -0.20800258 0.3853357
0000f0 2c 1f e0 bd d8 4c 6d be 03 68 9d bc 5a ef df 3e
       -0.109434456 -0.23173845 -0.019214636 0.43737298
000100 c9 21 ac 3e 52 51 97 3e 11 d3 c8 3e 8c ad dc bc
       0.33619526 0.2955423 0.3922353 -0.026938222
000110 18 dc 94 3e 8c 04 dd 3e 3d 17 84 3e 95 53 02 be
       0.29074168 0.43167531 0.2579898 -0.12727197
000120 df e6 a2 3e 65 df a7 3e aa 2e b4 3e 75 28 a5 3e
       0.31816766 0.32787624 0.35191852 0.3225743
000130 61 9c 8b bf 70 21 8c 3e 61 a8 d2 3e be c9 9f 3e
       -1.0907098 0.2736926 0.41144088 0.31208605
000140 71 e0 cc be f8 53 8c 3e be bc b2 3e 68 a7 d7 bc
       -0.40014985 0.27407813 0.34909624 -0.026324943
000150 02 c1 a7 3e ff 1a 98 ba f4 be d5 bd 50 60 a0 3e
       0.3276444 -0.0011604725 -0.10436812 0.3132348
000160 c5 f6 a7 be ca 68 c0 3e 8d 6c d6 3e 17 2e 19 be
       -0.32805458 0.37579948 0.41879693 -0.14958988
000170 4c a0 15 bd 85 2b f0 3e fe 2b d3 be 76 fa e1 3e
       -0.036529824 0.46908203 -0.412445 0.441364
000180 64 76 d8 3e e2 c2 d2 bd d1 ec fc be 80 9c a1 bc
       0.42277825 -0.10291077 -0.49399427 -0.019727945
000190 87 2c 91 be 27 8e ce 3e 62 cf ca 3c 54 d7 52 bf
       -0.28354284 0.4034283 0.024757091 -0.82359815
0001a0 c1 7e 1c bc b2 3b c0 3e d8 54 ba 3e cb 95 5c 3e
       -0.009551705 0.37545544 0.36392856 0.21541516
0001b0 66 e4 64 3e e7 18 d3 3e 4a 83 c3 3e a6 aa 94 38
       0.22352752 0.41229936 0.38186103 7.088976e-05
0001c0 24 6b f9 be ba e2 24 bf 9c 27 5e bf d8 36 c5 bc
       -0.48714554 -0.6440846 -0.8677919 -0.024074003
0001d0 fe 7d 27 3e ac 2c fb bd 1d 6e d7 3e a8 0b 31 be
       0.16356656 -0.1226438 0.42076197 -0.17289603
0001e0 85 c1 c1 3e 27 28 a4 3e 4f e6 e3 3e 82 a3 b7 3e
       0.37842956 0.32061884 0.4451165 0.35866934
0001f0 01 35 a0 3e 45 fd d3 3e 92 f8 5b 3d c2 0f fd be
       0.3129044 0.41404167 0.053703852 -0.49426085
000200 2e 79 ac 3c f5 c6 ba 3e 36 53 12 bf d0 fd b1 3c
       0.021053877 0.36479917 -0.5715822 0.021727473
000210 c6 d8 01 3c 23 70 9d b9 39 15 ad 3e 07 7f c9 3e
       0.007925218 -0.00030028922 0.33805254 0.39354727
000220 4c 65 13 3e 80 70 cb 3d b4 3b 9e 3e e9 6a bd bc
       0.1439411 0.09933567 0.30904925 -0.023122268
000230 c1 dd db 3e af ec 58 be a9 e5 94 3e 7d 35 c9 3e
       0.42942622 -0.21184038 0.29081467 0.3929862
000240 d4 5d 5f be f9 43 64 bd a7 58 ae 3e 3c 13 58 3b
       -0.21813136 -0.055728886 0.3405201 0.003297045
000250 bb 0c 8f 3e 6a a4 40 bf b3 7d e1 3c 17 2e e9 3e
       0.279394 -0.75250876 0.027525758 0.45542976
000260 7a 1b 91 3c 99 8e f9 bb 2d 4a d9 3e 79 56 5f 3c
       0.017713297 -0.007615876 0.42439404 0.0136314565
000270 d9 7d bf 3e 1b c2 cf 3e 97 ef b0 3e 60 09 28 3b
       0.37400702 0.40577778 0.34557793 0.0025640354
000280 f6 ab 9e 3e 7e 1c f0 be cc 46 c3 3e c7 d8 cf 3e
       0.3099057 -0.46896738 0.3813995 0.40595075
000290 bb be 5f 3d fc 21 1b bb 4a 50 d4 3e bf fe ac be
       0.054625254 -0.002367138 0.41467506 -0.33788106
0002a0 46 82 ed 3d be a1 db bd 88 d6 df 3b ef 8e d0 3e
       0.11597113 -0.10724209 0.006830994 0.4073405
0002b0 bb dc bc 3e 2b 04 e1 bc a8 1c c6 3c 85 0e cc 3e
       0.36887154 -0.027467808 0.024183586 0.39854828
0002c0 0b b2 d1 3e f9 b9 b8 3e 36 ed e1 3c 7d c4 d4 3e
       0.40956149 0.36079386 0.027578931 0.4155616
0002d0 0a f3 d8 3b 1d 3a bc 3e a3 05 e1 3e cb 93 85 3c
       0.0066207694 0.36763087 0.43949613 0.016305825
0002e0 f7 39 3c be cf 58 ed 3e 25 76 a5 3e bf fd d1 3e
       -0.18381487 0.46356818 0.323167 0.41013905
0002f0 45 cf 41 be d0 81 d1 be d0 95 3a 3b 79 89 c4 3e
       -0.18926723 -0.40919352 0.0028470643 0.38386133
000300 be cd b5 3e 85 13 e4 3e d6 21 c7 3e b5 32 90 bc
       0.3550853 0.44546142 0.38893002 -0.017602304
000310 f2 23 be 3e 8b 37 af 3e b4 57 80 3e 27 99 23 3e
       0.371368 0.34222063 0.25066912 0.15976392
000320 c8 c2 bd 3e 48 55 cd 3e c6 d2 c5 3e 01 66 99 3e
       0.3706267 0.40104127 0.3863737 0.29960635
000330 1d 23 40 bf 94 f3 9e 3e aa 0a 81 3e 7a 64 b5 3e
       -0.7505358 0.3104521 0.2520345 0.3542822
000340 3e 7b 1d bf 2b f3 ed 3d d7 57 77 3e c2 a9 89 3c
       -0.6151618 0.11618646 0.24154602 0.01680458
000350 fa d2 ce 3e 00 79 7c bb e3 ee 39 be 26 88 33 3e
       0.40395337 -0.003852427 -0.18157534 0.17532405
000360 d8 2c e1 be ed 0b 85 3e f6 52 ce 3e f7 1a c0 be
       -0.43979526 0.2598566 0.4029767 -0.37520573
000370 2d e0 f8 bd 26 92 df 3e b5 b2 d8 be 15 85 9a 3e
       -0.12152133 0.4366619 -0.42323843 0.3017966
000380 ca 94 d3 3e d4 f8 53 be 1a 66 cc be ec 64 e3 bc
       0.41324455 -0.20700389 -0.39921647 -0.027758084
000390 a5 f4 2a bf e4 01 cf 3e 1a 52 b3 bc 28 bf 1e bf
       -0.6677955 0.4043113 -0.021889735 -0.6201043
0003a0 f0 5c d4 bc 79 8f 05 3f 23 6c eb 3e ea e9 7b 3e
       -0.025923222 0.52172047 0.4598094 0.2460095
0003b0 40 18 81 3e ab 25 c6 3e 6c 6f bf 3e a4 64 a5 b9
       0.25213814 0.38700613 0.37389696 -0.00031546236
0003c0 4b 71 f7 be a8 b5 2c bf 71 6f 4f bf b6 e6 a6 3c
       -0.48328623 -0.67464685 -0.8102942 0.020373683
0003d0 87 a8 69 bd da 0f 4e be dc e4 cc 3e 87 cd a5 be
       -0.057045486 -0.20123234 0.40018356 -0.32383367
0003e0 e8 78 a2 3e bb b6 18 be eb c6 d0 3e 73 ec cc 3e
       0.3173287 -0.14913456 0.40776762 0.40024146
0003f0 05 36 c3 3e 7f a6 c5 3e 40 f3 a6 3e 35 c9 2e bf
       0.3812715 0.3860359 0.3260746 -0.6827577

layer3.bias f4 [2]
000000 46 e9 9c 3d b5 54 d3 3d
       0.07661681 0.10318891
