cartpole_v1_model.pth (torch, 282933 bytes, 14 tensors)

layer1.weight f4 [256, 4]
0	0xbe0128b2	-0.1261318
1	0x3db8df22	0.09026934
2	0x3d57f1ed	0.052720953
3	0xbdbe4f1a	-0.09292431
4	0x3dfb8f23	0.122831605
5	0x3e18c862	0.1492019
6	0xbc426fbd	-0.011867461
7	0x3d382d3c	0.044965014
8	0xbcaa425c	-0.020783596
9	0xbbcb5c8d	-0.0062061013
10	0x3e658e18	0.22417486
11	0xbcb71214	-0.022347488
12	0x3e5a8d79	0.2134303
13	0x3d34baa1	0.044123296
14	0xbeb72322	-0.35768992
15	0x3d856337	0.06513064
16	0x3db3649c	0.08759424
17	0x3b997945	0.004683646
18	0xbc0f6618	-0.008752368
19	0xbd0c051c	-0.03418456
20	0x3dfcb81d	0.12339804
21	0xbca4d020	-0.020118773
22	0xbbd4aaba	-0.0064900788
23	0x3cd8b1d3	0.02645198
24	0x3dcb98bc	0.09941241
25	0x3a469924	0.00075759203
26	0xbbd3de68	-0.006465722
27	0xbce6249c	-0.028093629
28	0x3beca85e	0.0072222194
29	0x3ca873e7	0.020563079
30	0xbce93b55	-0.028470675
31	0xbd19714d	-0.037461568
32	0xbe4f354e	-0.20235178
33	0x3d2170cb	0.03941421
34	0x3d37c0c1	0.04486156
35	0x3bde9c2a	0.0067935186
36	0xbe61c59a	-0.22048035
37	0x3df9158e	0.12162314
38	0xbd002a54	-0.031290367
39	0x3d1a8f4e	0.037734322
40	0x3d86c257	0.06580036
41	0x3e2a744d	0.16645928
42	0xbd2c4636	-0.042059146
43	0x3d535b81	0.051600937
44	0x3e2168db	0.15762655
45	0x3ddf5a57	0.10905903
46	0x3d1e5285	0.038652916
47	0x3cc60eb4	0.024176933
48	0xbddfa82e	-0.109207496
49	0x3c364836	0.011125615
50	0x3cbe7627	0.023249699
51	0xbc5a5b9d	-0.013327506
52	0x3f10da11	0.5658274
53	0x3ec3a525	0.38211933
54	0x3f1dfa64	0.6171019
55	0x3e2ab7cd	0.16671677
56	0x3ce17389	0.027520912
57	0x3a039afe	0.0005020349
58	0xbe49bf72	-0.19701937
59	0xbd58bfba	-0.05291722
60	0xbee965fa	-0.45585614
61	0x3e2ca0a9	0.16858162
62	0x3f217d58	0.63081884
63	0x3e13dc6f	0.14439557
64	0x3ba37c3a	0.004989174
65	0x3deb0df9	0.114772744
66	0x3e146236	0.1449059
67	0x3e1544a3	0.14576964
68	0xbf3b1448	-0.7307782
69	0x3e738c8e	0.23784086
70	0x4031c136	2.7774177
71	0x3f1b83b1	0.6074782
72	0xc035569d	-2.8334115
73	0xbde819cb	-0.113330446
74	0x3f5759bc	0.841213
75	0xbec06a80	-0.37581253
76	0x3cce74ef	0.025202243
77	0xbe995e45	-0.29954734
78	0xbeddd462	-0.43326098
79	0xbac9eef4	-0.0015406297
80	0x3deffcd3	0.11718144
81	0x3ce7e620	0.028307974
82	0x3d26db37	0.040736403
83	0x3c0a6703	0.0084474115
84	0xbda7595f	-0.08171343
85	0xbdb699a3	-0.08916023
86	0x3d508d27	0.050915863
87	0xbd06b7ea	-0.032890238
88	0xbe2a4e5b	-0.16631453
89	0xbece3da6	-0.4028141
90	0xc00c0665	-2.1878903
91	0xbeef29c3	-0.4671155
92	0xbd99a68d	-0.0750247
93	0x3c82a78f	0.015949039
94	0xbd0abbc4	-0.033870474
95	0xbd3e2fa8	-0.046432167
96	0xbfa0710b	-1.2534498
97	0x3e428688	0.18996632
98	0x3f6823d3	0.90679663
99	0xbca0b49d	-0.019617373
100	0x3d361a1c	0.044458494
101	0x3c142108	0.009041078
102	0x3e1ee63b	0.15517513
103	0xbc30444a	-0.010758469
104	0x3d8fda74	0.070240885
105	0xbca946e5	-0.020663688
106	0x3d213fe5	0.039367575
107	0x3dc3a97a	0.095538095
108	0x3e513ab9	0.20432557
109	0x3b99b6f5	0.0046909996
110	0xbe2aa713	-0.16665296
111	0x3c9c29c2	0.01906288
112	0xbe8d8cc6	-0.27646464
113	0xbf1e3786	-0.6180347
114	0x3ef3e0a5	0.47632328
115	0x3e4f54a2	0.20247129
116	0x3d590d16	0.052990995
117	0x3e0bcb34	0.13651735
118	0x3d3083d9	0.04309449
119	0x3d6eead4	0.05832942
120	0xbda29d8a	-0.079402044
121	0xbef50607	-0.4785616
122	0x3f69f9ba	0.9139668
123	0x3ecd7e56	0.4013545
124	0xbe88f202	-0.26747137
125	0x3d1d6c93	0.038433623
126	0xbd5d5fe0	-0.05404651
127	0xbe1c5f54	-0.1527074
128	0x3eea1c79	0.45724848
129	0xbccd97ad	-0.025096739
130	0xbed6291f	-0.41828248
131	0xbd1982fc	-0.037478432
132	0x3e01f8a1	0.126925
133	0xbd534257	-0.05157694
134	0xbe292069	-0.1651627
135	0xbdb951e5	-0.09048823
136	0x3d6a0f64	0.057143584
137	0x3cd20979	0.025639283
138	0x3c6ba6c9	0.014383026
139	0xbd4325d6	-0.047643505
140	0xbfb28f86	-1.395005
141	0x3f601439	0.8753086
142	0x3e6b81d6	0.22998747
143	0xbec4a448	-0.38406587
144	0xbd5eea34	-0.054422572
145	0xbc981cb1	-0.018568369
146	0xbe399a92	-0.1812537
147	0x3d51ce84	0.05122234
148	0x3d5f9776	0.054587804
149	0x3dad31b2	0.08456744
150	0xbd349dd5	-0.044095833
151	0xbca015b7	-0.019541604
152	0xbdb1a1ac	-0.086734146
153	0x3dff5b58	0.12468594
154	0x3e9f9c78	0.31174064
155	0x3d8fee41	0.07027865
156	0xbeb34281	-0.35011676
157	0xbc162911	-0.009165064
158	0x3e18f6a3	0.14937834
159	0xbd3a63b6	-0.045505248
160	0xbfdaf25c	-1.7105212
161	0xbf01b794	-0.50670743
162	0xc03dd6e1	-2.9662402
163	0xbeac984d	-0.33709946
164	0x3d938e54	0.07204881
165	0xbd3a62a3	-0.045504224
166	0x3dea97c0	0.11454725
167	0xbd7299b4	-0.059228614
168	0xbd4328af	-0.04764622
169	0x3d899e8a	0.06719692
170	0xbc113b93	-0.008864301
171	0x3c8c741c	0.017145209
172	0x3e06260c	0.13100451
173	0x3e0841b0	0.13306308
174	0x3cc5ead1	0.02415982
175	0x3d58bcf2	0.052914567
176	0x3d000df8	0.03126332
177	0xbcf431c6	-0.02980889
178	0x3e83008e	0.2558636
179	0xbd2c8360	-0.042117476
180	0x3d330d32	0.043713756
181	0xbd968d76	-0.073512
182	0x3da2aa5d	0.079426505
183	0xbbe7a9ef	-0.007069818
184	0xbec0700c	-0.37585485
185	0xbf37f000	-0.71850586
186	0xbe8488b4	-0.25885546
187	0x3e46497e	0.19363973
188	0x3cd20103	0.025635248
189	0xbcbb558e	-0.022867944
190	0xbd8dfd4d	-0.06933079
191	0x3b9f47d6	0.0048608584
192	0xbd8da91b	-0.0691702
193	0x3cd594db	0.026071956
194	0x3e0b068a	0.13576713
195	0xbb7bcdfc	-0.0038422337
196	0xbe934c2e	-0.28769058
197	0xbd879e9c	-0.06622049
198	0x3e0930b7	0.1339749
199	0xbe410fcd	-0.18853684
200	0x3d4f119d	0.050553907
201	0x3d4feb27	0.050761368
202	0xbdd7c5f3	-0.10535803
203	0x3dc3c5b9	0.09559197
204	0xbd85f4e1	-0.065408476
205	0xbd6c2492	-0.057652064
206	0xbd260276	-0.04052969
207	0xbcbe4372	-0.02322552
208	0xbd936b88	-0.07198244
209	0x3e0683e7	0.13136254
210	0x3dbf69bd	0.0934634
211	0x3d1f3fb4	0.03887911
212	0x40043401	2.065674
213	0x3fa965b3	1.3234161
214	0x3fe6967c	1.8014674
215	0x3efe05ea	0.49613887
216	0x3e1aac2f	0.15104745
217	0x3d691e90	0.056913912
218	0xbd230299	-0.0397974
219	0xbc2631f8	-0.010143749
220	0xbd8e6652	-0.0695311
221	0x3dd77c85	0.10521797
222	0xbd3d1922	-0.046166547
223	0x3da50238	0.08057064
224	0xbf9b0cb5	-1.2113253
225	0x3e1c38fa	0.1525611
226	0x3f3ca9ec	0.7369678
227	0x3d742110	0.059601843
228	0x3d80d7df	0.06291174
229	0x3d91a7e9	0.071121044
230	0x3d5ddf57	0.05416807
231	0x3c6a10f3	0.014286268
232	0xbf6eb954	-0.9325154
233	0x3cb2130e	0.021737602
234	0xc02505dd	-2.5784829
235	0xbf208f05	-0.6271823
236	0xbeee03c3	-0.46487245
237	0xbf4569fc	-0.77114844
238	0xbbffb8aa	-0.007803996
239	0x3e9ac67d	0.3022956
240	0x3e639e49	0.2222835
241	0x3d94777d	0.07249353
242	0xbe5d20b0	-0.215945
243	0x3b037001	0.0020055773
244	0xbe292034	-0.16516191
245	0xbd3a17ab	-0.045432728
246	0xbd8116df	-0.063031904
247	0x3d0220d4	0.03176959
248	0x3cfcc638	0.030856237
249	0x3da47139	0.08029408
250	0xbd5d7f95	-0.05407675
251	0x3cd2345e	0.025659736
252	0xbf0620f4	-0.5239403
253	0x3f7b2708	0.9810643
254	0x3ff70415	1.9298121
255	0x3eb1e52c	0.34745157

layer1.bias f4 [256]
0	0xbe6764ea	-0.2259709
1	0xbdb4f159	-0.08835096
2	0xbd866490	-0.065621495
3	0xbde4c28e	-0.11169921
4	0xbdf29d24	-0.118463784
5	0xbdc30663	-0.095227025
6	0xbe005d13	-0.12535505
7	0xbdc922a3	-0.098210596
8	0xbd86700e	-0.065643415
9	0xbd33797b	-0.043817025
10	0xbdbb4a2f	-0.09145009
11	0xbde955a5	-0.113932885
12	0xbd657073	-0.056015443
13	0xbe8f19a6	-0.27949256
14	0xbe058322	-0.13038304
15	0xbe4ecfdb	-0.20196478
16	0xbdde8ce2	-0.10866715
17	0xbf32560c	-0.6966255
18	0xbde754e2	-0.11295487
19	0xbebde247	-0.37086698
20	0xbd59edfb	-0.05320547
21	0xbda779f2	-0.08177556
22	0xbe3c234a	-0.18372837
23	0xbda7a293	-0.081853054
24	0xbdd23cca	-0.10265501
25	0xbda0149d	-0.07816432
26	0xbe2aedfb	-0.16692345
27	0xbdf5ba07	-0.119983725
28	0xbeda8748	-0.42681336
29	0xbda89658	-0.08231801
30	0xbeea0332	-0.45705563
31	0xbe3f9c73	-0.18712024
32	0xbe28af79	-0.16473188
33	0xbde12f5b	-0.109953605
34	0xbe0858a1	-0.13315059
35	0xbec81311	-0.39077047
36	0xbe7a9e30	-0.24474406
37	0xbdce58e7	-0.100755505
38	0xbd7b3469	-0.06132928
39	0xbe25433b	-0.16138928
40	0xbdd7430a	-0.105108336
41	0xbd8ffb7a	-0.07030387
42	0xbdae4026	-0.08508329
43	0xbd8f35e0	-0.06992698
44	0xbdfb830f	-0.12280857
45	0xbdaf3bd6	-0.08556335
46	0xbed63cdf	-0.41843316
47	0xbdf60499	-0.12012596
48	0xbd42d052	-0.04756195
49	0xbe32614b	-0.17419927
50	0xbdf1002e	-0.117676124
51	0xbdccc9dc	-0.09999439
52	0xbd5253d4	-0.051349476
53	0xbd5b8ce4	-0.05360116
54	0xbda07dad	-0.07836471
55	0xbd9a8454	-0.07544771
56	0xbec3014b	-0.38086924
57	0xbdaec80a	-0.08534248
58	0xbd06943c	-0.03285621
59	0xbefe2c78	-0.49643302
60	0xbdc8862e	-0.09791218
61	0xbdd5b458	-0.104347885
62	0xbd4090b3	-0.047012996
63	0xbeb1773e	-0.34661287
64	0xbdcbf184	-0.09958175
65	0xbda2608e	-0.079285726
66	0xbdbd7308	-0.09250456
67	0xbdf1dcac	-0.11809668
68	0xbc3f9d3a	-0.011695201
69	0xbe3df43c	-0.185502
70	0xbdf1bd81	-0.11803723
71	0xbe5f5268	-0.21808779
72	0xbe011230	-0.12604594
73	0xbdca90e8	-0.0989092
74	0xbe636f87	-0.22210513
75	0xbddf7355	-0.1091067
76	0xbd9e59fe	-0.077320084
77	0xbe6362e3	-0.22205691
78	0xbd901f5f	-0.070372336
79	0xbeb8e9a9	-0.3611577
80	0xbdcc5fd8	-0.09979218
81	0xbe5187d2	-0.20461968
82	0xbe6e9947	-0.23300658
83	0xbdc4c4f3	-0.096078776
84	0xbd9f1bfa	-0.07769008
85	0xbe8b8c5b	-0.2725552
86	0xbd8c2359	-0.068426795
87	0xbe6e4206	-0.23267373
88	0xbef9f601	-0.488205
89	0xbed75047	-0.42053434
90	0xbd50e3e5	-0.050998587
91	0xbd86072a	-0.06544335
92	0xbe1fe2fe	-0.15613934
93	0xbe8fe38b	-0.2810329
94	0xbe0509b4	-0.12991983
95	0xbd225c0d	-0.039638568
96	0xbe2c328f	-0.16816162
97	0xbda632b0	-0.081151366
98	0xbd8bac01	-0.068199165
99	0xbda84169	-0.08215601
100	0xbdcefdc5	-0.101069964
101	0xbecc4fc6	-0.39904612
102	0xbd05216c	-0.032502577
103	0xbf3e20c1	-0.7426873
104	0xbda2ef50	-0.079558015
105	0xbe27573f	-0.16341875
106	0xbdbaefea	-0.09127791
107	0xbe03e10e	-0.1287882
108	0xbdd11868	-0.10209733
109	0xbe2e261d	-0.17006727
110	0xbe4bbf54	-0.19897205
111	0xbdf9c9fb	-0.12196728
112	0xbe8c5712	-0.2741018
113	0xbd8860c8	-0.066590846
114	0xbdafc879	-0.08583159
115	0xbdaa741c	-0.08322927
116	0xbd873b2e	-0.066030845
117	0xbd116fc3	-0.035506975
118	0xbd9c7f31	-0.07641447
119	0xbec14d3d	-0.3775424
120	0xbd80cb41	-0.062887676
121	0xbdcf6fc7	-0.10128742
122	0xbebbf7c9	-0.36712483
123	0xbdc824aa	-0.09772618
124	0xbd93308c	-0.07186994
125	0xbdefca3f	-0.11708497
126	0xbddc482b	-0.107559524
127	0xbe0c594b	-0.13705938
128	0xbd4fc965	-0.050729174
129	0xbddef6f0	-0.10886943
130	0xbd01fec5	-0.031737108
131	0xbdbf7bb3	-0.09349766
132	0x3d5f553a	0.054524638
133	0xbec1d509	-0.37857845
134	0xbe3aa37c	-0.18226427
135	0xbdc6c28b	-0.09705075
136	0xbe05f953	-0.13083391
137	0xbd8b826b	-0.06811985
138	0xbe0abf78	-0.13549602
139	0xbee539d4	-0.44770682
140	0xbe0fc713	-0.14040785
141	0xbdf56f45	-0.119841136
142	0xbdbf9218	-0.09354037
143	0xbe0d10d9	-0.13775958
144	0xbdb2ccc4	-0.08730462
145	0xbd81464f	-0.063122384
146	0xbdc3efc1	-0.09567214
147	0x3d5172b7	0.05113479
148	0xbd906d12	-0.070520535
149	0xbed57b0d	-0.41695443
150	0xbe0ac2db	-0.13550894
151	0xbdf23d3a	-0.11828084
152	0xbe1c4695	-0.152613
153	0xbd94760c	-0.07249078
154	0xbd67b62f	-0.05657023
155	0xbdf722d5	-0.120671906
156	0xbd664756	-0.056220375
157	0xbe9609e4	-0.2930442
158	0xbe0b7e5e	-0.13622424
159	0xbdba239e	-0.09088825
160	0xbda3498b	-0.079730116
161	0xbeeade60	-0.45872784
162	0xbd731416	-0.059345327
163	0xbdb3ef36	-0.0878586
164	0xbdbc6fdb	-0.09201022
165	0xbddef136	-0.10885851
166	0xbdc4be3f	-0.09606599
167	0xbe81e27b	-0.25368103
168	0xbe4d6e49	-0.20061602
169	0xbec3ba2b	-0.38227972
170	0xbd886271	-0.06659401
171	0xbd0a689f	-0.03379118
172	0xbdd0fb0c	-0.102041334
173	0xbd930254	-0.071781784
174	0xbd977d88	-0.0739699
175	0xbdfaaec6	-0.12240367
176	0xbe4da47e	-0.2008228
177	0xbe96326c	-0.29335344
178	0xbdeba756	-0.11506526
179	0xbe8c7a4a	-0.2743705
180	0xbde0f734	-0.1098465
181	0xbdb58d3f	-0.08864831
182	0xbde724df	-0.112863295
183	0xbdcbd296	-0.099522755
184	0xbe9032c0	-0.2816372
185	0xbde0f832	-0.109848395
186	0xbddbba5f	-0.10728907
187	0xbdd3fe6f	-0.10351264
188	0xbe51d942	-0.20493034
189	0xbdb73ae6	-0.08946781
190	0xbe03dbec	-0.12876862
191	0xbdc067cd	-0.093947984
192	0xbdc8442d	-0.097786285
193	0xbdde0f4e	-0.10842763
194	0xbd2fba47	-0.042902257
195	0xbdfc4d3f	-0.12319421
196	0xbd3f4ec0	-0.04670596
197	0xbd2d1778	-0.04225871
198	0xbdacdc88	-0.084405005
199	0xbe0f078e	-0.13967726
200	0xbf221d1e	-0.6332568
201	0xbe2bcb82	-0.16776851
202	0xbe9cd2d9	-0.30629614
203	0xbdd59a57	-0.104298286
204	0xbdc19635	-0.09452478
205	0xbe5dd12b	-0.21661822
206	0xbdd1bcfe	-0.102411255
207	0xbd8fe660	-0.070263624
208	0xbe27e4a3	-0.16395812
209	0xbe01600b	-0.12634294
210	0xbd87ed46	-0.06637053
211	0xbe18cce6	-0.14921913
212	0xbdabfbd1	-0.083976395
213	0xbd7dfb85	-0.062007446
214	0xbde15f03	-0.1100445
215	0xbd88fd1e	-0.06688903
216	0xbed29f55	-0.41137186
217	0xbdaeecea	-0.085412815
218	0xbeaab76a	-0.3334306
219	0xbdfd88f0	-0.123796344
220	0xbebee21a	-0.37281877
221	0xbde5c98b	-0.11220082
222	0xbe08da2b	-0.13364474
223	0xbdf27d0c	-0.11840257
224	0xbdb1cd78	-0.08681768
225	0xbd3049c7	-0.04303911
226	0xbda23e9b	-0.07922097
227	0xbd9587be	-0.073012814
228	0xbd987e9c	-0.07446024
229	0xbdc84f14	-0.09780708
230	0xbd731ddf	-0.05935466
231	0xbdba04e9	-0.09082968
232	0xbdb617ff	-0.08891296
233	0xbe7ae9b8	-0.24503219
234	0xbda1f5c6	-0.07908206
235	0xbdb95d75	-0.09051029
236	0xbdc45317	-0.09586161
237	0xbe44c5e4	-0.19216114
238	0xbe6ed2d2	-0.23322609
239	0xbe1a64d8	-0.15077531
240	0xbda2aef3	-0.07943525
241	0xbd64ed13	-0.055890154
242	0xbe026f13	-0.12737684
243	0xbdfc5fdb	-0.123229705
244	0xbdc0b884	-0.094101936
245	0xbea5ca60	-0.32380962
246	0xbebe5b95	-0.37179247
247	0xbda27c31	-0.07933844
248	0xbde1f4de	-0.11033033
249	0xbd883ca3	-0.066521905
250	0xbdf8773b	-0.121321164
251	0xbdcd25b2	-0.100169554
252	0xbd203df0	-0.03912157
253	0xbd8b9bae	-0.06816803
254	0xbe10737e	-0.14106557
255	0xbe0685dd	-0.13137002

layer2.weight f4 [256, 256]
0	0xbc802d63	-0.015646642
1	0x3d524020	0.051330686
2	0x3d2be2e0	0.04196441
3	0x3b8c6852	0.004284897
4	0x3ca62bfc	0.020284645
5	0x3cdcac8a	0.026937742
6	0x3d36fd48	0.04467514
7	0x3d1821a5	0.03714146
8	0x3d19f550	0.037587464
9	0xbddef6f0	-0.10886943
10	0xbe4b9d98	-0.19884336
11	0xbdb6e72e	-0.08930813
12	0xbe123601	-0.14278413
13	0xbd6a480a	-0.057197608
14	0x3d801b9b	0.06255265
15	0xbe232fb9	-0.15936173
16	0xbca4a79e	-0.020099457
17	0xbdd01fb1	-0.10162295
18	0xbe040d0c	-0.12895602
19	0xbd72f168	-0.059312254
20	0xbe04be06	-0.12963113
21	0x3d0ee839	0.034889434
22	0xbdb62b3f	-0.08894967
23	0xbdeb98de	-0.115037665
24	0xbdc6bbd6	-0.097037956
25	0xbd8336df	-0.0640695
26	0xbe1b5900	-0.1517067
27	0xbdee78fc	-0.1164417
28	0xbd86da94	-0.06584659
29	0xbd3b5073	-0.04573102
30	0x3d1a5444	0.03767802
31	0xbc26d7d5	-0.010183294
32	0x3d663d55	0.056210835
33	0x3c230531	0.009949968
34	0xbce1f8b0	-0.027584404
35	0x3d15b50d	0.036549617
36	0xbe2534a4	-0.16133362
37	0xbd2ebde0	-0.042661548
38	0xbca19fda	-0.019729543
39	0xbcb3c956	-0.02194659
40	0xbe0e8286	-0.13916978
41	0x3d21c07d	0.03949021
42	0x3d32d5ce	0.04366093
43	0xbe27547c	-0.16340822
44	0xbc9ef111	-0.019402059
45	0xbe030ca6	-0.12797794
46	0xbc3b5a33	-0.011435079
47	0x3d582332	0.05276794
48	0xbcad0c49	-0.021124022
49	0xbd356e25	-0.044294495
50	0xbd980a3d	-0.07423828
51	0xbcca46cb	-0.02469196
52	0x3d078f2d	0.033095527
53	0xbda49489	-0.08036143
54	0xbdcf6034	-0.10125771
55	0xbc8573c0	-0.016290545
56	0xbe0fa531	-0.1402786
57	0xbdd5cabe	-0.10439061
58	0xbdabad1a	-0.08382626
59	0xbdfc3906	-0.12315564
60	0xbd130594	-0.03589399
61	0xbde540d2	-0.11194004
62	0xbe36cb77	-0.17851053
63	0xbdb4c9ec	-0.08827576
64	0x3c2cb401	0.010540963
65	0x3d900dde	0.07033895
66	0x3d552838	0.05204031
67	0xbdc24b07	-0.094869666
68	0xbce534aa	-0.027979214
69	0xbe05c9e2	-0.13065293
70	0x3c8b1273	0.01697657
71	0x3c8eca8f	0.017430572
72	0x3ce23bd0	0.027616411
73	0xbc80ae56	-0.01570813
74	0x3d682fd5	0.05668624
75	0xbd2ca73f	-0.042151686
76	0xbdb84a77	-0.08998578
77	0x3cbf268d	0.023333812
78	0x3cc13e5d	0.023589307
79	0xbdd67ea3	-0.10473373
80	0x3d0e2ca8	0.034710556
81	0x3b72ee5c	0.0037068343
82	0xbc7d754f	-0.015469863
83	0xbd5816de	-0.052756183
84	0xbcd50b10	-0.026006252
85	0x3bbd325e	0.0057738265
86	0xbcccf28b	-0.025017997
87	0xbda1af1e	-0.07894729
88	0xbdca2cf7	-0.098718576
89	0x3cd6a7a7	0.02620299
90	0x3cb460c0	0.02201879
91	0x3af90626	0.0018999025
92	0xbd973c8b	-0.073845945
93	0x3c445c89	0.011984953
94	0x3d872537	0.06598895
95	0xbb5d95e2	-0.003381126
96	0xbdaf3917	-0.08555811
97	0x3c2769a3	0.010218057
98	0xbc9c06be	-0.019046184
99	0xbcfc9f92	-0.030837808
100	0xbdc90e74	-0.0981721
101	0xbd931bb5	-0.07183019
102	0xbce89cd8	-0.028395101
103	0xbcd955fd	-0.02653026
104	0xbdbf9601	-0.09354783
105	0xbe2a00d8	-0.16601884
106	0x3d49b7e5	0.04924764
107	0xbc56934a	-0.01309664
108	0x3c87aaa6	0.016560864
109	0x3dad36cb	0.084577166
110	0xbe265a7a	-0.16245452
111	0xbe08ebad	-0.13371153
112	0xbde293d9	-0.11063356
113	0xbdab7b96	-0.083731815
114	0xbc7b7f9a	-0.015350247
115	0xbbd5d4f8	-0.006525632
116	0xbdebc553	-0.11512246
117	0x3e2b2a2e	0.16715309
118	0xbdd6fda7	-0.10497599
119	0x3d41fa88	0.047358066
120	0xbe133d08	-0.1437875
121	0xbdf30ad4	-0.118673
122	0xbd439268	-0.047747046
123	0xbd84b128	-0.064791024
124	0xbdfca1bc	-0.12335536
125	0xbcb15d53	-0.021650946
126	0x3cf13813	0.029445684
127	0xbc963f5b	-0.018340757
128	0x3ceefbe6	0.029172849
129	0x3c9fbcde	0.019499239
130	0x3c578c93	0.013156074
131	0xbdd303b3	-0.1030344
132	0xbe0241dd	-0.12720437
133	0xbdbe8470	-0.09302604
134	0x3a991181	0.001167819
135	0xbd3be5b4	-0.04587336
136	0x3caacc79	0.020849453
137	0xbc97e542	-0.018541936
138	0xbdeb49be	-0.114886746
139	0x3bf1bcfd	0.0073772655
140	0xbe073a6b	-0.13205878
141	0xbdb70539	-0.08936543
142	0xbe2e2709	-0.17007078
143	0xbdd70d48	-0.1050058
144	0xbe045844	-0.12924296
145	0xbd905ce0	-0.070489645
146	0x3b8d3e39	0.004310396
147	0xbaaa7d11	-0.0013007243
148	0x3dcb1da2	0.099177614
149	0xbd6224ad	-0.055210758
150	0xbd988961	-0.07448078
151	0xbd210079	-0.03930709
152	0xbdcec6c2	-0.10096504
153	0xbd8cf137	-0.068819456
154	0xbdf07075	-0.117401995
155	0xbbdfc604	-0.006829025
156	0xbe0aee00	-0.13567352
157	0xbe1139d5	-0.14182217
158	0xbe05bb33	-0.13059692
159	0xbd19f89a	-0.0375906
160	0x3aa534af	0.0012604202
161	0xbdbefd2f	-0.09325635
162	0xbdf8e305	-0.121526755
163	0xbdda2be7	-0.10652905
164	0x3ae6ea73	0.0017617479
165	0xbdcbc8d3	-0.099504136
166	0x3c9e8387	0.019349826
167	0xbe2d1f4e	-0.16906473
168	0xbe280b19	-0.16410483
169	0xbe189a7f	-0.14902686
170	0xbddb11a4	-0.10696724
171	0xbdaf073f	-0.08546304
172	0xbe061b14	-0.13096267
173	0xbd57d613	-0.05269439
174	0x3de5dd7e	0.11223887
175	0xbe2adb96	-0.16685328
176	0xbbed78e1	-0.007247076
177	0xbd0fa4fb	-0.035069447
178	0xbbc083b4	-0.0058750752
179	0xbdb72c5d	-0.089440085
180	0xbd8ddf1d	-0.06927321
181	0xbdef2aea	-0.11678107
182	0xbe1e18b2	-0.15439108
183	0xbe0bf123	-0.13666205
184	0xbde7446e	-0.11292349
185	0xbd9deed8	-0.077115715
186	0x3ccb6cd9	0.024832176
187	0xbdd67702	-0.10471918
188	0xbe0336e0	-0.12813902
189	0xbdf48276	-0.11938946
190	0xbd0c9e9a	-0.03433094
191	0xbdb031b3	-0.086032294
192	0xbdb952fc	-0.09049031
193	0xbd1f50e8	-0.038895518
194	0xbdace7c1	-0.08442641
195	0xbdeb7ff5	-0.11499015
196	0xbda1245e	-0.078682646
197	0xbd3dbce5	-0.046322722
198	0xbc555900	-0.013021708
199	0xbd9c912f	-0.07644879
200	0xbc4a57c9	-0.012350031
201	0xbbb9ed55	-0.005674044
202	0xbdb4e4dc	-0.08832714
203	0xbd544550	-0.051823914
204	0xbd555289	-0.052080665
205	0xbd9bae11	-0.0760156
206	0xbd8ca449	-0.068672724
207	0x3db4d362	0.088293806
208	0xbc2288f5	-0.009920348
209	0x3ce161f4	0.027512528
210	0xbe17393c	-0.14767927
211	0x3ba1c352	0.004936614
212	0x3d18251e	0.037144773
213	0xbcd86b84	-0.026418455
214	0xbe01ccf3	-0.12675838
215	0x3d01d645	0.031698484
216	0xbbb6ec57	-0.005582373
217	0xbe1a0829	-0.15042175
218	0xbcd4afb9	-0.025962697
219	0xbdeac1eb	-0.11462768
220	0xbe1d3d37	-0.15355383
221	0xbd705a0a	-0.058679618
222	0xbe0d4ac4	-0.13798052
223	0xbcda5ba1	-0.02665502
224	0x3c08d0f2	0.008350598
225	0xbde272e6	-0.110570714
226	0x3c82b7ee	0.015956845
227	0xbd9b13d6	-0.07572143
228	0x3cae30b7	0.021263463
229	0xbdbf5d39	-0.09343953
230	0xbd0098c9	-0.031395707
231	0xbcc43905	-0.02395297
232	0xbdad4f98	-0.08462447
233	0x3a8e839a	0.001087296
234	0xbc947eab	-0.018126806
235	0xbddd8310	-0.10816014
236	0x3d2fa7bc	0.042884573
237	0xbb0ed2e6	-0.0021793186
238	0x3bae5b33	0.0053209304
239	0xbe2036bf	-0.15645884
240	0xbc17f689	-0.009275087
241	0x3dd13f6d	0.10217176
242	0xbd1896e1	-0.037253264
243	0xbdcb921c	-0.099399775
244	0x3d5922e8	0.053011805
245	0x3b908398	0.0044102184
246	0xbda7a1df	-0.08185171
247	0xbe1da57e	-0.15395162
248	0x3cdf9400	0.027292252
249	0xbe0c0867	-0.1367508
250	0x3d4bbcca	0.04974059
251	0xbdcc4b82	-0.099753395
252	0xbdfd63c8	-0.123725474
253	0xbc152084	-0.009101991
254	0xbd04a67b	-0.03238533
255	0xbd424e4f	-0.047437962

layer2.bias f4 [256]
0	0xbdb6c216	-0.08923738
1	0xbd9216b6	-0.07133238
2	0xbd75fa9b	-0.06005345
3	0xbd75fc15	-0.060054857
4	0xbd889241	-0.06668521
5	0xbd75fb10	-0.060053885
6	0xbdb084ff	-0.08619117
7	0xbd3bbd98	-0.045835108
8	0xbe2fcc9e	-0.17167899
9	0xbdf7aadf	-0.12093138
10	0xbd94eb74	-0.072714716
11	0xbd75fc22	-0.060054906
12	0xbd75fc1d	-0.060054887
13	0xbd9819b9	-0.07426781
14	0xbc95ef8e	-0.018302705
15	0xbda6adee	-0.08138643
16	0xbd75fbb1	-0.060054485
17	0x3c49519d	0.0122875245
18	0xbd871ecd	-0.06597672
19	0xbd20102c	-0.039077923
20	0xbe22be2c	-0.15892857
21	0xbd75fbfc	-0.060054764
22	0xbd68a5e9	-0.05679885
23	0xbd75fb94	-0.060054377
24	0x3f3016cc	0.68784785
25	0xbd895a70	-0.06706703
26	0xbda838fb	-0.08213993
27	0xbe68f407	-0.22749339
28	0xbd75fc09	-0.060054813
29	0xbd75fc19	-0.060054872
30	0xbea0c0fe	-0.3139724
31	0xbd75fb61	-0.060054187
32	0xbe1673a5	-0.14692552
33	0xbddf5aa5	-0.10905961
34	0xbd75fc1e	-0.06005489
35	0xbe064ba7	-0.13114797
36	0xbe618a72	-0.22025469
37	0xbd7ff4a1	-0.062489156
38	0xbd75fb20	-0.060053945
39	0xbd9e9a3c	-0.077442616
40	0xbd1df39f	-0.038562413
41	0xbd75fc20	-0.0600549
42	0xbdad4a97	-0.084614925
43	0xbd912a8f	-0.070881955
44	0xbdde5699	-0.10856361
45	0xbd75fbb5	-0.0600545
46	0xbd75fbff	-0.060054775
47	0xbcfc94fd	-0.030832762
48	0xbd75fb5b	-0.060054164
49	0xbd75fc16	-0.06005486
50	0xbdaa4d59	-0.08315534
51	0xbd75fbbb	-0.060054522
52	0xbd945b15	-0.07243935
53	0xbd5ab75f	-0.053397533
54	0xbd75fbbb	-0.060054522
55	0x3d902ddc	0.07039997
56	0xbd99cdcb	-0.07509955
57	0xbe9405ce	-0.2891068
58	0xbd75fbe8	-0.06005469
59	0xbe601974	-0.2188471
60	0xbdaa17ad	-0.08305297
61	0xbd2b2b75	-0.04178949
62	0xbe9387d5	-0.2881457
63	0xbd8837c8	-0.066512644
64	0xbd75fc1d	-0.060054887
65	0xbdba85cc	-0.09107551
66	0xbe81f80e	-0.25384563
67	0xbd562b26	-0.052287243
68	0xbdbb9c57	-0.09160679
69	0xbdc9ba77	-0.098500185
70	0xbdba1ece	-0.09087907
71	0x3f6c8d3f	0.92403024
72	0xbd75fc19	-0.060054872
73	0xbdc608c7	-0.09669643
74	0xbda115d7	-0.07865494
75	0xbe1fe0f7	-0.15613161
76	0xbd99b2df	-0.0750482
77	0xbd0e3b96	-0.034724794
78	0xbd7a4836	-0.061104022
79	0xbe4416b2	-0.19149283
80	0xbd75fc1d	-0.060054887
81	0xbf7598db	-0.95936364
82	0xbe1e71dc	-0.15473121
83	0xbd0c0f9f	-0.034194585
84	0xbd75fbfd	-0.060054768
85	0xbd8bd6e3	-0.06828096
86	0xbd3a2719	-0.045447443
87	0xbd75fb95	-0.06005438
88	0xbddde973	-0.108355425
89	0xbd75fc21	-0.060054902
90	0xbd9ff02c	-0.07809481
91	0xbe0ae270	-0.13562942
92	0xbe499cee	-0.1968877
93	0xbd75fc1d	-0.060054887
94	0xbd75fb4f	-0.06005412
95	0xbd6f498b	-0.058419745
96	0xbd75fc1c	-0.060054883
97	0xbd75fc02	-0.060054787
98	0xbd866d8b	-0.065638624
99	0xbd75fc07	-0.060054805
100	0xbd75fc28	-0.060054928
101	0xbd75fbe3	-0.06005467
102	0xbe128439	-0.14308251
103	0xbd5e801f	-0.054321405
104	0xbd63555e	-0.055501334
105	0xbdf82822	-0.1211703
106	0xbde0c3cb	-0.109748445
107	0xbd8e74c0	-0.06955862
108	0xbd8dbb4b	-0.06920489
109	0xbd32a320	-0.0436126
110	0xbd75fc07	-0.060054805
111	0xbd75fbf9	-0.060054753
112	0xbd75fbf3	-0.06005473
113	0xbd75fc14	-0.060054854
114	0xbd82ad7c	-0.06380746
115	0xbeccdd9b	-0.40012822
116	0xbd75fc10	-0.06005484
117	0x3f87c5a3	1.0607189
118	0xbdab61d8	-0.083682716
119	0xbd13f685	-0.03612377
120	0xbc85a787	-0.016315235
121	0xbd860ce8	-0.065454304
122	0xbde7ea7d	-0.11324022
123	0xbd4f5f77	-0.05062815
124	0xbec60118	-0.3867271
125	0xbd034182	-0.032044895
126	0xbed0bb98	-0.40768123
127	0xbd75fc1e	-0.06005489
128	0xbd75fc20	-0.0600549
129	0xbe7ac9e1	-0.24491073
130	0xbd79453b	-0.06085704
131	0xbdafc6b2	-0.0858282
132	0xbdb1a4d5	-0.08674017
133	0xbd212d67	-0.03934994
134	0xbd75fc16	-0.06005486
135	0xbd84b232	-0.064793006
136	0xbd5290eb	-0.051407736
137	0xbd87f7c7	-0.06639057
138	0xbe05588a	-0.13022056
139	0xbd75fc00	-0.06005478
140	0xbd817f13	-0.063230656
141	0xbd3c7d00	-0.046017647
142	0x3cde2840	0.027118802
143	0xbd2c4e00	-0.042066574
144	0xbe0dbd44	-0.1384173
145	0xbdd07bea	-0.10179885
146	0xbd9f554b	-0.0777994
147	0xbd75fc24	-0.060054913
148	0xbd44adbc	-0.04801725
149	0xbd5629dd	-0.052286018
150	0xbec1aba7	-0.37826273
151	0xbd68a49b	-0.056797605
152	0xbd75fc1d	-0.060054887
153	0xbd7446e2	-0.05963791
154	0xbdc5f922	-0.09666659
155	0xbd75fc11	-0.060054842
156	0xbd75fba4	-0.060054436
157	0xbd75fbfe	-0.06005477
158	0xbe6dbf96	-0.23217615
159	0xbda0041b	-0.07813283
160	0xbd75fc1f	-0.060054895
161	0xbbbca889	-0.0057573956
162	0xbda1d63b	-0.07902189
163	0xbd85c664	-0.06531981
164	0xbd2ac482	-0.04169131
165	0xbdf901c5	-0.12158541
166	0xbd75fbf7	-0.060054746
167	0x3d5388c0	0.051644087
168	0xbd9b921d	-0.07596228
169	0xbd75fc00	-0.06005478
170	0xbea0c29c	-0.31398475
171	0xbd75fc0e	-0.06005483
172	0xbdabac8e	-0.083825216
173	0x3dd4c46a	0.103890255
174	0xbd75fc17	-0.060054865
175	0xbf95fcb5	-1.1717745
176	0xbdcb5699	-0.099286266
177	0xbdf56851	-0.119827874
178	0xbdcfa1f7	-0.10138314
179	0xbdfe2762	-0.124098554
180	0xbd75fbbb	-0.060054522
181	0xbd75fbfa	-0.060054757
182	0xbd59b7c9	-0.053153787
183	0xbe733a6a	-0.23752752
184	0x3e981f76	0.29711503
185	0xbdb6def9	-0.089292474
186	0xbd75fc13	-0.06005485
187	0xbd80f33d	-0.06296394
188	0xbd5f1ea6	-0.054472588
189	0xbe85c702	-0.26128393
190	0xbe2f2938	-0.17105567
191	0xbd543dab	-0.051816624
192	0xbd7b68b4	-0.06137915
193	0xbd75fc1e	-0.06005489
194	0xbd45b59c	-0.0482689
195	0xbd75fbb1	-0.060054485
196	0x3f19c0db	0.600599
197	0xbe1c6e4a	-0.15276447
198	0xbcc92973	-0.024555897
199	0xbf18b18d	-0.5964592
200	0xbd9263b9	-0.07147927
201	0xbd75fc21	-0.060054902
202	0xbda50a96	-0.0805866
203	0xbd75fc13	-0.06005485
204	0xbd75fb6c	-0.060054228
205	0xbd75fbfe	-0.06005477
206	0xbd75fb4c	-0.06005411
207	0xbd75fbf9	-0.060054753
208	0xbe3f3593	-0.1867278
209	0xbd75c48f	-0.060001906
210	0xbde736b0	-0.11289728
211	0xbdedc97b	-0.11610695
212	0xbd8d33a2	-0.06894614
213	0xbd9ab5cf	-0.075542085
214	0xbd7c0b0b	-0.06153397
215	0x3e131ce3	0.14366488
216	0xbda013be	-0.078162655
217	0xbd6e62ae	-0.058199577
218	0xbd841287	-0.06448846
219	0xbe2919a0	-0.16513681
220	0xbded86d4	-0.11597982
221	0xbe250ac4	-0.16117388
222	0xbd4861c6	-0.04892137
223	0xbdab47c0	-0.083632946
224	0xbd75fc11	-0.060054842
225	0xbd4df97c	-0.050286755
226	0xbd762d77	-0.060101952
227	0xbd75fbf3	-0.06005473
228	0xbd75fbc3	-0.06005455
229	0xbd75fbfe	-0.06005477
230	0xbce9d3f3	-0.028543448
231	0xbd8000bf	-0.06250142
232	0xbd75fbfb	-0.06005476
233	0xbd75fc0e	-0.06005483
234	0xbd7cc43e	-0.06171059
235	0xbd75fc1b	-0.06005488
236	0xbd75fbfe	-0.06005477
237	0xbd95fed5	-0.07323996
238	0xbd966a78	-0.07344526
239	0xbd8b9240	-0.06815004
240	0xbd8a8d33	-0.06765213
241	0xbdcd613e	-0.10028313
242	0xbd75f895	-0.06005152
243	0xbd75fc21	-0.060054902
244	0xbdc7d56d	-0.097575046
245	0xbd0f6685	-0.03500988
246	0xbd6189d8	-0.0550631
247	0xbd75fc1e	-0.06005489
248	0xbdaa201c	-0.083069056
249	0xbd75fbe3	-0.06005467
250	0xbef002ae	-0.46877044
251	0xbdbe3801	-0.09288026
252	0xbda98f9e	-0.08279346
253	0xbd75fc16	-0.06005486
254	0xbda8cd7d	-0.08242319
255	0xbd89342b	-0.066994034

layer3.weight f4 [2, 256]
0	0xbd943186	-0.07236008
1	0x3cc1790a	0.023617286
2	0x3d9c647a	0.07636352
3	0x3d47e8f6	0.048806153
4	0x3d1e1a1d	0.038599122
5	0xbcb8c7e2	-0.022556249
6	0xbd90390c	-0.07042131
7	0xbd10ca76	-0.03534933
8	0x3c044c3e	0.008074818
9	0xbd34c381	-0.04413176
10	0xbd989245	-0.07449774
11	0xbdacf82f	-0.08445775
12	0x3d305bdf	0.043056365
13	0xbc5b40c1	-0.013382138
14	0xbc77b9d2	-0.015119987
15	0xbc76ac43	-0.015055719
16	0x3d027949	0.031853948
17	0x3e6e99cd	0.23300858
18	0xbbffd913	-0.0078078597
19	0x3d31b72c	0.043387577
20	0xbdb9a155	-0.09063975
21	0xbd830704	-0.063978225
22	0x3be14397	0.0068745124
23	0x3dad051a	0.08448239
24	0xbf55b3e5	-0.8347762
25	0xbd317863	-0.0433277
26	0xbd5cae4c	-0.05387716
27	0xbdb5598a	-0.08854969
28	0x3d16b04c	0.036789224
29	0x3ddf4ba9	0.10903103
30	0xbcf5b006	-0.029991161
31	0x3c9dba21	0.019253792
32	0x3d803a3c	0.06261107
33	0x3c6dcf86	0.0145148095
34	0xbd6a6074	-0.05722089
35	0xbd889cb4	-0.06670514
36	0x3cb52709	0.02211334
37	0x3e0f892a	0.14017168
38	0x3c7ea16b	0.015541415
39	0x3d083c28	0.033260494
40	0xbde2c1b2	-0.11072101
41	0xbc3b59cf	-0.011434986
42	0xbd32c2cc	-0.043642804
43	0xbca6685e	-0.020313438
44	0xbcb05f69	-0.02152987
45	0x3e1d5f0c	0.15368289
46	0xbb02a143	-0.0019932545
47	0x3d4e2cd1	0.05033571
48	0xbc253c40	-0.0100851655
49	0xbcdeee1f	-0.027213154
50	0x3d49abab	0.04923598
51	0xbc49caa6	-0.012316382
52	0x3c439222	0.011936696
53	0x3d13f4e7	0.03612223
54	0xbd4d7938	-0.05016443
55	0xbebe5919	-0.3717735
56	0xbc190c9c	-0.009341385
57	0xbe00fa94	-0.12595588
58	0x3cd703dc	0.026246957
59	0xbe601f16	-0.21886858
60	0xbd513e44	-0.05108477
61	0x3c0e89a1	0.0086998055
62	0xbd5dade6	-0.05412092
63	0xbcfe747b	-0.031061402
64	0xbd6e1d18	-0.058133215
65	0xbd5da7ae	-0.05411499
66	0x3e2b1f2f	0.16711114
67	0x3dc36ce2	0.09542252
68	0x3cd74eb6	0.02628265
69	0xbe56fc59	-0.209947
70	0xbd0f552a	-0.03499333
71	0x3bb820fb	0.005619166
72	0xbc809cfe	-0.01569986
73	0x3ccedaf0	0.025250882
74	0x3a1d401b	0.0005998627
75	0x3e856787	0.26055548
76	0xbcc35fd5	-0.023849407
77	0x3caeda54	0.021344341
78	0xbd25273b	-0.040320616
79	0xbc1b1cf5	-0.009467353
80	0xbda5e096	-0.08099477
81	0xbe3fe929	-0.18741287
82	0xbda320d2	-0.07965244
83	0x3d0551f5	0.032548863
84	0x3c59c794	0.013292212
85	0xbd08ef41	-0.033431295
86	0xbd0544d2	-0.032536335
87	0xbdb73324	-0.08945301
88	0xbc2b99ea	-0.010473708
89	0xbd9f1f1e	-0.07769607
90	0x3d9325a5	0.071849145
91	0x3d95e62c	0.073192924
92	0xbe705550	-0.23470044
93	0xbd1b0dbf	-0.037854906
94	0x3d25f599	0.040517423
95	0xbda83d1f	-0.08214783
96	0xbd9dbf28	-0.07702476
97	0x3e043e9b	0.12914507
98	0xbd3413aa	-0.043964066
99	0xbcd61192	-0.026131425
100	0xbda381c3	-0.079837345
101	0xbd127872	-0.035759397
102	0xbe138265	-0.1440521
103	0xbd562d51	-0.05228931
104	0xbd2bafb0	-0.041915596
105	0xbe7d8dae	-0.24761078
106	0xbcf9ab2d	-0.03047713
107	0x3cba51f4	0.022744156
108	0x3de9a2e3	0.11408021
109	0x3c840903	0.016117578
110	0x3e5293c9	0.20564188
111	0x3c516b0e	0.0127818715
112	0xbb90ee25	-0.0044229203
113	0x3d0e77f3	0.03478236
114	0x3d8d632b	0.069036804
115	0x3ea184d7	0.3154666
116	0xbd4b9404	-0.049701706
117	0xbf5d07c2	-0.8633996
118	0xbd9b42b7	-0.07581084
119	0x3c986e70	0.018607348
120	0xbdfe44b3	-0.12415447
121	0xbb7130f1	-0.0036802853
122	0xbcbf935a	-0.023385692
123	0xbd1db35c	-0.03850113
124	0x3f0a119b	0.53933114
125	0xbbee0290	-0.007263489
126	0x3e268f5f	0.16265629
127	0xbdb5f98e	-0.088854894
128	0x3ce24bd6	0.027624052
129	0x3abba141	0.0014315025
130	0xbd163b62	-0.036677726
131	0x3c0891ac	0.008335512
132	0xbd35d846	-0.044395708
133	0xbc4ede25	-0.012626206
134	0xbd3ab6d0	-0.0455845
135	0x3dcbebfd	0.099571206
136	0xbe10f442	-0.14155677
137	0x3d53a943	0.051675092
138	0xbdc0bd10	-0.09411061
139	0xbd6bfa56	-0.057611786
140	0xbccbd32d	-0.02488097
141	0xbd0b39b8	-0.03399059
142	0x3e3c6b55	0.18400319
143	0xbcdde17f	-0.027085064
144	0x3d41cd1f	0.04731476
145	0xbd3a0fc6	-0.0454252
146	0xbd753b92	-0.059871264
147	0xbdb731f0	-0.08945072
148	0xbabb3920	-0.0014283992
149	0x3baaaeaa	0.00520881
150	0x3e1f7eb2	0.15575674
151	0x3d8090f5	0.06277648
152	0xbda1832c	-0.07886347
153	0xbcca5afb	-0.024701586
154	0xbe537bae	-0.20652649
155	0x3b4bbebb	0.0031089026
156	0x3d363eeb	0.044493597
157	0x3e09c793	0.13455038
158	0x3e992aa7	0.29915354
159	0xbc7191e1	-0.014744253
160	0xbda9c1aa	-0.082888916
161	0xbabce199	-0.0014410495
162	0xbd000bcb	-0.031261247
163	0xbcf537b8	-0.029933795
164	0xbd14f647	-0.03636768
165	0xbd5167b9	-0.05112431
166	0x3cf52595	0.029925147
167	0xbecf6600	-0.40507507
168	0xbd89e21f	-0.06732582
169	0xbc44ccec	-0.012011748
170	0x3e69e396	0.22840723
171	0x39fcecfd	0.00048241756
172	0xba9eb55e	-0.0012108495
173	0x3e428f7e	0.1900005
174	0x3cae4b3b	0.021276107
175	0xbeb005c0	-0.34379387
176	0xbe438413	-0.19093351
177	0xbd33f423	-0.043934
178	0xbd95c2bd	-0.07312534
179	0xbcc7d5f5	-0.024394015
180	0x3c6fa7ef	0.014627441
181	0x3d4f1ac8	0.05056265
182	0x3d551f18	0.052031606
183	0xbdfb8d37	-0.12282794
184	0xbe8f4dc4	-0.27989018
185	0x3d074583	0.033025276
186	0x3cbcc312	0.023042236
187	0xbb9c9fe1	-0.0047798012
188	0xbde2b087	-0.11068826
189	0xbe0a61c5	-0.13513859
190	0xbe494d0f	-0.19658302
191	0xbccf651a	-0.025316764
192	0xbd901c43	-0.070366405
193	0xbc8a1829	-0.016857224
194	0xbc328cf7	-0.010897866
195	0x3dd607bc	0.10450694
196	0xbf2d71d3	-0.67751807
197	0xbe879ff2	-0.26489216
198	0x3d60a37f	0.054843422
199	0xbe02249a	-0.12709275
200	0x3f06f8b3	0.52723235
201	0xbcf1aac9	-0.029500382
202	0x3cf0fcf5	0.029417494
203	0xbd302549	-0.043004308
204	0x3e1662db	0.14686148
205	0xbc801c08	-0.015638366
206	0x3d80417e	0.06262492
207	0x3d81117a	0.063021615
208	0xbeb9cefd	-0.36290732
209	0x3d62c351	0.05536205
210	0xbdee6fc4	-0.11642411
211	0xbc76b9d7	-0.015058956
212	0x3d097a2b	0.033563774
213	0xbd851fd8	-0.06500214
214	0xbb0d5ce1	-0.0021570253
215	0xbd8a44ec	-0.06751427
216	0xbca63a03	-0.020291334
217	0x3e27cab9	0.16385926
218	0x3de22253	0.11041703
219	0xbc8ad049	-0.016945021
220	0x3e0063d0	0.12538075
221	0xbd1d141f	-0.038349267
222	0xbda4ed9e	-0.080531344
223	0xbcd87857	-0.02642457
224	0x3dfc65f7	0.12324136
225	0xbe5c4a11	-0.21512629
226	0xbc3eb00b	-0.011638652
227	0x3cc7cf87	0.024390949
228	0x3b2c3e96	0.0026282421
229	0x3a2c4b6e	0.0006572519
230	0x3c9199cf	0.017773537
231	0x3c93606f	0.017990319
232	0x3e2e8e25	0.17046411
233	0xbd692882	-0.056923397
234	0xbd587e82	-0.052855022
235	0x3d3e269c	0.04642354
236	0xbbb27a28	-0.005446691
237	0x3da944c1	0.08265067
238	0x3d9b00eb	0.075685345
239	0x3d74a210	0.059724867
240	0xbca6e27c	-0.020371668
241	0xbd3e3cc1	-0.04644466
242	0xbd7a1aba	-0.061060645
243	0xbdb56178	-0.08856481
244	0x3d50aaab	0.05094401
245	0xbceafb34	-0.028684236
246	0xbd5b8f28	-0.05360332
247	0xbd83d016	-0.064361736
248	0xbc9f0950	-0.01941362
249	0x3e28edc6	0.16496953
250	0x3d0b5333	0.03401489
251	0x3ae98c54	0.001781831
252	0xbd93ca7c	-0.07216355
253	0xbd65e4d8	-0.056126446
254	0xbca3b88d	-0.019985462
255	0xbccb3ae3	-0.024808353

layer3.bias f4 [2]
0	0x3e50b91a	0.2038311
1	0xbe583e5d	-0.2111754

bn1.weight f4 [256]
0	0x3f459513	0.77180594
1	0x3f67c42b	0.90533704
2	0x3f64c784	0.89366937
3	0x3f5b5753	0.8568012
4	0x3f5fb9dc	0.87392974
5	0x3f63fdaf	0.89058965
6	0x3f5fa480	0.8736038
7	0x3f64de5d	0.894018
8	0x3f611a51	0.8793078
9	0x3f709ffb	0.9399411
10	0x3f59750d	0.8494423
11	0x3f60d9fe	0.8783263
12	0x3f6cb430	0.92462444
13	0x3f83044e	1.0235689
14	0x3f5e2029	0.8676782
15	0x3f6571f7	0.8962702
16	0x3f57f877	0.843635
17	0x40191089	2.3916342
18	0x3fb09cc8	1.3797846
19	0x3f019bb7	0.50628227
20	0x3f6c8222	0.92386067
21	0x3f625178	0.8840556
22	0x3fb24acd	1.3929077
23	0x3f59af55	0.8503316
24	0x3f1c9ec0	0.61179733
25	0x3f690f64	0.9103911
26	0x3f3f608e	0.74756706
27	0x3f612e8c	0.8796165
28	0x3f6809f3	0.9064018
29	0x3f6ca1f9	0.9243465
30	0x3f5246a2	0.8213903
31	0x3f490bb7	0.785335
32	0x3f7c8ffb	0.98657197
33	0x3f681bf5	0.9066766
34	0x3f6037fd	0.8758543
35	0x3f6e3bf0	0.9306021
36	0x3f49c767	0.7881989
37	0x3f615873	0.8802559
38	0x3f6c7c72	0.9237739
39	0x3f5c66d1	0.86094385
40	0x3fc1a980	1.5129852
41	0x3f6a719a	0.9157959
42	0x3f639c15	0.8891004
43	0x3f5a1c95	0.8519986
44	0x3f69b2ed	0.91288644
45	0x3f6424da	0.8911873
46	0x3f75c316	0.960008
47	0x3f644674	0.8917
48	0x3f70d672	0.9407722
49	0x3f594e62	0.8488523
50	0x3f5c3c8d	0.86029893
51	0x3f5a35cc	0.8523834
52	0x3f6f50d0	0.93482685
53	0x3fec813e	1.8476942
54	0x3f6b16db	0.9183175
55	0x3f6fca2b	0.9366786
56	0x3f73408c	0.95020366
57	0x3f61a493	0.88141745
58	0x3f85cd2b	1.0453237
59	0x3f9421a1	1.1572763
60	0x3f65861a	0.8965775
61	0x3f57daa3	0.8431799
62	0x3f6cdf6b	0.9252841
63	0x3fc0ed5c	1.5072436
64	0x3f65da00	0.89785767
65	0x3f5bdd37	0.8588442
66	0x3f69d355	0.9133809
67	0x3fcd8069	1.6054813
68	0x3ffde087	1.9834145
69	0x3f87033f	1.0547866
70	0x3f687175	0.9079812
71	0x4000f210	2.0147743
72	0x3f66faef	0.90226644
73	0x3f66a4fe	0.9009551
74	0x3fb392c8	1.4029169
75	0x3f49e933	0.7887146
76	0x3f6785cd	0.9043854
77	0x3f753dd4	0.9579747
78	0x3f6e3be2	0.93060124
79	0x3f90ec5d	1.1322132
80	0x3f64ab01	0.8932343
81	0x3f686a8a	0.90787566
82	0x3f1e6a14	0.6188061
83	0x3f689cb1	0.9086409
84	0x3f62baa9	0.8856607
85	0x3f84532f	1.0337886
86	0x3f688b41	0.90837485
87	0x3f4b97fe	0.79528797
88	0x3f89dede	1.0771139
89	0x3f73bf74	0.9521401
90	0x3f866576	1.0499713
91	0x3f788b89	0.97087914
92	0x3f87e7f1	1.0617658
93	0x3f5cb8a9	0.8621927
94	0x3f47ffae	0.7812451
95	0x3f6d37d8	0.92663336
96	0x3f19a96d	0.6002415
97	0x3f6e126e	0.9299687
98	0x3f6c3201	0.922638
99	0x3f694743	0.9112436
100	0x3f6e8735	0.9317506
101	0x3f58b58c	0.8465202
102	0x3fc2235d	1.5167042
103	0x4009ea55	2.1549275
104	0x3f663afe	0.89933765
105	0x3f95bcf5	1.169829
106	0x3f5ae167	0.85500187
107	0x3f616e64	0.8805907
108	0x3f5a56d3	0.85288733
109	0x3f67a8da	0.9049202
110	0x3f6cd008	0.9250493
111	0x3fd48033	1.6601623
112	0x3f5ef0b9	0.87086064
113	0x3f6108ef	0.87904257
114	0x3f54757d	0.8299177
115	0x3f6f392f	0.9344663
116	0x3f6d0473	0.92584914
117	0x3eb253f0	0.34829664
118	0x3f650960	0.8946743
119	0x3f300ded	0.6877125
120	0x3f732072	0.9497138
121	0x3f67b27f	0.9050674
122	0x3f6c7444	0.9236491
123	0x3fa4383d	1.2829663
124	0x3f6ea198	0.9321532
125	0x3f648130	0.89259624
126	0x3f4d60f6	0.80226076
127	0x3f5e6c9d	0.8688448
128	0x3f6a7792	0.915887
129	0x3f65c168	0.8974824
130	0x3f6f0e56	0.9338125
131	0x3f640da7	0.8908333
132	0x3ffaf4cf	1.960596
133	0x3f262651	0.64902216
134	0x3f81bc15	1.0135523
135	0x3f65585c	0.8958795
136	0x3f53fe64	0.82810044
137	0x3f6bc0a7	0.9209084
138	0x3f643b57	0.89153045
139	0x3f8ec93f	1.1155165
140	0x3fdbe687	1.7179726
141	0x3f637df0	0.8886404
142	0x3f54efa6	0.83178174
143	0x3f66c2ef	0.90141195
144	0x3f69e7c6	0.91369283
145	0x3f677935	0.9041932
146	0x3f5b5a2b	0.8568446
147	0x3f038f58	0.513906
148	0x3f6695bc	0.90072227
149	0x3f335154	0.7004597
150	0x3f609202	0.8772279
151	0x3f62ea04	0.8863833
152	0x3f60d9e1	0.87832457
153	0x3f6cd1be	0.9250754
154	0x3f65c9fb	0.8976132
155	0x3f65e16a	0.8979708
156	0x3eff49af	0.49860904
157	0x3f8501c2	1.0391161
158	0x3f626ee7	0.88450474
159	0x3f5a9cad	0.8539532
160	0x3f68b0e2	0.908949
161	0x3fc735a2	1.5563242
162	0x3f5e9829	0.8695093
163	0x3f5f2460	0.8716488
164	0x3f663baa	0.8993479
165	0x3f6d7e80	0.9277115
166	0x3f6872bb	0.90800065
167	0x3f8ca137	1.0986699
168	0x3f3dae69	0.74094254
169	0x3f8b9f86	1.0908058
170	0x3f5d2247	0.8638043
171	0x3fcfc1dc	1.6231036
172	0x3f61dbe0	0.8822613
173	0x3f66fd92	0.9023067
174	0x3f5f666c	0.8726566
175	0x3f6262a5	0.8843177
176	0x3f8acd60	1.0843925
177	0x3f705ca2	0.93891346
178	0x3f67ce55	0.9054921
179	0x3fa55a2e	1.2918146
180	0x3f7ba0e8	0.982924
181	0x3f6a41ad	0.91506463
182	0x3f637181	0.8884507
183	0x3f560abd	0.83610135
184	0x3f80be94	1.005816
185	0x3f627a5a	0.88467944
186	0x3f655152	0.8957721
187	0x3f630338	0.88676786
188	0x3f5034c8	0.8133054
189	0x3f6b971b	0.92027444
190	0x3f53585c	0.825567
191	0x3f6e18df	0.930067
192	0x3f5c2388	0.85991716
193	0x3f5e464b	0.8682601
194	0x3f6dc9c1	0.9288598
195	0x3f5f3e83	0.8720476
196	0x3f7133a0	0.942194
197	0x3f5d1b89	0.8637014
198	0x3f698fcf	0.9123506
199	0x3f6fb2e1	0.9363232
200	0x3f982b17	1.188815
201	0x3f8710f4	1.0552049
202	0x3f472491	0.7779017
203	0x3f984b0b	1.1897901
204	0x3f6705f4	0.9024346
205	0x3f79a9b0	0.9752455
206	0x3f4e5683	0.80600756
207	0x3f609d6a	0.87740195
208	0x3fb7aeac	1.4350181
209	0x3f6350a4	0.8879492
210	0x3f674239	0.9033542
211	0x3f74424d	0.95413667
212	0x3f6148a9	0.88001496
213	0x3f6a5946	0.9154247
214	0x3f5d8ac4	0.86539865
215	0x3f6e0eed	0.92991525
216	0x3f8169ba	1.011039
217	0x3f6af5c3	0.9178125
218	0x3f7b60b9	0.9819446
219	0x3f4999ac	0.7875011
220	0x3f29f88e	0.6639489
221	0x3f64dc85	0.89398986
222	0x3f5faedd	0.87376195
223	0x3f646ab9	0.89225346
224	0x3f66f9dc	0.90225005
225	0x3f65d557	0.89778656
226	0x3f657316	0.8962873
227	0x3f63b317	0.88945144
228	0x3f608950	0.8770952
229	0x3f61d39f	0.88213533
230	0x3f6e08c1	0.9298211
231	0x3f71ac8e	0.9440392
232	0x3fdef890	1.7419605
233	0x3fd37be1	1.652218
234	0x3f450bed	0.7697132
235	0x3f6b88f2	0.92005837
236	0x3f52b1e7	0.8230271
237	0x3f53db7b	0.82756776
238	0x3f37fb20	0.7186756
239	0x3f70c93c	0.9405706
240	0x3f5bc482	0.8584672
241	0x3f7157ad	0.9427441
242	0x3f56d327	0.8391594
243	0x3f8a30f0	1.0796185
244	0x3f61f18d	0.882592
245	0x3fa7c919	1.3108245
246	0x3f94cd96	1.162524
247	0x3f674969	0.9034639
248	0x3f61098b	0.87905186
249	0x3f6b7fbc	0.9199178
250	0x3f637f38	0.88865995
251	0x3f628fe5	0.88500816
252	0x3f6b6524	0.91951203
253	0x3f6bb9ae	0.920802
254	0x3f4d2e29	0.8014856
255	0x3f6d7de7	0.92770237

bn1.bias f4 [256]
0	0xbe641f9f	-0.22277687
1	0xbdb5b078	-0.08871549
2	0xbd85eba8	-0.065390885
3	0xbde2b3a6	-0.110694215
4	0xbdf28a88	-0.11842829
5	0xbdc432e0	-0.09580016
6	0xbe015e39	-0.126336
7	0xbdca7ae9	-0.098867245
8	0xbd86ff18	-0.06591624
9	0xbd34b34d	-0.044116307
10	0xbdbe5d96	-0.09295194
11	0xbde94175	-0.11389438
12	0xbd68b87c	-0.056816563
13	0xbe7a5b51	-0.24448897
14	0xbe0588c7	-0.13040458
15	0xbe4ca584	-0.19985014
16	0xbde404fa	-0.11133762
17	0xbf137ef8	-0.57615614
18	0xbd574c3c	-0.052562937
19	0xbebe79f1	-0.3720241
20	0xbd58791c	-0.052849874
21	0xbda7f494	-0.082009465
22	0xbddf3715	-0.10899178
23	0xbda83c72	-0.08214654
24	0xbd89e206	-0.06732564
25	0xbda0dfbf	-0.07855176
26	0xbe30427a	-0.17212859
27	0xbdf6143d	-0.12015579
28	0xbeb6838c	-0.35647237
29	0xbda9ecf3	-0.082971476
30	0xbebede41	-0.3727894
31	0xbe419887	-0.18905841
32	0xbe207c94	-0.15672523
33	0xbde111a9	-0.109896965
34	0xbe086b2c	-0.13322133
35	0xbe6e318d	-0.2326109
36	0xbe6e1bd2	-0.232528
37	0xbdcfb560	-0.101420164
38	0xbd7579b8	-0.059930533
39	0xbe1a3302	-0.1505852
40	0xbd117c7c	-0.03551911
41	0xbd90998e	-0.07060538
42	0xbdae4280	-0.085087776
43	0xbd906c3b	-0.07051893
44	0xbdfd19f0	-0.12358463
45	0xbdb004ae	-0.085946426
46	0xbeb6fca0	-0.35739613
47	0xbdf59663	-0.119915746
48	0xbd470334	-0.04858704
49	0xbe2d09a4	-0.16898209
50	0xbdf286e9	-0.11842138
51	0xbdce93f2	-0.10086812
52	0xbd51e51c	-0.051243886
53	0x3d568e1a	0.052381612
54	0xbda166b4	-0.07880917
55	0xbd9a1bb1	-0.07524813
56	0xbebca280	-0.36842728
57	0xbdb0d0f1	-0.086336024
58	0x3d82bcf9	0.063837
59	0xbecb89e2	-0.39753634
60	0xbdc9a316	-0.09845559
61	0xbdda1baa	-0.10649808
62	0xbd422d05	-0.047406215
63	0xbe68caae	-0.22733566
64	0xbdd16964	-0.1022518
65	0xbda4d543	-0.08048489
66	0xbdbebff2	-0.093139544
67	0xbd49f90a	-0.049309768
68	0x3c2efbf7	0.01068019
69	0xbe2c972e	-0.16854545
70	0xbded1aee	-0.11577402
71	0xbdcf734c	-0.10129413
72	0xbe00e186	-0.1258603
73	0xbdcaf3ab	-0.09909757
74	0xbddfe4fd	-0.10932348
75	0xbde2d0d0	-0.11074984
76	0xbd9f9e50	-0.077938676
77	0xbe32d191	-0.17462756
78	0xbd906fb0	-0.07052553
79	0xbe9fd4b9	-0.31216982
80	0xbdcd0926	-0.100115106
81	0xbe3f2e43	-0.18669991
82	0xbe79694f	-0.24356578
83	0xbdc6ccd4	-0.097070366
84	0xbda0685f	-0.07832407
85	0xbe5d0386	-0.21583375
86	0xbd901e81	-0.07037068
87	0xbe6b5a09	-0.22983564
88	0xbec90780	-0.39263535
89	0xbeb9ac19	-0.36264113
90	0x3d444971	0.0479216
91	0xbd84da02	-0.06486894
92	0xbe12568d	-0.14290829
93	0xbe8a6d14	-0.27036345
94	0xbe0a5c5d	-0.13511796
95	0xbd246ef9	-0.040144894
96	0xbe5564ce	-0.20839235
97	0xbda61a9b	-0.08110543
98	0xbd8c96ea	-0.06864722
99	0xbda8c862	-0.08241345
100	0xbdcf7f79	-0.10131735
101	0xbea88add	-0.32918444
102	0x3d854ff5	0.06509391
103	0xbf100906	-0.5626377
104	0xbda43811	-0.08018506
105	0xbde12313	-0.10993018
106	0xbdbcc48a	-0.09217174
107	0xbe048181	-0.12940027
108	0xbdd254ee	-0.10270105
109	0xbe2f628f	-0.17127441
110	0xbe36b659	-0.17842998
111	0xbd63b09f	-0.05558836
112	0xbe80f64e	-0.25187916
113	0xbd837192	-0.06418146
114	0xbdb13241	-0.08652163
115	0xbdabf328	-0.08395988
116	0xbd875e45	-0.06609777
117	0xbd885d6f	-0.06658446
118	0xbd9df506	-0.0771275
119	0xbeb10620	-0.34574986
120	0xbd8174df	-0.063211195
121	0xbdd1995d	-0.1023433
122	0xbe7a80bb	-0.2446317
123	0x3baeffbd	0.005340545
124	0xbd92c270	-0.07165992
125	0xbdf0841c	-0.11743948
126	0xbdded58f	-0.10880577
127	0xbe0cc2d1	-0.13746192
128	0xbd50127f	-0.05079889
129	0xbddf515e	-0.109041914
130	0xbd01c574	-0.031682447
131	0xbdba5c84	-0.09099677
132	0x3e0943af	0.13404725
133	0xbec9d5c3	-0.394209
134	0xbe29e69c	-0.16591877
135	0xbdc73b26	-0.097280785
136	0xbe0819d1	-0.13291098
137	0xbd8bfb58	-0.068350494
138	0xbe0be7c8	-0.13662636
139	0xbeaf1c92	-0.34201485
140	0xbd963083	-0.073334716
141	0xbdf5660e	-0.11982356
142	0xbdc53261	-0.0962875
143	0xbe0d1258	-0.13776529
144	0xbdb2f1e2	-0.08737542
145	0xbd82cee4	-0.063871175
146	0xbdbfaafd	-0.09358785
147	0x3e0add50	0.13560987
148	0xbd91fdf6	-0.07128517
149	0xbea0f855	-0.31439462
150	0xbe0b0e04	-0.13579565
151	0xbdf23604	-0.11826709
152	0xbe1d7efb	-0.1538047
153	0xbd9539cc	-0.072864145
154	0xbd6ea12a	-0.058259167
155	0xbdf9c1af	-0.12195145
156	0xbcfb8c9e	-0.0307067
157	0xbe7d9128	-0.24762404
158	0xbe0d0730	-0.13772273
159	0xbdbc6d6d	-0.09200559
160	0xbda4be1d	-0.08044074
161	0xbeaeaa30	-0.34114218
162	0xbd6b80f3	-0.057496022
163	0xbdb7333e	-0.089453205
164	0xbdbd5cfc	-0.09246251
165	0xbdd44014	-0.103637844
166	0xbdc6d195	-0.09707943
167	0xbe477f5b	-0.19482176
168	0xbe4ec778	-0.20193279
169	0xbe7b71d9	-0.24555148
170	0xbd8dab5c	-0.0691745
171	0x3dc2e09e	0.095154986
172	0xbdd2d95b	-0.102953635
173	0xbd95520a	-0.07291038
174	0xbd992e51	-0.07479537
175	0xbdf74e2e	-0.120754585
176	0xbe36b42a	-0.17842165
177	0xbe8dc8b8	-0.276922
178	0xbdedb366	-0.11606483
179	0xbe4aa8fb	-0.19791023
180	0xbde4fa7e	-0.1118059
181	0xbdb7ceed	-0.08975015
182	0xbde8dfaa	-0.113707855
183	0xbdc83194	-0.09775081
184	0xbe741710	-0.23836923
185	0xbde0f10d	-0.10983477
186	0xbddd5359	-0.10806913
187	0xbdd710a5	-0.105012216
188	0xbe4fd0e4	-0.20294529
189	0xbdb80793	-0.0898582
190	0xbe02499e	-0.12723395
191	0xbdc18651	-0.09449447
192	0xbdcb186c	-0.099167675
193	0xbde2931d	-0.11063216
194	0xbd30c761	-0.043158893
195	0xbdfd1f60	-0.123595
196	0xbd3f6d4f	-0.046735104
197	0xbd2c5787	-0.04207566
198	0xbdaf4694	-0.085583836
199	0xbe065b90	-0.13120866
200	0xbf0141ae	-0.50490844
201	0xbdf2be1c	-0.11852667
202	0xbe89243f	-0.26785466
203	0xbd78ffb9	-0.06079075
204	0xbdc1ea96	-0.09468572
205	0xbe4e721b	-0.20160715
206	0xbdd83d32	-0.10558547
207	0xbd919103	-0.07107737
208	0xbddf4790	-0.10902321
209	0xbe013cb3	-0.12620811
210	0xbd88f331	-0.0668701
211	0xbe17a818	-0.14810216
212	0xbdac89ed	-0.08424745
213	0xbd7e2a03	-0.062051784
214	0xbde47dcf	-0.111568086
215	0xbd8a0b23	-0.067404054
216	0xbea6dbfa	-0.32589704
217	0xbdb08c58	-0.086205184
218	0xbe88d30d	-0.2672352
219	0xbe00be3e	-0.12572572
220	0xbea6de0c	-0.32591283
221	0xbde664c8	-0.11249691
222	0xbe08cf9d	-0.13360448
223	0xbdf61d61	-0.12017322
224	0xbdb28ee3	-0.0871866
225	0xbd32fa30	-0.04369563
226	0xbda4696c	-0.0802792
227	0xbd9615a5	-0.07328347
228	0xbd997a3d	-0.07494018
229	0xbdca0e7f	-0.09866046
230	0xbd71dbe0	-0.05904758
231	0xbdba7564	-0.09104422
232	0x3ccc2fb5	0.024925092
233	0xbe193038	-0.149598
234	0xbd9a41e5	-0.075321
235	0xbdb9f822	-0.09080531
236	0xbdcae38e	-0.09906684
237	0xbe459afb	-0.19297402
238	0xbe7ccd54	-0.24687701
239	0xbe1016d6	-0.14071211
240	0xbda56767	-0.08076363
241	0xbd650168	-0.055909544
242	0xbe006c51	-0.1254132
243	0xbdee0f1d	-0.116239764
244	0xbdc3a9b5	-0.095538534
245	0xbe7841a2	-0.24243787
246	0xbe75801e	-0.23974654
247	0xbda395ac	-0.07987532
248	0xbde20276	-0.11035626
249	0xbd88e3d6	-0.06684081
250	0xbdf88e33	-0.12136497
251	0xbdce37b3	-0.100692175
252	0xbd22ae13	-0.03971679
253	0xbd8bd975	-0.06828586
254	0xbe0f9f17	-0.14025532
255	0xbe08fbdc	-0.13377327
