cartpole_v1_best_model.pth (torch, 284370 bytes, 14 tensors)

layer1.weight f4 [256, 4]
0.081876874 -0.060242414 -0.1198892 0.10731266 0.085609026 0.09799745 -0.10012286 0.094959676
-0.18288198 -0.084345356 0.18141359 -0.043857828 -0.0323799 -0.065233566 0.002878372 0.119909905
-0.1982187 -0.11911322 -0.13494448 0.033955947 -0.1656456 -0.05499546 0.085122995 0.053286485
0.08930477 0.1016553 -0.13840124 0.062173784 0.03971869 -0.12304844 0.04203196 -0.1325455
-0.092007264 -0.13832697 -0.062282223 -0.068004936 -0.061720744 -0.07354239 0.014606081 -0.12072043
0.1176019 0.13728866 0.036989268 0.05920542 -0.23506717 -0.048076387 -0.0030556363 0.04395227
-0.119901 -0.1252253 -0.12138948 0.13498046 0.113635056 -0.14700215 0.20045654 0.15635723
0.14813763 -0.0015901258 -0.08995168 -0.077487774 -0.11387938 -0.012276497 0.16284002 0.035353877
0.15706824 0.062472362 -0.07022114 0.03645623 -0.073377356 0.0041712713 -0.067295246 -0.12143354
-0.1467654 -0.14925118 0.061476912 -0.044221923 -0.00024635385 0.0656654 -0.19392176 -0.07610767
-0.05764294 0.078583404 0.064712234 -0.028320216 -0.16274495 0.05628557 -0.07590108 -0.11994897
-0.21092069 -0.08875169 0.15847996 0.08039145 -0.037041895 0.03249788 -0.10506139 -0.18528147
0.030752568 0.072388366 0.0049930722 -0.1297717 -0.04809263 -0.1431106 -0.0066045397 0.031956267
0.055060364 -0.16039747 0.09176507 -0.010092013 0.03036744 -0.12795635 0.13876101 -0.1546948
0.14395986 0.104548 0.10913476 0.052799188 -0.14633483 0.034478366 0.036072638 -0.12528919
-0.0598891 -0.13623205 0.10127117 0.027594117 -0.077223115 0.054631844 0.07711545 0.13602406
-0.0056338785 0.09284375 -0.11216947 0.12537012 0.02026948 -0.11559353 -0.08647943 0.14819354
-0.018800503 0.052575838 -0.11890175 -0.19927087 0.12667184 0.0044255233 -0.044578068 -0.09140372
-0.022391954 0.02029355 0.11639156 -0.11649906 -0.100434825 -0.03804577 0.09375638 0.105295
0.049024876 0.15932983 -0.06327471 -0.088879436 -0.047534067 0.16284432 -0.08521769 0.11622143
-0.03452544 0.045360778 -0.14572033 -0.11056935 0.091402076 0.010021003 -0.14711252 0.13116196
-0.07080045 0.057488397 0.11168139 -0.0788714 0.013593175 0.10738174 0.04445043 -0.13779391
0.007060814 -0.09538976 -0.14680634 0.04573335 0.12986794 0.01711017 0.036362663 -0.12967008
-0.08094399 -0.1494116 0.114448376 0.101018734 0.0405867 0.09673062 -0.13130142 -0.16395047
-0.13571069 0.025655217 0.14772013 0.018755509 -0.0138393715 0.14156231 0.09527481 0.0037085016
-0.036139853 -0.05714491 0.05100193 0.11389879 -0.18345484 -0.07782325 -0.091474734 0.122265995
0.14546584 -0.045104586 0.079214536 -0.08705565 0.029403392 -0.06595847 -0.030044027 -0.14177182
0.102788284 0.06548152 -0.03021775 -0.04974138 0.088071585 0.18871802 0.03094136 -0.02019869
-0.027131876 0.10016271 -0.1226544 -0.06803179 -0.06262536 -0.11901912 0.16278751 -0.046033256
0.0014753474 -0.11024622 0.04132408 -0.004108557 0.076620765 0.07259497 0.0807164 0.013461727
-0.12820977 -0.11749695 0.119556986 0.046157658 -0.07695755 -0.16654238 0.035806503 0.024668116
-0.019374413 0.1730826 0.0029000503 -0.010870675 0.037627988 -0.08065036 -0.05074093 -0.15773025
00000000: 10af a73d c0c0 76bd 7888 f5bd bdc6 db3d
00000010: c953 af3d e3b2 c83d 370d cdbd 387a c23d
00000020: 6a45 3bbe 42bd acbd 7cc4 393e 44a4 33bd
00000030: c9a0 04bd 2d99 85bd 12a3 3c3b 5393 f53d
00000040: d8f9 4abe a2f1 f3bd e32e 0abe 6415 0b3d
00000050: 009f 29be eb42 61bd f754 ae3d ee42 5a3d
00000060: 6be5 b63d a730 d03d 0eb9 0dbe f0a9 7e3d
00000070: 11b0 223d d200 fcbd b429 2c3d 02ba 07be
00000080: 4e6e bcbd 96a5 0dbe a51b 7fbd 2c46 8bbd
00000090: e4ce 7cbd 649d 96bd 584e 6f3c 463c f7bd
000000a0: 44d9 f03d 6695 0c3e 0f82 173d 6281 723d
000000b0: 73b5 70be bfeb 44bd 1241 48bb 4c07 343d
000000c0: a88e f5bd 103b 00be 0c9b f8bd 5138 0a3e
000000d0: 7fb9 e83d bb87 16be 7b44 4d3e 1c1c 203e
000000e0: 64b1 173e c56b d0ba 9638 b8bd e9b1 9ebd
000000f0: 9839 e9bd 5c23 49bc 89bf 263e 3acf 103d
00000100: 7fd6 203e 05e3 7f3d 1ad0 8fbd 2153 153d
00000110: de46 96bd 29af 883b 17d2 89bd 26b2 f8bd
00000120: ab49 16be 4dd5 18be 37cf 7b3d 0c22 35bd
00000130: 0e29 81b9 957b 863d 6d93 46be 57de 9bbd
00000140: 011b 6cbd 56f0 a03d d987 843d ccff e7bc
00000150: 9da6 26be b38b 663d 0772 9bbd cea7 f5bd
00000160: 98fb 57be 72c3 b5bd 9248 223e 46a4 a43d
00000170: 3eb9 17bd 7f1c 053d 6d2a d7bd 6dba 3dbe
00000180: cfec fb3c 5a40 943d ed9c a33b dfe2 04be
00000190: c7fc 44bd 968b 12be e56a d8bb 93e4 023d
000001a0: fa86 613d 3c3f 24be 53ef bb3d f858 25bc
000001b0: 23c5 f83c fd06 03be 5e17 0e3e 5068 1ebe
000001c0: 376a 133e 431d d63d 0c82 df3d f643 583d
000001d0: ccd8 15be 3039 0d3d e7c0 133d cf4b 00be
000001e0: 464e 75bd 6a80 0bbe 4267 cf3d 0f0d e23c
000001f0: 2727 9ebd a4c5 5f3d b4ee 9d3d e449 0b3e
00000200: 669c b8bb dd24 be3d 1bb9 e5bd 0661 003e
00000210: 2e0c a63c 4dbc ecbd 211c b1bd 0cc0 173e
00000220: 8303 9abc c359 573d c382 f3bd aa0d 4cbe
00000230: 43b6 013e fb03 913b 7e97 36bd e031 bbbd
00000240: 556f b7bc a93e a63c b35e ee3d 0f97 eebd
00000250: c6b0 cdbd e2d5 1bbd 5803 c03d e8a4 d73d
00000260: 4fce 483d 5c27 233e 2c96 81bd 6c06 b6bd
00000270: 15b3 42bd a9c0 263e 9d86 aebd 8005 ee3d
00000280: 8c6a 0dbd 39cc 393d b637 15be 2f72 e2bd
00000290: 0331 bb3d 222f 243c aaa4 16be 524f 063e
000002a0: d4ff 90bd f478 6b3d 36b9 e43d 5487 a1bd
000002b0: e9b5 5e3c f5ea db3d a711 363d d919 0dbe
000002c0: 675e e73b b55b c3bd 6754 16be e552 3b3d
000002d0: 1afc 043e a12a 8c3c 04f1 143d 3cc8 04be
000002e0: f6c5 a5bd 5bff 18be e963 ea3d e9e2 ce3d
000002f0: 3d3e 263d b41a c63d e173 06be a2e2 27be
00000300: bef7 0abe e42a d23c f243 173e 27a5 993c
00000310: 88be 62bc b6f5 103e 711f c33d 550a 733b
00000320: 6207 14bd c810 6abd 66e7 503d c543 e93d
00000330: 96db 3bbe cc61 9fbd 1b57 bbbd 9866 fa3d
00000340: fff4 143e 96bf 38bd 3b3b a23d 3c4a b2bd
00000350: 62df f03c 3c15 87bd e41e f6bc a22c 11be
00000360: aa82 d23d 2d1b 863d 378b f7bc 9ebd 4bbd
00000370: e05e b43d 4c3f 413e bc78 fd3c b977 a5bc
00000380: ab43 debc 1b22 cd3d 3b32 fbbd 4054 8bbd
00000390: ba41 80bd 4cc0 f3bd c5b1 263e 5e8d 3cbd
000003a0: 7260 c13a c5c8 e1bd 7043 293d 13a1 86bb
000003b0: 59eb 9c3d acac 943d a44e a53d 938e 5c3c
000003c0: 6c49 03be 3ea2 f0bd 4bda f43d d00f 3d3d
000003d0: ec9b 9dbd 168a 2abe d7a9 123d ca14 ca3c
000003e0: 17b7 9ebc 913c 313e c50e 3e3b ea1a 32bc
000003f0: ce1f 1a3d 042c a5bd b9d5 4fbd 0a84 21be

layer1.bias f4 [256]
0.010151455 -0.030907193 -0.0086596515 -0.020614158 -0.0061599994 0.004495766 0.050054133 0.0069462475
0.022482062 -0.01814586 0.0009882706 -0.0027960143 0.002005428 -0.02111714 -0.012280483 0.058566127
0.006212728 -0.013495663 0.019230846 -0.009204899 -0.035934538 0.004800062 -0.0018816376 -0.024034094
-0.01222025 -0.0119784465 -0.025271466 -0.009401005 -0.009359956 0.0018226089 -0.017231576 0.0073350295
-0.007986465 0.018175166 0.009393536 -0.013832128 -0.007875396 -0.003060149 0.016707815 -0.044607356
-0.028603321 -0.019368723 0.011479859 -0.023179727 -0.01429277 0.008421986 -0.006734969 -0.015553646
0.036237963 -0.005387684 -0.037888672 -0.011438446 0.027510742 0.035109386 0.025323607 0.0076541645
-0.032020792 -0.00406102 0.0023099151 0.028360592 -0.00266391 -0.00052887417 0.009765165 0.04241469
0.0028218713 0.028072134 -0.019437509 -0.034894306 0.041859373 -0.006918509 0.02206935 0.016853573
-0.015591159 -0.018730797 0.021652278 0.009327864 -0.0057703243 5.738519e-05 -0.01435449 -0.021241892
-0.018475834 0.011300735 -0.0077882716 0.035914667 0.00017389715 -0.022299957 0.021610023 0.023175597
0.013015332 -0.0037464823 0.011273868 0.033436038 0.0061703306 -0.0065051294 -0.017505903 0.028768472
0.014893763 -0.029901806 0.024414606 0.010514658 -0.0060554664 -0.015881507 0.010447864 0.02983479
-0.025302164 0.01541804 -0.03147282 -0.0068011303 -0.038295973 -0.011478033 -0.043844722 -0.037646122
-0.023700383 0.017837008 0.028067084 0.013388015 0.0026199718 0.0029702394 -0.018466588 -0.0009497782
0.025481785 -0.012985441 -0.046398018 0.0047147456 0.017274996 0.022805333 -0.033079784 -0.046766534
-0.025766343 0.019034976 0.034333136 -0.026743809 -0.0013100693 0.032310434 0.0029791703 -0.0025132254
-0.0047082934 -0.032302484 -0.021305695 0.019314079 0.037894715 -0.009565135 -0.03246978 0.0041329605
0.010296273 -0.004291081 0.036268108 -0.0035592217 0.012535509 0.0031530624 -0.017506098 -0.03307003
0.031012658 -0.0051950784 0.011766446 -0.013388177 0.005015921 -0.01553808 -0.016706407 0.018364284
0.024037784 -0.013770748 -0.033397768 -0.040448345 0.011427089 0.016713284 -0.025817394 0.012004941
-0.012539811 0.0025526003 0.012539849 -0.00702792 0.03141355 -0.004130893 0.020146457 0.001367308
-0.025449982 -0.008714984 0.02378182 0.022454148 0.007247462 -0.016681766 0.012765468 0.00831743
0.015372073 0.005592505 0.015772274 0.0051020486 -0.025148539 0.03479325 -0.005037749 -0.039935566
0.018344525 -0.019514091 0.0008650725 0.009891513 0.035810094 -0.024540175 0.03370001 0.012277689
0.021091023 0.0046246597 -0.017283965 -0.02416465 -0.020523665 0.00087407645 0.00198256 -0.0030844288
-0.008962381 -0.016772548 0.025269281 0.042364184 0.007413853 -0.047945105 0.047877893 0.007461404
0.0042032874 -0.011312943 0.025013065 0.038705237 -0.020581353 0.025680516 0.0045486484 -0.046541966
0.015504118 0.010533717 -0.018390218 0.001150332 -0.008164527 -0.013875988 -0.021314241 -0.004527496
0.009655822 0.01320034 -0.020239992 -0.005702847 0.024531022 0.010145546 -0.012506546 0.0042581772
-0.022339556 0.022243988 -0.014647108 -0.020531384 -0.0015492871 -4.017417e-05 -0.015607717 0.016997907
-0.001860256 0.0028422694 0.014812357 -0.017655069 0.022100234 0.006948927 -0.0073058177 -0.010856199
00000000: 4a52 263c 1531 fdbc 36e1 0dbc 06df a8bc
00000010: d2d9 c9bb 3851 933b 9005 4d3d 599d e33b
00000020: 4d2c b83c a0a6 94bc dc88 813a 563d 37bb
00000030: 806d 033b dafd acbc 1434 49bc 09e3 6f3d
00000040: 2494 cb3b ea1c 5dbc 028a 9d3c 25d0 16bc
00000050: 1830 13bd d749 9d3b 48a1 f6ba 26e3 c4bc
00000060: 7237 48bc 3f41 44bc 1b06 cfbc ac06 1abc
00000070: 805a 19bc 9be4 ee3a 3c29 8dbc b05a f03b
00000080: a9d9 02bc 16e4 943c 58e7 193c 26a0 62bc
00000090: ce07 01bc c88c 48bb d4de 883c 34b6 36bd
000000a0: 8351 eabc 28ab 9ebc 0516 3c3c 69e3 bdbc
000000b0: 392c 6abc 5ffc 093c 04b1 dcbb b8d4 7ebc
000000c0: 426e 143d 2b8b b0bb 2731 1bbd 5268 3bbc
000000d0: 355e e13c dcce 0f3d 7473 cf3c c9cf fa3b
000000e0: 3c28 03bd 4e12 85bb f261 173b 7954 e83c
000000f0: fe94 2ebb 25a4 0aba 12fe 1f3c 07bb 2d3d
00000100: 25ef 383b 88f7 e53c 693b 9fbc 55ed 0ebd
00000110: bc74 2b3d a9b4 e2bb c8ca b43c 8110 8a3c
00000120: 1072 7fbc 5471 99bc 1e60 b13c e6d3 183c
00000130: fd14 bdbb e1b0 7038 182f 6bbc 7a03 aebc
00000140: a25a 97bc b826 393c c234 ffbb 421b 133d
00000150: 2958 3639 66ae b6bc 8107 b13c c0da bd3c
00000160: 423e 553c 8b87 75bb 08b6 383c 3af4 083d
00000170: 7c30 ca3b fb28 d5bb 8a68 8fbc dcab eb3c
00000180: f804 743c a2f4 f4bc 2401 c83c ac45 2c3c
00000190: ef6c c6bb ef19 82bc 852d 2b3c 1768 f43c
000001a0: 7c46 cfbc f29b 7c3c a5e9 00bd 04dc debb
000001b0: 3ddc 1cbd 5c0e 3cbc 8696 33bd d232 1abd
000001c0: 4e27 c2bc eb1e 923c f1ec e53c 6859 5b3c
000001d0: d5b3 2b3b 59a8 423b 3e47 97bc 89fa 78ba
000001e0: 2dbf d03c e3c0 54bc d90b 3ebd 277e 9a3b
000001f0: 4b84 8d3c 40d2 ba3c ab7e 07bd 448e 3fbd
00000200: f013 d3bc 3def 9b3c e7a0 0c3d d515 dbbc
00000210: a2b6 abba f257 043d 2f3e 433b edb4 24bb
00000220: 0748 9abb 9c4f 04bd 4889 aebc 8f38 9e3c
00000230: 7d37 1b3d 16b7 1cbc 08ff 04bd c96d 873b
00000240: b3b1 283c 329c 8cbb de8d 143d d541 69bb
00000250: bc61 4d3c 9ca3 4e3b f368 8fbc 7174 07bd
00000260: 420e fe3c 7a3b aabb 0dc8 403c 165a 5bbc
00000270: 985c a43b 6e93 7ebc e0db 88bc b270 963c
00000280: e3ea c43c b49e 61bc 19cc 08bd 2aad 25bd
00000290: af38 3b3c 4cea 883c 007f d3bc 5fb0 443c
000002a0: c873 4dbc 8749 273b f073 4d3c 774a e6bb
000002b0: 7fab 003d 715c 87bb 2f0a a53c 3e37 b33a
000002c0: 7b7c d0bc 4bc9 0ebc 17d2 c23c c3f1 b73c
000002d0: 1e7c ed3b 33a8 88bc 4126 513c d445 083c
000002e0: 26db 7b3c 5541 b73b db34 813c 162f a73b
000002f0: 4f04 cebc 5e83 0e3d b413 a5bb 7a93 23bd
00000300: 4247 963c 04dc 9fbc 08c6 623a 0310 223c
00000310: 9bad 123d 7a08 c9bc 0609 0a3d 5c28 493c
00000320: 15c7 ac3c 758a 973b 1a97 8dbc f2f4 c5bc
00000330: 3f21 a8bc 4722 653a d6ed 013b 2124 4abb
00000340: f3d6 12bc 9566 89bc 8601 cf3c 1186 2d3d
00000350: e8ef f23b 1662 44bd 9c1b 443d cb7e f43b
00000360: bbbb 893b ec59 39bc 33e8 cc3c 6289 1e3d
00000370: 3a9a a8bc f25f d23c d40c 953b caa2 3ebd
00000380: fc04 7e3c 9d95 2c3c 15a7 96bc bdc6 963a
00000390: 82c4 05bc 1d58 63bc 349b aebc 645b 94bb
000003a0: 7433 1e3c 3d46 583c 57ce a5bc f3de babb
000003b0: 48f5 c83c 8139 263c 42e8 4cbc 2e88 8b3b
000003c0: 7201 b7bc 0639 b63c 6cfa 6fbc 6f31 a8bc
000003d0: 7311 cbba b080 28b8 83b7 7fbc 323f 8b3c
000003e0: d5d3 f3ba 5e45 3a3b 87af 723c 5da1 90bc
000003f0: 8d0b b53c d3b3 e33b a465 efbb 33de 31bc

layer2.weight f4 [256, 256]
-0.04865997 0.026027465 0.059084985 0.11742603 0.025213853 0.06291212 -0.11877916 0.074050106
0.02994653 0.023261158 0.048205405 -0.05175789 0.022121508 -0.03451923 -0.060519967 -0.008459155
-0.0039548855 -0.06997886 -0.020231327 -0.006144769 0.06639238 -0.149971 0.07268019 -0.02977394
-0.003968607 -0.024103722 -0.03399341 0.059361644 0.008002695 0.004542443 -0.027331375 -0.09129025
-0.11190663 0.09993841 -0.0062208977 0.042063165 -0.0057942723 -0.03393874 -0.09362505 -0.06289113
-0.096173435 -0.047358498 0.038145725 -0.043332957 -0.028242782 -0.00579693 -0.040684547 -0.0524474
0.14751783 -0.07034257 0.05445622 0.09290219 -0.16204844 -0.0013165543 0.0014984531 0.04818555
0.0038996297 0.058814637 0.042423718 0.019116288 0.09005319 0.089196794 0.053256225 0.016331108
0.049481176 0.010240675 0.14781444 -0.14656954 0.0003720863 -0.04738988 0.07548304 -0.118729524
-0.056605555 -0.05940079 -0.08614558 -0.13638827 0.025512982 0.08275368 -0.09940714 -0.03100318
-0.046654552 0.12558906 -0.010434903 -0.0403265 -0.0070452597 -0.014600963 0.14622758 0.053119514
0.042688332 0.0058115358 0.09170825 -0.0071270033 -0.031212926 0.021530244 0.026584921 0.0742629
-0.10790207 0.023264045 0.025490638 -0.037373915 0.015185926 -0.09079845 0.054599613 -0.042343058
0.034337092 0.022608034 0.12526403 0.0606402 0.0070608896 -0.12881811 -0.028036453 -0.13748837
0.052480467 0.0552844 0.13882421 -0.086814374 0.08756513 0.014142628 -0.057155576 -0.04938221
-0.044831634 0.030956943 -0.043554932 -0.13484985 -0.13895965 -0.09915974 0.083794974 0.039934993
-0.076968014 -0.059209637 -0.08731204 -0.04767571 -0.031006068 0.014564507 0.08887989 0.055311516
0.12383581 0.091596514 0.033452872 -0.042152144 -0.06487502 -0.03547864 -0.077963196 0.124363005
-0.15341695 0.015495674 -0.090898566 -0.0016252487 0.12057588 -0.13246526 -0.023994625 -0.024061222
0.13198814 0.008892749 -0.1441179 0.15061428 -0.09943005 0.008467848 0.045325812 -0.0424688
-0.0035718207 -0.038162235 -0.10412381 0.13198206 0.09325774 -0.0125722 0.022907382 -0.03381421
0.10165595 0.074905 -0.08730672 -0.14278406 0.107438095 -0.13654473 -0.080593996 -0.06521413
0.00015087439 0.09788436 -0.06185609 0.0066157305 0.05261907 -0.11632394 -0.13855769 0.08324982
0.11431201 0.107525475 -0.0225811 0.12794974 -0.14481801 -0.017183905 0.000894314 0.15642796
0.12003273 0.082627535 -0.022971677 0.05159262 -0.09548415 -0.011090064 -0.026257807 -0.043358624
0.007415646 0.035997365 0.064762615 0.016643256 0.03815912 -0.034099694 -0.08273771 0.12160068
-0.042141974 -0.053522486 -0.032806423 -0.07416093 -0.008971195 0.1320702 0.045880925 -0.15250997
0.028045671 -0.14518486 -0.035021286 -0.15601362 0.10551502 -0.14216931 -0.09258925 -0.061045628
0.13941015 0.057984278 -0.11545093 -0.05488079 -0.023294032 -0.025940297 -0.06418517 0.13946088
0.12634018 0.13329121 -0.026533267 -0.047671974 0.03255843 0.13446154 0.10283828 0.117143326
-0.018534902 0.12830551 -0.028764041 0.13735443 0.058762845 0.122244105 -0.13575692 0.016731523
0.09119866 -0.03511755 -0.098828636 0.07401727 0.0057643517 -0.031179702 -0.05864305 -0.15761806
00000000: ad4f 47bd 8d37 d53c 1903 723d 0f7d f03d
00000010: 488d ce3c 12d8 803d 7d42 f3bd 95a7 973d
00000020: 6d52 f53c 2f8e be3c 0873 453d 1500 54bd
00000030: 2a38 b53c 0964 0dbd c9e3 77bd 4598 0abc
00000040: fc97 81bb 1451 8fbd 2bbc a5bc 0f5a c9bb
00000050: baf8 873d ff91 19be 5ad9 943d 7ae8 f3bc
00000060: 170b 82bb 2b75 c5bc ad3c 0bbd 3225 733d
00000070: bc1d 033c c6d8 943b 0ce6 dfbc 62f6 babd
00000080: 4e2f e5bd 82ac cc3d acd8 cbbb 6d4a 2c3d
00000090: e1dd bdbb 5903 0bbd 7dbe bfbd 11cd 80bd
000000a0: 94f6 c4bd fcfa 41bd b13e 1c3d e67d 31bd
000000b0: 685d e7bc 2cf4 bdbb d7a4 26bd 16d3 56bd
000000c0: ea0e 173e c40f 90bd 7c0d 5f3d 8143 be3d
000000d0: 07f0 25be 3b90 acba be67 c43a 365e 453d
000000e0: ee90 7f3b 9ee7 703d 7ec4 2d3d c399 9c3c
000000f0: cf6d b83d cfac b63d 3323 5a3d d1c8 853c
00000100: c6ac 4a3d 81c8 273c ab5c 173e 5316 16be
00000110: 9414 c339 e41b 42bd da96 9a3d 7728 f3bd
00000120: 3adb 67bd 3e4e 73bd 186d b0bd 5ea9 0bbe
00000130: 9a00 d13c c37a a93d f895 cbbd 62fa fdbc
00000140: d818 3fbd 6b9a 003e 28f7 2abc 662d 25bd
00000150: ecdb e6bb e138 6fbc afbc 153e d993 593d
00000160: f6d9 2e3d b26e be3b 89d1 bb3d a389 e9bb
00000170: 40b2 ffbc 3260 b03c 9fc8 d93c 2617 983d
00000180: c3fb dcbd 3d94 be3c bed1 d03c 6415 19bd
00000190: 64ce 783c 8af4 b9bd d8a3 5f3d ea6f 2dbd
000001a0: 0da5 0c3d 7c34 b93c 3745 003e dc61 783d
000001b0: 095f e73b e5e8 03be b4ac e5bc c0c9 0cbe
000001c0: c2f5 563d e571 623d ef27 0e3e bccb b1bd
000001d0: 5955 b33d 7bb6 673c f71b 6abd 0045 4abd
000001e0: 60a1 37bd 6a99 fd3c a866 32bd 1416 0abe
000001f0: 704b 0ebe 4314 cbbd b39c ab3d e092 233d
00000200: 68a1 9dbd ce85 72bd a8d0 b2bd 9b47 43bd
00000210: 7000 febc f89f 6e3c a906 b63d 548e 623d
00000220: a19d fd3d f496 bb3d e105 093d baa7 2cbd
00000230: 32dd 84bd 0d52 11bd 2bab 9fbd 08b2 fe3d
00000240: 5519 1dbe 91e1 7d3c 0729 babd 4c06 d5ba
00000250: 7df0 f63d f9a4 07be 6090 c4bc 0a1c c5bc
00000260: e627 073e e5b2 113c a593 13be a13a 1a3e
00000270: fba1 cbbd bbbc 0a3c 8fa7 393d c4f3 2dbd
00000280: 3515 6abb 0150 1cbd dd3e d5bd 4e26 073e
00000290: eafd be3d a1fb 4dbc 43a8 bb3c c580 0abd
000002a0: ff30 d03d cb67 993d decd b2bd fc35 12be
000002b0: 8108 dc3d 62d2 0bbe 770e a5bd fc8e 85bd
000002c0: 0934 1e39 9877 c83d d05c 7dbd c5c8 d83b
000002d0: 1887 573d 3f3b eebd 11e2 0dbe e27e aa3d
000002e0: 6a1c ea3d 5136 dc3d 00fc b8bc 4205 033e
000002f0: 2c4b 14be 43c5 8cbc 6670 6a3a a72e 203e
00000300: b8d3 f53d a038 a93d 192f bcbc c852 533d
00000310: 328d c3bd 1ab3 35bc 9d1a d7bc d098 31bd
00000320: f3fe f23b f971 133d 43a2 843d 7057 883c
00000330: bd4c 1c3d 1fac 0bbd 6372 a9bd c709 f93d
00000340: 109d 2cbd 653a 5bbd 0760 06bd b0e1 97bd
00000350: ebfb 12bc 693d 073e a3ed 3b3d 932b 1cbe
00000360: 09c0 e53c 57ab 14be 7b72 0fbd 09c2 1fbe
00000370: 4218 d83d d594 11be 6f9f bdbd fb0a 7abd
00000380: 89c1 0e3e ec80 6d3d 8a71 ecbd aeca 60bd
00000390: 20d3 bebc bf80 d4bc 8473 83bd d5ce 0e3e
000003a0: 525f 013e 7e7d 083e 4b5c d9bc b043 43bd
000003b0: fd5b 053d 49b0 093e e09c d23d d7e8 ef3d
000003c0: 82d6 97bc 8562 033e 91a2 ebbc a4a6 0c3e
000003d0: 4fb1 703d 1e5b fa3d dd03 0bbe 8c10 893c
000003e0: 5dc6 ba3d 6cd7 0fbd ab66 cabd 5e96 973d
000003f0: e3e2 bc3b 936c ffbc b233 70bd a166 21be

layer2.bias f4 [256]
-0.009227845 0.0035625575 -0.018800111 -0.00396584 -0.009574465 0.007994432 -0.0024941047 -0.0059441193
0.008163499 -0.005505267 -0.0020488654 -0.0065300507 -0.0048224195 -0.004465133 0.021885522 0.00012896789
0.005142582 0.0054498813 0.0030845355 0.0038945398 -0.0009976557 0.004874987 -0.005153572 -0.00014960935
-0.0155055 -0.0062187864 -0.00083768694 -0.0001408786 0.0043344665 -0.009207239 0.0010591041 0.0038685666
-0.0044679055 -0.004130124 0.008044261 0.0082780905 -0.0014519676 0.0015687594 -0.00017043842 -0.004778619
-0.0006177281 0.0062752604 0.0034158693 -0.0056489897 -0.0014866412 -0.0043519577 0.002170797 0.012275474
5.4856802e-05 -0.001185218 -3.0833044e-07 0.0015981334 0.0019209946 0.0018657162 -0.0045754737 -0.0077441274
0.0021325587 0.004541347 0.00014824151 0.00013492919 -0.0053571207 -0.0017619559 0.0028907189 0.006994518
-0.00049031223 -0.005938476 -0.006430558 0.001024877 0.011900923 -0.0006894154 0.010500593 -0.013423293
0.0038172791 -0.011940752 0.005986314 0.019648165 -3.422628e-05 -0.009789557 0.0012482541 -0.008387114
0.007528448 -0.0028176222 -0.0068205562 0.00072284095 -0.0032156154 -0.00039771447 -0.00417716 -0.00032230603
0.002273799 0.00044677992 0.013782537 0.0036105092 0.0050639305 -0.006369695 -0.004194566 0.001886144
0.0009906346 0.003543307 -0.0029208912 -0.0002716182 -0.00053194753 -1.8243365e-05 0.0015686443 -0.0043352623
0.0018268123 0.0045474824 0.0019204871 6.103232e-05 -0.012127816 -0.00019625365 0.002828182 0.003857225
-0.004656785 0.0011315803 0.0020215514 -0.0009523817 -0.004949566 -0.005695168 0.006053166 -0.00028802827
-0.00025744163 -0.007351785 -0.0010470389 -0.0010548432 0.0024249626 -0.01158696 -0.012619398 0.0023651123
0.009967145 0.00598742 0.0052173724 0.008389301 -0.00040325627 -0.0008134075 -0.0008404905 0.0034162465
0.0035901894 0.0017495 0.004680798 0.0029252786 0.020592034 0.00031055952 0.0054542967 -0.00017754894
0.003387176 -0.00012219878 -2.3999526e-05 -0.00028919292 -0.0011944487 0.0003741391 0.0006503144 0.006263857
0.0041513885 -0.0038018855 0.011824443 0.005147169 0.0025365795 0.0011437498 0.0047277673 0.0052384
-0.009477463 0.003279873 -0.0038311991 -0.014166129 -0.0045273774 0.0014744751 -0.0008375187 -0.00090810977
-0.0016086353 -0.0028639259 0.0021612355 -0.0031814696 0.0029686233 -0.0111311115 -0.008342815 -0.011432669
-6.144981e-05 -0.010083536 -0.00090260734 0.002809546 -0.002217884 -0.0027741564 0.0028529929 -0.00871975
-0.0053163795 -0.0043450934 0.0020007102 -0.0067445408 -0.0030691724 -0.0016429643 0.005341467 -0.00022288409
0.009037982 0.0015440214 0.01210039 -0.0032294674 -0.0032360046 -0.0049839905 -0.0018616182 0.0014193101
0.0014773773 -0.010364691 0.011250309 0.0015191121 -0.0066277524 0.00700958 -0.0051990775 0.0013609278
0.00013327814 -0.00050834304 0.016042056 -0.00039464654 -0.004623891 0.002890319 -0.019038029 0.0004857013
0.0017403495 -0.00027255196 -8.8171975e-05 0.0052929623 0.0045096707 0.021097198 -0.0026709342 0.0022233222
0.010001375 -0.0020131983 0.0044552363 -0.0013470113 0.0098707145 7.6356046e-05 0.0050862962 -0.005889488
0.009608215 0.0007859166 -4.407043e-05 0.002994295 -0.00033243885 0.0054804306 6.61497e-05 0.006088298
0.015900489 0.00887736 0.00409367 -0.0054140124 0.0075946753 -0.0012466024 -0.0029966515 -0.0038231493
-0.009918545 -0.0035221712 0.012815821 -0.0028945347 0.00023519837 -0.008994387 0.006722322 0.010548525
00000000: 6330 17bc cc79 693b b102 9abc e1f3 81bb
00000010: 38de 1cbc 14fb 023c 2274 23bb e3c6 c2bb
00000020: 32c0 053c 8765 b4bb 4246 06bb 09fa d5bb
00000030: 6305 9ebb 4050 92bb 4449 b33c 8e3b 0739
00000040: 1b83 a83b eb94 b23b eb25 4a3b 893b 7f3b
00000050: c5c3 82ba 5bbe 9f3b 4cdf a8bb 74e0 1cb9
00000060: c80a 7ebc f6c6 cbbb 3898 5bba d0b8 13b9
00000070: 2408 8e3b f6d9 16bc a3d1 8a3a c787 7d3b
00000080: 8267 92bb fe55 87bb 13cc 033c d4a0 073c
00000090: f34f beba d59e cd3a b7b7 32b9 f695 9cbb
000000a0: 08ef 21ba b3a0 cd3b c7dc 5f3b 291b b9bb
000000b0: 67db c2ba de9a 8ebb ee43 0e3b 121f 493c
000000c0: 0b16 6638 5159 9bba 9d88 a5b4 7578 d13a
000000d0: e2c9 fb3a 0c8b f43a dbed 95bb 73c2 fdbb
000000e0: 66c2 0b3b 94cf 943b 4771 1b39 c77b 0d39
000000f0: c98a afbb 6ef1 e6ba 3772 3d3b 4532 e53b
00000100: 4c88 00ba 8c97 c2bb 6eb7 d2bb 2a55 863a
00000110: 17fc 423c e2b9 34ba ae0a 2c3c 5fed 5bbc
00000120: 512b 7a3b 25a3 43bc d728 c43b 30f5 a03c
00000130: 308e 0fb8 6164 20bc 759c a33a 1b6a 09bc
00000140: 33b1 f63b dba7 38bb f97e dfbb 097d 3d3a
00000150: 13bd 52bb 5584 d0b9 8fe0 88bb 2ffb a8b9
00000160: 0404 153b c93d ea39 26d0 613c 4b9e 6c3b
00000170: 54ef a53b e0b8 d0bb 9272 89bb 7e38 f73a
00000180: 2ed8 813a d436 683b 6c6c 3fbb fa67 8eb9
00000190: 6572 0bba 5409 99b7 f89a cd3a d10e 8ebb
000001a0: a671 ef3a 0c03 953b dbb8 fb3a f4fc 7f38
000001b0: bfb3 46bc 70c9 4db9 0559 393b 7fc9 7c3b
000001c0: f297 98bb 8951 943a 017c 043b 41a9 79ba
000001d0: f82f a2bb 889e babb a359 c63b 8002 97b9
000001e0: 3bf9 86b9 3ee7 f0bb cc3c 89ba aa42 8aba
000001f0: 1fec 1e3b 3cd7 3dbc 97c1 4ebc 0000 1b3b
00000200: 3c4d 233c 1f32 c43b 7ef6 aa3b 4773 093c
00000210: 246c d3b9 da3a 55ba 5d54 5cba 1be3 5f3b
00000220: 6249 6b3b 7b4f e53a 6161 993b 08b6 3f3b
00000230: a0b0 a83c 98d2 a239 f5b9 b23b 6e2c 3ab9
00000240: 62fb 5d3b 7c22 00b9 9752 c9b7 d19e 97b9
00000250: 0c8f 9cba 1a28 c439 dc79 2a3a 0a41 cd3b
00000260: 5f08 883b 0e29 79bb 4fbb 413c 95a9 a83b
00000270: be3c 263b e0e9 953a 63eb 9a3b e2a6 ab3b
00000280: 5c47 1bbc 23f3 563b db14 7bbb 0d19 68bc
00000290: 655a 94bb 2d43 c13a ee8c 5bba 370e 6eba
000002a0: d8d8 d2ba b4b0 3bbb 84a3 0d3b 3480 50bb
000002b0: 3c8d 423b 445f 36bc 4db0 08bc 1750 3bbc
000002c0: 9ede 80b8 6a35 25bc f49c 6cba 5c20 383b
000002d0: eb59 11bb 9fce 35bb 47f9 3a3b 48dd 0ebc
000002e0: 0635 aebb 4961 8ebb 591e 033b 4f01 ddbb
000002f0: 2b24 49bb bc58 d7ba 7907 af3b feb5 69b9
00000300: 0b14 143c c360 ca3a b740 463c 79a5 53bb
00000310: 2613 54bb be50 a3bb 8b01 f4ba 2508 ba3a
00000320: 8ea4 c13a aad0 29bc 3753 383c f21c c73a
00000330: 9e2d d9bb 9eb0 e53b 065d aabb 2961 b23a
00000340: 94c0 0b39 5342 05ba a16a 833c 90e8 ceb9
00000350: 0284 97bb 826b 3d3b a4f5 9bbc baa5 fe39
00000360: 701c e43a 4ee5 8eb9 f8e8 b8b8 9670 ad3b
00000370: dcc5 933b 08d4 ac3c d70a 2fbb 28b5 113b
00000380: cfdc 233c ddef 03bb 3bfd 913b 338e b0ba
00000390: c7b8 213c 5721 a038 f2aa a63b 9bfc c0bb
000003a0: c66b 1d3c f805 4e3a 44d8 38b8 ef3b 443b
000003b0: 304b aeb9 2f95 b33b dab9 8a38 5880 c73b
000003c0: be41 823c 5972 113c 3124 863b 0768 b1bb
000003d0: c1dc f83b 0965 a3ba 7863 44bb cd8d 7abb
000003e0: 6581 22bc 3ad4 66bb 73f9 513c 3cb2 3dbb
000003f0: 959f 7639 325d 13bc ed46 dc3b b8d3 2c3c

layer3.weight f4 [2, 256]
0.11582817 0.11245463 -0.10530773 -0.06935118 -0.11167634 0.12854536 0.02588201 -0.003171204
-0.007111359 0.106890865 -0.016368303 -0.057097934 0.11255634 -0.07935875 0.141621 -0.07920216
0.028031426 0.0586603 0.017548073 -0.012947314 0.049369875 -0.13457982 0.1026383 0.017050432
-0.056246236 -0.03169362 0.009309213 -0.015287129 -0.1012027 -0.09918379 0.064917974 0.053944312
0.09891818 -0.044888858 0.032510515 -0.02654923 0.1270488 -0.12265886 0.023530712 -0.025163263
-0.03760611 -0.094484605 0.049407143 0.06429223 -0.025216691 -0.12775248 -0.120820075 -0.0815808
-0.010191943 -0.11149652 -0.07253766 0.04376706 0.05367741 -0.13372205 -0.04646315 0.006185298
0.039159965 0.08993565 -0.09294543 0.13855688 0.028940296 -0.017771656 -0.042692162 -0.09935201
-0.12008987 0.03854554 0.13540219 -0.08172221 0.121607125 -0.018694818 0.06762134 0.05123046
0.05330286 0.09497946 -0.121981986 0.10598399 0.061924886 -0.05895866 -0.04743193 -0.12913328
-0.050893694 0.0850047 -0.049935695 0.11262853 -0.1050762 0.0042946786 0.026858259 0.030796612
0.02222123 -0.03873177 -0.022449553 0.12311518 -0.012786235 0.13566688 -8.1376966e-05 0.026016384
0.024156557 0.13602896 -0.08532718 -0.031043088 -0.030829411 0.0054940158 -0.07544709 -0.0148828775
0.037137795 0.05694928 -0.10360358 0.1034498 0.095510826 0.0388218 0.13294426 -0.033420485
0.046982203 0.04355633 0.08457345 -0.046480794 0.0034415086 -0.09401225 0.1111976 0.023980517
-0.021786159 0.032233965 0.060620274 -0.0053060227 0.10764639 -0.081618026 0.024539206 -0.0030120753
0.09524121 0.08126901 0.030075751 0.08467059 0.0041264053 -0.08448659 0.0047571883 0.015609567
0.07772797 0.11109392 0.11430865 0.13038449 0.10230005 -0.010496868 -0.06732735 -0.0351089
0.15207142 0.04315264 0.0066722557 -0.049119 0.022001753 0.046745665 0.013165295 0.07734477
-0.03061077 -0.0067559923 0.11582428 0.061954997 -0.059016265 0.07984815 0.07408418 0.046208434
-0.12295816 -0.09556194 -0.030646926 0.13803235 -0.062071983 0.09870472 -0.037986547 0.017471593
-0.004915888 0.0043368945 -0.048834924 -0.10267844 0.08869396 0.0729206 -0.06237235 0.054792944
0.13819462 0.08573507 -0.13509347 0.038559522 -0.013454806 0.13484335 -0.01048101 -0.01876248
-0.027245697 0.11969955 0.05259804 0.07043699 -0.011845116 -0.09890893 0.10526525 -0.09238057
0.021985503 0.102123864 -0.064186774 0.037734266 -0.0006761801 0.112862736 0.085081324 -0.039391056
-0.06514617 0.11420343 -0.03720361 0.036273416 0.070804894 0.007978605 0.028876994 -0.0926371
0.1356336 -0.018895486 -0.13118576 -0.019546792 -0.006027997 -0.07286698 -0.07042105 -0.058512997
0.13667555 0.011155776 0.022636559 -0.04179939 0.07738842 0.10366984 -0.088092476 0.12407518
0.1316172 -0.067801364 0.069938876 0.05861729 0.028797954 0.13051902 -0.13596126 -0.056505095
0.00062260096 -0.045970257 -0.037268672 0.052997436 -0.0062514334 0.035976578 -0.014877983 -0.028619042
0.12152789 0.14456362 -0.08923804 0.051795065 -0.052654926 0.10046315 0.014241165 -0.0769927
0.059799127 -0.03137067 -0.06634408 -0.017912285 0.041136555 0.059712768 0.015117715 -0.07154992
00000000: 5237 ed3d 9d4e e63d 94ab d7bd fe07 8ebd
00000010: 91b6 e4bd 65a1 033e 8206 d43c f9d3 4fbb
00000020: 6706 e9bb 99e9 da3d d216 86bc 86df 69bd
00000030: f083 e63d d786 a2bd 1805 113e be34 a2bd
00000040: 29a2 e53c c845 703d fac0 8f3c f920 54bc
00000050: 1138 4a3d 4bcf 09be 0734 d23d 59ad 8b3c
00000060: 7462 66bd 2bd1 01bd ab85 183c de76 7abc
00000070: 5c43 cfbd df20 cbbd b7f3 843d b6f4 5c3d
00000080: 9d95 ca3d 61dd 37bd bf29 053d c57d d9bc
00000090: 1519 023e 9234 fbbd 7bc3 c03c 3023 cebc
000000a0: dd08 1abd 2581 c1bd 255f 4a3d a5ab 833d
000000b0: 3c93 cebc 8cd1 02be 8470 f7bd d613 a7bd
000000c0: 1bfc 26bc 4a58 e4bd a08e 94bd 1745 333d
000000d0: d8dc 5b3d 6fee 08be 2550 3ebd 0aae ca3b
000000e0: 3366 203d 2f30 b83d 2c5a bebd dbe1 0d3e
000000f0: 3314 ed3c dd95 91bc fadd 2ebd 1179 cbbd
00000100: aef1 f5bd eee1 1d3d dfa6 0a3e f95d a7bd
00000110: 280d f93d e025 99bc 0f7d 8a3d 08d7 513d
00000120: 1a54 5a3d 9784 c23d b1d1 f9bd 220e d93d
00000130: f3a4 7d3d a37e 71bd fc47 42bd 843b 04be
00000140: e875 50bd f216 ae3d 5f89 4cbd c9a9 e63d
00000150: 3132 d7bd 60ba 8c3b da05 dc3c 2d49 fc3c
00000160: 4c09 b63c 34a5 1ebd 20e8 b7bc d023 fc3d
00000170: 5b7d 51bc 42ec 0a3e eda8 aab8 5020 d53c
00000180: f9e3 c53c 2d4b 0b3e 04c0 aebd 134e febc
00000190: f68d fcbc 2507 b43b 0184 9abd 50d7 73bc
000001a0: cd1d 183d a643 693d 1d2e d4bd 7ddd d33d
000001b0: 2e9b c33d 9c03 1f3d 8a22 083e ebe3 08bd
000001c0: 6970 403d 1f68 323d d834 ad3d a562 3ebd
000001d0: ef8a 613b 7f89 c0bd 91bb e33d ca72 c43c
000001e0: e378 b2bc c307 043d f74c 783d 25de adbb
000001f0: b675 dc3d 5a27 a7bd 7206 c93c 3d66 45bb
00000200: d30d c33d 5e70 a63d 6c61 f63c c667 ad3d
00000210: cc36 873b 4e07 adbd 30e2 9b3b 45bf 7f3c
00000220: d82f 9f3d 3685 e33d a71a ea3d 8383 053e
00000230: b082 d13d 0efb 2bbc ece2 89bd 5ace 0fbd
00000240: 9cb8 1b3e d3c0 303d f0a2 da3b 0131 49bd
00000250: 053d b43c 6278 3f3d 40b3 573c ef66 9e3d
00000260: 70c3 fabc 5f61 ddbb 4835 ed3d 86c4 7d3d
00000270: 0abb 71bd 6d87 a33d 72b9 973d 0e45 3d3d
00000280: 7dd1 fbbd fab5 c3bd 430f fbbc 5a58 0d3e
00000290: 313f 7ebd b325 ca3d c897 1bbd 9620 8f3c
000002a0: 7515 a1bb 821c 8e3b 2107 48bd 1349 d2bd
000002b0: 2ea5 b53d 6557 953d 267a 7fbd 916e 603d
000002c0: e482 0d3e de95 af3d f155 0abe 97f0 1d3d
000002d0: 8c71 5cbc 6014 0a3e 8bb8 2bbc c6b3 99bc
000002e0: 5e32 dfbc 0a25 f53d 0b71 573d 4541 903d
000002f0: 0412 42bc c490 cabd 4f95 d73d 0632 bdbd
00000300: f11a b43c 5126 d13d 5b74 83bd 3f8f 1a3d
00000310: ae41 31ba 9424 e73d 1e3f ae3d 8458 21bd
00000320: 5b6b 85bd 7de3 e93d d062 18bd 6f93 143d
00000330: 2802 913d b2b8 023c 728f ec3c 85b8 bdbd
00000340: 89e3 0a3e b5ca 9abc 8f55 06be 9820 a0bc
00000350: 8186 c5bb 493b 95bd e938 90bd 53ab 6fbd
00000360: adf4 0b3e b7c6 363c 4e70 b93c d635 2bbd
00000370: d27d 9e3d da50 d43d d469 b4bd 211b fe3d
00000380: a9c6 063e 71db 8abd 1d3c 8f3d af18 703d
00000390: b0e9 eb3c c7a6 053e 6e39 0bbe e371 67bd
000003a0: 0b36 233a 4f4b 3cbd 09a7 18bd d713 593d
000003b0: d3d8 ccbb 2d5c 133d c9c2 73bc 7b72 eabc
000003c0: 9de3 f83d 7c08 143e 6fc2 b6bd 1027 543d
000003d0: b1ac 57bd a0bf cd3d c653 693c 59ae 9dbd
000003e0: eeef 743d 887e 00bd 68df 87bd c9bc 92bc
000003f0: ce7e 283d 6095 743d 4bb0 773c c488 92bd

layer3.bias f4 [2]
0.010234284 0.007139523
00000000: b3ad 273c a9f2 e93b

bn1.weight f4 [256]
0.9536146 1.0589877 0.9997489 0.9328594 1.022689 0.9976055 0.95068264 0.9848096
0.93798286 0.9878788 1.004382 1.0636992 1.0338705 1.0568696 0.95125705 0.9800188
0.9323866 1.0464488 0.9982655 0.9451244 1.0006245 1.0469928 1.0705246 0.97803116
1.0785809 1.011006 1.0580211 0.94255346 0.95922047 0.9483245 1.0327932 1.0608772
1.0376855 1.06776 1.0657318 0.96538717 0.99536437 1.0368847 1.0136869 1.0066264
1.0353193 0.9355784 1.0558358 0.9901317 1.0335357 1.0506122 1.0368065 1.0493641
0.9976933 0.9766749 0.96803063 1.0382049 1.043556 1.0181758 0.9701664 1.0147885
1.0295432 1.0797703 0.9670568 1.0051429 1.0399737 1.0488907 0.9698058 0.94733185
1.0451258 0.9908065 0.93313557 1.0000498 0.94398195 1.0495055 1.043722 0.9604725
0.9370957 1.0451595 0.93682116 1.0267478 1.0489321 0.986825 0.9981523 1.0008503
0.98708516 1.0008936 1.0594808 1.0036263 1.0346226 0.96527827 1.0374877 1.0127851
1.0314301 0.98164153 1.0506997 1.0462801 0.96078795 1.0319841 0.9929057 0.9654092
1.0640631 0.99068934 1.0342398 1.0387172 0.986475 1.0387727 0.97315466 0.99016917
0.9822992 0.99523854 0.95674866 1.0564113 0.9499802 0.94399667 1.0028305 1.0612524
0.9948381 1.0653808 1.0829678 0.95065594 1.0397096 0.9347076 1.0063463 0.9800624
0.99856955 0.9463616 1.0253043 1.0055566 0.98798496 0.9643403 0.9555901 0.9563004
0.9685217 0.97293514 1.0184877 1.0137271 1.0543035 0.9953534 1.0169342 1.0529484
1.0898546 0.96185076 0.9538405 0.93958 0.9953765 1.0179571 0.964583 1.0478897
0.9956031 0.9671253 0.9836943 0.9408484 0.98761886 1.0543908 0.9541695 1.0363654
1.064221 0.9721773 1.0245363 1.0732255 0.9773726 1.037315 1.0727152 0.9771389
0.97303665 0.9950559 0.9762672 1.0161941 1.0249153 1.0539278 0.9632554 0.9625122
1.0081838 0.93984056 0.96219766 0.9516728 0.9400281 0.9889478 1.0404238 0.9863189
0.94386643 1.0203952 0.9578486 0.9871893 1.0046785 0.969169 0.99875325 0.9954152
1.075232 0.9808717 0.98852825 0.9435404 0.95908856 0.92370385 0.9979166 0.9599969
0.9490039 1.0265734 1.0268646 1.0001198 0.995916 0.9916813 0.99723613 0.9640317
1.0365118 0.96571344 0.9383465 0.98462576 0.97275364 0.9881956 1.0164704 1.0151222
0.9854232 1.0389771 0.9926744 0.9725683 0.92205966 1.0589592 1.0034857 1.0587239
1.0321532 1.0040658 0.96760845 0.9783244 0.9759806 1.0576196 1.0576513 1.0398728
0.994198 0.9559831 1.0546088 0.961032 0.98501784 1.0020115 1.0080668 1.0464977
1.0523155 1.0259048 0.94728535 1.0275977 0.94529676 0.97281796 1.0296024 1.0019807
1.0163339 1.0276324 0.9860672 0.9540077 0.945563 1.0545391 0.99652374 0.99273795
0.9719506 0.97579694 1.0325699 1.0336607 1.0022848 0.9347684 1.0024165 1.0043674
00000000: 1620 743f e98c 873f 8bef 7f3f e0cf 6e3f
00000010: 79e7 823f 1363 7f3f f05f 733f 7b1c 7c3f
00000020: a51f 703f a0e5 7c3f 978f 803f 4c27 883f
00000030: de55 843f 8147 873f 9585 733f 83e2 7a3f
00000040: e3b0 6e3f 09f2 853f 548e 7f3f acf3 713f
00000050: 7714 803f dc03 863f f306 893f 4060 7a3f
00000060: f00e 8a3f a568 813f 3c6d 873f 2f4b 713f
00000070: 798f 753f 65c5 723f 9132 843f d3ca 873f
00000080: e1d2 843f 5cac 883f e669 883f 9d23 773f
00000090: 33d0 7e3f a3b8 843f 7ec0 813f 22d9 803f
000000a0: 5885 843f 1182 6f3f a125 873f 4579 7d3f
000000b0: e64a 843f 767a 863f 13b6 843f 9051 863f
000000c0: d468 7f3f 5e07 7a3f dbd0 773f e6e3 843f
000000d0: 3e93 853f 9653 823f d35c 783f 97e4 813f
000000e0: 12c8 833f ea35 8a3f 0991 773f 86a8 803f
000000f0: dc1d 853f 0d42 863f 3145 783f 5784 723f
00000100: afc6 853f 7fa5 7d3f f9e1 6e3f a201 803f
00000110: cda8 713f 3256 863f af98 853f 87e1 753f
00000120: 81e5 6f3f c9c7 853f 83d3 6f3f 796c 833f
00000130: 6843 863f 90a0 7c3f e986 7f3f dd1b 803f
00000140: 9db1 7c3f 481d 803f 119d 873f d476 803f
00000150: 836e 843f 7a1c 773f 66cc 843f f1a2 813f
00000160: e705 843f dc4c 7b3f 547d 863f 82ec 853f
00000170: 33f6 753f 0e18 843f 112f 7e3f 0f25 773f
00000180: 3833 883f d19d 7d3f f861 843f aff4 843f
00000190: a089 7c3f 81f6 843f aa20 793f ba7b 7d3f
000001a0: f677 7b3f f4c7 7e3f 7bed 743f 7c38 873f
000001b0: e731 733f c4a9 713f c05c 803f 1ed7 873f
000001c0: b6ad 7e3f 665e 883f b09e 8a3f 305e 733f
000001d0: 3415 853f ff48 6f3f f5cf 803f 5fe5 7a3f
000001e0: 41a2 7f3f c144 723f 2c3d 833f 14b6 803f
000001f0: 95ec 7c3f 02df 763f 8ea1 743f 1ad0 743f
00000200: 0af1 773f 4712 793f ce5d 823f cfc1 813f
00000210: 6bf3 863f 7bcf 7e3f e62a 823f 03c7 863f
00000220: 5b80 8b3f da3b 763f e42e 743f 5188 703f
00000230: ffd0 7e3f 6b4c 823f e9ee 763f 4021 863f
00000240: d8df 7e3f 8695 773f 64d3 7b3f 71db 703f
00000250: 97d4 7c3f 47f6 863f 7444 743f 9fa7 843f
00000260: 6538 883f 9de0 783f 0124 833f 745f 893f
00000270: 1735 7a3f bdc6 843f bb4e 893f c625 7a3f
00000280: ee18 793f fcbb 7e3f a6ec 793f a612 823f
00000290: 6d30 833f 1be7 863f e897 763f 3367 763f
000002a0: 2b0c 813f 6499 703f 9652 763f d4a0 733f
000002b0: aea5 703f af2b 7d3f 9b2c 853f 657f 7c3f
000002c0: 3ba1 713f 4f9c 823f 9135 753f 70b8 7c3f
000002d0: 4e99 803f 761b 783f 4bae 7f3f 88d3 7e3f
000002e0: 34a1 893f 681a 7b3f 3010 7d3f dd8b 713f
000002f0: d486 753f db77 6c3f 7677 7f3f 5bc2 753f
00000300: ebf1 723f c266 833f 4d70 833f ed03 803f
00000310: 5af4 7e3f d3de 7d3f de4a 7f3f c8ca 763f
00000320: 6bac 843f ff38 773f 7a37 703f 6f10 7c3f
00000330: 6206 793f 63fa 7c3f b41b 823f 86ef 813f
00000340: b244 7c3f 34fd 843f e91f 7e3f 3cfa 783f
00000350: 1a0c 6c3f fa8b 873f 3872 803f 4484 873f
00000360: 991d 843f 3a85 803f 30b5 773f 7873 7a3f
00000370: ddd9 793f 1460 873f 1e61 873f 8d1a 853f
00000380: c383 7e3f 4fbb 743f 6cfd 863f 3106 763f
00000390: 212a 7c3f ea41 803f 5508 813f a3f3 853f
000003a0: 46b2 863f d950 833f 4b81 723f 5288 833f
000003b0: f8fe 713f 990a 793f 03ca 833f e740 803f
000003c0: 3b17 823f 7589 833f e66e 7c3f d939 743f
000003d0: 6b10 723f 23fb 863f 2e1c 7f3f 1324 7e3f
000003e0: c1d1 783f d4cd 793f 402b 843f fe4e 843f
000003f0: de4a 803f fb4c 6f3f 2f4f 803f 1c8f 803f

bn1.bias f4 [256]
-0.006353719 0.07222545 0.00073938875 -0.03925956 -0.028490469 -0.012326689 -0.012821264 0.0009297186
-0.06148737 0.002791902 0.0067467233 0.032835174 -0.014770309 0.027202958 -0.034715608 -0.049767993
-0.015041532 0.052446987 0.018329551 -0.05743117 0.0444056 0.032373384 0.06993352 -0.02251977
0.01970751 -0.032239415 0.06345246 -0.052026376 0.016027763 -0.0538493 -0.035146635 0.015538777
0.024285644 0.042013742 0.046941116 0.000317119 -0.043056272 0.005262319 -0.003680804 -0.0024011075
0.02609717 -0.05787528 0.043379337 -0.0070409128 0.057702914 0.054688424 0.056880396 0.052585736
0.0204497 -0.06612226 -0.013048934 0.025495458 0.07108293 0.046018876 0.018428873 0.025982125
0.039512537 0.07477262 -0.021988751 0.007286956 0.031209368 0.04772641 -0.048345648 -0.02156499
0.026647279 -0.015738498 -0.06040552 0.014414653 -0.021921908 -2.0650834e-05 0.047553994 -0.04678615
-0.051131316 -0.01017852 -0.029029233 0.008412486 0.049586505 -0.02838604 0.011211985 0.0056795226
-0.020418856 0.040412102 0.06043068 0.008403981 0.062266897 -0.025658168 0.02541602 0.029868817
0.017195309 0.008580064 0.055485282 0.06270008 0.028477676 0.07235966 -0.012984724 -0.07783516
0.056464363 0.02829212 -0.004694983 0.040553812 0.0051885 0.038232 -0.055028822 -0.012395268
0.017655674 0.05767987 -0.021265317 0.036923546 -0.0035126791 -0.072591856 0.01763347 0.05370126
-0.021122567 0.051147692 0.073331214 -0.061578006 -0.012390367 -0.044637755 0.0028267128 -0.0071899868
0.010926703 -0.042729944 0.048243936 0.027298653 0.0013860457 -0.06926579 -0.014687299 -0.036662776
-0.056637693 -0.00301784 -0.023820195 0.019189112 0.04618315 0.04160382 -0.011426393 0.06685269
0.079819955 -0.049693886 -0.049944136 -0.045307618 -0.0145531865 0.038722545 -0.03951997 0.020853022
-0.006950485 0.023546815 -0.025163908 0.042557523 0.0047768834 0.044515986 -0.044949006 0.036183674
-0.02609126 0.016317416 0.0014247178 0.045214172 -0.0007244355 0.035369467 0.06392395 0.021850811
-0.029550944 0.048738472 0.015812792 0.017931713 0.029797213 0.0540692 -0.021663826 -0.052429337
0.0077591133 -0.063144036 -0.009632161 0.041837215 -0.022168303 0.02180429 0.00757021 0.060726523
-0.015109355 0.054792292 0.019745296 -0.027787177 -0.06001698 -0.040360812 0.012323103 -0.022378918
0.071781576 -0.042139314 0.06285622 -0.076982796 -0.04439793 -0.07086588 0.04749106 -0.0047520204
-0.049993556 0.019292414 0.032890033 -0.03979021 -0.018781772 0.014942649 -0.04583 0.0061812806
0.05700405 -0.037897326 -0.055775806 -0.0051550884 -0.056349676 -0.03479173 0.05533248 0.026957035
0.007482657 0.0037049106 0.0035948695 -0.01690764 -0.07354045 0.025996096 0.040249337 0.03151052
0.0424366 0.0043346346 -0.024955263 -0.0013528944 0.00077012624 0.056278348 0.049539536 0.03878958
0.00082741625 -0.028072402 0.05270382 -0.051508423 0.006475784 0.024420513 0.030191153 0.05327801
0.05532189 0.016932368 0.03977046 0.0080147525 -0.069387555 0.016586289 0.061743557 -0.00881823
0.05892928 -0.007829835 -0.0064280163 -0.042358067 -0.04181082 0.060332906 -0.0173521 0.038881853
0.0018326566 -0.019261137 0.023194317 0.063592665 0.032903217 -0.02203227 0.011507693 0.024571156
00000000: dc32 d0bb f0ea 933d 8ad3 413a a2ce 20bd
00000010: d864 e9bc e2f5 49bc 4710 52bc 5cb8 733a
00000020: 2eda 7bbd 58f8 363b 9e13 dd3b 2d7e 063d
00000030: 2bff 71bc bdd8 de3c f431 0ebd 86d9 4bbd
00000040: c270 76bc a7d2 563d db27 963c f23c 6bbd
00000050: a5e2 353d f499 043d 4e39 8f3d 617b b8bc
00000060: a571 a13c 7a0d 04bd 5df3 813d 9c19 55bd
00000070: a84c 833c 1591 5cbd ebf5 0fbd 5b96 7e3c
00000080: b0f2 c63c 9a16 2c3d 5445 403d fe42 a639
00000090: c65b 30bd 886f ac3b a539 71bb e65b 1dbb
000000a0: bbc9 d53c a10e 6dbd 88ae 313d 75b7 e6bb
000000b0: e459 6c3d f800 603d 6bfb 683d 2464 573d
000000c0: 2186 a73c 1c6b 87bd 32cb 55bc dadb d03c
000000d0: ed93 913d 4a7e 3c3d 26f8 963c 77d8 d43c
000000e0: e6d7 213d 6322 993d c121 b4bc 6bc7 ee3b
000000f0: caaa ff3c c57c 433d 1606 46bd 10a9 b0bc
00000100: 654b da3c 06ee 80bc c76b 77bd 702b 6c3c
00000110: 9395 b3bc 543b adb7 fac7 423d d6a2 3fbd
00000120: 126f 51bd cfc3 26bc b7ce edbc 86d4 093c
00000130: 381b 4b3d d789 e8bc 79b2 373c 4a1b ba3b
00000140: 7245 a7bc 2987 253d 2986 773d dab0 093c
00000150: 930b 7f3d 1431 d2bc 4235 d03c 73af f43c
00000160: 2ddd 8c3c 6693 0c3c 8944 633d e668 803d
00000170: 044a e93c 4d31 943d e1bd 54bc 0a68 9fbd
00000180: 2d47 673d e0c4 e73c 5fd8 99bb c11b 263d
00000190: 4b04 aa3b 2899 1c3d e765 61bd 8615 4bbc
000001a0: a2a2 903c ba41 6c3d 9a34 aebc 253d 173d
000001b0: fa34 66bb 0aab 94bd 1174 903c daf5 5b3d
000001c0: 3c09 adbc 3e80 513d ad2e 963d 3839 7cbd
000001d0: f700 4bbc 14d6 36bd 5f40 393b fb99 ebbb
000001e0: ea05 333c 9805 2fbd 6f9b 453d 6da1 df3c
000001f0: faab b53a 39db 8dbd ffa2 70bc b52b 16bd
00000200: edfc 67bd f4c6 45bb 9222 c3bc 7c32 9d3c
00000210: 8b2a 3d3d c468 2a3d c435 3bbc 10ea 883d
00000220: a578 a33d d18b 4bbd 3992 4cbd 7b94 39bd
00000230: 7d70 6ebc 889b 1e3d b1df 21bd f5d3 aa3c
00000240: e5c0 e3bb 40e5 c03c 8a24 cebc cc50 2e3d
00000250: 6787 9c3b 6556 363d 731c 38bd 5535 143d
00000260: 57bd d5bc 1aac 853c 99bd ba3a 7f32 393d
00000270: 0be8 3dba 93df 103d 8fea 823d 7900 b33c
00000280: d214 f2bc fea1 473d d489 813c 87e5 923c
00000290: 4919 f43c aa77 5d3d 5678 b1bc 25c0 56bd
000002a0: 2940 fe3b a951 81bd 36d0 1dbc 805d 2b3d
000002b0: 4d9a b5bc e99e b23c 860f f83b 60bc 783d
000002c0: 3a8d 77bc e26d 603d e3c0 a13c efa1 e3bc
000002d0: 5dd4 75bd 6151 25bd d7e6 493c fe53 b7bc
000002e0: 3802 933d 469a 2cbd c3ba 803d 28a9 9dbd
000002f0: 9bda 35bd 2122 91bd fc85 423d d6b6 9bbb
00000300: 0bc6 4cbd 200b 9e3c b3b7 063d 0ffb 22bd
00000310: 3bdc 99bc 03d2 743c 3db8 3bbd 578c ca3b
00000320: 147d 693d 3a3a 1bbd 2c75 64bd 04ec a8bb
00000330: ebce 66bd c681 0ebd 50a4 623d 00d5 dc3c
00000340: 1431 f53b 16ce 723b e797 6b3b e481 8abc
00000350: 609c 96bd c4f5 d43c 7ddc 243d 2d11 013d
00000360: 00d2 2d3d 8d09 8e3b fb6e ccbc 9a53 b1ba
00000370: 4ce2 493a 2084 663d f8e9 4a3d d3e1 1e3d
00000380: f7e6 583a 18f8 e5bc f6df 573d 7ffa 52bd
00000390: d032 d43b 870d c83c 7053 f73c 0b3a 5a3d
000003a0: 3599 623d c0b5 8a3c 5ae6 223d 4f50 033c
000003b0: 101b 8ebd f8df 873c d0e6 7c3d 567a 10bc
000003c0: d45f 713d b548 00bc 1ca2 d2bb a77f 2dbd
000003d0: d341 2bbd a31f 773d fe25 8ebc 9442 1f3d
000003e0: c035 f03a 88c9 9dbc 0202 be3c df3c 823d
000003f0: 86c5 063d 057d b4bc c38a 3c3c 7349 c93c
