cartpole_v1_best_model.pth (torch, 72542 bytes, 6 tensors)

layer1.weight f4 [128, 4]
0	0x3e854008	0.26025414
1	0xbe5f34cd	-0.21797486
2	0xbdcbfac9	-0.09959943
3	0x3e6d8f78	0.2319926
4	0xbeefa58e	-0.46805996
5	0x3e982cec	0.29721773
6	0xbdcdb144	-0.10043576
7	0x3e838e46	0.25694484
8	0x3d93f038	0.072235525
9	0xbd83063d	-0.06397674
10	0x3e10b4ac	0.14131421
11	0x3ce04ef8	0.027381405
12	0x3e3afdf8	0.18260944
13	0xbe478592	-0.19484547
14	0xbd15502c	-0.03645341
15	0xbd385f08	-0.045012504
16	0x3d946b2c	0.07247004
17	0xbb02e616	-0.0019973568
18	0x3edfc7de	0.43707174
19	0x3e1f5332	0.1555908
20	0xbe3edfed	-0.18640108
21	0xbe9ab74e	-0.30217975
22	0xbdab3639	-0.083599515
23	0xbe5ca0f4	-0.21545774
24	0xbe21e3b6	-0.15809521
25	0x3cd7bfc1	0.026336553
26	0x3e97611b	0.29566273
27	0x3e89e8fb	0.26935562
28	0xbefb841f	-0.49124238
29	0x3e9d4766	0.30718535
30	0x3e0fa8e5	0.14029272
31	0x3ef44467	0.47708437
32	0x3ea91ce9	0.3302987
33	0xbee9181b	-0.45526204
34	0xbef38d11	-0.47568563
35	0xbe773ff5	-0.24145491
36	0x3ee0ca68	0.43904424
37	0xbdaa8ff2	-0.08328237
38	0x3e5b1bfa	0.21397391
39	0xbe6ded08	-0.23234951
40	0x3efaebeb	0.49008116
41	0xbe5b3ac6	-0.21409139
42	0x3ec113f6	0.3771054
43	0x3c0ac6d0	0.008470252
44	0xbe86dc98	-0.26340175
45	0x3e839590	0.25700045
46	0xbe87e2ea	-0.2654031
47	0x3e1693e0	0.14704847
48	0xbe13d6f8	-0.14437473
49	0xbd60867a	-0.054815747
50	0xbef61be8	-0.48068166
51	0xbe741b1c	-0.23838466
52	0x3e8b4acb	0.272055
53	0xbdf52de2	-0.11971642
54	0x3efe4ec4	0.49669468
55	0x3ecc4db0	0.3990302
56	0xbcce288f	-0.025165824
57	0xbeac420a	-0.33644134
58	0x3e9d4150	0.30713892
59	0x3e21a471	0.15785386
60	0xbea65ca1	-0.32492545
61	0x3ea75c26	0.3268749
62	0x3e9a3c39	0.3012407
63	0x3ee1eac8	0.44124436
64	0xbe90d187	-0.28284857
65	0xbdadd4c4	-0.084878474
66	0xbbe90081	-0.007110656
67	0x3d9ad0c0	0.07559347
68	0xbec2f507	-0.38077566
69	0xbeb5f169	-0.35535744
70	0x3e8bee5e	0.27330297
71	0xbdef3ed4	-0.116819054
72	0x3e77a93a	0.24185649
73	0x3cfe0db0	0.031012386
74	0x3e2ae111	0.16687419
75	0x3de16bb1	0.11006869
76	0x3e375683	0.17904095
77	0x3e803d0d	0.25046578
78	0xbeee4d6c	-0.46543443
79	0x3e7f1de8	0.24913752
80	0xbeb5531a	-0.35414964
81	0xbebfe025	-0.37475696
82	0x3ce50c67	0.027960015
83	0xbdb38843	-0.08766224
84	0x3e97c372	0.296413
85	0xbe95a88f	-0.29230163
86	0xbee234f6	-0.4418103
87	0x3ebbb0c2	0.36658293
88	0xbd98748b	-0.07444104
89	0x3e8ee7e8	0.27911305
90	0x3e2205eb	0.1582257
91	0xbebf27b5	-0.37334982
92	0x3dcdb6dc	0.10044643
93	0x3df5f478	0.12009519
94	0xbeab6714	-0.3347708
95	0xbe72ec68	-0.23722994
96	0x3e314769	0.17312397
97	0x3db1b4b1	0.08677042
98	0xbe5730e8	-0.2101475
99	0xbe1842ce	-0.14869234
100	0x3eebcbea	0.46054012
101	0xbdc32232	-0.095280066
102	0x3e91bf20	0.2846613
103	0x3e6085f6	0.21926102
104	0xbea42dbb	-0.3206614
105	0xbed87f76	-0.42284745
106	0x3ef47d1f	0.4775171
107	0x3cc258b1	0.023723932
108	0x3eb0d9db	0.3454121
109	0x3dce81df	0.10083365
110	0x3e274a80	0.16337013
111	0x3ec09df3	0.37620506
112	0x3ef1600a	0.47143584
113	0xbea890f7	-0.329231
114	0x3d7641c8	0.060121328
115	0x3ebdc46a	0.37063915
116	0x3eb82b27	0.35970423
117	0x3e9dbe98	0.30809474
118	0xbeba8ca9	-0.3643544
119	0xbeb70d67	-0.35752413
120	0xbe9b5559	-0.30338553
121	0x3d7a9f3b	0.06118701
122	0x3efe3ebb	0.49657235
123	0xbea0d5e3	-0.31413183
124	0x3e8777ea	0.26458675
125	0xbe8cbf45	-0.27489677
126	0xbeefe4f8	-0.46854377
127	0xbddd610f	-0.10809528
128	0x3e94cc72	0.2906223
129	0x3eeef641	0.46672252
130	0xbea03685	-0.31291595
131	0x3dd8ff86	0.10595612
132	0x3edc1b6a	0.42989665
133	0x3ea9b1d7	0.33143494
134	0x3ea06191	0.31324437
135	0x3eb5fe2d	0.35545483
136	0x3ea1d6fd	0.31609336
137	0x3e0346f9	0.12820043
138	0xbeaf0a5a	-0.34187585
139	0xbed657c4	-0.41863835
140	0xbe67bcb8	-0.22630584
141	0xbd796f63	-0.060897242
142	0xbe9b9123	-0.30384168
143	0x3e3e067c	0.18557161
144	0x3e1cef77	0.15325724
145	0xbded5966	-0.11589317
146	0x3e47682e	0.19473335
147	0x3e283320	0.16425753
148	0x3e9dab54	0.30794775
149	0x3eab14c7	0.3341429
150	0xbe2ab7b8	-0.16671646
151	0x3efb7e5b	0.4911984
152	0xbd6d57a0	-0.057944894
153	0xbc8a9a28	-0.01691921
154	0xbef2433d	-0.47316924
155	0xbea50e15	-0.32237306
156	0xbe95a06e	-0.2922396
157	0xbe5ab5fd	-0.21358486
158	0x3eb5de71	0.35521272
159	0xbe2795a5	-0.16365679
160	0xbebe25a2	-0.37138087
161	0x3e478df2	0.19487742
162	0x3e214e15	0.15752442
163	0x3ea48077	0.3212926
164	0xbe847824	-0.2587291
165	0x3dde033a	0.10840459
166	0xbe3a63a0	-0.18202066
167	0xbde60f9a	-0.112334445
168	0xbecd47dd	-0.4009389
169	0xbe6c1a25	-0.23056848
170	0xbe1a1576	-0.15047249
171	0x3e5daf59	0.21648921
172	0x3db5a9d5	0.088702835
173	0x3e010362	0.12598947
174	0x3efe33b6	0.49648827
175	0x3ef836ef	0.4847941
176	0x3ead3c0f	0.33834884
177	0x3c97de97	0.018538756
178	0xbeb24e45	-0.3482534
179	0x3ec6c8e5	0.38825145
180	0xbe000766	-0.12502822
181	0xbd259122	-0.040421613
182	0xbedc89ac	-0.43073785
183	0xbdca439e	-0.09876178
184	0xbea3d2c9	-0.31996754
185	0x3eec84ae	0.46194977
186	0xbede8d3e	-0.43467134
187	0xbec8d303	-0.3922349
188	0xbc8cb8fa	-0.017178047
189	0xbe8a8696	-0.27055806
190	0x3e3767b5	0.17910655
191	0xbe44dd56	-0.19225058
192	0xbe72d47b	-0.23713867
193	0x3cd51e92	0.026015554
194	0x3eb80fb9	0.35949495
195	0xbeb2e9e8	-0.3494408
196	0x3e6dc566	0.23219833
197	0x3ea32bd9	0.3186939
198	0x3ef93492	0.4867292
199	0xbeb1e68d	-0.3474621
200	0x3df45cf0	0.11931789
201	0xbebeb690	-0.3724866
202	0x3edbed93	0.42954692
203	0xbe43c5ed	-0.19118471
204	0x3e9a32c6	0.30116862
205	0x3c73e1a0	0.014885336
206	0xbd1f7fd2	-0.03894026
207	0xbc82b0d6	-0.015953463
208	0x3da8f58d	0.0824996
209	0x3e73acaa	0.23796335
210	0x3da23fcd	0.07922325
211	0x3e1a1b6a	0.1504952
212	0xbee515b7	-0.4474313
213	0x3eb92c49	0.361666
214	0x3ee088f7	0.43854496
215	0x3ed4f123	0.41590223
216	0x3ebc750e	0.36808056
217	0xbeb9e6ee	-0.36308998
218	0xbe3c5727	-0.18392621
219	0x3ee2cf1f	0.44298646
220	0xbec1957a	-0.37809354
221	0x3ee99bb8	0.45626616
222	0xbec809c8	-0.39069963
223	0xbeb5aec4	-0.35484898
224	0x3e7d1ae4	0.24717289
225	0xbeb94e47	-0.36192533
226	0xbde56ffb	-0.11202999
227	0x3ebb94a1	0.36636832
228	0x3ec9707a	0.39343625
229	0x3ef0da35	0.4704148
230	0xbdd38bfa	-0.10329433
231	0xbec5c2a0	-0.3862505
232	0x3efbfa6a	0.49214488
233	0xbddf7126	-0.10910253
234	0xbe4fd180	-0.20294762
235	0x3dff2527	0.12458258
236	0xbeb1b336	-0.3470704
237	0x3ea99409	0.33120754
238	0x3ea1ce5c	0.31602752
239	0xbecc6f4d	-0.39928666
240	0xbed2440a	-0.41067535
241	0xbd336488	-0.043797046
242	0x3e570c28	0.21000731
243	0xbc6d4060	-0.01448068
244	0xbe81ceec	-0.2535318
245	0x3c3b48c8	0.011430927
246	0xbef09dc6	-0.46995372
247	0xbeb4ed12	-0.3533712
248	0xbea912fe	-0.33022302
249	0x3ed42a2b	0.41438422
250	0x3ee30625	0.44340625
251	0xbe309758	-0.17245233
252	0x3cac80ea	0.021057565
253	0x3e65952e	0.22420189
254	0x3d7f1b60	0.062281966
255	0xbe8030f3	-0.25037345

layer1.bias f4 [128]
0	0xbec0cbe7	-0.37655565
1	0x3eb4897a	0.35261136
2	0x3e9494e3	0.29019842
3	0xbefb9142	-0.4913426
4	0xbec8f0e8	-0.39246297
5	0xbea8b09d	-0.32947245
6	0xbe8bd04c	-0.27307355
7	0x3d8035fe	0.06260298
8	0xbefd4ad2	-0.49471146
9	0xbebdc8e6	-0.37067336
10	0x3e6c94cd	0.23103638
11	0xbe27ae9a	-0.16375199
12	0xbe4bbb10	-0.19895577
13	0xbed4c3ef	-0.41555735
14	0x3e525d48	0.20543396
15	0x3d0754a9	0.033039723
16	0xbe434481	-0.19069101
17	0xbe9c3ad7	-0.3051364
18	0x3dda22fe	0.106512055
19	0x3e08b54b	0.13350408
20	0x3e60a2c0	0.21937084
21	0x3e1aeeaa	0.15130106
22	0xbda0c4d6	-0.078500435
23	0xbec62aaa	-0.38704425
24	0x3ea44c22	0.32089335
25	0xbad4f602	-0.0016247632
26	0xbeab53e3	-0.33462438
27	0x3ede2527	0.4338772
28	0x3e8d7155	0.27625528
29	0xbeca7c61	-0.3954802
30	0xbe80b370	-0.251369
31	0xbe302952	-0.17203262
32	0xbe927988	-0.28608346
33	0x3e6facf4	0.2340582
34	0xbeb72e57	-0.35777542
35	0x3eef4aa0	0.46736622
36	0xbe50df77	-0.20397745
37	0x3e9878be	0.2977962
38	0x3c8ce811	0.017200502
39	0xbe61716b	-0.22015922
40	0x3ea9907a	0.3311804
41	0xbec354da	-0.38150674
42	0xbe860fc9	-0.26183918
43	0x3d6ae86b	0.057350557
44	0x3ec9c503	0.3940812
45	0xbe5b5cfa	-0.21422186
46	0xbe9a97a3	-0.30193815
47	0xbea352e6	-0.31899184
48	0xbe640e28	-0.22271025
49	0xbe3373df	-0.1752467
50	0xbde8c7b2	-0.11366214
51	0xbe91a17e	-0.2844352
52	0x3e1da6c4	0.15395647
53	0x3bdb1003	0.0066852584
54	0xbea64218	-0.324723
55	0xbe90d364	-0.28286278
56	0x3dde4352	0.10852684
57	0xbc1df148	-0.009640045
58	0x3eb59255	0.35463205
59	0xbd95e53f	-0.07319116
60	0xbecf6168	-0.40504003
61	0xbebd55ec	-0.36979616
62	0xbe13950b	-0.14412324
63	0xbddd4a61	-0.10805202
64	0x3d74cc7c	0.059765324
65	0xbdeb06c4	-0.114759
66	0x3e3a2bc8	0.18180764
67	0xbe277c25	-0.16355951
68	0x3ebd3698	0.36955714
69	0x3de5d611	0.112224706
70	0xbe1df023	-0.15423636
71	0x3ee2f092	0.44324166
72	0x3e00c604	0.12575537
73	0xbeaca928	-0.33722806
74	0xbe8e78ba	-0.27826482
75	0x3e9f3886	0.3109781
76	0x3e6cae0d	0.2311327
77	0x3ec6a036	0.38794106
78	0xbd12ff18	-0.035887808
79	0x3eb44c9f	0.35214707
80	0x3e80b1b8	0.2513559
81	0x3e210a9e	0.15726706
82	0xbdf0c8c8	-0.11757046
83	0x3ef585d6	0.4795367
84	0x3dd483a1	0.10376669
85	0xbe0163c0	-0.12635708
86	0xbb9e39e1	-0.004828677
87	0x3efa5b4e	0.48897785
88	0x3eaa9e02	0.33323675
89	0xbd1e979c	-0.038718805
90	0x3efc563b	0.4928454
91	0x3e639233	0.2222374
92	0xbe899e9b	-0.2687882
93	0xbee79bb0	-0.45235968
94	0x3e939ae7	0.2882912
95	0x3eef192d	0.46698895
96	0xbe9525e4	-0.2913047
97	0x3e54fc58	0.20799387
98	0x3c9981b9	0.018738614
99	0xbde04009	-0.10949714
100	0xbe0dccde	-0.13847682
101	0x3e112fe7	0.1417843
102	0x3ddc789c	0.10765192
103	0x3eae4045	0.3403341
104	0x3e38ccdb	0.18046896
105	0x3e6bb915	0.23019822
106	0x3ee0c414	0.43899596
107	0x3e1ece13	0.15508299
108	0x3d9cf9d4	0.076648384
109	0xbe37b471	-0.17939927
110	0x3eba984e	0.36444324
111	0x3d918ff3	0.07107534
112	0x3ea3bbb4	0.31979144
113	0x3ef686f4	0.48149836
114	0xbdea1a1c	-0.11430761
115	0x3eb30ea6	0.34972113
116	0xbdca55ba	-0.09879632
117	0x3ee5b90f	0.4486775
118	0x3ecadfc3	0.39623842
119	0xbe34b7d3	-0.17648248
120	0x3ca834e7	0.020533038
121	0xbe5cbab6	-0.215556
122	0xbe517d4e	-0.20457956
123	0xbdd3f167	-0.10348778
124	0xba394b8b	-0.0007068447
125	0xbe2fa786	-0.17153749
126	0xbef1a840	-0.47198677
127	0xbe997221	-0.29969886

layer2.weight f4 [128, 128]
0	0xbb9d69d0	-0.0048038736
1	0xbcd1d836	-0.025615793
2	0x3d8bd4cd	0.06827698
3	0x3d93238c	0.071845144
4	0x3d66a2a5	0.056307454
5	0x3d210834	0.039314464
6	0xbd89fc40	-0.06737566
7	0x3db0594a	0.086107805
8	0xbd9eee6f	-0.07760321
9	0xbcee09fc	-0.029057495
10	0xbd73f54e	-0.059560113
11	0x3d022f81	0.031783585
12	0xbd96a002	-0.07354738
13	0xbd2758eb	-0.040856283
14	0xbd5b15ce	-0.05348759
15	0xbd53e51a	-0.05173216
16	0xbd1dfa21	-0.03856862
17	0x3db76eee	0.08956705
18	0xbb965fa2	-0.004589037
19	0x3cf211de	0.029549535
20	0xbdae4527	-0.085092835
21	0x3da66899	0.08125419
22	0xbc88a203	-0.016678816
23	0xbda62000	-0.08111572
24	0x3d82166d	0.06351934
25	0xbcadd1ba	-0.02121817
26	0x3da9ef69	0.08297617
27	0xbd6b22d4	-0.05740626
28	0xbda29f49	-0.079405375
29	0xbd82c65f	-0.063854925
30	0x3d2720d0	0.040802777
31	0xbc033e8c	-0.008010518
32	0xbda26572	-0.079295054
33	0x3c9ba575	0.018999794
34	0xbb4b1d4c	-0.0030992804
35	0x3d0d8dbd	0.034559
36	0xbd2ce91a	-0.04221449
37	0xbd77b6ac	-0.060476944
38	0x3d80a7d5	0.062820114
39	0xbd2d082d	-0.042244125
40	0x3d84ace5	0.064782895
41	0x3d92c47f	0.07166385
42	0xbd72111f	-0.05909836
43	0xbd1c210d	-0.038117457
44	0x3c597a72	0.013273822
45	0xbdaaac31	-0.08333624
46	0x3cf3748f	0.029718665
47	0xbd1607d1	-0.036628548
48	0xbd1627cc	-0.036659047
49	0xbd86aeba	-0.06576295
50	0x3d34cc99	0.044140432
51	0xbd66b3bf	-0.056323763
52	0xbd8b603a	-0.06805463
53	0xbca909dd	-0.020634586
54	0xbd3e5620	-0.046468854
55	0xbdaab578	-0.08335394
56	0x3d1cd8e2	0.038292773
57	0xbcfe5fbc	-0.03105151
58	0x3d843254	0.06454912
59	0x3d84b125	0.064791
60	0xbd66e445	-0.05637004
61	0xbd530d94	-0.05152662
62	0xbcebed59	-0.0287997
63	0x3d5e9b0f	0.054347094
64	0xb9ec61df	-0.00045086347
65	0xbced4377	-0.028962834
66	0x3d6b1477	0.057392564
67	0x3db14d17	0.08657282
68	0x3d8b2133	0.067934416
69	0xbd851a7d	-0.06499193
70	0xbc8134c4	-0.01577223
71	0xbc6a793c	-0.014311131
72	0x3d9fc308	0.07800871
73	0xbd30b056	-0.043136917
74	0xbd4f7d61	-0.05065668
75	0x3b8329e9	0.004002799
76	0xbc927423	-0.017877644
77	0x3d13a1bc	0.036042914
78	0x3c5a5623	0.013326201
79	0xbd4d812c	-0.050172016
80	0x3d88f80e	0.06687938
81	0x3d6c4090	0.05767876
82	0x3cb454d7	0.022013111
83	0xbd9e714c	-0.077364534
84	0x3d350565	0.044194598
85	0x3d7b8f1b	0.061415773
86	0x3cdedcc6	0.027204882
87	0xbd012a4d	-0.03153448
88	0x3c0c5929	0.008566179
89	0xbd00777c	-0.03136395
90	0x3dafd2f5	0.08585159
91	0x3db423aa	0.08795865
92	0xbbf8c68f	-0.0075920294
93	0xbd7207ca	-0.05908946
94	0x3d5f8790	0.05457264
95	0x3d43919c	0.047746286
96	0x3d3fe727	0.046851303
97	0xbd82c773	-0.06385698
98	0x3d05aeab	0.03263728
99	0xbd0faf4d	-0.03507929
100	0xbd99d9b9	-0.075122304
101	0xbd71c999	-0.05903015
102	0x3d24582d	0.040123153
103	0x3d12640d	0.035739947
104	0xbd9998a2	-0.074998155
105	0x3d57ea2c	0.052713558
106	0x3d9001a7	0.07031565
107	0x3d8ebf93	0.06970134
108	0x3d56fdfd	0.052488316
109	0xbc374681	-0.011186243
110	0x3d7d2f82	0.061812885
111	0x3d930c21	0.07180048
112	0x3d47924e	0.04872351
113	0xbd799c6e	-0.0609402
114	0xbce64b71	-0.028112145
115	0x3d94d431	0.07267035
116	0x3d8f4be7	0.06996899
117	0x3d71c463	0.05902518
118	0xbd0c9d9f	-0.034330007
119	0xbc74959e	-0.01492825
120	0xbd815b8e	-0.06316291
121	0xbd432846	-0.04764583
122	0x3d902f66	0.070402905
123	0xbd8f08b7	-0.06984084
124	0xbc9cceee	-0.01914164
125	0x3cb0537e	0.021524187
126	0xbd5938db	-0.053032737
127	0x3cb0c70f	0.021579294
128	0xbc3de26d	-0.011589629
129	0x3d1bcffe	0.038040154
130	0xbd85588f	-0.06511032
131	0x3c47d898	0.012197636
132	0xbda50919	-0.08058376
133	0x3d6169a7	0.0550324
134	0x3db508b2	0.08839549
135	0xbcecd960	-0.028912246
136	0x3c5acb95	0.013354202
137	0xbd3a8575	-0.04553743
138	0xbd5c723a	-0.053819872
139	0xbd375a13	-0.044763636
140	0xbd2c7841	-0.04210687
141	0x3c9e9445	0.01935781
142	0xbbf3e4e6	-0.0074430583
143	0x3c10a01e	0.008827237
144	0xbd855c24	-0.06511715
145	0xbd58916b	-0.052873056
146	0xbd972a0a	-0.07381065
147	0xbd791d1d	-0.06081878
148	0x3d9d18d8	0.07670754
149	0x3d118407	0.0355263
150	0xbdaca233	-0.084293745
151	0xbc71b25f	-0.014752
152	0x3c21a421	0.009865792
153	0x3d4c6a62	0.049906142
154	0x3dad3c0d	0.084587194
155	0x3cc4fec9	0.024047272
156	0x3d8506d9	0.06495447
157	0xbd00d365	-0.0314516
158	0xbb3d4367	-0.0028879286
159	0xbd52a741	-0.051429037
160	0x3ca6cd37	0.020361526
161	0x3daca05d	0.08429024
162	0x3d6358be	0.055504553
163	0x3db9a912	0.09065451
164	0xbd18625d	-0.03720318
165	0xbc08f618	-0.008359455
166	0x3ca7353e	0.02041113
167	0x3d921edb	0.071347915
168	0xbda0e74d	-0.07856617
169	0xbd31cbe3	-0.043407332
170	0x3c7cb23d	0.015423355
171	0xbd4660bc	-0.048432097
172	0x3d124d99	0.035718534
173	0xbbc5735b	-0.0060257143
174	0xbcbb9fba	-0.022903312
175	0x3d42faab	0.047602337
176	0x3d815da7	0.06316691
177	0x3db01218	0.08597201
178	0x3d2f448b	0.042789977
179	0xbb1e6884	-0.0024171183
180	0x3d998d4c	0.07497653
181	0x3d95788d	0.07298384
182	0xbd2aa1ca	-0.0416582
183	0x3d24e744	0.040259615
184	0x3c55a06f	0.013038739
185	0xbd14fc37	-0.036373343
186	0xbc962821	-0.018329682
187	0xbcaaf958	-0.02087085
188	0xbd7d569d	-0.06185018
189	0xbcdcf34e	-0.026971485
190	0x3cf3a6a6	0.02974255
191	0x3d84e2ca	0.06488569
192	0x3c1b1190	0.009464636
193	0xbda9e963	-0.08296468
194	0x3d4b1c7a	0.049587704
195	0xbcc5335a	-0.024072338
196	0x3da75bca	0.08171804
197	0xbda975bb	-0.082744084
198	0xbc9564f2	-0.018236611
199	0x3d91e3b6	0.071235105
200	0x3d27e916	0.040993772
201	0xbd349e89	-0.044096503
202	0xbd9cbdf2	-0.07653417
203	0x3ae83a55	0.001771758
204	0x3d16d83b	0.036827307
205	0xbd909702	-0.070600525
206	0xbd977940	-0.073961735
207	0x3ad0e58f	0.0015937554
208	0xbc7bb9f7	-0.015364162
209	0x3d73c6be	0.059515707
210	0xbdaa1a1a	-0.0830576
211	0xbc39aabc	-0.01133221
212	0xbd86ca89	-0.06581599
213	0xbc27bc53	-0.010237771
214	0xbd38f813	-0.045158457
215	0x3cf9ef32	0.030509565
216	0xbd91ef3b	-0.07125708
217	0xbd88c743	-0.06678631
218	0xbd4260b3	-0.0474555
219	0xbd98d4cd	-0.074624635
220	0x3d6f2bc6	0.058391355
221	0xbc2234ca	-0.009900281
222	0xbd3dd60a	-0.0463467
223	0x3d8463f2	0.064643756
224	0xbca4459e	-0.020052727
225	0x3d46367a	0.048391797
226	0xbcca8e57	-0.024726076
227	0xbd9223cf	-0.07135736
228	0x3c9f05d9	0.019411968
229	0x3d6cbf8d	0.057799865
230	0xbdaafbc5	-0.083488025
231	0x3c42f2a9	0.011898675
232	0x3ca06c86	0.019582998
233	0x3c520811	0.012819306
234	0x3a1bc60e	0.0005942293
235	0xbcca3a80	-0.024686098
236	0xbd88a123	-0.066713594
237	0x3c8b5fd8	0.017013475
238	0xbd680e74	-0.05665441
239	0xbd9017a0	-0.07035756
240	0xbcd27c0d	-0.025693918
241	0xbd6cc16a	-0.05780164
242	0x3cf4304f	0.029808192
243	0x3d8675ba	0.06565423
244	0x3d8cadde	0.068691
245	0xbd5539ec	-0.05205719
246	0x3d507b5e	0.050898902
247	0x3d80a194	0.062808186
248	0x3b70b10e	0.0036726627
249	0x3d23905e	0.0399326
250	0x3d4cd9d3	0.05001242
251	0x3d8ff23d	0.07028625
252	0x3d4cb9c9	0.049981866
253	0x3d25d444	0.040485635
254	0xbd09686c	-0.03354685
255	0xbd3e8821	-0.04651654

layer2.bias f4 [128]
0	0x3d3d7a10	0.046258986
1	0xbd54a0c1	-0.05191112
2	0xbc46acd4	-0.012126166
3	0xbd97cef0	-0.07412517
4	0xbd4af735	-0.04955216
5	0x3d6a563c	0.057211146
6	0xbae67459	-0.0017582282
7	0x3cb85201	0.02250004
8	0x3d217289	0.03941587
9	0x3d0940e7	0.03350916
10	0xbc8147ab	-0.015781244
11	0xbd02647c	-0.03183411
12	0x3c42c47f	0.011887669
13	0x3dac790e	0.08421527
14	0x3cc54395	0.024080077
15	0xbc2f025d	-0.010681716
16	0x3d647cdc	0.055783138
17	0xbd7b0fc3	-0.06129433
18	0xbd715295	-0.058916647
19	0xbd265d43	-0.040616285
20	0x3db1bd30	0.08678663
21	0x3a8ea6ad	0.0010883413
22	0xbd858809	-0.06520087
23	0x3d632e33	0.05546398
24	0x3dac28ea	0.08406241
25	0x3d239d6a	0.039945044
26	0xba25e77c	-0.00063287443
27	0xbd2349b4	-0.03986521
28	0x3c0ecf12	0.008716362
29	0x3d060c4b	0.032726567
30	0xbd13f6ea	-0.036124147
31	0xbd36bf88	-0.044616252
32	0x3c66d7ed	0.014089567
33	0x3d4acec5	0.049513597
34	0xbcdf584b	-0.027263781
35	0xbb678e53	-0.0035332635
36	0xbd82a55e	-0.063791975
37	0x3c75a476	0.014992824
38	0xbd2aad92	-0.041669436
39	0x3da0bfec	0.07849106
40	0x3d3a4053	0.0454715
41	0xbd8327a7	-0.064040475
42	0xbd81c7dd	-0.06336949
43	0xbd850bef	-0.06496417
44	0xbda39b02	-0.0798855
45	0x3d8f2e00	0.06991196
46	0xbc557526	-0.013028419
47	0x3d63b660	0.05559385
48	0x3d4ed7d4	0.0504988
49	0xbcbfa75f	-0.023395238
50	0x3d82a02c	0.063782066
51	0x3c3360b5	0.01094835
52	0x3d940ad4	0.07228628
53	0x3c9b9088	0.018989816
54	0x3d1426b6	0.03616973
55	0x3d9c573f	0.07633828
56	0xbbe42f05	-0.006963613
57	0x3d387a3b	0.045038443
58	0x39e80d58	0.0004426043
59	0xbd9fd8c4	-0.07805017
60	0x3d45de0d	0.048307467
61	0xbd805435	-0.06266061
62	0xbbb0c707	-0.0053948197
63	0x3d9ae72e	0.07563625
64	0xbcc0cfcc	-0.023536585
65	0xbd9e1b68	-0.07720071
66	0x3d878e1e	0.066189036
67	0x3d020f35	0.031752784
68	0x3d9d906e	0.076935634
69	0x3d3f5949	0.04671601
70	0xbdaa1a81	-0.083058365
71	0x3d3f6167	0.04672375
72	0xbd86872f	-0.06568753
73	0x3c491185	0.012272243
74	0xbdabd694	-0.08390537
75	0x3d90a7f0	0.070632815
76	0x3da8d00d	0.082428075
77	0x3b90d327	0.0044197026
78	0xbceba76b	-0.028766355
79	0x3d64e149	0.05587891
80	0x3d9e4d24	0.07729557
81	0xbc0bb4db	-0.008527006
82	0x3d56535c	0.05232559
83	0x3c0e4a99	0.008684778
84	0xbd57bec1	-0.05267215
85	0x3d9b2e16	0.075771496
86	0xbd4f4963	-0.050607096
87	0xbd7b19f2	-0.06130404
88	0x3d561515	0.0522662
89	0x3d0ac00e	0.033874564
90	0x3d315c4e	0.04330092
91	0xbd601075	-0.054703195
92	0x3cbb6914	0.022877254
93	0x3d16cb27	0.036814835
94	0x3cba32ed	0.022729361
95	0xbd95ab1b	-0.073080264
96	0x3cf02d1f	0.02931839
97	0x3d11f2e8	0.035632044
98	0xbd3626f9	-0.04447076
99	0xbd060095	-0.0327154
100	0xbdb0a806	-0.08625798
101	0x3da446ec	0.0802134
102	0x3b0a362e	0.0021089423
103	0xbd2bb79a	-0.041923143
104	0x3d854b3e	0.06508492
105	0xbd8e3a35	-0.06944696
106	0x3c9769cf	0.01848307
107	0xbd1505a4	-0.036382332
108	0xbc54b07b	-0.012981529
109	0x3c0571b9	0.008144789
110	0xbc409e62	-0.011756511
111	0x3d899327	0.0671752
112	0x3d6a9c67	0.057278063
113	0x3d06d55c	0.03291832
114	0xbc8d93cc	-0.01728239
115	0xbce2d7da	-0.027690817
116	0xbd0b46ae	-0.034002952
117	0xbb233103	-0.002490104
118	0x3cd1da16	0.025616687
119	0x3d8fd8c5	0.070237674
120	0xbdaee838	-0.08540386
121	0xbda0f5c4	-0.07859376
122	0xbbc49b2c	-0.0059999432
123	0x3d89bd2a	0.06725533
124	0x3d34a50e	0.04410272
125	0xbd2a7e00	-0.04162407
126	0x3d28a166	0.041169547
127	0x3d392ca1	0.045208577

layer3.weight f4 [2, 128]
0	0x3c91656a	0.017748553
1	0x3d5ff0ed	0.054673124
2	0x3db714f4	0.08939543
3	0x3d2d1dc3	0.04226471
4	0xbd568970	-0.052377164
5	0x3d07d526	0.03316226
6	0x3bf4e1cd	0.0074732066
7	0x3da4b15f	0.08041643
8	0x3d671940	0.056420565
9	0x3a142c6f	0.0005652373
10	0x3c385be5	0.011252378
11	0x3d2a10cc	0.041519925
12	0x3dba095e	0.09083818
13	0x3d5dab7c	0.05411862
14	0x3c8a0f6c	0.016853057
15	0x3d5b3fac	0.05352752
16	0x3d69d9da	0.057092525
17	0x3d873f07	0.066038184
18	0xbb8f3b84	-0.0043711085
19	0x3d1370f7	0.035996404
20	0xbba13dfb	-0.0049207187
21	0x3d8b777d	0.068099
22	0xbd1d320e	-0.038377814
23	0x3c7476dd	0.014920917
24	0xbd19c903	-0.037545215
25	0xbc0f0e34	-0.008731414
26	0x3d1ab068	0.03776589
27	0x3c13a257	0.009010873
28	0xbdb3f79c	-0.08787462
29	0x3c83f8d9	0.01610987
30	0xbd1d657a	-0.038426854
31	0x3bcbed90	0.006223388
32	0x3d01ed79	0.031720612
33	0xbbc7ccc0	-0.006097406
34	0x3d3c8be8	0.046031862
35	0xbda2332c	-0.079199165
36	0x3c3f48a7	0.0116750365
37	0x3d96bd74	0.07360354
38	0x3bdd9e6e	0.006763271
39	0x3d9ca2a8	0.07648212
40	0xbcfd08d5	-0.030888
41	0x3cef744d	0.029230261
42	0xbd90070b	-0.07032593
43	0xbc47de35	-0.012198974
44	0xbd555659	-0.0520843
45	0x3d2ef5b9	0.042714808
46	0x3d256378	0.040378064
47	0xbc52d519	-0.012868189
48	0xbd478d72	-0.048718877
49	0xbd2c19c6	-0.042016767
50	0x3d5b0f74	0.053481534
51	0xbcd36f00	-0.025809765
52	0xbdadbf95	-0.08483807
53	0x3d869986	0.06572251
54	0x3c2f06db	0.010682787
55	0x3d77fb77	0.06054255
56	0x3d218058	0.03942904
57	0xbc1a5689	-0.009420046
58	0xbd992dd0	-0.07479441
59	0xbba3e699	-0.0050018546
60	0xbb9ff471	-0.0048814346
61	0x3cdc568c	0.026896738
62	0xbda8c5e0	-0.08240867
63	0xbb9a9671	-0.004717641
64	0xbd905fde	-0.07049535
65	0xbd31f633	-0.043447684
66	0xbdaa31d3	-0.083102845
67	0x3d8b2942	0.06794979
68	0x3da23f71	0.07922257
69	0xbd22e2f7	-0.03976723
70	0xbd0dd24c	-0.034624383
71	0x3d50e29a	0.050997354
72	0x39e70271	0.00044061572
73	0xbc855d3f	-0.016279815
74	0xbc33e510	-0.010979906
75	0xbda473d5	-0.08029906
76	0xbd6c8ee9	-0.057753477
77	0x3d7c0717	0.0615302
78	0xbd69e7fb	-0.057106
79	0x3d57b087	0.052658584
80	0xbd09db6d	-0.033656526
81	0xbd78255b	-0.0605825
82	0xbd23fd34	-0.040036395
83	0x3d6b9d37	0.05752298
84	0xbda6bbb5	-0.08141271
85	0x3d1cfd38	0.038327426
86	0x3ce156f5	0.027507285
87	0x3cf3216d	0.029679025
88	0xbd9813ff	-0.07425689
89	0xbd85a423	-0.06525447
90	0xbc7c5925	-0.015402113
91	0xbced3d66	-0.028959941
92	0xbcde004f	-0.027099757
93	0x3d02739a	0.031848527
94	0x3d2cd080	0.04219103
95	0x3d93b6fb	0.07212635
96	0xbd2c759b	-0.042104345
97	0xbd3b16a6	-0.045675896
98	0x3dad0ebc	0.08450076
99	0xbc0ed4fa	-0.00871777
100	0xbcbefa05	-0.023312578
101	0x3d5713d8	0.05250916
102	0xbd8158dd	-0.063157775
103	0x3d1d8860	0.038460135
104	0xbd14d3fc	-0.036334977
105	0x3a58ec9a	0.00082750025
106	0xbd0a87b9	-0.03382084
107	0xbd85f980	-0.06541729
108	0xbc11dee8	-0.008903243
109	0x3caadb5c	0.020856552
110	0xbd2042d1	-0.03912622
111	0x3c769f9c	0.015052702
112	0xbd95f2e9	-0.07321722
113	0xbd685bc5	-0.056728143
114	0x3d202f00	0.039107323
115	0x3d9118cf	0.0708481
116	0x3d4821d4	0.048860386
117	0xbd6405cd	-0.055669595
118	0x3d7d1416	0.061786734
119	0xbd6a0d6c	-0.057141706
120	0x3d335538	0.043782443
121	0x3c91d24a	0.017800469
122	0xbc9d0fc8	-0.019172564
123	0xbd9541c8	-0.072879374
124	0xbd96c5f3	-0.073619746
125	0xbdac3f9e	-0.084105715
126	0xbc30466c	-0.010758977
127	0x3d94e872	0.07270898
128	0x3d0e9cfa	0.034817673
129	0x3d983066	0.07431106
130	0xbd979c17	-0.07402819
131	0x3d7da890	0.06192833
132	0xbc6910e9	-0.014225223
133	0x3d3bd896	0.04586085
134	0xbd8160a0	-0.06317258
135	0xbd6e768e	-0.05821853
136	0x3d96a8c5	0.07356409
137	0x3d6e08e1	0.058113936
138	0xbd62b62d	-0.055349518
139	0xbd88e384	-0.0668402
140	0xbcb60ebe	-0.022223826
141	0x3db756f3	0.08952131
142	0x3d95370f	0.07285892
143	0xbd0f72ef	-0.03502172
144	0x3c727929	0.014799395
145	0x3d5175e2	0.051137812
146	0xbd88aee3	-0.06673982
147	0xbc7d1d88	-0.015448935
148	0x3d9017bb	0.07035776
149	0x3d1e4f95	0.038650114
150	0x3d16e70e	0.036841445
151	0x3da3ee04	0.08004382
152	0x3d1e4291	0.0386377
153	0xbdb00bd1	-0.08596004
154	0xbd493f32	-0.049132533
155	0xbcffdecc	-0.031234168
156	0xbd98be56	-0.07458179
157	0x3d7388a7	0.059456494
158	0x3b3f4195	0.0029183377
159	0x3da275a6	0.07932596
160	0xbbd7aac0	-0.0065816343
161	0x3cc9b50d	0.024622465
162	0xbc9912c8	-0.018685713
163	0x3da868b2	0.08223094
164	0x3d79bc1e	0.06097042
165	0xbc985084	-0.01859308
166	0x3b6449b4	0.003483397
167	0xbc6af179	-0.014339798
168	0xbd2708f5	-0.040780026
169	0xbdac990b	-0.08427628
170	0x3d3bdfba	0.04586766
171	0x3d683721	0.0566932
172	0xbd75d73e	-0.060019724
173	0x3d82485a	0.06361456
174	0xbd833b45	-0.06407789
175	0xbd93d9fe	-0.07219313
176	0x3ca5ca2d	0.020238006
177	0x3c716015	0.01473238
178	0xbce1e28c	-0.027573846
179	0xbc228253	-0.009918767
180	0x3c862efb	0.016379824
181	0xbd45b6ef	-0.048270162
182	0x3d8f9568	0.07010919
183	0xbd4fbd32	-0.05071754
184	0xbc8f6511	-0.017504247
185	0xbdadd597	-0.08488005
186	0xbcdb5fa9	-0.026779013
187	0x3c2851c0	0.010273397
188	0xbd0b25ec	-0.033971712
189	0xbd8f5353	-0.06998315
190	0xbccf9337	-0.025338752
191	0xbd46fe0a	-0.048582114
192	0x3dafdf8e	0.085875615
193	0x3db82d53	0.0899302
194	0xbb1625a9	-0.002291063
195	0xbd0665be	-0.032811873
196	0x3d5b87d6	0.05359634
197	0xbc5e280c	-0.013559353
198	0x3d95f53d	0.07322166
199	0x3d634f1b	0.055495363
200	0x3d8d31f9	0.06894297
201	0x3dace8d1	0.08442844
202	0xbca876cc	-0.02056446
203	0xbd9ec741	-0.077528484
204	0xbca44017	-0.020050092
205	0xbda7a46a	-0.08185656
206	0x3d3fceb2	0.04682798
207	0xbc8b4889	-0.01700236
208	0x3d6bf35d	0.057605136
209	0xbd851504	-0.06498149
210	0x3d01c3b4	0.031680778
211	0x3cdd52e1	0.027017059
212	0x3da3dc0f	0.08000957
213	0xbd75f4e3	-0.060047995
214	0x3cc64bae	0.024206009
215	0xbd422898	-0.047401994
216	0xbc958703	-0.018252855
217	0x3d8d0a38	0.06886715
218	0xbd067141	-0.03282285
219	0x3d499708	0.0492163
220	0x3cbb8154	0.022888817
221	0x3b84eeca	0.004056786
222	0x3d978060	0.073975325
223	0x3c7f26d2	0.01557322
224	0xbd720b30	-0.0590927
225	0x3dab590d	0.083665945
226	0x3d829aca	0.0637718
227	0xbd0b20d9	-0.033966873
228	0x3d7d1482	0.061787136
229	0xbc4aa238	-0.0123677775
230	0x3ce89975	0.028393487
231	0x3c1c8e88	0.0095554665
232	0xbd96e08b	-0.07367047
233	0x3db3b172	0.087740794
234	0x3d8ceaa1	0.068806894
235	0xbd9c7289	-0.07639033
236	0xbdab224b	-0.0835615
237	0x3db4c16f	0.08825957
238	0x3d1fb109	0.038987193
239	0xbc3388f5	-0.010957946
240	0xbce5bee5	-0.028045127
241	0x3d94cf37	0.072660856
242	0x3d74f0e0	0.05980003
243	0xbdae2274	-0.08502665
244	0xbd00b2ca	-0.031420507
245	0xbd2a357e	-0.04155492
246	0xbd9ffbcc	-0.07811698
247	0xbc53cdbc	-0.012927469
248	0x3d1462d9	0.03622708
249	0xbc988160	-0.018616378
250	0xbd72d83f	-0.05928826
251	0xbc726a62	-0.014795871
252	0xbc8f1415	-0.01746563
253	0xbd4d1c83	-0.05007602
254	0x3cc8c201	0.02450657
255	0xbd92e3ed	-0.0717238

layer3.bias f4 [2]
0	0x3cfe13a2	0.031015221
1	0xbc24f775	-0.010068764
