cartpole_v1_best_model.pth (torch, 72542 bytes, 6 tensors)

layer1.weight f4 [128, 4]
0	0x3e882f82	0.26598746
1	0xbe97179e	-0.29510206
2	0x3d433580	0.047658443
3	0x3ee25b7e	0.44210428
4	0x3efafd54	0.490214
5	0xba9a9000	-0.0011792183
6	0xbdadf4b8	-0.08493942
7	0x3db505d0	0.08838999
8	0xbe5bd384	-0.21467406
9	0x3ea35754	0.31902564
10	0xbeb8de74	-0.36107218
11	0xbe54b0cc	-0.20770568
12	0xbdc646a8	-0.09681445
13	0xbed2c862	-0.41168505
14	0xbd8512c0	-0.06497717
15	0x3ecfae46	0.40562648
16	0x3e9e976c	0.309749
17	0x3d99c118	0.07507533
18	0xbebad2ae	-0.3648886
19	0x3e796cf4	0.24357969
20	0x3ebcb604	0.36857617
21	0x3e776584	0.24159819
22	0xbe5009bc	-0.20316213
23	0x3ebc4aa4	0.36775696
24	0xbeb70580	-0.35746384
25	0xbec5ad70	-0.38608885
26	0xbd666560	-0.056249022
27	0x3ed79bfe	0.421112
28	0x3da9fc58	0.08300084
29	0x3e9b830a	0.30373412
30	0xbe9b727c	-0.30360782
31	0x3d9ffe58	0.07812184
32	0xbe8b03ee	-0.27151436
33	0xbe4a0abc	-0.19730657
34	0xbe735c68	-0.23765719
35	0xbed8c368	-0.42336583
36	0xbefa6752	-0.48906952
37	0xbebfc24a	-0.37452918
38	0xbefccc32	-0.4937454
39	0x3e09b58c	0.13448161
40	0x3eefec66	0.46860045
41	0x3e5478d0	0.20749211
42	0x3e45f9b8	0.19333541
43	0xbdc731b0	-0.09726274
44	0xbecd3d14	-0.4008566
45	0x3c88fa40	0.016720891
46	0x3dd8ece8	0.10592061
47	0xbed19486	-0.40933627
48	0xbe6b7d28	-0.22996962
49	0x3e9878b4	0.2977959
50	0xbe2648d0	-0.16238713
51	0xbec5e0fe	-0.38648218
52	0xbe29cd58	-0.16582239
53	0x3e04c074	0.1296404
54	0x3ed7b1c4	0.42127812
55	0x3ed55874	0.41669047
56	0x3e6a5310	0.22883248
57	0x3ea8df8c	0.32983053
58	0x3e04d408	0.12971509
59	0x3d969c68	0.07354051
60	0xbefe62d0	-0.49684763
61	0xbe6df234	-0.23236924
62	0x3e8eb7e2	0.27874666
63	0xbeee3006	-0.46521014
64	0x3e927e12	0.2861181
65	0xbea64bf4	-0.32479823
66	0x3e88bada	0.26705056
67	0x3d6384e0	0.05554664
68	0x3de298d0	0.11064303
69	0xbec923b4	-0.39285052
70	0x3efd5726	0.4948055
71	0x3dd389c0	0.10329008
72	0x3d94ee58	0.07272023
73	0x3e4718f0	0.19443107
74	0x3ed05d88	0.4069636
75	0x3ea73938	0.32660842
76	0x3ef6e54c	0.48221815
77	0x3d77cbc0	0.060497046
78	0x3e848388	0.258816
79	0x3df63020	0.12020898
80	0x3ea092b4	0.31361926
81	0xbe2b0cd0	-0.16704106
82	0xbef00812	-0.46881157
83	0x3ec8ebea	0.39242488
84	0xbddfd250	-0.10928786
85	0x3edb5b80	0.42843246
86	0xbe6952d8	-0.22785509
87	0xbea42ad0	-0.32063913
88	0xbe6a588c	-0.2288534
89	0xbe26cc40	-0.16288853
90	0xbde2cbd0	-0.110740304
91	0x3ef102ca	0.4707244
92	0x3ef65288	0.4810984
93	0x3ef306d0	0.47466135
94	0xbefcb016	-0.49353093
95	0xbe864658	-0.26225543
96	0x3eb821d0	0.35963297
97	0xbd3251d0	-0.043535054
98	0x3d4e9dc0	0.05044341
99	0x3e560bf8	0.20903003
100	0x3cd652a0	0.026162446
101	0x3e54f920	0.20798159
102	0x3ec64806	0.38726825
103	0x3e1b3e2c	0.15160435
104	0x3e56a8ac	0.2096278
105	0xbdf9b5a8	-0.12192851
106	0xbe03c9c0	-0.1286993
107	0x3e0af320	0.13569307
108	0x3ea51c68	0.32248235
109	0x3e6b44fc	0.22975534
110	0xbeac0e58	-0.33604693
111	0x3e388e20	0.18022966
112	0x3ee6bd30	0.45066214
113	0xbe770ed8	-0.24126756
114	0xbed4fa2e	-0.41597122
115	0x3e9a8760	0.30181408
116	0x3ed79ec8	0.42113328
117	0xbe042bac	-0.12907284
118	0xbe9a6732	-0.30156857
119	0x3ee777be	0.45208544
120	0x3d3a5690	0.04549271
121	0x3eb0d6c0	0.3453884
122	0xbe911fec	-0.28344667
123	0x3ed04074	0.40674174
124	0x3efe1124	0.49622452
125	0x3e479d5c	0.19493622
126	0xbeebbcd0	-0.4604249
127	0x3eeab968	0.4584458
128	0xbe0e1a50	-0.13877225
129	0x3ee60dc8	0.4493239
130	0xbdf81308	-0.12113005
131	0x3ec6ebc2	0.38851744
132	0x3ea5f000	0.32409668
133	0xbebc3a2e	-0.36763138
134	0x3ee9ed58	0.4568889
135	0x3dc34248	0.095341265
136	0x3c921680	0.017832994
137	0xbcb265a0	-0.021776974
138	0x3e699110	0.22809243
139	0xbe62b768	-0.22140276
140	0xbdcd9ae0	-0.10039306
141	0x3ebfed30	0.37485647
142	0x3ed16858	0.4089992
143	0x3eddffa8	0.43359113
144	0xbec20d40	-0.37900734
145	0xbeb181dc	-0.34669387
146	0xbeaed3c8	-0.3414595
147	0x3e1222bc	0.14271063
148	0xbee61616	-0.44938725
149	0xbdfbe978	-0.1230039
150	0x3e25fc38	0.16209495
151	0x3eb0d356	0.34536237
152	0xbead3f74	-0.33837473
153	0xbdc3c7d0	-0.095595956
154	0x3dc4cd70	0.096094966
155	0x3dba4ed8	0.090970695
156	0xbeb2ea6c	-0.34944475
157	0x3e3bbb18	0.1833309
158	0x3ddbcf20	0.10732865
159	0xbdffb6e8	-0.124860585
160	0x3efa6ae0	0.48909664
161	0x3b78d500	0.0037968755
162	0x3daf8708	0.08570677
163	0xbcfb8440	-0.03070271
164	0xbea4e416	-0.32205266
165	0x3ebe40f2	0.37158924
166	0x3e09e128	0.13464797
167	0x3e84a43a	0.25906545
168	0x3eb398e8	0.35077596
169	0xbe792180	-0.24329185
170	0x3d5f6bb0	0.05454606
171	0xbebf2ce6	-0.37338942
172	0x3eb138fe	0.34613794
173	0x3da3bc98	0.07994956
174	0xbd8cafb0	-0.06869447
175	0x3edb872e	0.4287657
176	0x3e4bb0e8	0.19891703
177	0x3e70ec44	0.23527628
178	0xbef22888	-0.47296548
179	0xbeaa9b86	-0.3332178
180	0xbdfd2700	-0.12360954
181	0xbecb9194	-0.39759505
182	0x3eb8baae	0.36079925
183	0x3d5599a0	0.05214846
184	0xbef80e7a	-0.48448545
185	0x3ddaa430	0.106758475
186	0xbebf7216	-0.37391728
187	0x3ec6eaac	0.38850915
188	0xbd4c80d0	-0.049927533
189	0xbec33d20	-0.38132572
190	0x3dd16100	0.102235794
191	0x3d5bc4f0	0.05365461
192	0xbe693154	-0.22772723
193	0x3c335900	0.010946512
194	0xbe702794	-0.23452598
195	0x3ef8aba6	0.48568457
196	0x3e9d0da6	0.30674475
197	0x3db467c0	0.08808851
198	0x3dcad340	0.09903574
199	0x3efa3126	0.48865622
200	0xbeb730ac	-0.3577932
201	0xbdceba80	-0.10094166
202	0xbe70e0d4	-0.23523265
203	0x3ee109a6	0.43952674
204	0xbed93120	-0.42420292
205	0xbefc152a	-0.49234897
206	0xbde358d8	-0.1110093
207	0xbe4bb7a0	-0.19894266
208	0xbe7caadc	-0.24674553
209	0xbdcb3798	-0.09922713
210	0xbd9bab08	-0.07600981
211	0x3e7aee2c	0.24504918
212	0xbcf3ce20	-0.029761374
213	0xbede3148	-0.43396974
214	0xbd80e088	-0.06292826
215	0x3c10a7c0	0.008829057
216	0xbe975d60	-0.29563427
217	0xbed4574c	-0.41472852
218	0x3edf2496	0.435826
219	0x3dc81700	0.09770012
220	0x3ecd693e	0.40119356
221	0xbdfaf978	-0.12254614
222	0x3e62add4	0.22136623
223	0x3bbd6980	0.005780399
224	0xbcc35360	-0.023843467
225	0x3ea19c32	0.3156448
226	0x3e77987c	0.24179262
227	0xbe4a4150	-0.19751477
228	0x3ee05344	0.43813527
229	0xbed91292	-0.4239698
230	0xbe9f83be	-0.311552
231	0x3e83cdc8	0.25742936
232	0x3ca3fd20	0.02001816
233	0xbe0fc5f4	-0.14040357
234	0xbeaa39b2	-0.33247143
235	0xbd9ebee8	-0.07751256
236	0xbe78d130	-0.24298549
237	0xbec356da	-0.381522
238	0xbdf4bb40	-0.119497776
239	0x3eb0bbd8	0.34518313
240	0xbeb0ed6e	-0.34556144
241	0xbeb8ce08	-0.3609469
242	0xbec80e1c	-0.39073265
243	0xbbabf380	-0.0052475333
244	0x3d95b4a8	0.07309848
245	0xbebda1d2	-0.37037522
246	0x3dcfae10	0.10140622
247	0x3e6d2b14	0.23160964
248	0x3e4d9bf8	0.20079029
249	0x3e21faa4	0.15818268
250	0xbea83718	-0.32854533
251	0xbef6b476	-0.48184556
252	0x3e735380	0.23762321
253	0x3ef6ef98	0.4822967
254	0x3e345590	0.17610765
255	0x3df780b8	0.12085098

layer1.bias f4 [128]
0	0x3e080360	0.13282537
1	0x3c89ba20	0.016812384
2	0xbef83c0a	-0.48483306
3	0x3ee23914	0.44184172
4	0xbecdd7ca	-0.40203696
5	0x3e69717c	0.22797197
6	0xbe896ec0	-0.26842308
7	0xbe48b1fc	-0.19599146
8	0x3e5d0398	0.21583402
9	0x3e9a3508	0.30118585
10	0xbea99dc8	-0.3312819
11	0xbee7cac8	-0.45271897
12	0xbe6123d0	-0.21986318
13	0xbe41ceac	-0.18926495
14	0xbe5cbd40	-0.21556568
15	0xbeb1ecf8	-0.34751105
16	0xbeabcb0c	-0.3355335
17	0xbeaf12e4	-0.341941
18	0x3ebf470a	0.37358886
19	0x3dd0ed98	0.102015674
20	0xbea92096	-0.33032674
21	0xbecd0d50	-0.4004922
22	0xbed37332	-0.41298825
23	0xbef8ea0e	-0.4861607
24	0xbdae2ac0	-0.08504248
25	0xbe826460	-0.25467205
26	0xbdd1d2a8	-0.102452576
27	0x3e965928	0.29364896
28	0xbe0bfd3c	-0.1367082
29	0x3e1fc1b8	0.15601242
30	0xbe966aca	-0.2937835
31	0x3dbd0ef8	0.09231371
32	0xbebdc56a	-0.37064677
33	0xbe45b9dc	-0.19309181
34	0xbea562ea	-0.32302028
35	0xbed00938	-0.40632033
36	0xbe029140	-0.12750721
37	0xbefc472a	-0.49273044
38	0xbc38d500	-0.011281252
39	0xbe29a8b0	-0.16568255
40	0x3d4422c0	0.047884703
41	0x3dede3d8	0.11615723
42	0x3e0c7768	0.13717425
43	0x3e1b5bd0	0.15171742
44	0x3d2ce670	0.04221195
45	0x3d5dac80	0.054119587
46	0xbea70124	-0.32618058
47	0x3e718850	0.23587155
48	0xbef73df6	-0.4828946
49	0x3e0ba84c	0.13638419
50	0xbed6f040	-0.4198017
51	0xbdee2498	-0.116280735
52	0x3ee4ca0e	0.44685405
53	0x3d8f27e8	0.069900334
54	0x3eddf260	0.4334898
55	0xbe8d21b4	-0.27564776
56	0x3df2b0a0	0.11850095
57	0xbe4fcdcc	-0.20293349
58	0x3ec849b8	0.39118743
59	0x3e36921c	0.17829174
60	0xbe050318	-0.12989461
61	0x3da6eab8	0.08150238
62	0xbe472f1c	-0.19451565
63	0xbebf2a66	-0.37337035
64	0x3e7b9a74	0.24570638
65	0x3e1fd9f4	0.15610486
66	0xbec54314	-0.3852774
67	0xbe784678	-0.24245632
68	0x3e914fe4	0.28381264
69	0x3d87d690	0.066327214
70	0xbef6ea3e	-0.48225588
71	0x3d547060	0.05186498
72	0x3e2311a4	0.15924698
73	0x3d774280	0.060366154
74	0xbde4f330	-0.11179197
75	0xbd1c97b0	-0.038230598
76	0xbd08f650	-0.033438027
77	0xbe9adc0a	-0.30246
78	0x3ee91bb4	0.45528948
79	0xbeda84c0	-0.42679405
80	0xbe426a08	-0.1898576
81	0xbebb4bca	-0.3658126
82	0xbde0b5b0	-0.10972154
83	0xbdc01580	-0.09379101
84	0xbe89e960	-0.26935863
85	0xbe36feb0	-0.17870593
86	0xbdd14128	-0.10217506
87	0xbeaff8dc	-0.34369552
88	0x3e9ed7fe	0.31024164
89	0xbe0fccb4	-0.14042932
90	0x3eac3eb0	0.33641577
91	0x3eaea2f8	0.3410871
92	0xbddeb6f0	-0.10874736
93	0x3e54a9e0	0.20767927
94	0xbe2528e0	-0.16128874
95	0x3d204d10	0.039135993
96	0x3eae135e	0.3399915
97	0xbe088cb0	-0.13334918
98	0x3ea37346	0.31923884
99	0x3ed2cade	0.411704
100	0xbef6449a	-0.48099214
101	0x3dbac8c8	0.09120327
102	0xbe6c7bc0	-0.23094082
103	0x3e94b51a	0.2904442
104	0x3eb38f38	0.35070205
105	0xbe3a4b6c	-0.18192834
106	0xbed0a8e2	-0.40753847
107	0x3ca26b60	0.019826591
108	0xbebd3d06	-0.3696062
109	0x3ead1346	0.33803767
110	0xbdf925c8	-0.12165409
111	0xbe07dc6c	-0.13267678
112	0xbce05000	-0.027381897
113	0x3d273820	0.04082501
114	0x3ecd2648	0.4006827
115	0x3e9904da	0.29886514
116	0x3eb3d2c6	0.35121745
117	0x3eceebf0	0.4041438
118	0xbd6b5200	-0.05745125
119	0x3e6359e0	0.22202253
120	0x3dc1e450	0.09467375
121	0x3d548dc0	0.051892996
122	0xbe8686b2	-0.2627464
123	0x3d2d99e0	0.042383075
124	0x3e2e1ad0	0.17002416
125	0x3e6993b0	0.22810245
126	0xbef0c076	-0.47021836
127	0x3e4ba2ac	0.19886273

layer2.weight f4 [128, 128]
0	0xbd18619f	-0.037202474
1	0xbd8e9d6d	-0.0696362
2	0xbd44efe5	-0.048080344
3	0xbd1b3ed0	-0.0379017
4	0xbd07a54e	-0.03311663
5	0x3d6394de	0.055561893
6	0x3d844884	0.06459144
7	0xbd9ac045	-0.07556204
8	0xbd7a7b48	-0.061152726
9	0x3d6880e1	0.056763534
10	0xbd38b098	-0.045090288
11	0xbb4cae8e	-0.0031231972
12	0x3d620ed5	0.055189926
13	0x3be37200	0.00694108
14	0xbd2069c7	-0.039163377
15	0xbd560f43	-0.05226065
16	0x3c94005f	0.018066583
17	0xbb2a7e85	-0.0026015353
18	0x3d8e5bb0	0.06951082
19	0x3c908ebe	0.01764619
20	0xbd999401	-0.07498933
21	0xbd9605a7	-0.07325297
22	0x3d5d927b	0.054094773
23	0x3d401d71	0.046903078
24	0xbbb42fef	-0.005498878
25	0x3d22634e	0.039645486
26	0xbd159492	-0.03651864
27	0xbdb05c34	-0.08611336
28	0x3cf4412a	0.029816229
29	0x3d94e7fb	0.07270809
30	0xbd150bc5	-0.036388177
31	0xbca20a87	-0.01978041
32	0x3d72a86a	0.059242643
33	0xbd7018bd	-0.058617342
34	0x3c90b345	0.017663607
35	0x3d052724	0.03250803
36	0x3c5fe66e	0.013665779
37	0xbbdbcd15	-0.0067077973
38	0xbbed2d7e	-0.007238089
39	0xbd98f45e	-0.07468484
40	0x3daf5826	0.08561735
41	0xbb2ee9b7	-0.0026689598
42	0x3da1285e	0.078690276
43	0xbd8b5e9a	-0.06805153
44	0x3db22d67	0.08700066
45	0xbd12a490	-0.03580147
46	0xbd3b0e6b	-0.045668047
47	0xbbef3d2b	-0.007300993
48	0xbd7a197e	-0.061059467
49	0x3c78d3fa	0.015187258
50	0xbdaf5225	-0.0856059
51	0xbd0232f2	-0.031786866
52	0xbcc8046e	-0.024416175
53	0x3c061ff5	0.00818633
54	0x3d0e6675	0.03476568
55	0xbdaf5fe6	-0.08563213
56	0xbcdb3ab0	-0.026761383
57	0xbd9c5db6	-0.076350614
58	0x3c20d937	0.009817413
59	0x3cf83251	0.03029743
60	0x3bb5da24	0.005549686
61	0xbd843ac7	-0.064565234
62	0x3db4350b	0.0879918
63	0x3b8290c3	0.003984542
64	0x3d6bb95d	0.057549823
65	0x3d93f535	0.07224504
66	0xbcff4e85	-0.03116537
67	0x3c6b39a8	0.014357008
68	0xbc193fbe	-0.009353576
69	0x3da8fc3d	0.08251236
70	0x3d732fa6	0.059371613
71	0xbd88e7f8	-0.066848695
72	0x3d9a9bc1	0.07549239
73	0xbd513666	-0.05107727
74	0x3d7f01a2	0.062257417
75	0x3d89c793	0.06727519
76	0xbd9771e0	-0.07394767
77	0x3cfca155	0.030838648
78	0x3ba65160	0.0050756186
79	0x3d3acade	0.045603625
80	0xbd08b75e	-0.033377998
81	0xbd710859	-0.05884585
82	0xbca4b15a	-0.020104099
83	0xbd282290	-0.041048586
84	0x3d46af27	0.048506882
85	0xbd8569ed	-0.06514344
86	0xbd6ed542	-0.058308847
87	0xbd37db15	-0.044886667
88	0x3b97842a	0.0046239095
89	0x3d155c6f	0.036465105
90	0xbd886667	-0.06660157
91	0x3d8d1f77	0.06890767
92	0x3cbb22f3	0.022843814
93	0xbd98bd27	-0.07457953
94	0x3d23a865	0.039955515
95	0xbda28f93	-0.07937541
96	0xbc8b4a94	-0.017003335
97	0xbdad5416	-0.08463304
98	0xbcfde27e	-0.030991789
99	0x3c2b1b5d	0.010443536
100	0xbd280b92	-0.04102666
101	0xbc97c571	-0.018526765
102	0xbcba9f1e	-0.022780951
103	0xbda7d5a6	-0.08195047
104	0xbd58f31b	-0.05296622
105	0xbd2875db	-0.04112802
106	0xbd67682b	-0.056495827
107	0x3d8cc0c6	0.06872706
108	0x3d9c06d4	0.0761849
109	0xbd0e9e08	-0.03481868
110	0x3d66171f	0.056174394
111	0x3be8baf6	0.0071023656
112	0x3d1ebd78	0.03875491
113	0x3c913f5d	0.01773041
114	0xbd20a294	-0.039217547
115	0xbd0d2f7c	-0.034469113
116	0xbd53fb70	-0.05175346
117	0x3cd6f9fd	0.02624225
118	0xbd6489ea	-0.055795588
119	0x3d5613c2	0.052264936
120	0xbdb0e6bc	-0.08637759
121	0x3c259f67	0.010108805
122	0x3d8f5172	0.06997956
123	0x3d9badba	0.07601495
124	0x3cb36dca	0.021902937
125	0x3d8c4073	0.0684823
126	0x3d4d117c	0.050065503
127	0xbd47baf2	-0.04876227
128	0x3d8adfa9	0.06780941
129	0xbce1cea4	-0.027564354
130	0x3cd05697	0.025431914
131	0x3d61e82a	0.05515305
132	0xbcad86f2	-0.021182511
133	0xbc847302	-0.016168121
134	0x3d58c886	0.05292561
135	0xbbee0e43	-0.0072648837
136	0x3d49553f	0.049153563
137	0x3b505a4d	0.0031792105
138	0xbcbc3e09	-0.0229788
139	0xbc29b91a	-0.010359073
140	0x3d89f623	0.067364
141	0x3d1b5804	0.037925735
142	0x3d9f35f7	0.07773965
143	0xbd9454a8	-0.072427094
144	0xba09ddd2	-0.0005259189
145	0x3d5158fe	0.05111026
146	0x3d1f7da3	0.038938176
147	0x3d967317	0.073461704
148	0x3b92d85c	0.0044813585
149	0x3ca70237	0.020386798
150	0x3d08733d	0.033313025
151	0xbcbd66bb	-0.023120275
152	0x3b0775ee	0.0020669657
153	0x3d28b615	0.041189272
154	0xbd72fdf3	-0.059324216
155	0x3d873657	0.066021614
156	0x3da4fe3c	0.08056304
157	0x3d9a8e75	0.07546703
158	0xbbea4d37	-0.007150318
159	0xbcf12562	-0.02943677
160	0x3d17b3b8	0.037036628
161	0xbd0e39d5	-0.03472312
162	0xbbab1bda	-0.005221826
163	0xbda24cb0	-0.07924783
164	0x3d117de3	0.035520446
165	0xbcfc7518	-0.030817553
166	0xbd41c6b9	-0.047308657
167	0xbd8314f0	-0.06400478
168	0x3d446112	0.047944136
169	0xbd3f4d99	-0.046704862
170	0x3d06ad63	0.0328802
171	0xbd341b35	-0.04397126
172	0xbbf74b89	-0.0075468463
173	0x3da26455	0.07929293
174	0x3d2f825c	0.04284893
175	0x3cd8f178	0.026482329
176	0xbc2c4306	-0.0105140265
177	0x3c2c3afb	0.010512109
178	0xbbbf3917	-0.005835663
179	0x3d015f1a	0.031584837
180	0xbc5dc994	-0.0135368295
181	0x3d40ae0b	0.04704098
182	0x3ce3562e	0.027751055
183	0xbd284182	-0.041078098
184	0xbc57e607	-0.013177401
185	0xbd9ee477	-0.0775842
186	0x3b9615f9	0.004580256
187	0xbb2a5308	-0.0025989432
188	0x3d1a5860	0.037681937
189	0xbbf5fe4f	-0.0075071226
190	0x3c1fe817	0.009759924
191	0x3da65794	0.08122173
192	0xbd54c8bb	-0.051949244
193	0x3da0defa	0.078550294
194	0x3daf6a38	0.085651815
195	0xbc8c6c5c	-0.017141514
196	0xbc05ba17	-0.008162043
197	0xbd28237a	-0.041049458
198	0xbc3c1ee0	-0.011481971
199	0x3c49d11c	0.012317922
200	0x3d91c20a	0.07117088
201	0xbd96bb5e	-0.07359956
202	0xbd1f6e6a	-0.03892366
203	0x3daf5b99	0.08562393
204	0xbc6ad2ba	-0.014332468
205	0x3c512691	0.012765543
206	0xbda4ba40	-0.08043337
207	0x3d73e61a	0.059545614
208	0xbd883557	-0.06650799
209	0x3d1f45ff	0.038885113
210	0xbd87434e	-0.06604634
211	0xbcd638c5	-0.026150117
212	0x3d79a0d7	0.060944404
213	0x3d52a2ba	0.05142472
214	0x3ce8d6ef	0.0284228
215	0x3d1595f4	0.03651996
216	0x3dafb688	0.08579737
217	0xbb016e24	-0.0019749487
218	0xbd7b26fd	-0.06131648
219	0x3c03fda1	0.008056075
220	0x3af71587	0.001885102
221	0x3c04b18b	0.00809897
222	0x3d005957	0.0313352
223	0xbd9e07bc	-0.07716319
224	0x3c28d4f9	0.010304683
225	0xbd843770	-0.06455886
226	0xbd1a9d05	-0.0377474
227	0xbd8f16f4	-0.069868
228	0x3dae0e0f	0.08498775
229	0x3d7f2ede	0.062300555
230	0x3d548a5a	0.051889755
231	0x3d731724	0.05934824
232	0xbd23f718	-0.04003057
233	0xbd770547	-0.060307767
234	0xbd95d3cc	-0.07315788
235	0x3c4daeed	0.012553913
236	0xbd2a4e97	-0.041578855
237	0xbd58dc94	-0.052944735
238	0xbd5b7bf4	-0.053585008
239	0x3d1141dc	0.0354632
240	0x3d3fd910	0.046837866
241	0xbd9c17e8	-0.07621747
242	0xbbc6f339	-0.006071475
243	0x3da18161	0.07886005
244	0xbdaf1bfd	-0.0855026
245	0x3c009a2f	0.00784926
246	0x3d26cd62	0.040723212
247	0xbcef42df	-0.029206691
248	0xbd8b4d6b	-0.06801876
249	0xbda81cf4	-0.08208647
250	0xbc18e202	-0.009331228
251	0x3d730968	0.059335142
252	0xbd955ac8	-0.07292706
253	0x3d6365e4	0.055517092
254	0x3c0d23e0	0.00861451
255	0xbcbf2474	-0.023332812

layer2.bias f4 [128]
0	0x3d0eb7e6	0.034843348
1	0x3d19b40d	0.037525225
2	0x3cdb501f	0.026771603
3	0xbcb28ac3	-0.021794682
4	0xbd4dc15b	-0.050233226
5	0x3cef9cb7	0.029249532
6	0x3d327c77	0.04357573
7	0x3cb1e07c	0.021713488
8	0xbd23d571	-0.039998475
9	0x3b6330f2	0.0034666625
10	0xbcf8094e	-0.030277874
11	0x3c9f6e29	0.019461708
12	0xbb234707	-0.0024914162
13	0xbb59e00d	-0.0033245117
14	0x3dafa775	0.08576862
15	0xbce9ea1c	-0.028554015
16	0xbd8d8803	-0.06910708
17	0xbd9834d3	-0.074319504
18	0x3cc078ec	0.02349516
19	0xbbcdaaa4	-0.0062764455
20	0xbb2e84c6	-0.0026629432
21	0x3d328f01	0.04359341
22	0x3c0436fe	0.008069752
23	0xbd1c7b6c	-0.03820364
24	0xbd0ed615	-0.034872133
25	0x3da62301	0.08112145
26	0xbd493991	-0.049127165
27	0xbd5cef65	-0.053939242
28	0x3da8fac0	0.08250952
29	0xbd63348f	-0.055470046
30	0xbd0313ad	-0.032001186
31	0x3cf379fb	0.02972125
32	0x3c88fec0	0.016723037
33	0xbd65b3fb	-0.056079846
34	0x3d9ff0db	0.078096114
35	0xbcba5ea3	-0.022750204
36	0x3bfd94a5	0.007738667
37	0xbda25821	-0.079269655
38	0x3c66e2a8	0.014092125
39	0xbdb1e150	-0.08685553
40	0xbbb66e5f	-0.0055673565
41	0x3d20d9a2	0.03927005
42	0xbd822167	-0.06354027
43	0xbd08f2ad	-0.03343456
44	0xbd931381	-0.071814544
45	0x3d9392d0	0.07205737
46	0x3d48204e	0.048858933
47	0xbd766c25	-0.06016173
48	0x3d4bff34	0.049803928
49	0xbd65707f	-0.056015488
50	0xbd6266f5	-0.05527397
51	0xbcc15585	-0.02360035
52	0xbd6e369a	-0.05815754
53	0x3cb5d641	0.02219689
54	0xbcd1364d	-0.025538588
55	0xbd010cbf	-0.031506296
56	0xbb851040	-0.004060775
57	0xbd1dc1c3	-0.038514864
58	0x3d482404	0.048862472
59	0x3c9efcd8	0.019407675
60	0xbd5a870a	-0.05335144
61	0x3d8f9770	0.07011306
62	0xbd913563	-0.07090261
63	0xbd553984	-0.052056804
64	0x3cd6c056	0.02621476
65	0x3d3795a1	0.04482043
66	0x3d19867c	0.03748177
67	0xbd1d7675	-0.038443048
68	0x3d28bf13	0.041197848
69	0xbd75b2ac	-0.059984848
70	0x3d9e24f1	0.0772189
71	0xbd664da2	-0.05622638
72	0x3d8a21f5	0.06744758
73	0xbda504a7	-0.08057528
74	0x3d83deb7	0.06438964
75	0xbd472165	-0.048615832
76	0xbda8ab25	-0.08235768
77	0xbbcc8684	-0.0062416214
78	0x3d2044ec	0.03912823
79	0x3c963ba0	0.018338978
80	0x3d8f8231	0.07007254
81	0x3dae6507	0.08515363
82	0xbd2d25d7	-0.042272415
83	0x3ceb44c5	0.028719315
84	0x3d7da3bf	0.06192374
85	0x3d637523	0.055531632
86	0x3d0dcd12	0.0346194
87	0x3d5a7831	0.05333728
88	0x3b8a18b0	0.0042143688
89	0xbd27481f	-0.040840264
90	0x3ac952e4	0.0015359786
91	0xbd884b2c	-0.06654963
92	0x3cf4c0e3	0.029877132
93	0x3d48bd7b	0.049008828
94	0xbc614a3c	-0.013750609
95	0xbd835ce9	-0.064142056
96	0xbda7d8a8	-0.08195621
97	0x3dadfd37	0.084955625
98	0x3db1ccf6	0.08681671
99	0x3d11aeec	0.03556721
100	0xbbe1bcd5	-0.0068889656
101	0xbc59e8c2	-0.013300123
102	0xbd5b8ad6	-0.0535992
103	0x3d6c4447	0.0576823
104	0xbd26ae1b	-0.040693384
105	0x3db07d7d	0.08617685
106	0xbda32841	-0.07966662
107	0x3dac4723	0.08412006
108	0xbbf66685	-0.0075195455
109	0xbd911fb0	-0.07086122
110	0xbcb6cbb5	-0.022313932
111	0x3d0c1d76	0.034207784
112	0x3d8d254b	0.06891879
113	0xbcdef5c5	-0.027216801
114	0x3d999446	0.07498984
115	0xbda1f4cd	-0.0790802
116	0xbd7982e6	-0.06091585
117	0x3cd0c2ff	0.025483606
118	0x3c5f8166	0.013641691
119	0xbcffdd99	-0.031233596
120	0x3d4f9625	0.0506803
121	0x3c9e2873	0.019306397
122	0x3d6a8e50	0.057264626
123	0x3cf37eb0	0.029723495
124	0xbdaedda6	-0.0853837
125	0xbcc2eb1c	-0.02379375
126	0x3d109bae	0.035304718
127	0xbda9748b	-0.08274182

layer3.weight f4 [2, 128]
0	0xbcdb5dd3	-0.026778137
1	0x3baf9ce0	0.005359277
2	0xbd79201a	-0.06082163
3	0xbce8ab67	-0.028402044
4	0x3aefb58e	0.001828836
5	0x3d9bf8e9	0.07615835
6	0x3d5825d8	0.052770466
7	0x3d175cec	0.03695385
8	0xbd506c06	-0.05088427
9	0xbcaf85da	-0.02142613
10	0xbc4dfcc1	-0.012572468
11	0x3d9f2d1e	0.07772277
12	0xbd9e4d49	-0.07729585
13	0xbd159087	-0.036514785
14	0xbd8876ea	-0.06663306
15	0xbd63c8b8	-0.055611342
16	0x3d60cabc	0.054880843
17	0xbcdc05c8	-0.026858225
18	0xbd546050	-0.051849663
19	0xbc41514c	-0.011799168
20	0xbd963c71	-0.07335747
21	0xbd912e46	-0.07088904
22	0x3cf7b99f	0.030239878
23	0x3be08f84	0.006853046
24	0x3d4fa68d	0.050695945
25	0xbd9b6037	-0.07586711
26	0x3d1b76f7	0.03795525
27	0xbc5966c8	-0.013269134
28	0xbd829fe0	-0.0637815
29	0x3d5a2701	0.053259853
30	0xbd86eb37	-0.065878324
31	0x3db1646a	0.086617306
32	0xbd64b8d1	-0.055840317
33	0x3d9cd505	0.07657818
34	0xbd415ee9	-0.047209654
35	0xbc9e8f11	-0.019355329
36	0xbd725e4f	-0.05917197
37	0x3c6eabe7	0.014567352
38	0xbd6e7ed0	-0.058226407
39	0x3c36e579	0.011163109
40	0x3d219a2a	0.039453663
41	0xbd6e8f71	-0.058242265
42	0xbd985fca	-0.07440145
43	0xbd87372a	-0.066023186
44	0xbd91e832	-0.07124366
45	0xbd25b88d	-0.040459204
46	0x3da1f9b1	0.07908953
47	0x3d60ca2c	0.054880306
48	0x3c9c55a0	0.019083798
49	0x3cf038a8	0.02932389
50	0xbab22315	-0.0013590778
51	0xbc058d25	-0.008151327
52	0x3d828a9b	0.06374093
53	0x3d816b20	0.063192606
54	0x3d101349	0.03517464
55	0x3d8ca35e	0.06867097
56	0xbcd168d0	-0.025562674
57	0xbc2d817c	-0.0105899535
58	0xbd78627d	-0.0606408
59	0x3b40871c	0.0029377406
60	0x3ce58da8	0.028021649
61	0x3d85612e	0.06512676
62	0x3d20c18f	0.03924709
63	0x3d12c3a2	0.0358311
64	0x3dafc045	0.085815944
65	0xbdac9a91	-0.08427919
66	0x3bca2efa	0.006170151
67	0xbdb0df61	-0.08636356
68	0xbd8f417c	-0.06994912
69	0x3b802d4a	0.003911649
70	0xbd996ffb	-0.07492062
71	0x3c984277	0.01858638
72	0xbcdd0a05	-0.026982317
73	0xbda7450a	-0.08167465
74	0x3ce695e4	0.028147645
75	0xbda80d73	-0.0820569
76	0x3d8a21dd	0.0674474
77	0x3d5bf4a0	0.05370009
78	0xbd8b0475	-0.067879595
79	0xbd2fea45	-0.042948026
80	0xbd92e9c8	-0.071734965
81	0xbcee4538	-0.02908574
82	0xbd41e08e	-0.047333293
83	0xbccf3d12	-0.025297675
84	0xbd7807fa	-0.060554482
85	0x3db03f23	0.086057924
86	0xbd818e4a	-0.063259676
87	0xbc24b6db	-0.010053362
88	0x3d96fbfa	0.073722795
89	0xbc8025bb	-0.015642991
90	0xbbeb5897	-0.0071821916
91	0x3c857e34	0.01629553
92	0x3a889eea	0.0010423337
93	0x3ade9962	0.0016982967
94	0xbc754edc	-0.014972415
95	0xbda65dc4	-0.08123353
96	0xbbd00699	-0.0063484428
97	0x3cfac5d3	0.030611908
98	0xbd31f8ec	-0.04345028
99	0xbc1eceb5	-0.0096928375
100	0x3d045f76	0.0323176
101	0xbd918186	-0.07104783
102	0xbb9a3a5e	-0.004706665
103	0x3c2e12cc	0.010624599
104	0x3c6999ca	0.014257858
105	0xbc322b2c	-0.010874551
106	0x3d9a8406	0.07544713
107	0xbb065870	-0.002049949
108	0xbdafaf0e	-0.08578311
109	0xbcc678a0	-0.02422744
110	0x3d5ed177	0.05439898
111	0xbcd87d43	-0.026426917
112	0x3dad4365	0.0846012
113	0xbd6710c6	-0.05641248
114	0x3c70b094	0.014690537
115	0xbc71f4be	-0.014767824
116	0x3cf1b4ba	0.029505122
117	0x3c7ce6b2	0.015435861
118	0x3d17a876	0.03702589
119	0xbd8e41ec	-0.06946167
120	0xbdac6b6b	-0.08418926
121	0x3ce42cda	0.027853418
122	0x3cb63e27	0.022246433
123	0x3d7b5479	0.061359856
124	0x3da2f2fb	0.07956501
125	0x3db50350	0.088385224
126	0xbda2925f	-0.07938074
127	0xbdb01352	-0.08597435
128	0x3bf09ff6	0.0073432876
129	0x38242e6d	3.9143884e-05
130	0xbcab7dd4	-0.020934023
131	0xbc29eddf	-0.010371654
132	0x3ba2fbb8	0.004973855
133	0xbda6bd2d	-0.08141551
134	0xbb35bd54	-0.0027731257
135	0xbd690721	-0.056891564
136	0x3d59d8c8	0.053185254
137	0xbcf700b7	-0.030151708
138	0x3c14c78e	0.009080781
139	0xbc9ff0ff	-0.019524096
140	0x3d5fc776	0.05463358
141	0x3d3f0f6a	0.04664556
142	0xbda2b05a	-0.07943793
143	0x3d60d377	0.05488917
144	0x3d9d3a17	0.076770954
145	0xbd86e489	-0.06586558
146	0x3d49f852	0.049309082
147	0xbcf62380	-0.030046225
148	0xbd6e748f	-0.058216628
149	0xbd2e4963	-0.042550456
150	0xbcb8f2a7	-0.022576643
151	0x3ced5cbc	0.028974883
152	0x3d7bfcb3	0.06152029
153	0xbce12c57	-0.027486963
154	0xbd9c5239	-0.0763287
155	0xbc068ca1	-0.0082122395
156	0x3d41e88d	0.04734092
157	0xbbaec1ac	-0.005333146
158	0x3cde62f5	0.027146796
159	0x3d6114a1	0.054951314
160	0x3d0381fc	0.032106385
161	0xbd2e108b	-0.042496245
162	0xbd1c2a83	-0.03812648
163	0xbd4c42cd	-0.049868394
164	0xbc88ac92	-0.01668385
165	0x3c1b6bcb	0.009486149
166	0x3d823f98	0.06359786
167	0xbda8134b	-0.08206805
168	0x3cce7e98	0.025206849
169	0xbd355707	-0.04427245
170	0x3d33301b	0.04374705
171	0x3d469064	0.048477545
172	0xbd7989c0	-0.060922384
173	0xbd1b8288	-0.03796628
174	0xbd4dea26	-0.05027213
175	0x3daaf780	0.08347988
176	0x3d03c323	0.03216852
177	0x3d97dda6	0.07415323
178	0xbcb6b892	-0.022304807
179	0xbd93bc4c	-0.07213649
180	0xbd3a1596	-0.045430742
181	0x3ca93151	0.020653399
182	0xbd910341	-0.07080699
183	0x3bfabbf8	0.007651802
184	0xbd047f5f	-0.032348033
185	0xbd8bc4d4	-0.06824651
186	0xbd93e2b9	-0.07220978
187	0xbdaa8c9c	-0.083276
188	0xbd8d0df0	-0.06887424
189	0x3d243604	0.040090576
190	0xbd31b365	-0.043383975
191	0x3c4a05b3	0.01233046
192	0xbb3e8648	-0.0029071737
193	0x3d32f5d8	0.043691486
194	0xbcd3ab78	-0.025838599
195	0x3d64bf0c	0.05584626
196	0xbca86633	-0.020556545
197	0xbd0db875	-0.03459974
198	0x3d9f6b35	0.0778412
199	0x3c2fd6af	0.010732337
200	0xbd845845	-0.064621486
201	0xbc89745a	-0.016779114
202	0xbd81ab7f	-0.063315384
203	0xbd821844	-0.063522846
204	0x3d7c8704	0.0616522
205	0xbd841f04	-0.06451228
206	0x3da6e8a9	0.08149845
207	0xbd56882d	-0.05237596
208	0x3b42b7d8	0.002971163
209	0xbc40afa3	-0.011760625
210	0x3d088f20	0.03333962
211	0x3cdd72c8	0.027032271
212	0x3d8d5765	0.06901435
213	0x3d9b8b1f	0.075948946
214	0x3d99c98b	0.075091444
215	0xbd9e9074	-0.07742396
216	0x3c42163a	0.01184612
217	0xbc9850ce	-0.018593218
218	0x3d5db373	0.054126214
219	0x3ca87d61	0.020567598
220	0x3d8a7d1d	0.06762145
221	0x3c84a153	0.016190207
222	0x3c5c6b4c	0.013453316
223	0xbda2cfd1	-0.07949794
224	0x3b76b58a	0.0037644827
225	0xbc86e422	-0.016466204
226	0xbd7e3dc9	-0.06207064
227	0x3cbcdfd4	0.023055948
228	0xbc4f83ea	-0.012665728
229	0xbd9eb0da	-0.077485755
230	0xbd5525cb	-0.052037995
231	0x3dad8e96	0.08474462
232	0xbd781f04	-0.060576454
233	0x3d684137	0.05670282
234	0x3c15e18f	0.009148016
235	0xbd774466	-0.060367964
236	0xbc8a6dc8	-0.01689805
237	0xbd9e19c5	-0.07719759
238	0xbcc486b1	-0.023990007
239	0x3d9de9e8	0.0771063
240	0x3cad39b1	0.021145673
241	0x3da7d4d6	0.08194892
242	0x3d34ad42	0.044110544
243	0x3d43c7c0	0.04779792
244	0xbc8eb4f5	-0.017420271
245	0x3a80c004	0.000982285
246	0xbd075a36	-0.033045016
247	0x3baa0dd3	0.0051896363
248	0xbcb25407	-0.021768583
249	0x3ce9784f	0.02849975
250	0xbd9b21a1	-0.075747736
251	0x3cb64ecb	0.022254368
252	0x3cd9d7a8	0.02659209
253	0x3da042b4	0.078252226
254	0xbd58097f	-0.05274343
255	0x3d77a153	0.060456585

layer3.bias f4 [2]
0	0xbc92626d	-0.017869199
1	0x3d26adaf	0.04069298
