cartpole_v1_best_model.pth (torch, 537012 bytes, 8 tensors)

layer1.weight f4 [256, 4]
0	0x3e1e44e7	0.15455972
1	0xbd15748a	-0.036488093
2	0xbe92ab81	-0.28646472
3	0x3dd2c4c8	0.10291439
4	0xbcee78bf	-0.02911031
5	0x3e387dff	0.18016814
6	0x3ee5350f	0.44767043
7	0xbe922f1f	-0.28551576
8	0x3e8911bd	0.26771346
9	0xbe733bdd	-0.23753305
10	0xbed88ebe	-0.42296404
11	0x3d5d6ba3	0.05405773
12	0xbdbd9dfb	-0.09258648
13	0xbd2b438e	-0.041812472
14	0x3eb687be	0.35650438
15	0xbe54a30f	-0.20765327
16	0xbc91e127	-0.017807556
17	0x3d7cd680	0.061728
18	0x3e05ecbc	0.13078588
19	0x3da23b3c	0.07921454
20	0xbcfbf606	-0.030756962
21	0xbca996e3	-0.020701831
22	0x3d7a57b7	0.061118808
23	0x3e4a2ce5	0.19743688
24	0xbdfe073d	-0.12403724
25	0xbbdfd978	-0.006831344
26	0xbec7327f	-0.38905713
27	0x3ccbb270	0.024865359
28	0x3e3fc3d3	0.18727045
29	0xbe95bbea	-0.2924493
30	0x3ef9b5df	0.4877157
31	0x3ef7f46d	0.4842867
32	0xbeacb11d	-0.33728877
33	0x3d1959e5	0.037439246
34	0xbe0cd13e	-0.13751695
35	0xbe5046b2	-0.20339468
36	0xbdf96969	-0.121783085
37	0x3d569e28	0.052396923
38	0x3dfab33f	0.1224122
39	0x3dba8af1	0.09108532
40	0x3d98b4db	0.074563704
41	0xbdba159d	-0.09086154
42	0x3f9527e4	1.1652799
43	0x3de70aaa	0.11281331
44	0x3b32489b	0.002720392
45	0xbc18a894	-0.009317536
46	0xbe6ef3a3	-0.23335128
47	0xbcb386f1	-0.021914931
48	0x3d7ce78d	0.06174426
49	0xbed42ceb	-0.4144052
50	0x3f20fdba	0.62887156
51	0x3c8f9f66	0.017532062
52	0x3de1e707	0.11030393
53	0xbd1d45a2	-0.038396485
54	0xbf11ec34	-0.5700104
55	0xbd8a0c8a	-0.06740673
56	0x39987a30	0.00029082736
57	0x3bb4b2a5	0.00551446
58	0x3d97cf30	0.07412565
59	0x3c16e003	0.009208682
60	0x3d7b5b9f	0.061366674
61	0xbc22af82	-0.00992954
62	0xbf57b526	-0.84260786
63	0x3e514a08	0.20438397
64	0x3e3139b1	0.17307164
65	0xbd8af945	-0.06785826
66	0x3f00a496	0.5025114
67	0x3ec70ca9	0.38876846
68	0xbd866231	-0.06561697
69	0x3e4f0340	0.20216084
70	0x3f44b796	0.7684263
71	0x3ea41866	0.32049865
72	0x3dd501e8	0.10400754
73	0xbc95a3ae	-0.018266525
74	0xbe268de0	-0.16265059
75	0xbd59c4ef	-0.053166326
76	0x3ee6e630	0.45097494
77	0x3e4ab59a	0.19795838
78	0x3e3d300b	0.18475358
79	0x3d05ef4e	0.03269892
80	0xbea9f69e	-0.33195966
81	0x3e826ee5	0.2547523
82	0x3f259388	0.6467824
83	0xbce63b9f	-0.028104601
84	0xbe67ee23	-0.22649436
85	0xbde2c7dd	-0.11073277
86	0x3e3a23e3	0.18177752
87	0xbe814964	-0.25251305
88	0x3dea3e62	0.1143768
89	0xbe904dc1	-0.28184322
90	0xbf161b07	-0.5863499
91	0x3d95014b	0.07275637
92	0x3d833cae	0.06408058
93	0xbdb90f1a	-0.090360835
94	0x3ddc7faf	0.10766541
95	0xbe7b31d6	-0.2453073
96	0x3e9952a4	0.29945862
97	0xbd0f8768	-0.035041243
98	0x3e10d212	0.14142635
99	0x3d4a34ee	0.049366884
100	0xbd0f6f46	-0.035018228
101	0x3ced24a5	0.028948138
102	0xbf59157d	-0.84798414
103	0xbe92a94c	-0.28644788
104	0x3e2d1d87	0.16905795
105	0x3e62f8ef	0.22165273
106	0x3f108ae1	0.5646191
107	0xbdd9a293	-0.10626712
108	0xbcc5fb65	-0.024167726
109	0x3d16cec7	0.036818292
110	0x3e25be8c	0.16185969
111	0x3dc208fa	0.094743684
112	0x3e1c3f9d	0.15258642
113	0xbd692d10	-0.05692774
114	0xbefe24fe	-0.49637598
115	0xbdf48cca	-0.11940916
116	0x3d117846	0.035515092
117	0x3dab1740	0.08354044
118	0x3f8ac421	1.0841104
119	0x3d9fabdf	0.07796454
120	0xbdd4babd	-0.1038718
121	0x3d951f88	0.07281405
122	0x3f340b06	0.7032932
123	0xbcd97f16	-0.026549857
124	0x3df67d58	0.12035626
125	0xbdd95bec	-0.10613236
126	0xbf2cee18	-0.675508
127	0x3df2e488	0.11859995
128	0xbcdbd45c	-0.02683466
129	0x3cc95c12	0.024580035
130	0xbf9b6cf8	-1.214263
131	0xbdeb8945	-0.115007915
132	0xbe524473	-0.20533924
133	0x3d74757f	0.059682366
134	0xbe23d310	-0.15998483
135	0xbe512818	-0.20425451
136	0xbe0b5aa5	-0.13608797
137	0x3dcce40b	0.10004433
138	0xbdf8deb5	-0.12151853
139	0xbe44733e	-0.19184586
140	0xbddf58b3	-0.1090559
141	0x3e66a862	0.2252517
142	0x3c1e5535	0.00966387
143	0x3e2780f4	0.16357785
144	0x3b987dd7	0.004653673
145	0xbe75479e	-0.23953101
146	0xbf42bdf1	-0.7607108
147	0x3eaee58d	0.34159508
148	0xbd2c7889	-0.04210714
149	0xbd5c6229	-0.05380455
150	0xbead0e12	-0.33799797
151	0x3d3a4cd3	0.04548342
152	0x3da4d68e	0.080487356
153	0x3ca6774e	0.02032056
154	0xbf4dceee	-0.80393875
155	0x3dd48439	0.10376782
156	0xbedc4e94	-0.430287
157	0x3dbebfa6	0.09313898
158	0x3f2e2e85	0.68039733
159	0x3d8af272	0.06784524
160	0x3e5183b1	0.20460393
161	0x3e08992d	0.13339682
162	0x3f70a6c4	0.94004464
163	0x3dcc55bb	0.09977289
164	0xbda339a6	-0.0796998
165	0x3cfd7fcc	0.030944727
166	0xbe17a255	-0.14808019
167	0x3c9e9b22	0.019361082
168	0x3ea9c691	0.33159307
169	0xbe3c3adb	-0.18381827
170	0xbd594f39	-0.05305407
171	0x3e1c1be0	0.15245008
172	0xbc18fadb	-0.009337152
173	0xbb87ebf1	-0.0041479995
174	0x3a8fbb38	0.001096583
175	0x3d938574	0.072031885
176	0xbd7a2d32	-0.061078258
177	0xbc477010	-0.012172714
178	0xbec34d0c	-0.3814472
179	0x3d56b902	0.05242253
180	0xbd05c4ea	-0.032658495
181	0x3d303f01	0.043028835
182	0xbf659643	-0.89682406
183	0x3e19437e	0.14967152
184	0xbc2d0f94	-0.010562796
185	0xbd736c3b	-0.05942939
186	0xbf906f5d	-1.1283985
187	0xbe457950	-0.19284558
188	0xbdab529d	-0.083653666
189	0x3dc53239	0.0962872
190	0xbede4b06	-0.43416613
191	0x3e19f9ed	0.15036745
192	0x3e630ef7	0.22173677
193	0xbebd3473	-0.36954078
194	0xbe9f52ef	-0.3111796
195	0xbe0a9fa7	-0.13537465
196	0xbdf887af	-0.121352546
197	0xbf0688ef	-0.52552694
198	0xbf2b37cf	-0.6688203
199	0x3e5977a0	0.2123704
200	0xbe1fb2aa	-0.15595499
201	0x3da51e73	0.08062448
202	0x3f56276a	0.8365389
203	0xbe9d960b	-0.30778536
204	0x3e925d60	0.28586864
205	0xbeb7c82a	-0.358949
206	0x3ec89428	0.39175534
207	0x3e9b08d9	0.30280188
208	0x3e38cd7a	0.18047133
209	0x3ccfc4c3	0.025362378
210	0xbf3571a2	-0.70876515
211	0xbdae95e0	-0.0852468
212	0x3d9387e1	0.07203651
213	0xbe434863	-0.19070582
214	0xbf33436b	-0.70024747
215	0xbeb13881	-0.34613422
216	0x3d83628b	0.0641528
217	0x3b81eb5d	0.003964825
218	0x3e0fa30d	0.14027043
219	0xbca69077	-0.020332558
220	0x3e7245a0	0.23659372
221	0xbe0bd882	-0.1365681
222	0xbf08b29d	-0.5339754
223	0x3f0bd346	0.5461925
224	0x3e37d5bc	0.17952627
225	0xbdea70c1	-0.11447287
226	0x3f294901	0.6612702
227	0x3e1e8e95	0.15484078
228	0x3da88753	0.08228936
229	0xbdaeb11b	-0.08529874
230	0xbf05ec5c	-0.5231378
231	0xbcd3b58d	-0.025843406
232	0x3c87a489	0.016557949
233	0xbcabb0c4	-0.020958312
234	0xbfc869dc	-1.5657306
235	0xbea1e014	-0.3161627
236	0xbd9d338a	-0.07675846
237	0x3d707e46	0.058714174
238	0x3e821fea	0.25414973
239	0x3dbb989f	0.091599695
240	0x3eb71a25	0.35762134
241	0xbd8a9d39	-0.06768269
242	0xbf0bc445	-0.5459636
243	0x3c038557	0.008027396
244	0xbc2896ca	-0.010289857
245	0x3e303202	0.17206576
246	0x3f839d87	1.0282449
247	0xbcbc234a	-0.022966046
248	0xbddcce2f	-0.10781514
249	0xbc8592d9	-0.016305374
250	0xbed24284	-0.41066372
251	0x3b352bc3	0.0027644492
252	0xbc4e2dd3	-0.0125841675
253	0x3d0e028f	0.03467041
254	0xbe790675	-0.2431887
255	0xbd8cf328	-0.06882316

layer1.bias f4 [256]
0	0x3ea397f3	0.31951866
1	0x3e6155c4	0.22005373
2	0xbe897261	-0.26845077
3	0x3ec0fa4c	0.3769096
4	0xbe94a18a	-0.29029495
5	0xbe8a31ef	-0.2699122
6	0x3ee1dde2	0.44114596
7	0x3db3d990	0.08781731
8	0xbdac1816	-0.084030315
9	0x3ec42dc1	0.38316157
10	0xbdda8f28	-0.10671836
11	0xbdc0b85c	-0.09410164
12	0xbdc51b66	-0.096243665
13	0xbea86644	-0.32890522
14	0xbd2df684	-0.042471424
15	0x3dd8f53a	0.10593648
16	0xbe8bcdac	-0.27305353
17	0xbe5deae7	-0.2167164
18	0x3e9b22bc	0.30299938
19	0xbec54d98	-0.38535762
20	0x3e4ab7a4	0.19796616
21	0x3d0b706e	0.03404277
22	0xbeb3e2d7	-0.35134003
23	0xbe764a72	-0.24051836
24	0x3db977d7	0.09056061
25	0xbe9079b8	-0.28217864
26	0x3ddbe685	0.107373275
27	0xbe0e882c	-0.13919133
28	0xbecf9681	-0.40544513
29	0x3d9880d4	0.07446447
30	0x3e58e5e0	0.2118144
31	0x3deb5c34	0.11492196
32	0xbe9807b2	-0.2969337
33	0xbe8fd3cf	-0.28091285
34	0x3e6c6fb3	0.23089485
35	0x3d9db697	0.07700842
36	0xbe84053a	-0.25785238
37	0x3eb8da7d	0.36104193
38	0x3d676da3	0.056501042
39	0x3e8f5865	0.27997127
40	0xbe357c81	-0.17723276
41	0xbe7d5048	-0.24737656
42	0xbe439552	-0.1909993
43	0xbd75d3b0	-0.060016334
44	0xbe8613cd	-0.26186982
45	0xbe4c3db2	-0.1994541
46	0xbe3ba2c0	-0.18323803
47	0x3eac3e7b	0.3364142
48	0xbe15d198	-0.14630735
49	0xbdcd7626	-0.10032301
50	0x3e235d4a	0.15953556
51	0xbe095be8	-0.13413966
52	0xbea1a91d	-0.31574336
53	0xbe2ba815	-0.16763337
54	0xbe67d82b	-0.22641055
55	0x3cc7d51a	0.024393607
56	0xbd1b1bc8	-0.03786829
57	0xbebdea56	-0.37092847
58	0xbe3dbffb	-0.18530266
59	0xbe67ad77	-0.22624765
60	0xbee3ae05	-0.44468704
61	0xbe7201d2	-0.23633507
62	0x3ec8c266	0.39210814
63	0xbea1fd61	-0.31638625
64	0xbf057dad	-0.5214489
65	0xbef2f645	-0.47453514
66	0xbe93fa06	-0.2890169
67	0x3dc18ad0	0.094503045
68	0xbde1ea6f	-0.11031043
69	0xbe8bc6ad	-0.27300015
70	0x3eb5de60	0.3552122
71	0x3ec5f589	0.3866389
72	0xbeaf2dcf	-0.34214637
73	0xbe445a19	-0.19174995
74	0xbedbf39e	-0.42959303
75	0xbd7bcac1	-0.061472658
76	0xbd742029	-0.059600983
77	0xbd923612	-0.07139219
78	0x3e7ba7dd	0.24575754
79	0xbe28fed4	-0.16503459
80	0xbe414a03	-0.1887589
81	0x3e3b04fb	0.18263619
82	0x3e41b4e4	0.1891666
83	0xbca1b398	-0.019738957
84	0xbe061d47	-0.13097106
85	0x3e3638be	0.17795083
86	0xbe2cb87a	-0.16867247
87	0x3ea43617	0.32072517
88	0x3e955f1c	0.29174125
89	0xbedc7617	-0.43058845
90	0xbda5d09c	-0.0809643
91	0xbf21ffd8	-0.6328101
92	0xbe418671	-0.18898942
93	0x3d8af113	0.067842625
94	0xbe67253b	-0.22572796
95	0xbeb8fbeb	-0.36129698
96	0xbec7963b	-0.38981804
97	0xbe1eca66	-0.15506896
98	0xbe42942d	-0.19001837
99	0xbe6a8c5b	-0.22905104
100	0xbe55b5d6	-0.20870146
101	0xbe8e79bf	-0.2782726
102	0xbe7ce0ee	-0.24695179
103	0xbe729037	-0.23687826
104	0xbe966ccc	-0.2937988
105	0xbe82c897	-0.25543663
106	0xbe5298ad	-0.20566054
107	0xbeef275c	-0.46709716
108	0xbe5314e9	-0.20613445
109	0xbe7bc640	-0.24587345
110	0xbea30d0d	-0.31845894
111	0xbe4fdb60	-0.20298529
112	0x3ea5a103	0.32349405
113	0xbea760d8	-0.32691073
114	0x3e39d6b6	0.18148312
115	0xbe5c9593	-0.21541433
116	0xbe72427d	-0.23658176
117	0xbe5751fa	-0.21027365
118	0xbeaad4e6	-0.33365554
119	0xbe4b7b0f	-0.19871162
120	0xbe780403	-0.2422028
121	0xbe882cf6	-0.26596802
122	0xbd5c91d0	-0.053849995
123	0xbeae6de9	-0.3406823
124	0xbe82d2c3	-0.25551423
125	0x3ea3267e	0.31865305
126	0xbed35694	-0.4127699
127	0x3e814c38	0.25253463
128	0xbec82c20	-0.39096165
129	0xbeacb660	-0.3373289
130	0xbe700f05	-0.2344323
131	0xbe32843e	-0.17433259
132	0xbe31256d	-0.17299433
133	0xbe4f9cc0	-0.20274639
134	0x3e5c893e	0.21536729
135	0xbeb2514a	-0.34827644
136	0x3dbc65d7	0.09199112
137	0x3edca1a6	0.43092078
138	0x3e9667eb	0.29376158
139	0xbec9ed89	-0.39439037
140	0xbeac6b58	-0.33675647
141	0x3e88ae1b	0.26695332
142	0xbe97c60b	-0.29643282
143	0xbd3cc2c7	-0.04608419
144	0x3ebe53b4	0.37173235
145	0xbeceb0f7	-0.40369388
146	0x3e863adb	0.26216778
147	0xbeac5863	-0.33661184
148	0xbeb41d74	-0.3517872
149	0xbed649f5	-0.418533
150	0xbe119436	-0.14216694
151	0xbef414e1	-0.4767218
152	0xbe678e5f	-0.22612904
153	0xbec3f2ad	-0.38271084
154	0xbe9eea9d	-0.3103837
155	0xbe4133be	-0.18867394
156	0x3e066b46	0.13126859
157	0xbebde5b3	-0.3708931
158	0xbe397e25	-0.18114527
159	0xbec49704	-0.38396466
160	0xbe18c3e0	-0.1491847
161	0xbeaee1f5	-0.34156767
162	0xbea31cf4	-0.31858027
163	0xbe790584	-0.2431851
164	0xbe3478c5	-0.17624195
165	0xbe5a6870	-0.21328902
166	0xbe1b3627	-0.15157376
167	0xbe449d2a	-0.19200578
168	0xbe82a4fc	-0.25516498
169	0x3eca630c	0.39528692
170	0x3ed01994	0.40644515
171	0xbe3275f9	-0.17427815
172	0x3e8c275c	0.2737378
173	0xbe922cd4	-0.28549826
174	0x3d011d54	0.03152211
175	0xbd915373	-0.07095995
176	0xbe9dc83c	-0.3081683
177	0xbe8d37ee	-0.27581733
178	0xbe7e3784	-0.24825865
179	0xbe53b46d	-0.20674296
180	0xbe34f3b9	-0.17671098
181	0xbed57980	-0.4169426
182	0xbcb0a70c	-0.02156403
183	0x3e9ccbde	0.30624288
184	0xbca274ce	-0.019831087
185	0x3ea6f803	0.32611093
186	0xbe9ec175	-0.3100697
187	0x3c100390	0.008789912
188	0xbd2651d6	-0.04060539
189	0xbe877d63	-0.2646285
190	0xbe06f8ad	-0.131808
191	0xbe6b2401	-0.22962953
192	0xbe39cf40	-0.18145466
193	0xbea90777	-0.33013508
194	0xbeeafec4	-0.45897496
195	0xbe63ce7c	-0.22246736
196	0xbdd2a7d3	-0.10285916
197	0xbe718ab7	-0.23588072
198	0xbe510d54	-0.2041524
199	0xbdb03736	-0.08604281
200	0x3e39de78	0.18151271
201	0x3ec5fbaa	0.38668567
202	0x3ea594a1	0.32339957
203	0x3ed25693	0.41081676
204	0x3e8170a8	0.25281262
205	0x3e990297	0.29884788
206	0x3ea22351	0.3166757
207	0x3eca8cd9	0.39560583
208	0xbe3dc48c	-0.18532008
209	0xbdbafa01	-0.09129716
210	0xbe9e2b93	-0.3089262
211	0xbec904f6	-0.39261597
212	0xbef7db9a	-0.4840973
213	0x3e2430ae	0.16034195
214	0xbe966586	-0.2937433
215	0xbe9ed133	-0.3101898
216	0x3e446757	0.19180046
217	0xbeb8d1d7	-0.36097595
218	0xbeabe66d	-0.33574238
219	0x3e40aab5	0.1881512
220	0xbe018813	-0.12649564
221	0xbe965eeb	-0.29369292
222	0xbec43fed	-0.38330022
223	0xbde3d93e	-0.1112542
224	0xbe41da5f	-0.18930958
225	0xbe741e3f	-0.23839663
226	0xbe683a24	-0.22678429
227	0xbf26d976	-0.6517557
228	0xbe931e2e	-0.28733963
229	0xbed44235	-0.41456762
230	0xbe54e3fb	-0.20790093
231	0xbed61be4	-0.41818154
232	0xbe822159	-0.25416067
233	0xbe55222d	-0.20813818
234	0xbe8845bf	-0.26615712
235	0xbc6ca113	-0.0144427
236	0xbeaf670e	-0.34258312
237	0x3da35ba7	0.07976466
238	0xbe636734	-0.22207338
239	0xbdb1ff01	-0.08691216
240	0xbf040b17	-0.5157942
241	0xbf16160f	-0.5862741
242	0xbe5ec87f	-0.2175617
243	0xbe43d40e	-0.19123861
244	0xbe789080	-0.24273872
245	0xbed66202	-0.4187165
246	0xbe65a200	-0.2242508
247	0xbe1a95f1	-0.1509626
248	0xbd221cc0	-0.0395782
249	0xbeb449e3	-0.3521262
250	0x3ea3c30c	0.31984746
251	0x3e6f466b	0.23366706
252	0xbe15dd15	-0.14635117
253	0xbe9df068	-0.30847478
254	0xbe27553a	-0.16341105
255	0xbe3ce48a	-0.18446556

layer2.weight f4 [256, 256]
0	0xbc9d7549	-0.019220965
1	0xbd0b1809	-0.03395847
2	0xbd83148b	-0.06400403
3	0xbd72138a	-0.059100665
4	0x3bcec9e7	0.0063106897
5	0x3cddebf9	0.02709006
6	0xbda758b9	-0.081712194
7	0x3a64b5e1	0.0008724612
8	0xbd4255c1	-0.047445063
9	0x3d6c2904	0.057656303
10	0x3be75f6b	0.0070609353
11	0xbd12ce46	-0.03584125
12	0xbdedf018	-0.1161806
13	0x3b2330e5	0.002490097
14	0xbd7736dd	-0.060355056
15	0xbd011892	-0.031517573
16	0xbdfbe1ed	-0.12298951
17	0x3c93c9b0	0.018040508
18	0xbc953bb8	-0.018216953
19	0x3d7ebbbb	0.062190752
20	0x3c03ebc1	0.008051814
21	0xbdf7fa21	-0.12108255
22	0x3d8d55a6	0.06901102
23	0xbdcf9a46	-0.10136847
24	0x3c90a651	0.01765743
25	0xbc8515f2	-0.016245816
26	0xbd69b7bb	-0.057059985
27	0xbc8aa683	-0.016925102
28	0x3db4a164	0.08819845
29	0xbb9dd875	-0.0048170635
30	0x3ce43016	0.02785496
31	0x3d7edf83	0.062224876
32	0xbd867729	-0.06565697
33	0xbd93bb1c	-0.07213423
34	0x3db8ddb3	0.09026661
35	0x3dbc4aaf	0.09193932
36	0xbd45adc5	-0.048261423
37	0xbd335a46	-0.043787263
38	0xbdc6d619	-0.09708805
39	0x3d48fff5	0.049072225
40	0x3d8021b4	0.06256428
41	0xbc5d4845	-0.013506
42	0xbc8cf236	-0.017205339
43	0x3dce835f	0.10083651
44	0x3d116ee5	0.035506148
45	0x3c9e3db2	0.019316528
46	0x3d61e31d	0.055148233
47	0xbd9e07d4	-0.07716337
48	0x3dc0750c	0.09397325
49	0x3c539899	0.0129148
50	0xbd8159f1	-0.06315983
51	0x3d4e49ce	0.050363354
52	0xbd074e2d	-0.03303354
53	0xbde0e541	-0.10981227
54	0xbc453170	-0.012035713
55	0x3c48a2be	0.012245832
56	0xbdb0154a	-0.085978106
57	0x3d6ee146	0.058320306
58	0x3d558c03	0.05213548
59	0xbdcb4c9e	-0.09926723
60	0xbddbe5e2	-0.10737206
61	0xbdae3453	-0.08506074
62	0x3d381296	0.0449396
63	0x3ca17acc	0.019711874
64	0x3d208b18	0.03919515
65	0xbd3a12ae	-0.04542797
66	0x3dc00be5	0.09377269
67	0xbc259dd3	-0.010108429
68	0xbc508939	-0.012728029
69	0xbd802816	-0.06257646
70	0xbde2d9c5	-0.110766925
71	0xbb88e20f	-0.004177339
72	0xbd7f4ff8	-0.062332124
73	0x3d3c7890	0.046013415
74	0xbde22509	-0.1104222
75	0xbd43138c	-0.047626063
76	0x3d539370	0.05165428
77	0xbd5a9918	-0.053368658
78	0x3d9c4b6d	0.07631574
79	0xbd4605e5	-0.048345465
80	0x3a1f8d60	0.0006086435
81	0x3d7951d1	0.06086904
82	0xbd6075bd	-0.054799784
83	0xbc9bd78f	-0.019023685
84	0x3d05244b	0.032505315
85	0x3cd47ae5	0.025937507
86	0xbdaf611f	-0.08563446
87	0x3d849282	0.06473257
88	0x3d6e5fb9	0.058196757
89	0x3cfd3546	0.030909192
90	0x3d6e8cf9	0.05823991
91	0x3d74c60c	0.059759185
92	0x3d06ee70	0.032942235
93	0xbd18d0f1	-0.037308637
94	0xbdd8b2bb	-0.10580965
95	0xbdb6674e	-0.089064226
96	0x3d217d80	0.039426327
97	0x3c875f17	0.016524835
98	0x3da26ac6	0.07930522
99	0xbde20546	-0.11036162
100	0xbd8cf704	-0.06883052
101	0xbd86ff22	-0.065916315
102	0x3cf0c47b	0.029390564
103	0x3d60fc6c	0.05492823
104	0xbd0ffef4	-0.03515525
105	0xbdc75dc5	-0.09734682
106	0x3d61ca7c	0.055124745
107	0x3dc18410	0.09449017
108	0xbdcef4cb	-0.10105284
109	0x3d2faaa7	0.042887356
110	0xbd470799	-0.04859123
111	0xbdcb2a5e	-0.0992019
112	0xbd085d62	-0.03329218
113	0x3d6f75c5	0.058461923
114	0xbdc67fea	-0.096923664
115	0x3d6831e6	0.05668821
116	0x3dbb02a0	0.0913136
117	0xbc59ef16	-0.013301631
118	0x3d60abd7	0.05485138
119	0x3cf3488e	0.029697683
120	0xbcc1769e	-0.023616131
121	0xbd3aed18	-0.045636266
122	0x3cdaa4a8	0.026689842
123	0xbda8ab04	-0.08235744
124	0xbd68674c	-0.056739137
125	0xbd446242	-0.04794527
126	0x3db06c70	0.08614433
127	0xbd14c5a9	-0.036321316
128	0xbd2a532a	-0.041583218
129	0xbd964338	-0.0733704
130	0x3d5d96db	0.054098945
131	0xbd809c4a	-0.0627981
132	0xbda13dab	-0.0787309
133	0x3d693574	0.056935742
134	0x3ca816b0	0.02051863
135	0xbd09d5ae	-0.033651046
136	0xbcb159e8	-0.021649316
137	0xbd814315	-0.06311623
138	0x3d0ed743	0.03487326
139	0xbcf743ab	-0.030183634
140	0xbd876b8e	-0.06612311
141	0x3bcf7295	0.006330798
142	0xbdfe9919	-0.12431545
143	0x3d5f3d30	0.054501712
144	0xbdcdd0fa	-0.10049625
145	0x3d574c08	0.052562743
146	0x3acb670d	0.0015518382
147	0xbdbecdcb	-0.09316596
148	0xbd97ed51	-0.074183114
149	0xbdbfc249	-0.09363229
150	0x3bb3d4e0	0.005488023
151	0xbcadd5be	-0.021220084
152	0xbd1abd48	-0.03777817
153	0xbbf1e5ac	-0.0073821153
154	0xbd61ecc7	-0.05515745
155	0xbcb363a9	-0.021898108
156	0x3d5f78e8	0.054558665
157	0x3dbe6c28	0.09297973
158	0xbd63e220	-0.05563557
159	0xbcdb212d	-0.026749218
160	0xbd3db87a	-0.04631851
161	0xbbd81948	-0.0065948106
162	0x3bf8759e	0.0075823804
163	0x3c9f4977	0.01944421
164	0xbdd7039f	-0.104987375
165	0x3d34d2d6	0.04414638
166	0xbc6ffaa5	-0.014647161
167	0xbdc18900	-0.09449959
168	0x3d26054b	0.04053239
169	0x3c8021db	0.015641144
170	0xbdc5b371	-0.09653366
171	0x3dd4eed8	0.10397118
172	0x3da0adc6	0.07845645
173	0xbd64793c	-0.05577968
174	0xbd33bcb6	-0.04388114
175	0xbdc0e122	-0.09417941
176	0x3dcaa687	0.09895044
177	0xbdd8217c	-0.10553262
178	0x3dcd58a8	0.100266755
179	0x3c811cb0	0.01576075
180	0x3d8d49e8	0.06898862
181	0xbdbfbaf4	-0.0936183
182	0xbd843467	-0.064553075
183	0xbd19fdfd	-0.037595738
184	0xbb97fb2e	-0.0046380972
185	0x3d4a23ea	0.049350657
186	0xbd6304aa	-0.05542437
187	0xbc8679ab	-0.016415438
188	0x3d60d7f9	0.054893468
189	0x3d995e9d	0.07488749
190	0x3cafa304	0.021440037
191	0xbcdb1f6d	-0.026748383
192	0xbd1eb297	-0.038744535
193	0x3d903e00	0.070430756
194	0x3daa84ce	0.08326112
195	0xbc0897d9	-0.008336985
196	0xbc09411e	-0.008377342
197	0xbc8d15ca	-0.017222304
198	0xbd93c69c	-0.07215616
199	0xbda7147e	-0.081582054
200	0xbd2c4f00	-0.042067528
201	0xbde4e802	-0.111770645
202	0xbd7a3d6e	-0.06109374
203	0x3dc37902	0.09544565
204	0x3d714134	0.058900073
205	0x3d5ee291	0.05441529
206	0xbe01718c	-0.12640971
207	0xbce9897b	-0.028507939
208	0xbcfa1e7b	-0.030532112
209	0x3c9590c0	0.018257499
210	0xbcdfbf5f	-0.027312933
211	0xbd06428a	-0.0327783
212	0xbd7888e6	-0.06067743
213	0xbc25e2f2	-0.010124909
214	0x3dbb41ac	0.09143385
215	0xbc63f4be	-0.013913332
216	0xbd9afe65	-0.07568053
217	0x3dd39d46	0.10332732
218	0xbd5d1388	-0.053973705
219	0x3d5db217	0.054124918
220	0x3bbdb448	0.0057893135
221	0xbd8330c5	-0.064057864
222	0xbdcf87dd	-0.10133336
223	0xbda757cc	-0.08171043
224	0x3d690fc0	0.056899786
225	0x3d8b924a	0.06815012
226	0x3d89a161	0.06720234
227	0x3d5bb49b	0.053639036
228	0xbd9a50bb	-0.07534929
229	0x3c81793a	0.015804876
230	0xbc8a96e2	-0.01691765
231	0x3d75a72a	0.059973873
232	0x3d7b3b50	0.06133586
233	0xbb9ca152	-0.004779973
234	0x3ce90ed7	0.028449459
235	0xbd558da3	-0.05213703
236	0xbc750837	-0.014955572
237	0x3d61e961	0.055154208
238	0x3c90388d	0.01760509
239	0xbd908ff8	-0.0705871
240	0xbc585133	-0.013202953
241	0x3db187dc	0.08668491
242	0xbdb951ee	-0.0904883
243	0xbbbacebc	-0.005700914
244	0xbdc6f0b7	-0.097138815
245	0x3d9e3f72	0.07726945
246	0x3d8bac01	0.068199165
247	0xbd7e348a	-0.062061824
248	0xbc89505c	-0.016761951
249	0xbc2cc71a	-0.010545516
250	0x3ce951b4	0.028481342
251	0xbdc2bf43	-0.095091365
252	0x3c8cf4eb	0.01720663
253	0xbdd3bee2	-0.103391424
254	0x3d3e210a	0.046418227
255	0xbded3017	-0.11581438

layer2.bias f4 [256]
0	0xbcc23296	-0.023705762
1	0xbd573370	-0.05253929
2	0xbd1061ff	-0.035249706
3	0xbe2b6e92	-0.16741398
4	0xbdd829c6	-0.10554843
5	0xbc3f2808	-0.011667259
6	0xbdc15d4b	-0.09441622
7	0x3b77523f	0.0037738231
8	0xbd0557ba	-0.032554366
9	0xbc9ebaef	-0.019376246
10	0xbd956c74	-0.072960764
11	0xbcb74117	-0.022369904
12	0xbc964ac4	-0.018346198
13	0xbc2e7266	-0.010647392
14	0xbd40d7c8	-0.047080785
15	0xbddc48db	-0.107560836
16	0x3e98f9e9	0.29878166
17	0xba2996ab	-0.00064692897
18	0x3cf768eb	0.030201396
19	0xbc70818b	-0.014679323
20	0x3d401ed3	0.046904396
21	0xbdcea286	-0.10089593
22	0xbca466dd	-0.02006858
23	0x3c1a3656	0.009412369
24	0xbd4f13db	-0.050556045
25	0xbd5d1838	-0.053978175
26	0xbcec6b5e	-0.02885979
27	0x3c56343e	0.013073979
28	0x3e87d60b	0.2653049
29	0xbd44063a	-0.0478575
30	0x3aaa15df	0.0012976489
31	0xbc8f54be	-0.017496463
32	0xbcb4d3ff	-0.022073744
33	0xbcf25405	-0.02958108
34	0xbd645651	-0.05574638
35	0xbc92b2f8	-0.017907605
36	0xbcd0996d	-0.025463784
37	0xbce5a16b	-0.028031072
38	0xbd1eb99b	-0.038751226
39	0xbd6bc895	-0.057564337
40	0x3e0ba8f0	0.13638663
41	0xbdae9f14	-0.085264355
42	0xbcfb4e38	-0.030676946
43	0xbdafc03f	-0.0858159
44	0xbadd9f84	-0.0016908501
45	0xbc60e1d6	-0.0137257185
46	0xbd157c82	-0.036495693
47	0x3d212dfa	0.039350487
48	0xbcc60120	-0.024170458
49	0xbbe28a4b	-0.0069134585
50	0x3a3959df	0.0007070582
51	0xbce91d83	-0.028456455
52	0x3bda690d	0.006665355
53	0xbcc2b804	-0.023769386
54	0x3cbe28df	0.023212848
55	0x3e5fb02c	0.21844548
56	0x3e6cbc79	0.23118772
57	0x3e4e0070	0.20117354
58	0xbce52a92	-0.0279744
59	0xbdfbddd5	-0.122981705
60	0xbd15cb6a	-0.036570944
61	0x3bbd5d36	0.005778934
62	0xbd513386	-0.051074527
63	0x3d320188	0.04345849
64	0xbe5958c3	-0.21225266
65	0x3e23ad82	0.15984157
66	0xbd1281de	-0.035768382
67	0x3ca45779	0.020061241
68	0xbc08d312	-0.008351104
69	0xbbd5a50a	-0.0065199183
70	0xbc5eaaec	-0.013590556
71	0xbca66319	-0.020310925
72	0xbd09e474	-0.033665136
73	0xbceeb6c5	-0.029139886
74	0xbd37a60a	-0.04483608
75	0x3b100b44	0.002197937
76	0xbd963342	-0.073339954
77	0x3f1f80e0	0.6230602
78	0xbd492b82	-0.049113758
79	0x3f1d7f45	0.6152232
80	0xbcfdd43e	-0.030984994
81	0x3d28593f	0.041100737
82	0xbc2ddb53	-0.010611373
83	0xbd6d6ee7	-0.057967093
84	0xbd4a95a0	-0.0494591
85	0x3b94c6f1	0.004540317
86	0xbbc82940	-0.006108433
87	0x3e8cfbd2	0.27535874
88	0xbd1b042f	-0.037845787
89	0xbdaaa761	-0.08332706
90	0x3dad6a2e	0.08467518
91	0xbdcb8db5	-0.09939138
92	0xbe0cf377	-0.1376475
93	0xbde3d460	-0.11124492
94	0xbd50493b	-0.050851088
95	0x3d250184	0.04028465
96	0xbcd85a25	-0.026410172
97	0xbca6459d	-0.020296866
98	0x3d34df53	0.04415829
99	0xbd115ff9	-0.035491917
100	0xba90ea98	-0.0011056243
101	0xbd093437	-0.03349706
102	0xbc382ad8	-0.0112406835
103	0xbceea043	-0.029129153
104	0xbdaa7c61	-0.08324505
105	0x3cf702b9	0.030152665
106	0xbd02ab03	-0.03190137
107	0xbdbac519	-0.09119625
108	0xbd553d7a	-0.05206058
109	0xbd0e2626	-0.03470435
110	0xbd0d05f9	-0.034429524
111	0xbe4a9c13	-0.197861
112	0xbe072bd3	-0.13200311
113	0x3e567efe	0.20946881
114	0xbc9e4fb8	-0.019325122
115	0xbd886e60	-0.06661677
116	0xbe013f4f	-0.12621807
117	0xbc9a110d	-0.018806959
118	0xbcd8bd31	-0.026457401
119	0xbc601e1c	-0.013679054
120	0x3e8e180e	0.27752727
121	0x3ea765c9	0.32694843
122	0xbd47d307	-0.048785236
123	0xbd5689d4	-0.052377537
124	0x3dbd8eb0	0.09255731
125	0xbcebb45a	-0.028772522
126	0xbd08ec42	-0.033428438
127	0xbc56826a	-0.013092617
128	0xbe09a3f5	-0.13441451
129	0xbd6872c0	-0.05675006
130	0xbd2ce58a	-0.042211093
131	0xbbdf3175	-0.0068113157
132	0xbb8dd0be	-0.0043278625
133	0x3e235b0d	0.15952702
134	0xbc23e19a	-0.010002518
135	0xbcac1a88	-0.021008745
136	0xbd23295f	-0.039834376
137	0xbe34ec53	-0.17668276
138	0xbbc95654	-0.0061443243
139	0xbc77b3e6	-0.015118575
140	0xbc99f4f7	-0.018793566
141	0xbe9b5b9a	-0.30343324
142	0xbd355c4a	-0.044277467
143	0xbb5233b1	-0.0032074268
144	0xbc9b3f1b	-0.01895099
145	0xbca0820e	-0.019593265
146	0xbc84ada6	-0.016196083
147	0x3c3c484f	0.011491849
148	0xbdd151f8	-0.102207124
149	0xbd6ec11c	-0.058289632
150	0xbe07c3b6	-0.13258252
151	0x3e2bfd10	0.16795754
152	0x3c4c9026	0.01248554
153	0xbc957d4a	-0.018248219
154	0xbd899d6c	-0.06719479
155	0x39391838	0.00017651997
156	0x3afee874	0.0019447939
157	0xbc72242e	-0.014779134
158	0xbcd4262c	-0.025897108
159	0xbd6a7c03	-0.057247173
160	0xbd2ba1f3	-0.041902494
161	0x3edd8a97	0.43269798
162	0xbe0fc568	-0.14040148
163	0x3c9619a5	0.018322775
164	0xbe24105d	-0.16021867
165	0xbcd3c8e3	-0.025852626
166	0xbc12e646	-0.008966034
167	0x3c22c0e0	0.00993368
168	0xbc04f052	-0.008113937
169	0xbe6ad713	-0.22933607
170	0x3d8d7b53	0.06908288
171	0xbc074d20	-0.008258134
172	0xbcf23148	-0.029564515
173	0xbc762169	-0.015022614
174	0xbcfdd96b	-0.030987462
175	0xbd94d447	-0.07267051
176	0xbd3c5078	-0.04597518
177	0xba893693	-0.0010468535
178	0xbcd8951c	-0.026438288
179	0x3c568bfd	0.013094899
180	0xbce4cb75	-0.027929047
181	0xbd03974e	-0.032126717
182	0xbc9688d6	-0.018375795
183	0xbcbacc6b	-0.022802552
184	0xbe26fea4	-0.16308075
185	0xbe2293ef	-0.15876745
186	0xbce8d588	-0.028422132
187	0xbca165b3	-0.019701814
188	0xbbd831d7	-0.0065977382
189	0xbd471465	-0.048603434
190	0xbc41483b	-0.011797006
191	0xbcc5c231	-0.02414045
192	0xbc961456	-0.018320244
193	0xbc8bf6b6	-0.017085414
194	0x3e29b5f6	0.16573319
195	0xbd94c63f	-0.07264375
196	0xbd9c0cfc	-0.07619664
197	0xbd7341d2	-0.059388943
198	0xbcbc93ec	-0.023019753
199	0x3e66b031	0.22528149
200	0xbcb4e443	-0.0220815
201	0xbd619256	-0.055071197
202	0xbeab7a2c	-0.33491647
203	0xbcf2ff64	-0.029662795
204	0x3c29a819	0.010355019
205	0xbdd56442	-0.10419513
206	0xbde21d3b	-0.110407315
207	0xbd9eb64a	-0.07749613
208	0x3e0786ee	0.13235065
209	0x3ed50181	0.4160271
210	0xbce53434	-0.027978994
211	0x3e98e32b	0.29860815
212	0xbd4b8e13	-0.04969604
213	0xbe0d17b0	-0.13778567
214	0x3edb8bfd	0.4288024
215	0xbdf619bc	-0.12016627
216	0xbd88c014	-0.06677261
217	0xbdb178c6	-0.08665614
218	0xbc754df1	-0.014972196
219	0xbc578ca2	-0.013156088
220	0xbcbf9af9	-0.023389326
221	0x3eb54a1a	0.35408098
222	0xbd1778dd	-0.0369805
223	0xbd217752	-0.039420433
224	0x3d97580f	0.07389843
225	0x3e710e76	0.23540673
226	0x3cd2d660	0.025736988
227	0x3d9f1d1f	0.07769226
228	0xbcaf36da	-0.02138846
229	0xbd70a55d	-0.058751453
230	0x3db07be6	0.08617382
231	0xbcf3360b	-0.029688856
232	0xbb074d4e	-0.0020645442
233	0xbcba4297	-0.02273683
234	0x3a75c219	0.0009374931
235	0xbcf70b57	-0.030156774
236	0xbe3eeae9	-0.18644299
237	0xbd6644a5	-0.05621781
238	0xbd5d974a	-0.05409936
239	0x3e8c6392	0.27419716
240	0x3d6e999a	0.058251955
241	0x3cd9231d	0.026506001
242	0xbde17502	-0.110086456
243	0x3e32ead9	0.174724
244	0x3dcd665f	0.10029291
245	0x3ca8d66c	0.020610057
246	0xbb98e74a	-0.0046662437
247	0x3e8d6607	0.27616903
248	0x3cb1428b	0.021638175
249	0x3e0d9fc8	0.13830483
250	0xbd4504cd	-0.04810028
251	0x3da7fb32	0.082022086
252	0xbd12a363	-0.03580035
253	0xbce987c4	-0.02850712
254	0xbcfed5c9	-0.0311078
255	0xbd7d4c7f	-0.06184053

layer3.weight f4 [256, 256]
0	0xbcec44f2	-0.02884147
1	0x3c7ef023	0.015560183
2	0xbbaa9fb2	-0.0052070254
3	0xbe376139	-0.17908181
4	0xbc23a147	-0.009987182
5	0xbb9a65ce	-0.004711843
6	0x3cb2db3d	0.021833057
7	0x3e0eaa98	0.13932264
8	0x3d97e05f	0.07415842
9	0xbd83c604	-0.06434253
10	0xbd89336c	-0.06699261
11	0x3d45a804	0.048255935
12	0x3d4ff5bb	0.050771456
13	0x3c4082a3	0.011749896
14	0xbe5e5659	-0.21712627
15	0xb7f951e1	-2.9721241e-05
16	0x3ddd7a3f	0.10814332
17	0x3da2876e	0.079359874
18	0xbeb0cb54	-0.34530127
19	0x3d821603	0.06351855
20	0x3dbdca4b	0.092671
21	0xbc658f6e	-0.014011247
22	0x3dafe9f0	0.08589542
23	0x3d7d8950	0.06189853
24	0xbd8d8d2f	-0.06911694
25	0xbc49a9ef	-0.012308582
26	0xbd0ff6c9	-0.035147462
27	0x3e0d0db0	0.13774753
28	0xbf0b4dd0	-0.5441561
29	0xbe837bf2	-0.256805
30	0xbd1ba553	-0.037999462
31	0xbd2596f8	-0.04042718
32	0x3d72490f	0.059151705
33	0xbe8f7ab4	-0.28023303
34	0x3d17536c	0.03694479
35	0xbf0a1c1e	-0.53949153
36	0x3ca380fb	0.019958964
37	0xbce8eb1e	-0.028432425
38	0xbda748fd	-0.08168218
39	0x3e0a80d7	0.13525711
40	0xbe6f42c4	-0.23365313
41	0x3dcce03c	0.10003707
42	0xbd852413	-0.06501021
43	0xbde6fc67	-0.11278611
44	0x3b652b92	0.0034968597
45	0xbdf14e81	-0.117825516
46	0x3d58be49	0.052915845
47	0xbe03d30f	-0.12873481
48	0x3ddab989	0.10679919
49	0xbca45750	-0.020061165
50	0x3bf54453	0.0074849515
51	0xbd63f2f7	-0.05565163
52	0x3b4a2a90	0.0030848123
53	0x3c1489c9	0.009066054
54	0x3ecefd4f	0.40427634
55	0x3e117c7b	0.14207642
56	0xbdc81186	-0.09768967
57	0xbdc41b36	-0.095755026
58	0xbd0de439	-0.03464148
59	0xbc0beec2	-0.008540811
60	0x3ddbf0cf	0.1073929
61	0xbdbb0eda	-0.09133692
62	0x3c2f8334	0.010712434
63	0xbcab5a7e	-0.020917173
64	0x3e0e559a	0.13899842
65	0xbec87622	-0.39152628
66	0xbd81c4a0	-0.06336331
67	0xbe7e2b8c	-0.248213
68	0x3df61f95	0.120177425
69	0x3cda11e5	0.02661986
70	0x3c187ae2	0.009306641
71	0x3cbace4c	0.022803448
72	0x3dbf9492	0.093545094
73	0xbdcb9637	-0.099407606
74	0xbd31daf6	-0.043421708
75	0x3d95ec93	0.073205136
76	0xbd80508e	-0.062653646
77	0xbdd3dacb	-0.10344466
78	0xbddd630d	-0.10809908
79	0x3bad9280	0.005297005
80	0x3d30bdc3	0.04314972
81	0x3e197535	0.14986117
82	0x3d120bf2	0.035655923
83	0x3da46873	0.080277346
84	0xbdd0f238	-0.102024496
85	0x3c6e587d	0.014547464
86	0xbda8510b	-0.08218583
87	0x3eb77d79	0.35837916
88	0xbc8b5a7c	-0.01701092
89	0xb948d415	-0.00019152493
90	0x3e8d4cad	0.2759756
91	0xbe8d50e6	-0.27600783
92	0x3d71846f	0.05896419
93	0x3e8cfe40	0.27537727
94	0xbc0f3397	-0.008740327
95	0xbde20cc2	-0.110375896
96	0x3dd1206f	0.10211264
97	0xbd0a99fe	-0.033838265
98	0xbd9f0f53	-0.07766595
99	0x3c4fe4dc	0.012688842
100	0x3d3db7fb	0.046318036
101	0xbd81204d	-0.06304989
102	0xbca4bbd4	-0.020109095
103	0x3c1943c2	0.009354534
104	0x3aaffb6f	0.0013426373
105	0xbe655c4b	-0.22398488
106	0xbbe392f0	-0.0069450065
107	0xbc7c2611	-0.015389935
108	0x3c83dd67	0.016096784
109	0xbcb4c0f3	-0.022064662
110	0xbcd1d9fb	-0.025616636
111	0xbdc99feb	-0.09844955
112	0xbd8d78e3	-0.06907823
113	0xbeb7c286	-0.35890597
114	0xbdb5926a	-0.08865817
115	0x3c6e4085	0.01454175
116	0xbdc9b083	-0.0984812
117	0x3e42a735	0.19009097
118	0xbd853636	-0.065044805
119	0x3e1eabfa	0.15495291
120	0xbea53f95	-0.32275072
121	0x3d1f85a7	0.03894582
122	0x3d236dd4	0.039899662
123	0xbdd94744	-0.10609296
124	0xbe989df8	-0.2980802
125	0xbdbe238a	-0.09284122
126	0x3dae91f7	0.08523934
127	0x3d9b6fa8	0.07589656
128	0xbd4c164e	-0.04982596
129	0x3d12be90	0.035826266
130	0xba99daf0	-0.0011738222
131	0x3d8a6c0c	0.067588896
132	0xbd7f1dc5	-0.06228425
133	0xbe886150	-0.26636744
134	0x3d9a176c	0.075239986
135	0x3d45c658	0.04828486
136	0x3e1e6dfa	0.1547164
137	0x3e6771b2	0.22601965
138	0x3d4d756c	0.05016081
139	0xbc9b4a89	-0.01895644
140	0x3e16427b	0.14673798
141	0xbdb44157	-0.08801525
142	0x3e1d952f	0.1538894
143	0x3d4ce5f6	0.050023995
144	0xbde24b2e	-0.11049496
145	0x3d515814	0.05110939
146	0x3c38c6d7	0.011277876
147	0xbdc0b3ad	-0.094092704
148	0x3e6a1f17	0.22863422
149	0xbbe52ee4	-0.006994115
150	0xbdb03ec5	-0.08605722
151	0xbe8f567a	-0.27995664
152	0x3e83d972	0.25751835
153	0x3b8faafe	0.0043843975
154	0x3ed3071e	0.41216367
155	0xbd3435f1	-0.043996755
156	0x3c714b4c	0.014727425
157	0x3dce72e6	0.10080509
158	0xbcafb1e1	-0.021447124
159	0x3d7f2255	0.0622886
160	0x3dcf132f	0.10111081
161	0x3dc4b503	0.09604838
162	0xbea5b874	-0.3236729
163	0xbe872f40	-0.26403236
164	0x3eb54140	0.35401344
165	0x3d9b6331	0.07587279
166	0xbdd0ff9c	-0.102050036
167	0x3eaf9288	0.34291482
168	0xbd833e93	-0.064084195
169	0xbc83c6df	-0.01608604
170	0xbe4cbb5f	-0.19993351
171	0xbbf59d1f	-0.007495537
172	0x3dc0c67b	0.09412857
173	0xbd45cdcb	-0.048291963
174	0xbd90e3b6	-0.070746824
175	0xbdb53db7	-0.08849662
176	0x3c4c7a1f	0.012480288
177	0xbe286636	-0.1644524
178	0x3d9fdc45	0.07805685
179	0xbe262962	-0.16226724
180	0xbd12b07e	-0.035812847
181	0x3baa27a6	0.0051927147
182	0x3d6218d9	0.055199478
183	0x3ce00712	0.027347121
184	0xbe0d2327	-0.13782941
185	0x3eeee7c8	0.4666121
186	0x3ddfd656	0.10929553
187	0xbd08b08b	-0.03337149
188	0x3e2ca2a8	0.16858923
189	0xbd06cd6e	-0.032910757
190	0x3da72b98	0.08162612
191	0x3d710d9b	0.058850866
192	0x3dc5e9a0	0.09663701
193	0xbd4251dc	-0.04744135
194	0x3d6640f8	0.056214303
195	0x3dd1bfcb	0.1024166
196	0xbf28b10a	-0.6589514
197	0xbd9ca457	-0.07648533
198	0x3cae503b	0.021278491
199	0xbdaa3a86	-0.08311944
200	0xbdbd8f91	-0.09255899
201	0xbdbf2d59	-0.09334821
202	0xbf26e7d5	-0.651975
203	0x3c68b0a8	0.014202274
204	0x3c045629	0.008077183
205	0xbd37e72a	-0.04489819
206	0x3bb35256	0.0054724617
207	0x3d73e60d	0.059545565
208	0x3e4e1bb8	0.20127761
209	0xbeae208c	-0.34009206
210	0xbdd6fc3d	-0.104973294
211	0xbe81ac9d	-0.25327006
212	0x3da2151e	0.07914184
213	0x3dddb17f	0.1082487
214	0xbe92b783	-0.28655633
215	0x3e76639c	0.24061435
216	0x3cbbfcc9	0.022947686
217	0xbc3b55e7	-0.011434055
218	0xbd91d027	-0.0711978
219	0x3ca3b899	0.019985484
220	0x3d1fd4ab	0.039021175
221	0xbd50ae9f	-0.05094778
222	0x3e9d4ee1	0.30724242
223	0x3da07145	0.078341044
224	0x3e588874	0.21145803
225	0xbe0070e1	-0.1254306
226	0xbed1a9b4	-0.40949786
227	0x3ed0cdfa	0.40782148
228	0xbe00e321	-0.12586643
229	0xbdd47ddf	-0.103755705
230	0xbd879ac0	-0.06621313
231	0xbdca8af2	-0.09889783
232	0x3cb867b9	0.022510396
233	0xbdd22711	-0.102613576
234	0x3da3621d	0.07977698
235	0x3c9a93eb	0.01886936
236	0x3e05cac3	0.13065629
237	0xbdcdd8da	-0.10051127
238	0x3e3aa3ff	0.18226622
239	0xbe88532a	-0.2662595
240	0xbc2b63b2	-0.010460781
241	0xbdba6950	-0.09102118
242	0x3da2ff23	0.0795882
243	0xbf00b4e7	-0.50276035
244	0x3e7cc235	0.24683459
245	0x3d8b2a0a	0.06795128
246	0xbdb077eb	-0.086166225
247	0xbd7bd991	-0.061486784
248	0x3e85ee5c	0.26158416
249	0x3ca1243e	0.019670602
250	0xbd1764a2	-0.036961205
251	0xbf31fdba	-0.6952778
252	0x3db4e75f	0.08833193
253	0x3daf11d0	0.08548319
254	0xbd82df1d	-0.06390212
255	0x3d86fed5	0.06591574

layer3.bias f4 [256]
0	0x3d56f1b7	0.05247661
1	0xbd11d85e	-0.035606734
2	0xbd3ba697	-0.04581317
3	0xbdb1fc1d	-0.08690665
4	0xbd961659	-0.07328481
5	0xbd943e99	-0.07238502
6	0x3edd8755	0.43267313
7	0xbdc11b4b	-0.09429034
8	0xbd5becf8	-0.053692788
9	0x3e86bec7	0.26317427
10	0x3e90495a	0.28180963
11	0x3eeeba13	0.46626338
12	0x3e5b764a	0.21431842
13	0xbd4c7c51	-0.049923245
14	0x3ed424d5	0.4143435
15	0xbd646c67	-0.055767443
16	0xbe620420	-0.22071886
17	0x3ee11864	0.4396392
18	0x3da27284	0.07931998
19	0x3ed6a325	0.41921344
20	0xbd4c5046	-0.049881242
21	0x3eef81dc	0.46778762
22	0x3cb589a6	0.022160362
23	0x3da258a2	0.079270616
24	0x3ef25e29	0.47337463
25	0x3e3a8b71	0.18217255
26	0xbd1c2030	-0.038116634
27	0xbd1fcf37	-0.039015975
28	0x3db30dd3	0.08742871
29	0xbdd80349	-0.105475016
30	0xbe03c14b	-0.12866704
31	0xbd172820	-0.0369035
32	0xbd946eaf	-0.07247674
33	0x3e935a85	0.28779998
34	0x3efb5136	0.49085397
35	0xbd03b2ef	-0.032153066
36	0x3ed50337	0.41604015
37	0x3ec8b32f	0.39199206
38	0x3ee3dcfb	0.44504532
39	0xbd1f6bb1	-0.038921062
40	0x3ed9ffab	0.42577872
41	0x3ece4853	0.40289554
42	0xbd4efee8	-0.050536066
43	0xbdb23723	-0.08701923
44	0xbe01b171	-0.12665345
45	0x3b9e71a0	0.0048353225
46	0xbc558797	-0.013032815
47	0xbd203b7c	-0.03911923
48	0xbe0adf03	-0.13561635
49	0xb706659e	-8.010682e-06
50	0x3ab1153c	0.0013510357
51	0xbd125613	-0.035726618
52	0xbd610334	-0.054934695
53	0xbab00457	-0.0013429028
54	0x3ecaa043	0.39575395
55	0xbdc0adf5	-0.0940818
56	0x3eca57f9	0.39520243
57	0xbdccc5ca	-0.09998663
58	0x3efd1736	0.4943177
59	0xbb061dcf	-0.0020464545
60	0xbdb19db4	-0.086726576
61	0xb9855f30	-0.00025438657
62	0x3e890016	0.26757878
63	0x3ed91195	0.42396227
64	0x3e78ddcc	0.24303359
65	0xbd19aac4	-0.03751637
66	0x3dff4597	0.12464445
67	0x3eec1058	0.4610622
68	0xbec53f08	-0.38524652
69	0x3dcbec8c	0.09957227
70	0xbd4e083d	-0.050300825
71	0x3e592868	0.2120682
72	0x3e0d076c	0.13772362
73	0xbd4d1313	-0.05006702
74	0x3e31235d	0.17298646
75	0xbca168be	-0.019703265
76	0xbc71bd57	-0.014754615
77	0x3e9ee81f	0.3103647
78	0x3ed626c6	0.41826457
79	0x3d8654f7	0.065591745
80	0xbdb7f590	-0.08982384
81	0x3e9cb056	0.30603284
82	0x3ebf7994	0.37397444
83	0xbd4a25b4	-0.049352363
84	0x3ec72a11	0.38899282
85	0x3e772d2d	0.24138327
86	0xbd7876b3	-0.060660075
87	0xbd47a34f	-0.048739728
88	0x3d04cd1c	0.03242217
89	0x3e41607d	0.18884464
90	0x3d182fc5	0.03715493
91	0xbd3d2010	-0.046173155
92	0x3dadf649	0.08494241
93	0x3ecd8690	0.40141726
94	0x3ef16312	0.47145897
95	0xbb68e26f	-0.0035535356
96	0xbdc6bfbd	-0.0970454
97	0x3e87c1c9	0.26515034
98	0xbd540b69	-0.051768694
99	0xbd2f2d54	-0.042767838
100	0x3e3edc61	0.18638755
101	0xbd2eb30d	-0.042651225
102	0x3d67d963	0.0566038
103	0x3e0f24c8	0.13978875
104	0x3d1bc87c	0.038032994
105	0x3edda91b	0.4329308
106	0x3e38203f	0.17981051
107	0x3ef16721	0.47148994
108	0xbdd0c0b8	-0.10193008
109	0xbd669478	-0.056293935
110	0x3e52dedd	0.20592828
111	0x3d108b1d	0.03528892
112	0x3ed4830c	0.4150623
113	0x3ee3e105	0.44507614
114	0xbc29a3f2	-0.010354029
115	0x3eb93b00	0.36177826
116	0xbd9cec2f	-0.07662236
117	0xbddc7343	-0.10764172
118	0xbd86b6c0	-0.065778255
119	0xbd496b5b	-0.049174648
120	0xbea26fea	-0.3172601
121	0x3ed85566	0.42252654
122	0xbcbe5362	-0.02323312
123	0xbd1b2996	-0.037881456
124	0xbc73ad1b	-0.0148728145
125	0xbd470be8	-0.04859534
126	0xbc76a900	-0.015054941
127	0x3d9adedc	0.07562038
128	0x3de347f7	0.110977106
129	0xbd2cc4e3	-0.042179953
130	0xbd40c1aa	-0.047059692
131	0x3d294044	0.041321054
132	0x3ede19fa	0.43379194
133	0xbddd16be	-0.10795353
134	0xbd3d67a1	-0.046241406
135	0x3ed78969	0.42097023
136	0x3ec9e7f8	0.3943479
137	0xbd941622	-0.07230784
138	0x3ec9c2e6	0.39406508
139	0x3ecf8845	0.40533653
140	0xbe4284ac	-0.18995923
141	0xbbef562f	-0.007303975
142	0x3eba62c6	0.36403483
143	0x3ac54661	0.0015050882
144	0x3ed144c8	0.40872788
145	0x3e1c80aa	0.15283456
146	0xbd2a8703	-0.041632663
147	0x3efbb505	0.49161544
148	0x3ed583db	0.4170216
149	0x3d98fc79	0.0747003
150	0xbd552658	-0.05203852
151	0x3ed9197c	0.42402256
152	0xbdb74afa	-0.089498475
153	0x3ecab5f3	0.3959194
154	0x3d553294	0.05205019
155	0x3d6be25e	0.057588927
156	0x3ef00d54	0.4688517
157	0x3e8149bd	0.2525157
158	0xbdd6795c	-0.10472366
159	0x3e9f4627	0.3110821
160	0x3e49b87f	0.19699286
161	0xbd0b6a53	-0.034036946
162	0xbd8d558f	-0.06901085
163	0x3c1231d0	0.008923009
164	0x3ea79896	0.327336
165	0x3ee26962	0.44221026
166	0xbda523f8	-0.08063501
167	0x3ebe083e	0.37115663
168	0xbc9db398	-0.019250676
169	0xbd5267e7	-0.05136862
170	0xbd33df99	-0.04391441
171	0x3e9d7cd9	0.30759314
172	0x3ed432a0	0.41444874
173	0x3ed8b579	0.42325953
174	0x3e225cd6	0.15855727
175	0x3e9e367a	0.30900937
176	0xbb85ddbf	-0.004085272
177	0xbc8ca3bb	-0.017167917
178	0x3df4db27	0.119558625
179	0x3eec02c7	0.4609587
180	0x3ea5959f	0.32340714
181	0xbd2f9c25	-0.04287352
182	0x3d82c68b	0.06385525
183	0x3d8a31bf	0.067477696
184	0xbdcd1c5a	-0.10015173
185	0xbdd01447	-0.101601176
186	0xbd91b52c	-0.07114634
187	0xbcfaa142	-0.030594472
188	0x3ec06b76	0.37581986
189	0x3ea00789	0.3125575
190	0x3e95cdfc	0.29258716
191	0x3c88d5dd	0.01670354
192	0x3ecbb3e7	0.39785692
193	0x3e3f8783	0.18704037
194	0x3e555f0e	0.20837042
195	0x3e3b4c08	0.18290722
196	0xbe078c27	-0.13237058
197	0x3ee3f722	0.44524485
198	0x3ec45329	0.38344696
199	0x3ed37ee4	0.41307747
200	0x3db6adc8	0.08919865
201	0x3ec1053c	0.37699306
202	0xbe3f9a16	-0.18711123
203	0x3ed06d0e	0.40708202
204	0xbe86ced2	-0.26329666
205	0x3ee74f89	0.45177868
206	0x3ec1ec66	0.3787567
207	0xbb587dff	-0.0033034084
208	0xbd4fa25a	-0.05069194
209	0x3e7fe067	0.24987946
210	0xbe072fdb	-0.13201849
211	0x3d084dc3	0.033277284
212	0x3dcbfa21	0.09959818
213	0xbe25c97b	-0.1619014
214	0xbda74fb0	-0.08169496
215	0xbd469564	-0.048482314
216	0x3eec2bbb	0.46127114
217	0xbd873c7c	-0.06603333
218	0x3e75c08b	0.2399923
219	0x3dbd938b	0.09256657
220	0x3ea9bac4	0.33150303
221	0xbdc655c8	-0.0968433
222	0xbd3b0060	-0.045654655
223	0x3e993f54	0.29931128
224	0x3ebba694	0.36650527
225	0xbdd171ac	-0.10226759
226	0x3eebb50a	0.4603656
227	0x3e6c9f75	0.23107703
228	0xbe2be68e	-0.16787168
229	0x3bcb57d7	0.0062055397
230	0x3ec33311	0.38124898
231	0x3dd1a700	0.10236931
232	0xbcc044db	-0.023470333
233	0x3ee41897	0.4455001
234	0xbd8ff0d7	-0.070283584
235	0x3eaeff20	0.3417902
236	0x3ed1d623	0.40983686
237	0x3ece5179	0.40296534
238	0xbd52afe7	-0.051437285
239	0x3d1f3ff2	0.038879342
240	0x3eb07ba0	0.34469318
241	0x3e08d4c5	0.13362415
242	0xbe16579c	-0.14681858
243	0xbdbde1b9	-0.09271569
244	0xbe8d3912	-0.27582604
245	0xbe4b6ebd	-0.19866462
246	0x3dad5b41	0.08464671
247	0x3edb8be7	0.42880175
248	0x3d12cc7b	0.03583954
249	0xbda79514	-0.08182731
250	0x3ecd6035	0.40112463
251	0xbc6154a9	-0.013753095
252	0x3d03fe7f	0.03222513
253	0x3ecdb3c7	0.40176222
254	0x3d975e72	0.07391061
255	0xbde59c2f	-0.1121143

layer4.weight f4 [2, 256]
0	0x3f6c5c11	0.9232798
1	0xbde1c265	-0.11023406
2	0xbf73feae	-0.95310485
3	0xbee6281f	-0.44952485
4	0xbedae39b	-0.42751774
5	0xbe9d0f7a	-0.3067587
6	0x3e1c3154	0.15253192
7	0xbee1e75c	-0.44121826
8	0xbf20a740	-0.62755203
9	0x3f036457	0.5132498
10	0xbf4b19e8	-0.79336405
11	0x3ea85da0	0.3288393
12	0x3f8d51ad	1.104055
13	0xbe24618a	-0.16052833
14	0x3dfae879	0.12251372
15	0xbe049bb4	-0.12950021
16	0xbfc5b175	-1.544478
17	0x3e3b4af2	0.18290308
18	0xbf01174e	-0.50426185
19	0x3df820e9	0.12115652
20	0x3d9a62a0	0.075383425
21	0x3e2714c3	0.16316514
22	0x3e22e53a	0.15907755
23	0x3f1199a0	0.5687504
24	0x3e098aba	0.13431826
25	0x3f88dac1	1.0691758
26	0x3e6921d3	0.22766809
27	0x3debb5eb	0.115093075
28	0x3f32ffc2	0.69921505
29	0xbf254a68	-0.6456666
30	0xbebfe65d	-0.3748044
31	0xc00ba70d	-2.182071
32	0xbdc98e98	-0.09841651
33	0xbe3fb622	-0.18721822
34	0x3e30fa37	0.1728295
35	0x3d8786fe	0.066175446
36	0x3f141fb5	0.5786088
37	0x3e70e78d	0.2352583
38	0x3e060f6d	0.13091822
39	0xbf1c50d4	-0.61060834
40	0x3e0ab9e1	0.1354747
41	0x3e0d3c3c	0.13792509
42	0xbe953081	-0.29138568
43	0xbf960b2e	-1.1722162
44	0xbe726f6f	-0.23675321
45	0xbf981558	-1.1881514
46	0x3e1b6c64	0.15178066
47	0xbd2ded80	-0.042462826
48	0x3f95e9b2	1.1711943
49	0x3f2ee4d7	0.6831793
50	0x3eed530b	0.4635242
51	0x3e2f227d	0.17103
52	0xbe9e354a	-0.3090003
53	0x3e011a91	0.1260779
54	0x3e1749d8	0.14774263
55	0xb9dbc8bc	-0.00041920494
56	0x3f046456	0.517156
57	0x3e6b98f2	0.23007563
58	0x3ea09277	0.31361744
59	0xbf7579b3	-0.95888823
60	0xbc37543d	-0.011189518
61	0x3efb0e1a	0.49034196
62	0x3db9ab5c	0.09065887
63	0x3e6d38dd	0.23166223
64	0x3ceb715b	0.028740576
65	0xbe775335	-0.24152835
66	0x3f23389f	0.6375827
67	0x3e88fe9a	0.26756746
68	0xbd376fa9	-0.04478422
69	0x3f80dbca	1.0067074
70	0x3e9f7582	0.3114434
71	0xbf3d2f43	-0.7390024
72	0x3e31321a	0.17304268
73	0xbf8dbbbf	-1.107292
74	0x3fb5e774	1.4211259
75	0xbed32010	-0.412354
76	0xbe900580	-0.28129196
77	0xc033cc82	-2.8093572
78	0x3e66e22d	0.22547217
79	0x3f531e01	0.8246766
80	0x3da19798	0.07890242
81	0x3e86ba68	0.26314092
82	0x3d2b8884	0.04187824
83	0x3f08f16c	0.5349338
84	0x3e2c57eb	0.16830413
85	0x3e432f28	0.19060957
86	0xbd98e4af	-0.07465493
87	0xbf48580d	-0.78259355
88	0x3ef4d5f4	0.47819483
89	0xbd861260	-0.065464735
90	0xbf039b8e	-0.5140923
91	0x3dc418d8	0.09575051
92	0x3e3b8dc3	0.18315797
93	0xbe0d1c56	-0.1378034
94	0x3e0f9e00	0.14025116
95	0x3f429c73	0.7601997
96	0xbe49b349	-0.19697298
97	0x3d986453	0.0744101
98	0xbf3b0e0c	-0.7306831
99	0x3e07b953	0.1325429
100	0x3eeec84e	0.46637195
101	0xbb527900	-0.0032115579
102	0xbe81577f	-0.25262067
103	0x400f9fe0	2.244133
104	0xbfae7fc7	-1.3632745
105	0x3dadb2c6	0.08481364
106	0x3f02c345	0.5107921
107	0x3e0d41f9	0.13794698
108	0xbbd0c7e7	-0.0063714865
109	0xbf2b26d4	-0.6685612
110	0x3f81b5b0	1.0133572
111	0x3f3ee359	0.74565655
112	0x3e8342ee	0.25637
113	0x3dc8ad6e	0.09798704
114	0x3f4381e0	0.7637005
115	0x3f0d803b	0.5527379
116	0xbfb708d3	-1.4299568
117	0xbfb7ac1e	-1.4349401
118	0xbf17b4e4	-0.5926039
119	0x3e112539	0.14174356
120	0xbbbbe674	-0.0057342593
121	0x3e97b8f6	0.29633301
122	0x3ec2624a	0.37965614
123	0x3dfbac92	0.122887745
124	0xbe0d355b	-0.13789885
125	0xbdad3b76	-0.08458607
126	0xbf5b6ca3	-0.8571264
127	0xbf01aebd	-0.50657254
128	0x3f4123a3	0.75445
129	0xbe30b3b6	-0.17256054
130	0xbdc3ed96	-0.095668
131	0x3f471e4f	0.7778062
132	0x3dc5bf37	0.09655612
133	0xbf165e55	-0.5873769
134	0xbdc39823	-0.09550502
135	0x3e4a3f4d	0.1975071
136	0x3e324918	0.17410696
137	0xc0232db2	-2.549664
138	0x3e0cd415	0.13752778
139	0x3e02d795	0.1277755
140	0xc0282ba1	-2.627663
141	0x3d2f8dce	0.042859845
142	0x3f11602a	0.5678736
143	0xbe96b1a5	-0.29432407
144	0x3e081322	0.13288549
145	0x3dd2a282	0.10284902
146	0x3e0c6ccb	0.13713376
147	0x3de2750c	0.11057481
148	0x3e760c23	0.24028067
149	0x3ee1493b	0.44001183
150	0xbe32400f	-0.17407249
151	0x3e54dc5b	0.20787184
152	0xbed7a8ef	-0.42121074
153	0x3d1b18fd	0.037865628
154	0xbe9ed979	-0.31025293
155	0xbe137135	-0.14398654
156	0x3e0260c3	0.12732224
157	0xbfb4865b	-1.4103502
158	0x3f8e20cf	1.1103762
159	0x3f181bd6	0.59417474
160	0xbc0896e9	-0.008336761
161	0xbec5bf8b	-0.38622698
162	0x3e25a97c	0.16177934
163	0xbd23a0fc	-0.03994845
164	0x3fab945f	1.3404654
165	0x3f27dc02	0.6557008
166	0xbfa681fc	-1.3008418
167	0x3e3cc117	0.18433033
168	0x3e02b2e5	0.12763555
169	0x3f59e4a1	0.85114485
170	0xbdcfe47c	-0.10151002
171	0x3ee70265	0.45119014
172	0x3e20e8df	0.15713833
173	0x3db79dfc	0.0896568
174	0x3f1369b7	0.57583183
175	0x3e4bf1ff	0.19916533
176	0x3e4b57b4	0.19857675
177	0xbefd0b4d	-0.49422684
178	0xbe0185a7	-0.1264864
179	0x3e9f86f9	0.31157663
180	0x3f10843b	0.5645177
181	0x3ddde312	0.10834326
182	0xbfc10eaa	-1.50826
183	0x3f37c38e	0.7178277
184	0x3daf13f4	0.08548728
185	0xb9b46695	-0.00034408705
186	0xbe5168ec	-0.20450181
187	0xbd2b8988	-0.041879207
188	0x3da4518c	0.08023366
189	0xbb99153a	-0.00467172
190	0x3f8b75bf	1.0895308
191	0x3ec7496e	0.3892321
192	0x3e5a418d	0.21314068
193	0x3e4b2744	0.19839197
194	0xbfa0ed7b	-1.2572473
195	0xc01cca15	-2.449834
196	0xbfc7493b	-1.5569223
197	0x3e37eda4	0.17961746
198	0x3d87541f	0.06607842
199	0x3e891b38	0.2677858
200	0x3e803abf	0.2504482
201	0x3dbadfbb	0.091247045
202	0xbf8c2191	-1.0947744
203	0x3e6291a2	0.22125867
204	0xbed15e6d	-0.40892354
205	0x3e5a89b5	0.21341594
206	0x3e5697ee	0.20956394
207	0xbf1e56d2	-0.6185123
208	0xbe061fe3	-0.13098101
209	0x3ed10002	0.40820318
210	0x3ee855bb	0.45377907
211	0xbfdf60b4	-1.7451386
212	0xbe855eaa	-0.26048785
213	0xbff4dbdc	-1.9129596
214	0x3e880a13	0.26570186
215	0xbe0b9444	-0.13630778
216	0x3dc62c09	0.09676368
217	0xbddd2732	-0.107984915
218	0x3e5aecbf	0.21379374
219	0x4007aac0	2.1197968
220	0x3d347ae3	0.044062506
221	0xbf581e15	-0.844209
222	0xbe4418cb	-0.19150083
223	0x3e4c182d	0.19931097
224	0x3e354f97	0.17706142
225	0xbfbb5b8b	-1.4637312
226	0xbf262910	-0.64906406
227	0xbf9cd4aa	-1.22524
228	0xbf409d66	-0.7524017
229	0x3de2b22f	0.11069142
230	0x3e2af9a1	0.16696788
231	0xc00ecad6	-2.2311301
232	0xbd8d52d6	-0.06900565
233	0x3eb71822	0.357606
234	0xbe9ca4ae	-0.3059439
235	0x3dd811a7	0.10550242
236	0x3dcb87eb	0.09938034
237	0x3e6753fa	0.22590628
238	0x3d6285ac	0.05530326
239	0xc00ff006	-2.2490249
240	0x3d45f0f3	0.04832549
241	0xbf3d1c37	-0.7387118
242	0xbe36bd9d	-0.17845769
243	0xbf986d2a	-1.1908314
244	0xbf2afac5	-0.66788894
245	0xbee8f076	-0.45495957
246	0xbfd070c2	-1.6284411
247	0x3e1ad94c	0.15121955
248	0xbe8a47a6	-0.27007788
249	0xbdb878f3	-0.09007444
250	0x3d900dbd	0.0703387
251	0x3e5cccf4	0.21562558
252	0xbdaacf60	-0.08340335
253	0x3e2e6755	0.17031606
254	0xc011b969	-2.2769415
255	0xbfd4e11b	-1.6631197

layer4.bias f4 [2]
0	0x3edb77fc	0.42864978
1	0x3efbebd6	0.49203366
