cartpole_v1_best_model.pth (torch, 72542 bytes, 6 tensors)

layer1.weight f4 [128, 4]
000000 60 33 85 3e 13 63 5f be cc af cb bd 0d b8 6d 3e
       0.2601576 -0.21815138 -0.0994564 0.23214741
000010 90 44 f2 be 01 43 98 3e be a0 cd bd ef 7e 83 3e
       -0.47317934 0.2973862 -0.10040425 0.2568278
000020 eb f0 88 3d f5 cd 82 bd 5f 9c 10 3e b4 77 df 3c
       0.066865765 -0.063869394 0.14122151 0.027278759
000030 04 fe 3a 3e 9f 85 47 be 36 50 15 bd 14 5f 38 bd
       0.18260962 -0.19484566 -0.03645345 -0.04501255
000040 2c e6 98 3d 5a dc 48 39 26 a9 de 3e 75 15 1d 3e
       0.07465777 0.00019155574 0.43488425 0.15340216
000050 c3 aa 3e be 3c 9c 9a be 5d a2 ab bd 39 d7 5c be
       -0.18619828 -0.30197322 -0.08380578 -0.21566476
000060 b1 bf 21 be 8c bd d6 3c 9b 71 97 3e 9a fa 89 3e
       -0.1579578 0.02621343 0.29578862 0.26949006
000070 06 da fa be 7b 50 9d 3e e5 ef 0f 3e ac 34 f4 3e
       -0.48994464 0.30725464 0.14056356 0.47696435
000080 9b f8 a8 3e db 3e e9 be 9e 66 f3 be ac f2 76 be
       0.3300217 -0.45555767 -0.47539228 -0.2411601
000090 77 ca e0 3e fd 8f aa bd 09 1c 5b 3e 18 ed 6d be
       0.43904468 -0.08328245 0.21397413 -0.23234975
0000a0 50 fd f9 3e 28 0b 5b be d7 37 c1 3e 70 fd 07 3c
       0.48826075 -0.21390975 0.37737915 0.00830017
0000b0 a1 dc 86 be 99 95 83 3e f3 e2 87 be ea 93 16 3e
       -0.26340201 0.2570007 -0.26540336 0.14704862
0000c0 aa 41 16 be 1f 40 6a bd a1 e7 f4 be fe ac 71 be
       -0.14673486 -0.057190057 -0.4783297 -0.23601148
0000d0 ac 3f 8b 3e f9 95 f5 bd 51 81 fe 3e 5d 6f cc 3e
       0.27197015 -0.11991496 0.49708036 0.39928713
0000e0 7f 9d d4 bc bb 27 ac be 0d 2f 9d 3e 39 78 21 3e
       -0.025954006 -0.33624062 0.3069996 0.15768518
0000f0 18 54 a4 be 20 62 a7 3e f4 42 9a 3e f3 ec e1 3e
       -0.32095408 0.3269205 0.30129206 0.4412609
000100 23 bc 90 be df 93 ad bd 36 f9 ec bb 56 94 9a 3d
       -0.28268537 -0.0847547 -0.0072318567 0.07547824
000110 7a 7f c2 be fa fa b5 be a2 87 8b 3e bc d9 ee bd
       -0.37987882 -0.35543042 0.27251917 -0.11662623
000120 37 bb 78 3e 2c f9 f8 3c c6 aa 28 3e 44 b9 dd 3d
       0.24290167 0.030392252 0.16471395 0.10826352
000130 85 a0 3c 3e a8 1a 80 3e 0b 4a ee be 4d 4c 7f 3e
       0.18420608 0.25020337 -0.46540865 0.2493145
000140 b8 c5 b2 be 15 ff bf be 96 32 e5 3c 1a 41 b3 bd
       -0.34916472 -0.374993 0.027978223 -0.087526515
000150 33 06 95 3e 47 92 95 be 49 41 e2 be e3 9e bb 3e
       0.29106292 -0.29213163 -0.44190434 0.36644658
000160 c4 50 9c bd cb e2 8e 3e 4d 10 27 3e 47 ce be be
       -0.07632592 0.27907404 0.16314812 -0.37266752
000170 b2 c9 d2 3d 43 0c fb 3d 32 ab ac be 4e 78 75 be
       0.102923766 0.12258198 -0.33724362 -0.23971674
000180 75 de 2b 3e be 2b b2 3d 85 3a 57 be d9 64 18 be
       0.1678408 0.086997494 -0.21018417 -0.1488222
000190 92 18 e9 3e 72 ee c2 bd 7c ac 91 3e d6 6a 60 3e
       0.45526558 -0.09518136 0.28451908 0.21915755
0001a0 09 48 a4 be 1d 7e d8 be 75 86 f4 3e 78 8b c2 3c
       -0.32086208 -0.42283717 0.47758833 0.023748145
0001b0 a7 29 ae 3e 10 01 cf 3d 9b 36 27 3e 06 83 c0 3e
       0.34016153 0.101076245 0.16329424 0.37599963
0001c0 62 f8 f3 3e d5 aa a8 be 35 40 76 3d a1 d4 bd 3e
       0.4765044 -0.32942834 0.060119826 0.37076285
0001d0 11 3c b8 3e 1c cb 9d 3e 6d 0b b8 be 5c 1a b7 be
       0.35983327 0.30819023 -0.35946217 -0.35762298
0001e0 c8 80 99 be f8 e6 85 3d 37 d4 fd 3e 10 05 a3 be
       -0.29981065 0.065381944 0.4957597 -0.318398
0001f0 01 6a 88 3e 85 b0 8d be 6a b0 f0 be a2 a2 d9 bd
       0.26643375 -0.27673736 -0.47009593 -0.10626723
000200 ff c1 94 3e 17 ec ee 3e 16 3e a0 be 15 28 d9 3d
       0.29054257 0.46664497 -0.31297368 0.10603348
000210 1b e1 db 3e 78 57 a8 3e cf 5f 9f 3e 2a 42 b7 3e
       0.4294518 0.32879233 0.31127784 0.35792667
000220 98 35 a3 3e 1e b6 06 3e aa 55 b0 be f3 35 d8 be
       0.31876826 0.1315541 -0.34440356 -0.4222866
000230 5e 43 6d be 9e f1 78 bd 1c 9a 9b be c1 ec 3d 3e
       -0.2317023 -0.0607773 -0.30391014 0.18547346
000240 a8 dd 1b 3e 40 ed ec bd f0 59 47 3e 44 01 28 3e
       0.15221274 -0.11568689 0.19467902 0.16406733
000250 ca 04 9b 3e a3 26 ab 3e 59 d1 2a be 7b 5f fb 3e
       0.3027709 0.33427915 -0.16681422 0.49096283
000260 5e e6 70 bd 2b 51 83 bc d6 85 f2 be d5 65 a5 be
       -0.058813445 -0.016029915 -0.47367734 -0.32304254
000270 62 8d 95 be 09 fd 5a be ee 00 b6 3e c5 4e 27 be
       -0.2920943 -0.21385588 0.35547584 -0.16338642
000280 4c 0d be be 18 67 47 3e 35 69 21 3e 8e 96 a4 3e
       -0.3711952 0.19472921 0.1576279 0.32146114
000290 2d 78 84 be 49 03 de 3d ac 63 3a be a9 0f e6 bd
       -0.25872937 0.1084047 -0.18202084 -0.11233456
0002a0 4c 4c cd be a6 f1 6b be 10 3d 1a be 46 89 5d 3e
       -0.40097272 -0.230414 -0.15062356 0.21634397
0002b0 67 f7 bf 3d 9c b6 00 3e fc 42 fe 3e df 54 f8 3e
       0.0937336 0.1256966 0.4966048 0.48502252
0002c0 29 d2 af 3e 49 7f 95 3c 43 51 b2 be 24 dc c6 3e
       0.34340027 0.01824917 -0.34827623 0.3883983
0002d0 6f 07 00 be 2d 91 25 bd bb 89 dc be ab 43 ca bd
       -0.12502836 -0.040421654 -0.4307383 -0.09876188
0002e0 12 eb a3 be 70 76 ec 3e f6 84 de be 4c c5 c8 be
       -0.32015282 0.4618411 -0.43460816 -0.39213026
0002f0 df 14 8b bc 73 6b 8a be ec 31 37 3e b3 13 45 be
       -0.016977726 -0.27035102 0.17890137 -0.19245796
000300 bf 05 73 be 72 66 d3 3c 3d 97 ba 3e e9 c8 b2 be
       -0.2373266 0.025805686 0.3644351 -0.34918907
000310 64 f3 6d 3e ca 2f a3 3e 0d a2 fb 3e b7 e7 b1 be
       0.23237377 0.31872398 0.49147072 -0.34747097
000320 e7 91 f2 3d 19 a6 be be fa e7 db 3e d0 e2 43 be
       0.11844235 -0.37236097 0.42950422 -0.19129491
000330 d0 32 9a 3e b0 e1 73 3c dd 7f 1f bd df b0 82 bc
       0.30116892 0.014885351 -0.0389403 -0.01595348
000340 69 01 b2 3d e0 8f 73 3e ab fb 9f 3d 85 f7 19 3e
       0.08691675 0.23785353 0.07811674 0.15035827
000350 d4 8e e7 be 34 3a b9 3e a9 79 e0 3e c8 e1 d4 3e
       -0.45226157 0.36177218 0.4384282 0.41578507
000360 7d 3a bc 3e c0 ec b9 be 8b b3 3b be 93 e5 e2 3e
       0.36763373 -0.36313438 -0.18330209 0.44315776
000370 2e ba c1 be bd 89 e9 3e 2f 9b ca be 7c 9e b5 be
       -0.37837356 0.45612898 -0.3957152 -0.35472476
000380 1d be 77 3e e3 34 b9 be 3e 7b e5 bd db 82 bb 3e
       0.24193616 -0.36173162 -0.11205147 0.36623272
000390 67 93 c9 3e 49 e0 f0 3e 1b cb cb bd 57 bc c5 be
       0.39370272 0.47046116 -0.09950849 -0.38620254
0003a0 38 b8 fa 3e f3 d3 da bd 56 f7 4f be e5 15 fb 3d
       0.48968673 -0.10684957 -0.20309195 0.122600354
0003b0 84 c8 b1 be 70 89 a9 3e c9 6d 9f 3e f8 65 cc be
       -0.34723294 0.3311267 0.31138447 -0.39921546
0003c0 18 44 d2 be 94 64 33 bd 36 0c 57 3e 70 40 6d bc
       -0.41067576 -0.04379709 0.21000752 -0.014480695
0003d0 76 03 83 be 45 19 14 3c b2 6b ef be f0 b3 b3 be
       -0.25588578 0.009039228 -0.46761853 -0.3509822
0003e0 f2 1f a9 be 5c 2e d4 3e e0 81 e2 3e 27 99 30 be
       -0.33032185 0.4144162 0.44239712 -0.17245923
0003f0 0a 94 cb 3c 14 d7 66 3e 41 58 6b 3d 6a 72 81 be
       0.024850864 0.22542983 0.057457212 -0.25282604

layer1.bias f4 [128]
000000 df b5 c0 be f8 76 b4 3e 70 84 94 3e 53 91 fb be
       -0.37638757 0.35247016 0.29007292 -0.4913431
000010 db 0f ca be d3 cb a8 be 75 bd 8b be c6 73 81 3d
       -0.39465222 -0.32968006 -0.27292982 0.0632091
000020 0f 24 fd be f3 c8 bd be b2 65 6c 3e a5 ae 27 be
       -0.49441573 -0.37067375 0.23085669 -0.16375215
000030 24 2d 4e be b9 93 d4 be d1 27 52 3e f3 7c 07 3d
       -0.20134407 -0.41518953 0.20523001 0.033078145
000040 6b 60 43 be e6 53 9c be 2a 3c d8 3d db d7 08 3e
       -0.1907975 -0.3053276 0.105583504 0.13363592
000050 7b af 60 3e f4 ce 1a 3e a5 12 9f bd 66 e3 c4 be
       0.2194194 0.15118009 -0.07767228 -0.3845474
000060 9d 3f a4 3e 75 3c e1 ba 03 5a ab be 14 0f de 3e
       0.32079783 -0.0017184155 -0.3346711 0.4337088
000070 e3 7e 8d 3e c3 71 ca be 53 18 7d be 34 3b 2e be
       0.2763587 -0.39539918 -0.2471631 -0.17014772
000080 79 83 92 be 23 91 6f 3e c6 62 b5 be f2 38 ef 3e
       -0.2861593 0.23395209 -0.3542692 0.46723133
000090 f0 1c 51 be 80 6b 98 3e 57 91 92 3c d5 2a 61 be
       -0.20421195 0.29769516 0.017891569 -0.21988995
0000a0 27 ab a9 3e e7 54 c3 be 4b 23 86 be 06 61 6b 3d
       0.3313839 -0.38150713 -0.261988 0.057465576
0000b0 58 d1 c9 3e 09 5d 5b be 0e a4 9a be 25 6e a3 be
       0.3941753 -0.21422209 -0.3020329 -0.3191997
0000c0 3b 4e 64 be 65 6f 33 be d7 0b e9 bd 88 a1 91 be
       -0.22295468 -0.17522962 -0.113792114 -0.2844355
0000d0 a3 b0 1d 3e f8 39 d8 3b 69 10 a6 be a1 e1 90 be
       0.15399413 0.0065987073 -0.32434395 -0.2829714
0000e0 fa 02 de 3d 11 3b 1c bc 25 af b5 3e e2 0a 96 bd
       0.108404115 -0.009535567 0.35485187 -0.073262945
0000f0 76 61 cf be 3a 92 be be 77 8d 13 be db a9 dd bd
       -0.40504044 -0.37220937 -0.14409433 -0.10823413
000100 36 7b 74 3d e6 db ea bd 27 2d 3a 3e 3b 92 27 be
       0.059687816 -0.114677235 0.18181287 -0.16364376
000110 db 2f bd 3e 3d 35 e6 3d 53 fc 1a be 77 f6 e2 3e
       0.36950573 0.11240623 -0.15135317 0.44328663
000120 f6 02 01 3e c1 af ac be e1 be 8f be e1 3c 9f 3e
       0.12598786 -0.3372784 -0.28075317 0.31101134
000130 d2 88 6c 3e e1 a6 c6 3e b6 98 12 bd fb 61 b4 3e
       0.23099068 0.38799194 -0.035790168 0.35231003
000140 8c 9e 80 3e 0d ee 20 3e 12 3a ee bd ba 91 f5 3e
       0.25120962 0.15715809 -0.1163217 0.47962743
000150 c4 51 d4 3d 70 86 01 be 05 65 a5 bb a5 68 fa 3e
       0.10367158 -0.1264894 -0.005047443 0.48907962
000160 1a b0 aa 3e 1f 67 0e bd 54 4d fc 3e 91 76 63 3e
       0.3333748 -0.034766313 0.49277747 0.22213198
000170 6e 7e 89 be 08 a8 e7 be b9 9c 93 3e 81 56 ef 3e
       -0.2685427 -0.45245385 0.28830507 0.46745685
000180 ee 25 95 be 20 d4 54 3e 58 b0 9a 3c 89 fa df bd
       -0.291305 0.20784044 0.018882915 -0.10936458
000190 f8 b4 0d be e1 f2 10 3e 97 b4 dc 3d f5 30 ae 3e
       -0.13838565 0.14155151 0.10776632 0.34021726
0001a0 18 db 38 3e e4 9c 6b 3e f7 dc e0 3e 48 b0 1e 3e
       0.18052328 0.23009068 0.43918583 0.15496933
0001b0 ad a8 93 3d e2 d6 37 be 88 b5 ba 3e dc 7b 97 3d
       0.07209907 -0.17953065 0.36466622 0.07396671
0001c0 23 c3 a3 3e 81 36 f6 3e 60 c3 df bd 87 41 b3 3e
       0.31984815 0.48088458 -0.10925937 0.3501093
0001d0 16 1c ce bd 09 c4 e5 3e 2f d2 ca 3e 32 67 35 be
       -0.10063951 0.44876125 0.39613482 -0.17715147
0001e0 bb 4c a7 3c f0 13 5d be 38 71 51 be 66 ea d3 bd
       0.02042233 -0.21589637 -0.20453346 -0.10347442
0001f0 d4 44 60 ba a0 79 32 be 50 a8 f1 be e7 52 9b be
       -0.0008555178 -0.17429209 -0.47198725 -0.30336687

layer2.weight f4 [128, 128]
000000 93 e0 a0 bb 20 38 d2 bc b7 b1 8b 3d 96 23 93 3d
       -0.004909584 -0.025661528 0.06821006 0.07184522
000010 cb 1b 68 3d 39 3a 20 3d e3 ff 89 bd b5 51 b0 3d
       0.05666713 0.039118025 -0.0673826 0.086093344
000020 0a 83 9f bd 0c 0a ee bc 30 43 74 bd 8a 2f 02 3d
       -0.077886656 -0.029057525 -0.059634387 0.031783618
000030 89 9c 91 bd d1 6c 27 bd 72 57 5b bd 84 f4 53 bd
       -0.07109935 -0.04087526 -0.05355019 -0.05174686
000040 30 dd 21 bd 9f a9 b3 3d e5 83 98 bb 49 92 f1 3c
       -0.03951758 0.08772587 -0.004654395 0.0294887
000050 e0 66 ae bd cb 47 a6 3d 8a 29 89 bc aa 11 a1 bd
       -0.085157156 0.08119162 -0.01674344 -0.07864697
000060 c2 e7 81 3d 33 50 ae bc 39 dc a9 3d bc 61 6b bd
       0.063430324 -0.021278476 0.08293957 -0.057466254
000070 53 c1 a2 bd db f0 82 bd 9f ff 26 3d dc 66 22 bc
       -0.0794703 -0.06393596 0.040771123 -0.009912219
000080 3f a1 a2 bd 38 31 9b 3c 1a 44 4f bb 68 4e 0d 3d
       -0.079409115 0.018944368 -0.0031626285 0.034498602
000090 a8 1f 2d bd 75 ef 77 bd 82 84 80 3d 6c 35 2e bd
       -0.042266518 -0.0605311 0.06275274 -0.042531416
0000a0 a6 95 84 3d 89 c4 92 3d 0d 21 72 bd c6 47 1c bd
       0.06473856 0.07166392 -0.05911355 -0.038154386
0000b0 c0 76 58 3c 3c ac aa bd 15 ba f2 3c 0c d8 16 bd
       0.013211906 -0.08333632 0.029629746 -0.036827132
0000c0 d0 68 16 bd 38 d6 86 bd 47 9e 32 3d ce b3 66 bd
       -0.03672105 -0.06583828 0.043607976 -0.05632382
0000d0 14 7f 8b bd 86 34 a9 bc 65 8e 3e bd a2 e3 aa bd
       -0.068113476 -0.020654928 -0.046522517 -0.08344199
0000e0 4b 9a 1c 3d 30 f7 fe bc 44 0c 84 3d c1 90 84 3d
       0.038233083 -0.031123728 0.06447652 0.06472922
0000f0 54 e4 66 bd 5e 03 49 bd 0a 7f ec bc e5 4b 5e 3d
       -0.056370094 -0.049075477 -0.02886917 0.054271597
000100 db d5 0a ba 8d 1b ed bc d1 9d 6a 3d d9 27 b1 3d
       -0.0005296149 -0.028943801 0.05727941 0.086501785
000110 76 f9 8a 3d 4d 2c 85 bd 1a 2d 81 bc 10 75 6b bc
       0.06785862 -0.0650259 -0.015768576 -0.014371172
000120 61 a1 9f 3d 2f 1d 31 bd 6b 75 45 bd 2d ce 80 3b
       0.077944525 -0.043240722 -0.04820768 0.003930828
000130 47 ed 92 bc 5f 52 13 3d 94 61 59 3c ae b8 4d bd
       -0.017935408 0.035967227 0.013267893 -0.050224952
000140 21 cc 88 3d 29 f6 6b 3d 9e 54 b4 3c af 9a 9e bd
       0.066795595 0.057607803 0.022013005 -0.07744347
000150 03 cb 34 3d 48 65 7b 3d 4b 31 de 3c aa 66 01 bd
       0.04413892 0.061375886 0.027123114 -0.03159205
000160 24 70 0b 3c c8 d7 00 bd dd b0 af 3d 4c f2 b3 3d
       0.008510623 -0.031455785 0.08578656 0.08786449
000170 b2 40 00 bc d0 2b 71 bd dd 3e 5f 3d 87 4a 43 3d
       -0.007827925 -0.058879673 0.05450331 0.047678497
000180 34 e7 3f 3d 66 e4 82 bd d5 72 05 3d b1 b1 0f bd
       0.04685135 -0.0639122 0.032580215 -0.03508157
000190 e8 fc 99 bd 2a 49 72 bd 7b 15 24 3d 4e 1f 12 3d
       -0.07518941 -0.059151806 0.040059548 0.035674386
0001a0 e1 b8 99 bd 21 c8 57 3d aa d9 8f 3d 85 90 8e 3d
       -0.07505966 0.052681092 0.07023938 0.06961159
0001b0 60 b6 56 3d 24 91 37 bc 5b f8 7c 3d 23 fc 92 3d
       0.05242002 -0.011204038 0.061760288 0.071769975
0001c0 3a 54 47 3d 1a de 79 bd 80 74 f8 bc 52 b1 94 3d
       0.04866431 -0.06100283 -0.030328989 0.07260384
0001d0 10 16 8f 3d 49 73 71 3d 96 db 0c bd 91 e2 75 bc
       0.0698663 0.058947835 -0.0343891 -0.015007631
0001e0 5e 7b 81 bd 69 64 43 bd 2d 01 90 3d c1 26 8f bd
       -0.063223585 -0.04770318 0.07031474 -0.069898136
0001f0 80 56 9d bc fb b1 99 3c e9 38 59 bd b7 93 ad 3c
       -0.019206285 0.018761626 -0.05303279 0.0211886
000200 02 d3 40 bc d5 5a 1b 3d 51 a2 85 bd a5 d8 47 3c
       -0.011769058 0.03792842 -0.065251 0.012197648
000210 b4 22 a0 bd af 99 60 3d 83 d1 b4 3d ea 9c ed bc
       -0.07819119 0.054834064 0.08829024 -0.029005487
000220 31 22 56 3c 81 85 3a bd ab 17 5d bd 1f 5a 37 bd
       0.013069675 -0.045537475 -0.05397765 -0.04476368
000230 4c 78 2c bd 8b 7e 9d 3c 06 9b f8 bb 3b 0f 0f 3c
       -0.04210691 0.01922538 -0.0075868396 0.008731659
000240 26 a2 85 bd 55 5f 59 bd f3 79 97 bd 10 b3 79 bd
       -0.06525068 -0.05306943 -0.07396307 -0.060961783
000250 d8 cf 9c 3d f4 e1 10 3d 3e a2 ac bd 6f b2 71 bc
       0.076568305 0.035371736 -0.08429383 -0.014752015
000260 c3 a9 1f 3c 07 bd 4b 3d dd e7 ac 3d 60 d5 c3 3c
       0.009745064 0.049740817 0.08442662 0.023905456
000270 f6 b6 84 3d 6e d3 00 bd 74 43 3d bb 7c 8b 5a bd
       0.064802095 -0.031451635 -0.0028879317 -0.05335568
000280 42 cd a6 3c bb 58 ac 3d cd 58 63 3d c3 61 b9 3d
       0.020361546 0.084153615 0.05550461 0.0905185
000290 cc 04 19 bd 9d 38 0b bc a7 5a 95 3c e1 87 91 3d
       -0.03735809 -0.008497384 0.018231703 0.07105995
0002a0 22 26 a1 bd ef cb 31 bd 8e 8e 7a 3c e3 e3 46 bd
       -0.078686014 -0.043407377 0.015292777 -0.048557173
0002b0 2c b4 11 3d 68 73 c5 bb c6 9f bb bc d0 28 42 3d
       0.035572216 -0.0060257204 -0.022903334 0.047402203
0002c0 b0 5d 81 3d 24 12 b0 3d 1f 42 2e 3d 8f 68 1e bb
       0.063166976 0.0859721 0.042543527 -0.0024171208
0002d0 4a 4b 99 3d cc 43 95 3d 5a 53 2b bd 4f e7 24 3d
       0.074850634 0.07288322 -0.041827537 0.040259656
0002e0 80 22 53 3c 8d 75 1c bd d4 6c 97 bc 63 f9 aa bc
       0.012886643 -0.038198043 -0.01848451 -0.02087087
0002f0 ae 56 7d bd 5d f3 dc bc b6 a6 f3 3c d3 e2 84 3d
       -0.061850242 -0.026971513 0.02974258 0.06488576
000300 b0 81 06 3c e9 4d aa bd 0f 98 4a 3d 20 d2 c6 bc
       0.008209631 -0.083156414 0.04946142 -0.024270117
000310 b8 11 a7 3d dd a8 a9 bd 15 d2 93 bc a5 99 91 3d
       0.081576765 -0.08284161 -0.01804451 0.071093835
000320 52 df 23 3d 95 9e 34 bd fc bd 9c bd d2 3d d6 3a
       0.040007897 -0.044096548 -0.07653424 0.0016345328
000330 5c 43 16 3d d2 d2 90 bd 4a 79 97 bd 7b 8d c1 3a
       0.036685333 -0.07071461 -0.07396181 0.0014766896
000340 2d 9b 7d bc 4e 22 73 3d fc 4f aa bd bf 2d 3c bc
       -0.015478891 0.059358887 -0.08316037 -0.011485516
000350 aa 11 87 bd b4 f5 29 bc 1f f8 38 bd 96 d6 f8 3c
       -0.06595166 -0.010373522 -0.0451585 0.03037576
000360 84 36 92 bd bf 65 8e bd be f3 42 bd 3b 1d 99 bd
       -0.07139304 -0.06953 -0.047595732 -0.074762784
000370 71 69 6e 3d a1 95 25 bc 95 46 3e bd 65 19 84 3d
       0.058206026 -0.010106475 -0.04645403 0.06450156
000380 a9 45 a4 bc 89 a6 45 3d 32 cb cb bc 78 62 92 bd
       -0.020052748 0.048254523 -0.024877165 -0.07147688
000390 e4 05 9f 3c 39 23 6c 3d f6 4d ab bd c8 87 40 3c
       0.019411989 0.05765078 -0.08364479 0.011751123
0003a0 5b 2a 9f 3c d4 57 50 3c cf 4f f0 39 2a 7e cb bc
       0.019429376 0.012716252 0.0004583583 -0.024840433
0003b0 c0 23 8c bd c5 69 8a 3c 9a 84 68 bd 94 55 90 bd
       -0.06842756 0.016896138 -0.056767084 -0.07047573
0003c0 fb a1 d3 bc e7 59 6d bd 40 d9 f3 3c b9 27 86 3d
       -0.025834074 -0.057947066 0.029766679 0.06550545
0003d0 e7 ad 8c 3d d3 d0 55 bd b7 ec 4f 3d 9d a1 80 3d
       0.06869107 -0.052201103 0.05076286 0.06280825
0003e0 66 59 66 3b fa de 22 3d e1 d9 4c 3d b0 9a 8f 3d
       0.00351485 0.03976343 0.050012473 0.07011926
0003f0 80 03 4c 3d d6 87 1a 3d 75 68 09 bd 10 af 3f bd
       0.049808025 0.0377272 -0.033546884 -0.046797812

layer2.bias f4 [128]
000000 a5 32 3d 3d c4 2f 55 bd 16 5f 47 bc 62 0f 98 bd
       0.046190877 -0.052047506 -0.012168666 -0.07424809
000010 4c 8c 4a bd 0f ed 69 3d c6 8b db ba 4b 12 b7 3c
       -0.049450204 0.057110842 -0.001675003 0.02234759
000020 76 f2 20 3d f0 40 09 3d 92 0a 81 bc e5 0b 02 bd
       0.03929373 0.033509195 -0.01575211 -0.031749625
000030 0c 0d 40 3c f5 57 ac 3d a2 43 c5 3c 20 64 2f bc
       0.011721861 0.08415214 0.024080101 -0.010705024
000040 f2 e1 63 3d bd e5 7a bd 96 e0 70 bd 0b 9f 26 bd
       0.0556354 -0.06125425 -0.05880793 -0.04067902
000050 61 7c b1 3d b6 a6 8e 3a 12 88 85 bd 70 be 62 3d
       0.086663015 0.0010883424 -0.06520094 0.055357397
000060 4e 22 b1 3d cb 45 23 3d 8b 73 42 3a 2e fe 22 bd
       0.08649121 0.03986148 0.000741773 -0.039793186
000070 1b cf 0e 3c 86 af 05 3d f4 f6 13 bd 26 23 37 bd
       0.00871637 0.032638095 -0.036124185 -0.044711255
000080 52 f8 64 3c 72 25 55 3d d1 4e e0 bc 9b 32 6e bb
       0.01397522 0.052037664 -0.027381333 -0.0036346081
000090 67 a5 82 bd 21 3b 73 3c e0 1f 2b bd 12 86 a0 3d
       -0.06379204 0.01484564 -0.041778445 0.07838072
0000a0 50 80 3a 3d 6f 63 85 bd f3 65 7b bd f8 0b 85 bd
       0.045532525 -0.06513106 -0.061376523 -0.064964235
0000b0 81 c8 a3 bd 53 f4 8e 3d 2c 13 53 bc b6 0d 64 3d
       -0.079972275 0.06980195 -0.012882989 0.05567714
0000c0 07 08 4f 3d e4 03 bf bc 1c 58 82 3d 47 00 35 3c
       0.050544765 -0.023317285 0.06364462 0.011047429
0000d0 9a 0d 94 3d 7a 4a 98 3c c0 26 14 3d ab 1a 9c 3d
       0.07229157 0.0185902 0.036169767 0.07622274
0000e0 d6 9b e6 bb 97 46 36 3d 67 0d e8 39 cf d8 9f bd
       -0.00703762 0.044500913 0.00044260474 -0.07805025
0000f0 be 27 48 3d 2c 68 80 bd cd d1 ad bb 4a 1b 9b 3d
       0.048866026 -0.06269869 -0.005304551 0.07573564
000100 21 25 bc bc 68 73 9e bd 27 8e 87 3d 51 93 01 3d
       -0.022966923 -0.07736856 0.0661891 0.031634632
000110 22 4d 9d 3d ad c2 3f 3d b6 6e aa bd 3a 10 3f 3d
       0.076807275 0.046816517 -0.08321898 0.046646334
000120 af b2 86 bd 27 73 47 3c ce bb ab bd 31 dc 90 3d
       -0.0657705 0.012173451 -0.0838543 0.07073248
000130 0f 4f a9 3d 6f 40 e5 3b 7a ae ea bc ff 7e 64 3d
       0.08267032 0.0069962065 -0.02864765 0.055785175
000140 1e f8 a7 3d e4 b4 0b bc 9d 43 56 3d ca 3e 0a 3c
       0.082016215 -0.008527014 0.052310575 0.008437822
000150 45 c5 57 bd ac 8c 9b 3d 28 bd 4f bd 03 1a 7b bd
       -0.052678365 0.075951904 -0.050717503 -0.061304104
000160 ab 80 56 3d 17 c0 0a 3d 78 21 2f 3d 88 5b 61 bd
       0.0523688 0.033874597 0.042756528 -0.05501893
000170 eb 4e bc 3c 77 59 16 3d f9 32 ba 3c 72 e2 95 bd
       0.02298685 0.036706414 0.022729384 -0.07318582
000180 f6 55 f0 3c 3b 91 11 3d 11 5b 36 bd 55 c7 0a bd
       0.029337864 0.035538893 -0.04452044 -0.033881504
000190 1e 16 b2 bd 0b 0c a4 3d 1b f4 16 3b 27 3c 2c bd
       -0.08695625 0.080101095 0.0023033682 -0.042049553
0001a0 6d 39 81 3d 90 92 8e bd 66 47 97 3c 0b 8a 12 bd
       0.06309781 -0.06961548 0.018466663 -0.03577618
0001b0 de ee 52 bc 17 90 02 3c aa 72 3b bc 4a 3a 89 3d
       -0.012874333 0.007968924 -0.011440912 0.06700571
0001c0 2a 07 6b 3d b7 a5 06 3d 08 80 8e bc c8 45 e1 bc
       0.05737988 0.03287288 -0.017395034 -0.027499095
0001d0 3b 94 17 bd 07 a4 1c bb dc 28 ed 3c cf d8 8f 3d
       -0.037006598 -0.002390148 0.028950147 0.07023775
0001e0 25 4d af bd d2 92 99 bd 9c 57 c1 bb 17 f3 89 3d
       -0.08559636 -0.07498707 -0.0059003364 0.06735819
0001f0 ae 10 35 3d 39 1f 2a bd 23 84 28 3d 40 c4 42 3d
       0.04420536 -0.041533682 0.04114164 0.04755044

layer3.weight f4 [2, 128]
000000 15 bf 90 3c fe 39 5f 3d 8e f1 b6 3d bb 7c 2c 3d
       0.01766924 0.054498665 0.08932792 0.04211114
000010 bf f8 56 bd 2b 61 07 3d 55 6d f0 3b c0 6c a4 3d
       -0.052483317 0.03305165 0.007337252 0.08028555
000020 9c 7d 66 3d 79 2c 14 3a e5 23 36 3c 82 ca 29 3d
       0.056272134 0.0005652379 0.011116956 0.041452892
000030 e0 c3 b9 3d 59 70 5d 3d 75 0f 8a 3c 74 f9 5a 3d
       0.09070563 0.05406222 0.016853074 0.053460553
000040 44 57 69 3d e6 35 87 3d d8 1e 92 bb 36 03 13 3d
       0.05696799 0.06602077 -0.0044592433 0.035891734
000050 9e 89 a5 bb 86 77 8b 3d 18 32 1d bd be 2d 72 3c
       -0.0050518056 0.06809907 -0.03837785 0.014781414
000060 11 3e 0f bd d2 4e 0d bc c4 3d 1a 3d 00 80 12 3c
       -0.0349713 -0.008624749 0.03765656 0.00894165
000070 a8 f7 b3 bd ca 2b 83 3c 84 65 1d bd db b3 c8 3b
       -0.08787471 0.016012091 -0.03842689 0.006124956
000080 63 5d 01 3d ec 59 64 bb f4 0a 3c 3d 9d da a1 bd
       0.0315832 -0.0034843637 0.045908883 -0.07903025
000090 b4 48 3f 3c f8 70 96 3d 1a 47 dc 3b 2c 61 9c 3d
       0.011675049 0.07345766 0.006722343 0.076357216
0000a0 34 ba fd bc 5d 35 ef 3c fe d3 8e bd 42 de 47 bc
       -0.030972578 0.02920025 -0.06974028 -0.0121989865
0000b0 90 de 54 bd b6 89 2e 3d e3 08 25 3d 29 03 54 bc
       -0.051970065 0.0426118 0.04029168 -0.012940207
0000c0 dc f5 47 bd 1b 7b 2c bd 59 8c 5a 3d dc 5e d4 bc
       -0.048818454 -0.04210959 0.053356502 -0.025924139
0000d0 85 cb ad bd 54 63 86 3d e7 06 2f 3c ac ad 77 3d
       -0.08486084 0.06561914 0.010682798 0.06046836
0000e0 f4 03 21 3d 8d 61 16 bc da 2d 99 bd a4 e6 a3 bb
       0.03931041 -0.009178531 -0.074794486 -0.0050018597
0000f0 75 3b b2 bb d7 d6 db 3c f4 f8 a8 bd f8 77 9f bb
       -0.0054392167 0.026835842 -0.08250609 -0.0048665963
000100 17 80 92 bd f2 ad 32 bd de 31 aa bd 33 e5 8a 3d
       -0.071533374 -0.04362292 -0.08310293 0.067819975
000110 d3 f4 a1 3d e5 3a 23 bd 4f 44 0e bd 49 9b 50 3d
       0.07908025 -0.039851088 -0.034733113 0.05092934
000120 16 20 ce 39 9a e1 85 bc 19 5c 33 bc 4e a6 a4 bd
       0.00039315288 -0.016342927 -0.010947251 -0.080395326
000130 3a 87 6d bd b6 e0 7b 3d 41 77 6a bd dd 60 57 3d
       -0.05799029 0.061493598 -0.057242636 0.05258261
000140 40 72 08 bd 6b 25 78 bd 09 40 23 bd 53 c0 6a 3d
       -0.033312082 -0.06058256 -0.03985599 0.05731232
000150 82 fe a6 bd 2a 7f 1c 3d 12 3e e0 3c 7d 21 f3 3c
       -0.08154012 0.03820721 0.027373347 0.029679054
000160 90 4f 98 bd 2c a4 85 bd 19 a7 74 bc 2e 90 ee bc
       -0.0743705 -0.06525454 -0.014932417 -0.029121485
000170 4e de de bc 8e e1 01 3d 8b d0 2c 3d b4 6f 93 3d
       -0.027205613 0.031709246 0.04219107 0.0719904
000180 12 33 2c bd 60 93 3b bd 02 f1 ac 3d 09 32 fa bb
       -0.042040892 -0.045794845 0.08444406 -0.007635359
000190 d8 82 cd bc 83 a2 56 3d 89 59 81 bd 45 cc 1c 3d
       -0.025086805 0.052401077 -0.063159056 0.038280744
0001a0 69 0e 0e bd 41 c5 25 3a 74 29 0b bd 42 c3 87 bd
       -0.03468171 0.00063236436 -0.03397508 -0.06629039
0001b0 64 0b 13 bc e8 de a9 3c 18 96 20 bd ac b3 74 3c
       -0.008974884 0.020736173 -0.03920564 0.014935415
0001c0 ba 2c 96 bd 0d e7 68 bd 05 97 1f 3d aa 0a 91 3d
       -0.0733275 -0.056860972 0.038962383 0.07082112
0001d0 f9 99 47 3d d2 7c 64 bd 8d cb 7c 3d 7c 0d 6a bd
       0.048730824 -0.0557831 0.06171756 -0.057141766
0001e0 81 99 32 3d e6 b4 91 3c b9 f1 9c bc 24 84 95 bd
       0.043603424 0.017786454 -0.019158231 -0.073005944
0001f0 51 fb 96 bd 15 a0 ac bd 07 a2 32 bc 55 c5 95 3d
       -0.073721536 -0.08428971 -0.010902888 0.07313029
000200 2a 46 0e 3d d8 e4 97 3d 0d c6 97 bd 38 23 7d 3d
       0.034734882 0.07416695 -0.07410822 0.061801165
000210 4a 3f 6a bc 37 75 3b 3d f5 9d 81 bd 8b f0 6e bd
       -0.014297316 0.04576608 -0.06328956 -0.05833487
000220 7c 64 96 3d f1 08 6e 3d 2a 0f 63 bd 83 06 89 bd
       0.073433846 0.058113996 -0.055434383 -0.06690695
000230 66 27 b7 bc 67 2d b7 3d 19 37 95 3d 76 17 10 bd
       -0.022357654 0.08944207 0.072859 -0.035178624
000240 31 8e 70 3c d2 6b 51 3d 60 cc 88 bd 05 1a 7f bc
       0.014682339 0.051128216 -0.066796064 -0.015570168
000250 d0 d7 8f 3d a0 4f 1e 3d 18 e7 16 3d 25 b1 a3 3d
       0.07023585 0.038650155 0.036841482 0.07992772
000260 87 0e 29 3d 73 a2 af bd a7 98 49 bd 33 30 00 bd
       0.04127362 -0.085759066 -0.049217846 -0.031295966
000270 60 be 98 bd 39 10 73 3d a2 41 3f 3b 73 44 a2 3d
       -0.07458186 0.059341643 0.0029183407 0.07923212
000280 f1 7d db bb 65 6b df 3c fb f3 99 bc 50 a6 a8 3d
       -0.006698363 0.02727289 -0.018793097 0.082348466
000290 2f bc 79 3d 75 59 99 bc f9 6c 60 3b 9f c4 6c bc
       0.06097048 -0.018719414 0.003424464 -0.014451175
0002a0 92 4f 27 bd 0d 5a ac bd d1 91 40 3d 30 37 68 3d
       -0.04084737 -0.08415613 0.04701406 0.056693256
0002b0 e2 95 74 bd 11 fb 81 3d 7e 66 83 bd da fe 93 bd
       -0.059713252 0.06346715 -0.06416033 -0.072263435
0002c0 29 fb a4 3c 23 03 70 3c 74 cb e2 bc e0 14 24 bc
       0.020139294 0.014649185 -0.027684905 -0.010014743
0002d0 97 2c 86 3c 0b 80 46 bd 72 95 8f 3d bb 0a 50 bd
       0.016378684 -0.048461955 0.07010926 -0.050791483
0002e0 49 5c 90 bc 5c a7 ac bd b8 5f db bc cb 51 28 3c
       -0.01762213 -0.08430359 -0.02677904 0.010273407
0002f0 f5 25 0b bd 2d 69 8f bd 5f 4b d0 bc 20 7c 47 bd
       -0.033971746 -0.070024826 -0.025426565 -0.04870236
000300 8e d0 ad 3d 5a e0 b7 3d b3 25 16 bb d0 db 06 bd
       0.08487044 0.089783385 -0.0022910654 -0.032924473
000310 d4 04 5b 3d ca 44 5f bc d9 ab 95 3d 88 f4 62 3d
       0.0534714 -0.01362724 0.07308168 0.055408984
000320 df fe 8c 3d 91 c6 ac 3d 11 20 a8 bc e5 f3 9e bd
       0.0688455 0.08436311 -0.020523103 -0.07761363
000330 7f c0 a5 bc 4d 85 a7 bd 58 57 3f 3d f7 d9 8b bc
       -0.02023339 -0.08179722 0.046714157 -0.017071707
000340 76 36 6d 3d 0d 15 85 bd 1c f7 00 3d 9a 27 dc 3c
       0.057913266 -0.06498156 0.031485662 0.026874352
000350 5d 9a a3 3d ee 5b 76 bd a0 ff c4 3c a5 28 42 bd
       0.07988427 -0.060146265 0.024047673 -0.047402043
000360 b0 50 96 bc 41 0a 8d 3d e2 8f 04 bd 79 fc 48 3d
       -0.018349022 0.068867214 -0.03236378 0.0490689
000370 df bc ba 3c 8b 19 81 3b 6a 80 97 3d 06 3e 7d 3c
       0.022795139 0.0039398125 0.0739754 0.015456682
000380 53 2d 72 bd be 0e ab 3d de 66 82 3d 81 33 07 bd
       -0.059125256 0.08352421 0.063672766 -0.033008102
000390 77 67 76 3d bc 44 4c bc cb b5 e8 3c f2 36 1a 3c
       0.060157266 -0.012467559 0.028406998 0.009412514
0003a0 c9 49 93 bd 43 34 b3 3d a1 a6 8c 3d 5f a4 9e bd
       -0.07191808 0.087502025 0.068677194 -0.07746195
0003b0 d2 4a ab bd f1 0d b3 3d 32 7a 1f 3d 6c 38 35 bc
       -0.0836388 0.087428935 0.038934894 -0.011060815
0003c0 99 8b e6 bc 36 8f 94 3d df 70 74 3d ee 2b ae bd
       -0.028142737 0.07253878 0.059677955 -0.08504473
0003d0 2c 61 01 bd 37 97 2a bd a9 19 a0 bd ca cd 53 bc
       -0.03158681 -0.041648116 -0.07817394 -0.012927482
0003e0 5c 99 13 3d 02 7b 98 bc 0f e8 72 bd 76 29 74 bc
       0.036034927 -0.018613342 -0.05930334 -0.014902463
0003f0 e6 cf 8f bc 7a ae 4d bd bc be c7 3c 52 fe 91 bd
       -0.017555188 -0.050215222 0.024382941 -0.07128586

layer3.bias f4 [2]
000000 8d 35 fd 3c 1c 7d 26 bc
       0.030909324 -0.010161664
