cartpole_v1_best_model_DSP.pth (torch, 73094 bytes, 6 tensors)

layer1.weight f4 [128, 5]
000000 f1 0d ed 3b ce c6 cd 3a a4 7f 9e bd 61 a6 8d bc
       0.007234328 0.0015699507 -0.07739189 -0.01729125
000010 84 f0 e1 ba ab ad 5d 3b 26 65 31 3b a4 31 e9 3d
       -0.0017237817 0.0033825438 0.0027068346 0.11386421
000020 54 72 7e 3c 8a 86 2d bb 14 ce a6 3b 87 df bd 3b
       0.015530188 -0.0026477897 0.0050904844 0.005794469
000030 ad f8 c1 3d 95 38 1f 3d b8 3b 8f 3c 4a a4 a1 bd
       0.09471259 0.03887232 0.01748453 -0.07892664
000040 d0 c9 2a bd e7 65 a7 be 1a c1 65 bd f7 ca 2b bd
       -0.04169637 -0.32694933 -0.05609236 -0.04194161
000050 66 b1 0c 3c d8 1e 62 b9 bd 75 c5 bc 55 fb 82 bc
       0.008587217 -0.0002156453 -0.024103994 -0.015988985
000060 4f 3d 41 3b 76 10 69 3c e3 bb 59 3a 13 9b 9c 3e
       0.0029486006 0.014225116 0.00083058904 0.30587062
000070 b3 4e 5a 3d cc ab 8f 3b fb 9c 9d 3d d1 ae 9b 3c
       0.05329771 0.0043844935 0.07695957 0.019004257
000080 63 45 d5 3e 3f 33 84 3d f9 a3 12 bd 65 e4 12 3d
       0.416545 0.06455087 -0.035800908 0.035862345
000090 8c 59 ed 3b 2d 4e c6 3e 2d 8a 51 3e 47 ed cb 3b
       0.007243341 0.38731518 0.20462866 0.006223354
0000a0 9e a2 85 bc de 07 a6 b7 15 06 a2 be 75 3f aa bd
       -0.016312893 -1.9792406e-05 -0.31645265 -0.08312885
0000b0 61 02 d6 3a 61 03 4f bd 8c 88 7b bc df b7 35 be
       0.0016327613 -0.05054033 -0.0153523795 -0.17745923
0000c0 b4 15 60 bd 63 97 6a bc 9b 6d 7d 3c 70 bf 96 3b
       -0.054708198 -0.01431832 0.0154680265 0.004600458
0000d0 c0 bc e0 bb 2f a5 01 3c cd c1 b8 3c 56 50 06 3d
       -0.0068584383 0.007912918 0.022553349 0.032791458
0000e0 af 40 05 bd 7c 60 16 bf 48 e8 b3 be 8e 23 b6 3c
       -0.03253239 -0.58740973 -0.35138154 0.02223375
0000f0 d8 55 1d 3d 36 7d 27 3c 6a b8 26 3d b6 23 b5 3b
       0.038411945 0.010222724 0.040703215 0.0055279387
000100 c1 83 03 3b 5d b8 25 be f2 eb 32 bc c1 3e b3 bf
       0.0020067545 -0.1618361 -0.010920512 -1.4003526
000110 ae 2a 4d be 82 ee 2f bd 09 b6 f4 bb 86 ba e3 bb
       -0.20035812 -0.04295207 -0.0074679893 -0.0069497256
000120 9e b8 f9 3c 62 15 8b 3b bf b6 10 ba 45 38 fa 3b
       0.03048354 0.0042444924 -0.00055203954 0.0076361024
000130 4a 85 e8 3b 96 27 94 3d e3 66 8e 3c c2 ff 15 3c
       0.0070959674 0.07234113 0.017383045 0.009155216
000140 46 b7 02 bd 91 e5 00 bc 2a a0 de be 43 9e a1 bd
       -0.031913064 -0.007867233 -0.4348157 -0.07891514
000150 54 e3 df bb 12 6d 68 bd ff 4c 98 3c 75 09 20 3c
       -0.0068325195 -0.056744643 0.018591402 0.00976788
000160 0d 30 17 3d c2 db 8f bc 11 b5 5c 3b a9 c3 fe 3a
       0.03691106 -0.017560843 0.003367726 0.0019436973
000170 4f 4f e5 3d 09 0c 09 3c 40 d6 08 3c 1f a3 9e bd
       0.111967675 0.008364686 0.008351862 -0.07745957
000180 1f 27 8b bd f3 0f 0b 3f a6 78 18 3e db c0 a1 bb
       -0.06794571 0.5432121 0.14889774 -0.0049363202
000190 e3 e9 53 3b 25 e5 85 3c ef fa 2d 3e 56 a3 19 3d
       0.0032335452 0.016344616 0.16990255 0.037509285
0001a0 f8 01 17 3c 37 c8 1c bc c7 d5 81 3b 92 2c 3d be
       0.009216778 -0.009569219 0.003962252 -0.18474033
0001b0 3f 91 c4 bc 85 56 aa 3b 4f 2e 76 bc 29 e4 f3 bb
       -0.02399504 0.005198302 -0.015025689 -0.0074429703
0001c0 ba 2d 8f bb ea 1c 11 bc 7e 6a 0c ba 93 7a 89 bc
       -0.0043694647 -0.008856991 -0.0005356445 -0.01678208
0001d0 53 e1 74 bb b3 44 4d ba a6 86 cc bb 2f c2 b0 bb
       -0.003736575 -0.00078303664 -0.0062416373 -0.0053942422
0001e0 b1 48 06 3c 0f 14 a0 3b 55 a0 31 3e 4f 97 00 3d
       0.008196042 0.0048852037 0.17346318 0.0313943
0001f0 2f 0c 3e 3b fc b0 17 3d 3e 0e 3f 3c 37 53 a1 3d
       0.0028998961 0.03703402 0.01166111 0.078772
000200 a5 1c bb 3c ba 20 46 3c 7f cc 2f bc f6 6d 39 3b
       0.022840807 0.012092764 -0.010729908 0.0028294302
000210 90 2d 79 3d f7 dc 11 3c 29 1e 34 3c dd 86 f9 bb
       0.060834467 0.00890278 0.010993519 -0.007614954
000220 42 e1 6c 3a b5 1d 1b 3c 86 1b 25 ba 07 c6 14 bc
       0.00090362516 0.009467532 -0.0006298352 -0.0090804165
000230 e8 cd e7 38 92 ef 96 3a 4b da 31 3e e6 22 fc 3c
       0.000110532914 0.0011515489 0.17368428 0.03077836
000240 56 9e 07 3c 77 52 30 bc 84 85 6b bb 95 1c 12 3e
       0.008277496 -0.010761849 -0.0035937736 0.14268716
000250 9d a0 7e 3d d2 26 1d 3b f2 6c 5d 3c d0 28 a0 3a
       0.06216489 0.0023979438 0.013514744 0.0012219194
000260 67 cd 59 bd b4 68 0c bc 11 66 d1 ba da 4c 6a 3b
       -0.053174403 -0.008569885 -0.0015975853 0.0035751374
000270 bf 26 59 bb 47 8a c2 bc 64 0a a5 bb 46 a7 17 bc
       -0.0033134667 -0.023747576 -0.005036639 -0.00925619
000280 05 1a f9 bb f5 70 13 bc d0 87 d0 bc c0 be 9d bc
       -0.0076019787 -0.008999099 -0.025455385 -0.019255996
000290 9d 80 46 3b 84 9c 84 3c 49 51 60 3d 00 54 08 be
       0.0030289062 0.016187914 0.05476502 -0.13313293
0002a0 b7 d2 a9 bc d7 c2 05 bd 51 dc ca bc 27 5c d7 bc
       -0.02073036 -0.032656517 -0.024763258 -0.026289059
0002b0 12 a6 35 bf 3d 0c 25 be c0 57 82 3c 04 27 af bc
       -0.7095653 -0.1611795 0.015910983 -0.021380909
0002c0 e2 ed a7 3b 2c cd 81 be 88 63 91 bd 86 4e dd 3b
       0.0051247934 -0.25351846 -0.07099062 0.0067537455
0002d0 29 3f 71 3d 20 31 03 3d 85 3c a3 be 67 4c 51 bd
       0.058898125 0.03202927 -0.3188211 -0.051098254
0002e0 af 4c 38 bb 04 a9 83 bd 1c 05 26 bd 0b 0b 72 3e
       -0.002812188 -0.064287215 -0.040532216 0.23637025
0002f0 42 6c 7c 3d 78 fd 8a 3b 24 ba 66 3d e0 5c e4 ba
       0.06162668 0.0042416416 0.05632986 -0.0017422698
000300 d5 89 36 3f 58 41 27 3e 4b bc 68 3b 8e b8 54 bc
       0.71304065 0.1633352 0.0035512622 -0.012983454
000310 d9 96 c3 ba 66 d5 fa bd d7 38 09 bd 77 17 c9 3b
       -0.0014922275 -0.12247734 -0.033501472 0.0061368304
000320 4f 43 d8 bb 7d 84 30 39 df bf 2a bd 7c 19 08 bd
       -0.0065998207 0.00016834024 -0.04168689 -0.03322743
000330 d5 b1 9c 3c 59 3a 92 bc 9e e2 4e bc fd 84 d7 bc
       0.019127766 -0.017850088 -0.012627272 -0.026308531
000340 e3 6b 51 bc 19 41 68 3c 4d 10 ad 3c 3e c1 02 bc
       -0.01278207 0.014175677 0.021125937 -0.007980643
000350 3e 0f 58 3e 4f 10 af 3d 1f 7f fb 3b cf 36 b5 bb
       0.21099564 0.085480325 0.007675066 -0.0055302153
000360 aa 7e 1a 3a 58 70 09 3e c8 e4 6f 3d 75 0d 4e 3c
       0.0005893508 0.13421762 0.058567792 0.012576451
000370 e2 97 13 bb 8c 7d 5c bb f3 3a 0d bd 6c 4b 6a bc
       -0.002252095 -0.0033644168 -0.034480046 -0.014300209
000380 3a 96 79 ba 64 12 43 3d 3f 7b 0b 3d d5 84 d7 3b
       -0.00095209817 0.04762496 0.034053084 0.006577114
000390 cd bc 63 3b d9 59 dd bc ce 74 94 ba e0 6b 16 bc
       0.0034749985 -0.027020382 -0.0011326314 -0.009180993
0003a0 1e 68 62 be ef 83 c2 bd 16 43 e2 3b 33 5f 8f 3b
       -0.2211003 -0.094978206 0.00690497 0.0043753623
0003b0 52 e2 4b 3b 50 f8 56 3e 1c 25 fe 3c 9a dd ca 3b
       0.003111024 0.20993161 0.031023555 0.0061909677
0003c0 e4 af 9a bc ea aa fe bb 8b 38 32 3d b1 2f ca 3b
       -0.0188827 -0.0077718394 0.043510955 0.006170236
0003d0 d5 3d ab 3c dc 36 4c 3d d5 68 49 3c 9f 0b 0a 3e
       0.020903507 0.049857005 0.01229306 0.13480996
0003e0 00 fc 41 3d fe a5 be bc 66 44 88 3b 61 a7 49 3b
       0.047359467 -0.02327251 0.0041585444 0.0030769932
0003f0 5f 75 8c be 42 bc 81 bd 7f 1b b7 3c 80 c7 ad bc
       -0.27433297 -0.063347355 0.022351978 -0.021213293

layer1.bias f4 [128]
000000 d8 f0 91 3e 95 87 a4 3e 0c f4 6c 3d 0a 0d a1 bc
       0.28504062 0.3213469 0.05784993 -0.019659538
000010 ed 47 97 3e b2 06 15 bd 4a 60 1c bd b9 42 2f bc
       0.29547063 -0.03638334 -0.038177766 -0.01069706
000020 e2 3e 83 3e c0 7b 71 bd 2a 09 d7 3d b5 01 8d 3e
       0.25633913 -0.058955908 0.10499795 0.27540365
000030 b5 13 a0 3e d8 14 19 be d1 1c 8f 3e 18 b3 89 3e
       0.31265035 -0.14949358 0.27951673 0.2689445
000040 2c 79 4c bd 32 6f a0 3e 7e 5a 4e 3e c4 9a 3c be
       -0.049920246 0.31334835 0.20151708 -0.18418413
000050 ae f5 80 3e ea fc 87 3e 80 c0 a5 3e c6 51 8b 3e
       0.2518744 0.26560146 0.32373428 0.27210826
000060 30 9e 69 3e 6e 52 4f 3e 4b e2 22 3e e8 25 1b bc
       0.2281425 0.20246288 0.15906636 -0.009469487
000070 cf e0 3b 3e fe c7 80 3e 14 79 11 3e cf 05 a5 3e
       0.18347476 0.25152582 0.14206344 0.32230994
000080 51 be 55 3e 46 89 23 3e fa 2b 73 bd fb a3 62 3e
       0.20873381 0.15970334 -0.05936811 0.22132866
000090 33 64 2e be 51 4a a2 3e 7a a8 e5 bd c3 9c 11 bd
       -0.1703041 0.31697324 -0.11213775 -0.03554989
0000a0 a2 c6 c4 3b fd 7d 5c bb e7 9a a6 3e 5b 74 02 3e
       0.006005124 -0.003364443 0.32540056 0.12739699
0000b0 c9 61 94 3e dd c0 f2 3d 0f 34 ac 3e 0a 70 46 3e
       0.28980854 0.11853192 0.33633468 0.19378677
0000c0 d9 8a f0 bb f1 2b 37 bd 47 36 0d 3e 3f fa 53 bd
       -0.0073407707 -0.04471964 0.13790236 -0.051752325
0000d0 83 9e 2e bd 69 d9 ff bc 4a 95 80 3e 80 99 8f 3e
       -0.042631637 -0.031231599 0.251139 0.280468
0000e0 93 b2 15 3e 5d f1 b7 3e c5 59 06 3e e4 5d 3c bd
       0.14618902 0.35926333 0.13120182 -0.04598798
0000f0 76 80 c1 bd d8 df 41 bd b4 5f 27 bd a2 f0 b2 3e
       -0.0944833 -0.047332615 -0.040862754 0.34949213
000100 1f f2 ec 3c 7a 57 1c 3e e2 31 d0 bc 7b 93 70 bd
       0.028924046 0.15267745 -0.025414411 -0.0587344
000110 d2 a8 bb 3c 12 15 02 be ab 8a 5b 3e 7c a6 3a be
       0.022907648 -0.1270335 0.21439616 -0.18227571
000120 e6 54 a5 3e 59 ca f4 3d 05 18 cc 3d 2f e5 63 bc
       0.32291335 0.11952657 0.09965519 -0.013909622
000130 df 66 29 bc fb ae fa 3d c4 8b e6 bd 72 fd ca bc
       -0.010339468 0.12240406 -0.11257127 -0.024779055
000140 b4 f7 02 be 2c 82 20 be 20 26 51 3e 1a ea 15 3e
       -0.12789804 -0.15674657 0.204247 0.14640084
000150 19 7f 93 3e 35 41 ca 3c d8 15 c3 3e da 2a 8e 3d
       0.28807905 0.024689296 0.38102603 0.06941767
000160 c5 1b 98 bc 84 83 a9 3e 58 98 12 bd dd 9b 3c 3e
       -0.018567929 0.3310815 -0.035789818 0.18418832
000170 8a dc 6d 3e a2 5d 0e 3e 59 f0 9a 3e dd 30 9b 3e
       0.2322866 0.13902906 0.30261496 0.30310717
000180 89 42 ac 3e d3 2b 19 3e 2d 7c ac 3e 0a 7c 88 3e
       0.33644512 0.14958124 0.3368849 0.26657134
000190 c3 49 56 3e 38 f8 26 3e 9c be 97 3e a8 74 fd 3d
       0.20926575 0.16305625 0.2963761 0.12375766
0001a0 c3 5e 47 3e 3a 88 3f bd fd d3 26 3e d4 f5 45 be
       0.19469742 -0.046760775 0.16291805 -0.19332057
0001b0 b8 ee 97 bd fc ed af bc 8d 60 29 3e f0 4e 9b 3e
       -0.07418579 -0.021475784 0.16540737 0.30333662
0001c0 ce 59 73 3d f1 65 13 3e ce 53 09 be d1 96 60 3e
       0.059411816 0.14394356 -0.13410875 0.21932532
0001d0 66 ab 01 3e 18 f0 ae bd 6a e0 98 3e 93 8c d3 bd
       0.1266304 -0.08541888 0.29858714 -0.10329547
0001e0 48 7d af bd 61 af 58 bd c8 36 da bd 63 ca 41 bc
       -0.085688174 -0.05290163 -0.1065498 -0.011828038
0001f0 64 08 e0 3d 6b d0 8f 3e d6 f7 53 be 67 ef f4 bc
       0.109391004 0.28088698 -0.2070001 -0.029899312

layer2.weight f4 [128, 128]
000000 0b 8e c4 3d 16 4e d0 3d 95 bd 6e 3c a0 fb ff bd
       0.09597405 0.10171144 0.014571567 -0.124991655
000010 3f d1 d0 3d f5 89 6e bd ae f2 c5 bd ea ec 4d bb
       0.101961605 -0.058237035 -0.09665428 -0.003142173
000020 de 96 d4 3d 3e 14 95 bd ca 97 86 3c 51 36 d0 3c
       0.10380338 -0.072792515 0.0164298 0.025416525
000030 ff ad 9a 3d 55 ba 2b bd e5 bb f8 3d 4d de 4b 3d
       0.07552718 -0.041925747 0.12145213 0.04977255
000040 8c d6 1f be 0c 7f fa 3c 9b 44 3f 3d db bd 8f bd
       -0.15609187 0.030578159 0.046696287 -0.07018634
000050 0f bd 47 3d 38 c4 ec 3c 8a fa e7 3d 8b 07 a9 3d
       0.048764285 0.028902158 0.113270834 0.08253392
000060 df 36 65 3d 02 1a 28 3d 3c df f2 3c 95 01 fc b7
       0.055960532 0.041040428 0.029647462 -3.0041478e-05
000070 cb 1e 2b 3d 95 42 46 3d 47 30 f4 3d 0c cc 18 3d
       0.041777413 0.04840334 0.11923271 0.03730397
000080 37 89 ff 3c 10 18 72 3d 38 e3 d6 bb 5c 05 24 3d
       0.031193359 0.05910498 -0.0065578483 0.040044174
000090 cb 7a dd bc 79 ab 2a 3d 98 8f 4d bd bc 31 b7 bc
       -0.027036091 0.041667435 -0.05018577 -0.022362582
0000a0 22 a8 6b 3c 22 12 4f bc 8b c9 ec 3d e3 62 b5 3c
       0.014383348 -0.012638601 0.11561879 0.02214188
0000b0 6a 8b 23 3e 5d 15 db 3c 55 ad 81 3d ea 00 6e 3d
       0.15971151 0.026743585 0.063318886 0.05810634
0000c0 ce ec 3c bc 8d c5 a7 bc dd fc 90 3c 31 8e 38 bd
       -0.011531068 -0.020479942 0.0176987 -0.04505748
0000d0 04 cf 3c bc 33 5c 30 bd 57 18 0f 3d 2e d1 4d 3d
       -0.011523966 -0.043056678 0.03493532 0.050248317
0000e0 96 bb 63 3c be 6c 04 3e cd 9c 25 3d e7 33 65 bb
       0.013899704 0.12932107 0.04043274 -0.0034973563
0000f0 33 f3 b3 be bb d2 2c bd cd 75 0d bd 1a 21 0e 3e
       -0.35146484 -0.042193156 -0.03453617 0.13879815
000100 c4 57 02 3c a5 5f 96 3c 68 91 a4 bb 5e 2e 1e bd
       0.007955495 0.018356154 -0.0050222166 -0.038618438
000110 75 59 fc bc d0 dd 09 be e2 c0 8b 3d 33 9c d8 bd
       -0.030804375 -0.13463521 0.06823899 -0.10576668
000120 5a 0a ba 3d 33 65 11 3d 62 81 67 3c 45 80 f9 bc
       0.09084006 0.0354969 0.014129968 -0.030456671
000130 26 48 b1 bc 01 94 b3 3c 6b 01 a1 be 32 bc 7e bb
       -0.021640848 0.02192116 -0.31446394 -0.0038869497
000140 08 51 27 be b8 4d 60 be a4 58 11 3d 0c 75 c0 3c
       -0.16339505 -0.21904647 0.035484925 0.023493312
000150 54 f3 02 3e 4c 13 3a 3a 20 f6 c7 3d 64 37 4d 3c
       0.12788135 0.00070982124 0.097637415 0.012525413
000160 54 8f ee 3b c2 7b 42 3d 7c d7 2d bc 9c 84 1a 3d
       0.0072802696 0.047481306 -0.0106104575 0.037724122
000170 b7 12 32 3d 5b 85 1e 3d e7 4c 16 3d f7 be ed 3d
       0.04347488 0.038701396 0.036694434 0.11608689
000180 aa 50 2e 3e 47 19 c7 3c c5 12 5e 3d ee e4 46 3e
       0.17022958 0.024304045 0.05421712 0.19423267
000190 e1 7e 89 3d 4d 10 0a 3d ba 4c 86 3d 0d f8 8b 3c
       0.06713653 0.033706952 0.06557603 0.017086053
0001a0 be ef 30 3c b2 28 17 bd 1f a6 96 3c 47 06 79 bd
       0.0107993465 -0.036904044 0.01838976 -0.060797002
0001b0 25 d6 b7 bc 10 9f c9 bc 84 d1 a3 3c 87 b1 88 3e
       -0.02244098 -0.02461198 0.019997366 0.26697943
0001c0 1f 1b 13 3c 8d 34 44 3d 2f 5b 88 bd ff d4 10 3d
       0.008978634 0.04790168 -0.06658017 0.03535938
0001d0 49 94 5d 3c d9 28 4b be b5 a2 06 3e a5 b4 09 bd
       0.0135241235 -0.19839801 0.13148005 -0.03361954
0001e0 ac 07 16 be 3a 38 1c bc 21 b2 33 be df 76 2e bc
       -0.14651364 -0.00953489 -0.1754842 -0.010648458
0001f0 99 4e ae 3c 78 cc 19 3d 4b 78 29 bd a8 af 77 bd
       0.021277713 0.037548512 -0.041374486 -0.060470253
000200 68 c7 6b bb a8 09 20 3c 0e 24 03 bc b9 ca 1c 3c
       -0.003597701 0.009767927 -0.008004202 0.009569817
000210 56 46 6e bc df bb 32 3d 39 b5 9c 3d a0 ea 34 3c
       -0.014543137 0.0436362 0.07651753 0.011042267
000220 13 a9 c5 bc 58 fa 99 3c ea d7 74 bb 0b 46 81 bc
       -0.024128472 0.018796131 -0.003736014 -0.01578047
000230 d9 d7 84 3b 18 93 2a 3c 51 94 14 bc b4 4a 9c ba
       0.0040540514 0.010411046 -0.0090685645 -0.0011924119
000240 0e f8 99 3d 89 c6 a7 3b ad 44 a7 ba d1 bd 4f 3d
       0.07518016 0.005120103 -0.0012761556 0.050718132
000250 90 4b f2 ba eb 37 c7 3a 0b 8d ca 3a 41 73 37 3b
       -0.0018485654 0.001519916 0.0015453411 0.002799228
000260 29 5c 7a 3b 21 5b f7 ba d3 d9 3a bb 97 0b fb ba
       0.0038201904 -0.0018871763 -0.002851118 -0.0019153234
000270 72 81 74 ba 7d f0 25 3b d1 29 40 bc 1b ba 81 3a
       -0.000932715 0.0025320344 -0.01172872 0.0009897383
000280 d2 ae 67 3b 5c 6c ee bb 28 d4 4b bc 2f e2 eb bb
       0.0035352004 -0.007276101 -0.012440719 -0.007198594
000290 9c 49 ce bb d1 fe de 3a b6 f6 49 3d 33 52 b2 3c
       -0.006295396 0.0017013197 0.049307548 0.021767711
0002a0 ed 44 82 bc dd 02 e4 3b b7 a4 09 3c e0 68 19 3b
       -0.015902007 0.006958349 0.0084010875 0.0023408458
0002b0 c2 4d 47 bc 13 0f 28 3c 44 48 b4 ba 4b 71 a7 ba
       -0.012164535 0.0102575 -0.0013754447 -0.0012774853
0002c0 54 3b 88 3c 74 79 c5 3c 1a 99 f6 bb be a1 f2 3c
       0.016629852 0.024105765 -0.0075255753 0.02961814
0002d0 a5 26 87 3c f8 79 05 3d fc 66 05 bc 94 8e 81 3b
       0.01649792 0.03258702 -0.008142229 0.003953764
0002e0 6d 48 20 bb 64 b5 96 bb eb 7b 43 3a d5 49 60 3c
       -0.0024457232 -0.00459926 0.0007457125 0.013689478
0002f0 4b 20 80 3e 44 01 f1 3c 15 e3 e2 3c 46 c2 a5 3b
       0.25024638 0.029419549 0.027696172 0.0050585596
000300 59 5b 3c 3c 64 b8 3f bb af 4f e9 3a 8b 50 a3 3c
       0.011496388 -0.0029254192 0.0017800237 0.019935867
000310 34 96 ab 3c ff a4 95 3d 8f d7 28 bb 8f 74 1e 3d
       0.020945646 0.07306861 -0.0025763249 0.038685378
000320 4d 25 a0 bb c9 29 00 bb df 11 ca 3a c3 c7 d1 3b
       -0.004887259 -0.0019556156 0.0015416703 0.0064019873
000330 b6 86 b2 3c 9d ad 3b bb 4d a4 2e 3d 8a af 06 3c
       0.02179275 -0.0028637417 0.04263716 0.008220563
000340 c8 41 04 3e b8 ce 80 3e 3f e1 ab 3b 3e b7 bd ba
       0.12915719 0.25157714 0.0052453573 -0.0014474166
000350 57 b8 2e bc 2e 80 d0 3b 03 9b f7 3b a4 e2 76 bb
       -0.010664067 0.0063629365 0.0075563206 -0.003767171
000360 5c bf 63 ba 7a da 9c 3b 9d 50 5b 3c ba b4 c5 3a
       -0.00086878776 0.0047867866 0.013385919 0.0015083768
000370 8b bd 55 b9 33 8c 49 bc 8f f2 cf 3b af 6f b2 3c
       -0.00020383873 -0.0123014925 0.006346054 0.02178177
000380 19 3a 2a 3c 2c 1e 8b bb e9 60 57 3b 49 33 ed bc
       0.010389828 -0.00424554 0.003286416 -0.028955119
000390 68 d6 b1 bc a0 06 1f bb d5 53 26 3a ac 8f 94 3a
       -0.021708682 -0.0024265423 0.00063448894 0.0011334321
0003a0 74 7a a1 3b 89 b5 76 3c 68 e4 c8 bb 53 02 45 3d
       0.0049279276 0.01505793 -0.006130744 0.04809792
0003b0 77 93 3a 3c 12 88 e4 3d 4f ac 29 3c 70 30 eb bc
       0.011387697 0.11158766 0.010356023 -0.02870962
0003c0 c4 08 0b bc 40 df 3f ba ae 8a 2f 3d 16 bd 13 3b
       -0.008485977 -0.00073193386 0.042856865 0.0022543124
0003d0 13 f6 1f bc b7 9f 18 3e 12 84 99 bc 04 db fc 3b
       -0.0097632585 0.14904676 -0.018739734 0.0077165384
0003e0 71 c1 66 3d f5 3c 86 3b 0d 4b 96 3b 2f 76 9f 3c
       0.056336824 0.004096622 0.0045865835 0.019465534
0003f0 2b be a5 bb 7a f3 2e 3c 6b a5 05 3d 40 94 3f 3d
       -0.00505807 0.0106781665 0.032628458 0.04677224

layer2.bias f4 [128]
000000 26 c2 10 3e 07 96 7c bb 1a c1 1f 3e 4c 83 59 bb
       0.14136562 -0.0038541572 0.15601006 -0.0033189831
000010 5b db 3a 3e 1b 73 10 3a b5 39 4d bb a1 8e 8b 3e
       0.1824774 0.0005510316 -0.0031314914 0.27257255
000020 66 b9 3d bb 93 d5 28 bc a2 66 43 3c 9b 6d 8b 3e
       -0.0028949617 -0.010304826 0.011926325 0.2723206
000030 12 d0 db 3d 42 88 2c bb af 62 89 bc 12 98 98 3e
       0.10733046 -0.0026326333 -0.016770689 0.2980352
000040 92 62 28 3e 00 59 93 bb f3 36 a2 ba d2 e3 9e 3e
       0.16443852 -0.0044966936 -0.0012375995 0.31033188
000050 7f 1b 0c 3e 89 5a 9a 3e 64 d7 8f 3a 3e 01 a4 3e
       0.13682364 0.30147198 0.0010974226 0.32032198
000060 6f 07 cf b9 93 b4 8a 3e fd 28 32 ba d0 c0 a1 39
       -0.00039487655 0.27090892 -0.0006796269 0.0003085197
000070 66 1b e5 ba 48 6e 21 3c cf d7 ae bb 6a 2c 15 ba
       -0.0017479479 0.009852953 -0.005335785 -0.0005690517
000080 93 6a 7e 3e 79 ad e3 3a 80 c9 cc 3b 31 c8 55 3e
       0.24845342 0.0017370424 0.0062496066 0.20877148
000090 c8 39 fe bc fb 58 15 3e 38 52 29 3e 79 ee 88 bb
       -0.031033412 0.14584725 0.1653527 -0.004178819
0000a0 6c 37 e2 39 86 38 0e 3e 66 76 4b 3e 4e 12 26 3e
       0.00043147372 0.1388875 0.19869384 0.1621792
0000b0 05 41 19 bb 15 76 10 39 29 96 29 3b 4c 62 8a 3e
       -0.0023384702 0.00013776899 0.0025876856 0.2702812
0000c0 53 41 d6 ba 78 1b ed 3d 14 45 6e 3e 27 65 2b ba
       -0.0016346372 0.11577505 0.23268539 -0.0006538205
0000d0 f9 77 91 3e c3 59 07 3e e7 41 00 3e 9e a9 47 bd
       0.28411844 0.13217835 0.1252514 -0.048745744
0000e0 b5 b2 26 bb 5f 39 1e 3e 14 1a fb 3d de be 0f 3e
       -0.0025436108 0.15451573 0.122608334 0.14037654
0000f0 a6 ca f5 bb dc 81 6d ba 75 c5 d2 ba 7a 37 7f 3e
       -0.007500964 -0.0009060183 -0.0016080575 0.24923506
000100 b2 e0 79 ba 35 37 bb ba 17 78 8d 3e 04 32 27 3e
       -0.00095320784 -0.0014283421 0.27630684 0.16327673
000110 e6 07 18 bc e6 3c 46 bb 31 c0 e8 3d 87 69 5d 3e
       -0.009279227 -0.00302487 0.113647826 0.21622287
000120 99 2c e7 3a f8 49 81 ba 4d be 2f 3e e0 3c 2e 3d
       0.0017637193 -0.0009863963 0.17162438 0.042538524
000130 28 bd 2d bc e0 43 b3 ba f8 22 38 3e ea 53 a7 3e
       -0.01060418 -0.0013676845 0.1798209 0.3268121
000140 fd cf 86 3e e7 59 db 3d c8 49 9f 3e f4 0a 8d bc
       0.26330557 0.10710507 0.31110978 -0.017217137
000150 bc 62 4c bb 0b cf 26 3e ea 8a 27 bb 31 63 f5 b9
       -0.003118678 0.16289918 -0.0025564977 -0.00046803945
000160 89 3a af 3a 16 1c 0c 3a ac 7d 94 3e 7a 5b 28 3b
       0.0013368885 0.00053447613 0.2900213 0.002568929
000170 1a 31 ae 3d d3 06 86 ba e8 5d 60 39 cd af e5 3d
       0.08505459 -0.0010225422 0.00021397287 0.11215172
000180 56 97 39 bb 31 15 9c 3a 90 3c 55 bb 8a fa 26 3b
       -0.0028318963 0.0011908171 -0.0032537319 0.0025478923
000190 d9 e8 f9 3d 3e 15 56 3e af 9c 5e 3e 5b 97 0c 3e
       0.12202615 0.20906541 0.21739458 0.13729613
0001a0 3b 04 04 bc 14 c8 78 3b 3b a8 f6 3d 26 b6 ce 3d
       -0.008057649 0.0037961053 0.12043806 0.10093336
0001b0 7e 28 32 3e fd 62 10 b9 7d b5 5f 3e fa 29 26 bb
       0.17398259 -0.00013769786 0.21846576 -0.002535461
0001c0 67 0e 4b bc d8 a6 55 3e 5f 6f f2 bb e6 5a a9 bc
       -0.0123935705 0.20864427 -0.0073985304 -0.020673227
0001d0 b8 cf 1d 3e 51 79 70 3e ff 68 f6 3d 6a dc 16 3d
       0.1541127 0.23483779 0.12031745 0.036831297
0001e0 12 79 6b b8 c9 01 3e ba 71 ba 1d bb 02 7f a2 ba
       -5.614112e-05 -0.0007248191 -0.0024067427 -0.001239747
0001f0 78 d5 16 3e eb ea 28 bc 5d d0 8b 3e 01 50 93 3d
       0.1472987 -0.010309915 0.27307406 0.07192994

layer3.weight f4 [2, 128]
000000 33 0e 0b 3e 09 fa c6 bd ad 79 cb 3e 54 d2 00 39
       0.13579635 -0.09715659 0.3974127 0.00012285385
000010 9b d7 45 3e 81 bc e3 bc 18 e3 ff 3a e1 72 96 3e
       0.19320528 -0.027799847 0.0019522635 0.2938452
000020 a6 04 05 39 50 0d ac bd 8e 0e f7 3d a0 46 ee 3e
       0.000126856 -0.08400977 0.12063323 0.46538258
000030 bb 70 fc 3d 9f 0b 24 bb 8c c4 d3 be 96 4f cf 3e
       0.12326189 -0.002503134 -0.4136089 0.40490407
000040 7d 83 24 3e c1 cb c9 bb 87 9a d6 ba 31 35 5d 3e
       0.16065784 -0.0061583226 -0.0016372957 0.21602322
000050 59 68 a4 3e b4 a5 82 3e 3a 8b 89 be 33 62 ab 3e
       0.3211086 0.25517046 -0.26864034 0.33473358
000060 34 58 02 bb 1e da 19 3e 8a ae 36 bb 10 76 9b 3a
       -0.0019889 0.15024611 -0.002787503 0.0011860747
000070 50 d7 85 bd 84 7e 0b bf 34 71 86 bd a1 0e 63 ba
       -0.06535208 -0.5448992 -0.065645605 -0.00086615427
000080 ff f5 87 3e 3d 0b 9f 3a 31 65 31 bf 4c 30 98 3e
       0.26554868 0.0012134087 -0.6929503 0.29724348
000090 bc 03 0f be 74 38 20 3e 1d 42 1d 3e 52 de 69 bb
       -0.13966268 0.15646535 0.15357251 -0.0035685492
0000a0 2e 3c 14 bb 17 90 0a 3e 06 f1 1b 3e 9a 38 31 3e
       -0.0022618878 0.13531528 0.15228662 0.17306748
0000b0 75 63 88 b9 56 4b 01 be 6d 63 9e ba 03 b8 c3 3e
       -0.00026014043 -0.12626395 -0.0012084075 0.38226327
0000c0 dd 9e 03 3a 7d d6 07 3e 13 68 56 3e 8f 16 04 3b
       0.0005020926 0.13265415 0.20938139 0.0020155048
0000d0 5d eb 0b 3f 5d 08 d4 3d b1 ee 09 3e 80 95 89 be
       0.5465601 0.10353158 0.1346996 -0.26871872
0000e0 e6 f1 20 bb c2 1e 16 3e d5 45 e3 3d c2 1f 2e 3e
       -0.0024558245 0.1466017 0.11097304 0.17004302
0000f0 8b 14 3e 3c a4 3a b7 ba 6c d0 80 b9 9c 17 cc 3e
       0.0116015775 -0.0013979268 -0.0002456935 0.39861763
000100 e7 19 9a 3a 72 27 01 bb c2 2a 85 3e cb c1 d4 3d
       0.0011756987 -0.001970735 0.26009184 0.103885256
000110 00 4e 03 be b8 98 c8 b9 a3 5e 93 3d 3e 1d a4 3e
       -0.12822723 -0.00038260757 0.07195785 0.3205356
000120 f3 dc c9 39 6e 64 a7 b9 be a3 c5 3d e8 ba 3e 3d
       0.00038502328 -0.00031927548 0.09650372 0.046564966
000130 8d 5f 2f be f2 ab ee 3a 50 6f 6f 3e 3b e1 f6 3e
       -0.17126293 0.0018209203 0.23382306 0.48218712
000140 06 dc ba 3e 88 80 66 3d c5 26 e8 3e b2 15 36 be
       0.3649599 0.05627492 0.4534208 -0.17781714
000150 83 30 ba 3a cd f5 0a 3e 56 2b e7 bc 12 51 de ba
       0.0014205131 0.13570328 -0.028218906 -0.0016961417
000160 e0 0b 70 ba 84 a6 01 bb 06 d3 d9 3e 08 b7 d3 3a
       -0.0009157043 -0.001978309 0.4254381 0.001615257
000170 e0 6b 52 3d 01 42 49 ba 68 ae d5 ba e6 8c e1 3d
       0.05137241 -0.0007677377 -0.0016302587 0.11013202
000180 29 87 ef b9 4b 56 0b ba d5 32 05 b8 c3 d8 1b bb
       -0.00045686334 -0.0005315288 -3.1757012e-05 -0.0023780323
000190 5c 98 1a 3e db 0a 77 3e 98 28 44 3e be dd cd 3d
       0.15097183 0.24125235 0.1915611 0.100520596
0001a0 0e 9d f2 bc f7 a3 c4 be 2e fc 5f 3d 34 b1 52 3d
       -0.029615905 -0.38406345 0.054683857 0.051438525
0001b0 c2 ea 40 3e e9 d9 ab 3b a7 e4 6d 3e ff 8b 4a bd
       0.18839553 0.005244483 0.23231755 -0.049449917
0001c0 ce db b3 bd 54 c6 f2 3e a0 41 9d bd e1 f6 3a be
       -0.08782159 0.47416937 -0.076785326 -0.1825824
0001d0 f7 21 e1 3d 66 ba 1b 3f d9 76 05 3e 6c 46 92 3d
       0.109928064 0.60831296 0.13033618 0.07142338
0001e0 2f f5 db 3a 31 2d 69 ba 9e 5f 70 ba 2c e1 fe ba
       0.0016781444 -0.00088949787 -0.00091695215 -0.0019445769
0001f0 0b fa cb 3d 2c 52 ed bd 36 af dc 3e 85 4b 89 3d
       0.09959801 -0.11587939 0.43102425 0.06703857
000200 bd 19 11 3e e2 64 84 bd 42 e4 ce 3e ef 40 2b ba
       0.14169975 -0.06464554 0.40408522 -0.0006532808
000210 b9 72 55 3e 94 38 86 bb e4 30 66 ba 17 f9 97 3e
       0.20844544 -0.0040961 -0.0008781089 0.29682228
000220 e3 8e e9 38 e8 5d 90 bd c8 fe 9d bd 20 86 ed 3e
       0.000111369205 -0.07049161 -0.07714611 0.46391392
000230 bb 3a fd 3d 0b f5 2a 3b 8e d9 b2 be 13 cc d1 3e
       0.123647176 0.0026085998 -0.34931606 0.4097601
000240 fb 1b 27 3e 15 30 c1 3b ca da e7 ba 9d 54 67 3e
       0.16319267 0.0058956244 -0.0017689106 0.22590871
000250 1a 7a 9c 3e 8d c1 9c 3e 51 d0 82 be 6b 16 b1 3e
       0.30561906 0.30616418 -0.25549558 0.34587416
000260 fa 15 fe ba 86 9c 5e 3e 81 5b 06 3b 31 76 f6 ba
       -0.0019385212 0.21739396 0.0020501318 -0.0018803534
000270 af b7 06 be 0f b9 ba be fc de 6f bd 24 5c 47 36
       -0.13156007 -0.36469314 -0.058562264 2.9706944e-06
000280 b2 cc a0 3e e4 a0 be ba 6a 64 09 bf 2d 06 93 3e
       0.3140617 -0.0014543799 -0.53668845 0.2871565
000290 76 22 1e be c9 7d 2a 3e ec eb 24 3e 99 bd 29 bd
       -0.15442833 0.16649546 0.16105622 -0.04144058
0002a0 98 88 0c 3b 98 db 12 3e 91 38 25 3e 81 33 43 3e
       0.002144372 0.14341581 0.1613486 0.19062616
0002b0 14 a0 35 ba fa 49 f1 3d a7 8b 3a 3b 0a 81 0d 3f
       -0.00069284556 0.11781688 0.0028464587 0.55275023
0002c0 05 be b7 ba e2 2c 0e 3e bb 4e 65 3e ce 66 0f bb
       -0.0014018422 0.13884309 0.22393315 -0.0021881345
0002d0 7f a6 d9 3e f6 c1 e6 3d c3 04 08 3e e2 a3 83 be
       0.4250984 0.11267464 0.13283066 -0.2571097
0002e0 44 f4 18 ba e8 5e 14 3e df f7 f4 3d e6 6e 33 3e
       -0.0005834738 0.14489329 0.1196134 0.17522773
0002f0 cf 1a 10 bc 74 de d9 39 9f 06 81 ba 8e f2 cf 3e
       -0.008795454 0.00041555206 -0.0009843892 0.40614742
000300 d9 52 1a bb b8 25 85 ba 9c f3 ae 3e 4a 5c f2 3d
       -0.0023547916 -0.0010158336 0.34170234 0.11834009
000310 2f 3b 0b be ec ca 19 ba ef 9a 9b 3d f6 3b a4 3e
       -0.13596795 -0.00058667245 0.075979106 0.32076997
000320 eb 6a dc 3a 88 48 24 bb ed e8 f8 3d cc f3 bf 3c
       0.0016816532 -0.0025067646 0.12153802 0.023431681
000330 45 fe 0e be 0e 09 18 3b 69 f8 83 3e 92 32 db 3e
       -0.13964184 0.0023198756 0.2577546 0.4281202
000340 c5 8e be 3e 41 49 85 3d 95 f2 01 3f 4d f6 9e be
       0.372183 0.06508113 0.50760776 -0.31047288
000350 cf 99 96 3a 77 26 16 3e cf 9a 0d bd b4 bc a7 39
       0.001148993 0.1466311 -0.034571465 0.00031993317
000360 63 92 3b bb c8 84 10 bb 7c 0f db 3e c3 27 03 3b
       -0.0028621189 -0.00220518 0.4278525 0.0020012714
000370 3c 8f 76 3d 38 7d 8f 3a c0 ac ec ba 3b 16 e2 3d
       0.060195193 0.0010947352 -0.0018056855 0.110393964
000380 cb 5b f5 ba ef 83 07 bb df 87 24 ba 8c 81 35 ba
       -0.0018719373 -0.0020678004 -0.000627635 -0.0006923906
000390 5f 05 1a 3e 02 c9 79 3e cb 60 4a 3e f8 f4 08 3e
       0.15041111 0.24393085 0.19763486 0.13374698
0003a0 51 8a 70 3b b6 ce 15 bf 33 0c 93 3d 1e 8e 80 3d
       0.0036703537 -0.5851854 0.07180061 0.06277107
0003b0 b5 ea 6d 3e 4f 21 ea 3c 5f 3c 8c 3e 76 8e c6 bd
       0.23234065 0.028580336 0.2738981 -0.09695141
0003c0 6d 63 15 be ea 56 bd 3e 5b 39 8f bd 46 60 4c be
       -0.14588709 0.36980373 -0.069933616 -0.199586
0003d0 ea ed c1 3d d7 91 a7 3e 15 20 06 3e 2e 45 c3 3c
       0.09469207 0.32728454 0.13098176 0.023836698
0003e0 44 5a d6 ba d2 0b 50 b9 d8 3c 8a ba cb d1 13 3a
       -0.0016353806 -0.00019840829 -0.0010546697 0.00056388666
0003f0 7b f8 ed 3d 14 db d0 bd e0 2a d5 3e ea 96 39 3d
       0.116196595 -0.10198036 0.41634274 0.04530994

layer3.bias f4 [2]
000000 54 87 19 3d ce f9 3f 3d
       0.037482575 0.04686909
