cartpole_v1_best_model_DSP_Random.pth (torch, 73164 bytes, 6 tensors)

layer1.weight f4 [128, 5]
-0.009450434 0.015811391 -0.13882141 -0.08734826 0.022924058 0.016182167 -0.030538494 -0.06302145
-0.052127756 0.021842243 0.02196372 -0.019777503 0.027165936 -0.009717458 -0.026951233 -0.0057900525
0.0072950097 -0.085584894 -0.060825102 0.01197537 -0.014711975 -0.0032251664 0.041620348 0.02286043
-0.013180482 -0.013127716 -0.016982876 0.023388661 0.0042998525 0.020883359 -0.015605454 -0.009228077
0.5233902 0.27610302 0.014359591 0.0031404868 -0.006255064 -0.03986443 0.0083146505 0.017343225
0.009295061 0.005078919 -0.049564373 0.0060846303 0.018539397 -0.012718917 -0.015601232 0.019651944
0.005666223 0.02070021 -0.019466316 -0.012185275 -0.13170238 -0.102974184 0.01267916 -0.017791862
-0.0051750103 -0.06304785 -0.0035090274 0.012192987 0.020634059 -0.021009067 0.008765028 0.05364584
0.02989008 -0.025105031 0.013673202 -0.091476366 -0.02203551 0.0054886127 0.04949733 0.019381413
1.6958153 0.5701454 0.0076014684 0.0067478176 -0.021075083 -0.2405314 -0.08953073 0.011825417
0.0152544 -0.022109352 0.101704314 0.06263249 0.018080717 -0.018846042 -0.008950208 -0.057242237
-0.039089575 -0.0058456063 -0.0097669065 0.0059909816 0.062348925 0.032622125 0.00012980305 -0.031705953
0.017698651 -0.0702195 0.0043052994 0.018926386 0.081212394 0.08938105 0.49020213 0.29870054
0.0014793234 -0.009990968 4.562004e-06 0.04693168 0.038220305 0.028452314 0.0026264756 -0.005338922
0.047572207 0.021096256 0.033552658 0.01848995 -0.02417824 -0.06626193 -0.050285976 0.013781969
-0.023712892 -0.0077404915 -1.0964068 -0.33728498 0.002779019 0.0007545285 0.002613961 -0.098229334
-0.064505465 0.0017655407 -0.018555185 0.004377845 -0.013751929 0.017220573 0.023630513 -0.015616095
-0.0085677635 0.87869424 0.25320226 0.0032714515 -0.030839277 -0.016550105 -1.2583313 -0.19357276
0.001527854 0.0089390315 0.0025476394 -0.08683029 -0.0387764 0.00796688 -0.027244572 -0.01474986
-1.1899047 -0.253162 -0.00065847166 0.013472152 0.0027801876 -0.054683793 -0.0967395 0.0036339022
-0.04030493 -0.034776244 -0.25394526 -0.08732689 0.023306768 -0.0234794 0.008454455 -0.025089743
0.010100023 -0.020203132 -0.0020047035 -0.00907088 0.008607732 0.0028613252 0.027124103 -0.009903281
-0.012870899 -0.12219442 -0.04409852 0.013617011 -0.018749446 0.018530302 -0.14040364 -0.078187235
0.024141869 -0.03206598 -0.010922053 -0.067497335 -0.035656996 0.0013704493 0.008498851 -0.004890427
-0.014879433 -0.021528723 0.026823172 0.012873143 0.029113157 1.6304305 0.9396217 -0.056355048
0.010583046 -0.017231174 -0.07104882 -0.021085711 0.017521089 -0.018859105 0.010459216 0.091646366
0.04436837 0.021188362 0.0040916298 0.0047789435 0.009114177 -0.019595204 0.021838281 0.010061008
0.008099588 -0.18470813 -0.06294667 0.009506431 0.004085121 0.02228142 0.13286659 0.091250464
0.030809844 -0.035940234 -0.052042186 0.21899258 0.08903208 0.014907798 -0.002968475 0.002941574
-0.17878242 -0.07963937 0.0107716005 -0.020246753 0.009959605 -0.07888408 -0.039587915 0.01799953
-0.017529907 -0.010866393 -0.13494574 -0.07623624 7.741568e-05 0.0220815 -0.01905337 -0.04329166
-0.025111893 0.0032408047 -0.004456635 -0.011104684 0.054397203 0.0023017165 0.022001915 0.013504695
00000000: fed5 1abc e486 813c 3327 0ebe a5e3 b2bd
00000010: 3ccb bb3c 7790 843c dd2b fabc 6411 81bd
00000020: ea83 55bd 81ee b23c 42ed b33c 6e04 a2bc
00000030: 198b de3c f935 1fbc d5c8 dcbc 7bba bdbb
00000040: fa0a ef3b 2247 afbd be23 79bd 5834 443c
00000050: 7f0a 71bc 505d 53bb 197a 2a3d cc45 bb3c
00000060: f3f2 57bc a215 57bc ac1f 8bbc 9499 bf3c
00000070: c7e5 8c3b 9413 ab3c 05ae 7fbc 5c31 17bc
00000080: e6fc 053f 605d 8d3e 7d44 6b3c a0d0 4d3b
00000090: 48f7 ccbb e248 23bd 2c3a 083c 6113 8e3c
000000a0: 504a 183c 106d a63b 0304 4bbd 9461 c73b
000000b0: efdf 973c 0163 50bc 4f9c 7fbc 1dfd a03c
000000c0: b9ab b93b 7d93 a93c d377 9fbc bfa4 47bc
000000d0: fddc 06be 21e4 d2bd 40bc 4f3c 3dc0 91bc
000000e0: 2293 a9bb 3b1f 81bd b6f7 65bb 18c5 473c
000000f0: c208 a93c 351b acbc 319b 0f3c bebb 5b3d
00000100: 0bdc f43c 11a9 cdbc 9105 603c f657 bbbd
00000110: d083 b4bc d2d9 b33b b6bd 4a3d c5c5 9e3c
00000120: 7a10 d93f 0df5 113f bd15 f93b cc1c dd3b
00000130: a7a5 acbc dd4d 76be e35b b7bd 65bf 413c
00000140: 97ed 793c ac1e b5bc 5a4a d03d 7745 803d
00000150: 031e 943c 0463 9abc e5a3 12bc d676 6abd
00000160: 641c 20bd 808c bfbb 6005 20bc ff4f c43b
00000170: 9661 7f3d c79e 053d be1b 0839 1ade 01bd
00000180: c3fc 903c 3ecf 8fbd 7813 8d3b 820b 9b3c
00000190: af52 a63d 690d b73d c6fb fa3e 47ef 983e
000001a0: dbe5 c13a 28b1 23bc 5113 9936 6f3b 403d
000001b0: e58c 1c3d d414 e93c f320 2c3b 20f2 aebb
000001c0: 13db 423d 0ed2 ac3c 836e 093d 3c78 973c
000001d0: 7211 c6bc 56b4 87bd abf8 4dbd c5cd 613c
000001e0: 8a41 c2bc f3a3 fdbb 0f57 8cbf 9eb0 acbe
000001f0: 3420 363b 8dcb 453a fd4e 2b3b 762c c9bd
00000200: 711b 84bd b769 e73a 0b01 98bc 0774 8f3b
00000210: c54f 61bc 2912 8d3c c794 c13c a6da 7fbc
00000220: ce5f 0cbc 1bf2 603f baa3 813e d965 563b
00000230: a7a2 fcbc 1694 87bc 0011 a1bf f037 46be
00000240: 4642 c83a 0475 123c 4cf6 263b 14d4 b1bd
00000250: 01d4 1ebd 8487 023c 0230 dfbc 66a9 71bc
00000260: cc4e 98bf 739e 81be 499d 2cba 4dba 5c3c
00000270: cf33 363b 1dfc 5fbd 5c1f c6bd c326 6e3b
00000280: c816 25bd 8971 0ebd 1d05 82be 71d8 b2bd
00000290: d6ed be3c df57 c0bc 8e84 0a3c 0189 cdbc
000002a0: 917a 253c 0a81 a5bc 5861 03bb 079e 14bc
000002b0: 7207 0d3c 1285 3b3b 5e33 de3c 5f41 22bc
000002c0: 77e0 52bc 1141 fabd a6a0 34bd e219 5f3c
000002d0: 7098 99bc dccc 973c f9c5 0fbe a120 a0bd
000002e0: 2bc5 c53c 9e57 03bd 69f2 32bc 0b3c 8abd
000002f0: 120d 12bd a6a0 b33a c43e 0b3c e03f a0bb
00000300: dec8 73bc 015d b0bc 45bc db3c e0e9 523c
00000310: b77e ee3c f2b1 d03f 0c8b 703f 8dd4 66bd
00000320: 8364 2d3c 6428 8dbc 0b82 91bd f1bb acbc
00000330: 6388 8f3c 697e 9abc 225d 2b3c 17b1 bb3d
00000340: 9cbb 353d 3793 ad3c 1413 863b af98 9c3b
00000350: a153 153c 1f86 a0bc 32e6 b23c edd6 243c
00000360: 22b4 043c 2124 3dbe 2fea 80bd ddc0 1b3c
00000370: 7bdc 853b 8687 b63c 2e0e 083e 86e1 ba3d
00000380: ed64 fc3c 1136 13bd 302a 55bd 973f 603e
00000390: 7356 b63d d63f 743c bf8a 42bb 6cc7 403b
000003a0: bd12 37be f719 a3bd 5e7b 303c 85dc a5bc
000003b0: 9c2d 233c fa8d a1bd f026 22bd c073 933c
000003c0: e19a 8fbc f508 32bc 372f 0abe bf21 9cbd
000003d0: 3a5a a238 43e4 b43c d015 9cbc 9852 31bd
000003e0: 75b7 cdbc ae63 543b f708 92bb 6cf0 35bc
000003f0: 9acf 5e3d 65d8 163b 5c3d b43c cc42 5d3c

layer1.bias f4 [128]
0.61239296 0.13784839 -0.0041561695 0.5943643 -0.015393288 -0.062556975 -0.07328313 0.13153534
0.56180125 0.13403039 0.58005637 0.13658606 0.12271189 0.14658716 -0.14589685 0.18481392
-0.06987249 0.37947053 0.1624099 0.13068305 0.135492 -0.06433308 0.114338 0.13644862
-0.035069194 0.5587225 0.12046171 -0.100553334 -0.13493371 0.34762427 0.016936356 0.58067006
0.6298808 -0.028119536 0.11481583 0.5731219 0.15351386 0.198822 0.12954907 0.6323276
0.13839471 -0.05426726 0.12229528 0.14362106 0.13801761 -0.052944344 0.566722 0.15261629
0.16457483 0.14860925 0.10672464 -0.052833445 -0.04630991 0.12172974 -0.022803146 0.12680861
0.17020167 0.140228 0.09528767 0.58900315 0.29555517 0.1445073 -0.02231903 0.1392172
-0.043586817 -0.06287571 -0.14627616 0.13297012 0.123859584 -0.13924566 -0.006323462 -0.047056563
-0.063588314 -0.09125497 0.2136362 -0.1426311 -0.009832468 0.13852741 0.16308086 0.6602377
-0.02503802 -0.007497977 0.1905936 0.31378806 0.3876101 -0.030523024 0.592939 -0.07293008
-0.12556246 0.13954416 0.15669452 -0.09373505 0.14308047 0.19144315 0.48714846 -0.058574297
-0.061988246 -0.035436217 -0.016838716 -0.02457226 -0.10326229 -0.03267444 -0.10711941 0.26241297
-0.06761884 -0.06286585 -0.10070586 -0.04485778 0.12724303 -0.0647767 0.14095245 0.12466987
0.21976444 -0.033366323 -0.05818745 -0.09439594 0.15419826 -0.12395253 -0.006870662 -0.013436597
-0.05364323 0.5939914 -0.063291624 0.5052379 0.19814342 0.25843593 0.5668129 0.1384716
00000000: c9c5 1c3f 2128 0d3e 7a30 88bb 4228 183f
00000010: 2134 7cbc df1d 80bd 7715 96bd 33b1 063e
00000020: 35d2 0f3f 433f 093e 937e 143f 37dd 0b3e
00000030: 5f50 fb3d f21a 163e fc65 15be dc3f 3d3e
00000040: 4f19 8fbd f649 c23e c84e 263e c7d1 053e
00000050: 6abe 0a3e 10c1 83bd 0b2a ea3d 30b9 0b3e
00000060: b7a4 0fbd 7008 0f3f a1b4 f63d e8ee cdbd
00000070: 102c 0abe cffb b13e 1dbe 8a3c cba6 143f
00000080: de3f 213f f15a e6bc 9024 eb3d 1eb8 123f
00000090: bd32 1d3e ff97 4b3e 83a8 043e 39e0 213f
000000a0: 58b7 0d3e 5947 5ebd f375 fa3d 6611 133e
000000b0: 7d54 0d3e 2bdc 58bd b114 113f 7247 1c3e
000000c0: 4e86 283e 062d 183e 7392 da3d e267 58bd
000000d0: 76af 3dbd 714d f93d aacd babc 1eda 013e
000000e0: 5949 2e3e ee97 0f3e 2f26 c33d e9c8 163f
000000f0: 0253 973e b9f9 133e 66d6 b6bc f48e 0e3e
00000100: 1788 32bd fbc4 80bd 6bc9 15be 5229 083e
00000110: 18aa fd3d 6a96 0ebe 0b35 cfbb 62be 40bd
00000120: 973a 82bd e3e3 babd 73c3 5a3e e30d 12be
00000130: 5c18 21bc 21da 0d3e abfe 263e 5705 293f
00000140: 891c cdbc 97b1 f5bb f82a 433e d4a8 a03e
00000150: d574 c63e 6c0b fabc daca 173f 5e5c 95bd
00000160: 7293 00be aae4 0e3e 8774 203e 29f8 bfbd
00000170: b083 123e ac09 443e 866b f93e 9aeb 6fbd
00000180: 63e7 7dbd 9125 11bd 59f1 89bc c44b c9bc
00000190: 2e7b d3bd a2d5 05bd 6c61 dbbd fe5a 863e
000001a0: bf7b 8abd d0bf 80bd e03e cebd cbbc 37bd
000001b0: ff4b 023e a6a9 84bd d755 103e eb52 ff3d
000001c0: ee09 613e 20ab 08bd f755 6ebd a952 c1bd
000001d0: 26e6 1d3e d3da fdbd 4a23 e1bb 2c25 5cbc
000001e0: 01b9 5bbd d20f 183f 0a9f 81bd 4557 013f
000001f0: 1ce6 4a3e b751 843e a61a 113f 80cb 0d3e

layer2.weight f4 [128, 128]
0.049266867 0.03625868 0.0007094799 0.0080505 0.001750354 0.06963611 0.108413294 0.03940056
0.04377136 0.04766999 -0.0033422294 0.0382756 0.058087062 0.026818447 2.0579665 0.01933089
0.06409113 -0.24238938 0.020621175 0.060877018 0.39172617 0.0752611 0.059113048 0.02606796
1.4868363 -0.053674612 0.056144945 1.4933124 1.2953688 0.010337917 1.4495165 -0.027964436
-0.0053476295 -0.0042308937 0.059505865 -0.002430354 0.06502579 -0.0052383323 0.05527646 -0.20999327
0.04078291 0.08951223 0.05217087 0.035582602 0.071400166 0.09605091 0.0025229799 0.05541052
-0.06660006 -0.027695877 0.053579044 0.9641226 0.10303182 0.05791497 0.0014710431 0.05074659
0.009228054 0.038576342 0.028825827 0.029635943 -0.09404113 -0.019945666 -0.0018235382 -0.0070453025
0.87257546 0.20706297 1.2794833 0.05298529 0.04068678 0.66772294 3.500745e-05 0.18028632
0.08042131 2.0514357 -0.08188007 1.8744249 -0.0051137647 0.046039294 -0.05990409 -0.28929436
0.15539956 0.0020302143 -0.06520991 -0.6717534 -0.27847028 0.24957424 -0.03326637 0.73938745
1.3266716 0.03603759 -0.069207676 0.8000287 0.055222053 -0.03961946 -0.041805856 0.07304781
0.08672255 0.10249944 -0.004255881 -0.0017654186 0.32228905 0.09344575 0.7564821 -0.008279333
1.5004948 0.07250173 0.58693546 1.7444197 0.011293579 0.07779528 0.047607575 0.018757114
-0.025753256 0.2255045 0.47792104 1.5961215 0.016874693 0.888368 0.00196415 -0.0031955726
0.101481155 -0.0424198 0.088918254 0.038579468 -0.05344345 0.010826262 -0.09629722 0.051690135
0.33559865 0.023413092 -0.00014400789 0.45354268 -0.004160219 -0.009759945 0.0004381909 0.02622125
0.3483943 0.01892463 0.45574805 0.029218024 0.012373982 0.037896845 -0.44559103 0.018643519
-0.019229848 0.31045404 0.15469094 0.021266429 0.0061842166 -0.010499763 0.010775431 0.029121881
-0.22721784 0.6420435 0.021258345 -0.2506474 -0.032464765 0.2818423 -0.21105094 0.5988786
0.34927747 -0.0053374376 0.016247094 0.43819937 0.009332917 0.08008833 0.0154131055 0.4543539
0.025748504 -0.007468642 0.01863777 0.021804258 0.0128751155 -0.008387208 0.4587411 0.017136602
0.11449115 0.06434728 0.0147429975 -0.050651025 -0.006129849 0.0100764 -0.0065833107 0.017870147
0.14224264 0.024082957 0.019525427 0.34561574 0.23487939 0.045776125 0.0024582846 0.043585353
-0.04046904 -0.0146684935 -0.06519088 0.019785274 0.023098651 -0.32204425 0.0047277673 -0.025809254
-0.02269663 -0.30552897 0.1004376 -0.22887458 0.0010006119 0.016391037 0.16146587 0.8190833
-0.02324019 -0.0033280142 0.1243165 0.1988613 0.45763993 -0.0130507145 0.71667224 -0.035995632
-0.25911096 0.036066707 0.14012909 -0.10490122 0.016307747 0.20726615 0.5096673 -0.010969575
-0.0076338467 -0.005378403 -0.0041734306 0.00051613245 -0.1630088 -0.0039419094 -0.50494254 0.16797185
-0.2962352 -0.010234225 -0.06935957 -0.1877065 0.06394611 -0.020174632 0.015831731 0.041292008
0.29011258 -0.040114675 -0.11672765 -0.22351357 0.034816723 -0.24100707 -0.00019036334 0.013055461
-0.017099105 0.5523971 -0.010729031 0.2762111 0.14362127 0.10089557 0.69740796 0.015871448
00000000: 0ecc 493d fb83 143d 64fc 393a 3fe6 033c
00000010: 226c e53a 609d 8e3d ca07 de3d 7b62 213d
00000020: 9949 333d 9c41 433d 4e09 5bbb e0c6 1c3d
00000030: b3ec 6d3d 5cb2 db3c b9b5 0340 d15b 9e3c
00000040: 3642 833d ec34 78be bded a83c 2e5a 793d
00000050: 5590 c83e 7e22 9a3d 8620 723d 798c d53c
00000060: a750 be3f e9d9 5bbd 3ef8 653d dc24 bf3f
00000070: a5ce a53f 5e60 293c c289 b93f ac15 e5bc
00000080: 2b3b afbb 4fa3 8abb 6cbc 733d 9346 1fbb
00000090: 3e2c 853d 51a6 abbb 9269 623d 7a08 57be
000000a0: fb0b 273d 3052 b73d 1fb1 553d 10bf 113d
000000b0: 403a 923d 57b6 c43d 9458 253b 24f6 623d
000000c0: 9d65 88bd 77e2 e2bc b375 5b3d bdd0 763f
000000d0: 5902 d33d 3f38 6d3d 04d0 c03a a8db 4f3d
000000e0: 4431 173c 3a02 1e3d 2424 ec3c 14c7 f23c
000000f0: a398 c0bd 1865 a3bc ca03 efba 48dc e6bb
00000100: 1b61 5f3f 5108 543e 1cc6 a33f 1a07 593d
00000110: 2ea7 263d e4ef 2a3f f7d4 1238 fa9c 383e
00000120: eeb3 a43d b94a 0340 bdb0 a7bd 28ed ef3f
00000130: 5e91 a7bb b393 3c3d fe5d 75bd 641e 94be
00000140: 1021 1f3e 580d 053b c68c 85bd 08f8 2bbf
00000150: a893 8ebe 6490 7f3e 5142 08bd 7f48 3d3f
00000160: 60d0 a93f 279c 133d c1bc 8dbd aece 4c3f
00000170: 8530 623d 0448 22bd 9e3c 2bbd 179a 953d
00000180: 989b b13d 3aeb d13d eb74 8bbb 9e65 e7ba
00000190: 1203 a53e 7c60 bf3d d0a8 413f 0aa6 07bc
000001a0: 3710 c03f c97b 943d 6741 163f 2549 df3f
000001b0: b408 393c 2253 9f3d 2900 433d 85a8 993c
000001c0: 7ef8 d2bc a7ea 663e 11b2 f43e b64d cc3f
000001d0: cc3c 8a3c 166c 633f f8b8 003b d06c 51bb
000001e0: 5ad5 cf3d 62c0 2dbd c61a b63d 8105 1e3d
000001f0: 85e7 5abd a260 313c 7a37 c5bd 09b9 533d
00000200: 96d3 ab3e d0cc bf3c d300 17b9 bf36 e83e
00000210: 7252 88bb 2de8 1fbc fdbc e539 f2cd d63c
00000220: bd60 b23e d307 9b3c cf57 e93e a35a ef3c
00000230: 3ebc 4a3c b939 1b3d 8224 e4be 4bba 983c
00000240: ea87 9dbc d5f3 9e3e 4d67 1e3e ef36 ae3c
00000250: f8a4 ca3b 3307 2cbc 6f8b 303c 0391 ee3c
00000260: cbab 68be f65c 243f fb25 ae3c db54 80be
00000270: c6f9 04bd a24d 903e bd1d 58be 1c50 193f
00000280: 7fd4 b23e ace5 aebb a018 853c ab5b e03e
00000290: 17e9 183c 5a05 a43d 4087 7c3c 13a1 e83e
000002a0: 87ee d23c 83bb f4bb 3dae 983c d89e b23c
000002b0: 26f2 523c 806a 09bc 1de0 ea3e 0f62 8c3c
000002c0: 567a ea3d 82c8 833d 9d8c 713c 7377 4fbd
000002d0: e6dc c8bb 7c17 253c d0b8 d7bb 6a64 923c
000002e0: 0ea8 113e 9f49 c53c caf3 9f3c 8cf4 b03e
000002f0: 3984 703e bf7f 3b3d 2c1b 213b 8e86 323d
00000300: ddc2 25bd 1f54 70bc cc82 85bd ba14 a23c
00000310: 6239 bd3c fce2 a4be 63eb 9a3b ee6d d3bc
00000320: 48ee b9bc 4b6e 9cbe 3ab2 cd3d 195e 6abe
00000330: f726 833a 7f46 863c 4f57 253e 71af 513f
00000340: 3662 bebc d01a 5abb a699 fe3d 4ca2 4b3e
00000350: c84f ea3e aad2 55bc d577 373f 2870 13bd
00000360: 31aa 84be afba 133d 007e 0f3e 73d6 d6bd
00000370: d397 853c 943d 543e 8e79 023f bbb9 33bc
00000380: 5925 fabb 503d b0bb 46c1 88bb 104d 073a
00000390: c7eb 26be 222b 81bb ea43 01bf d000 2c3e
000003a0: 24ac 97be 73ad 27bc 640c 8ebd 2236 40be
000003b0: 2ef6 823d 4545 a5bc 8cb1 813c cf21 293d
000003c0: a389 943e 494f 24bd e80e efbd bee0 64be
000003d0: fb9b 0e3d 8fca 76be 459c 47b9 93e6 553c
000003e0: 6c13 8cbc e569 0d3f d1c8 2fbc 8b6b 8d3e
000003f0: 7411 133e 56a2 ce3d 5489 323f d704 823c

layer2.bias f4 [128]
-0.030509548 0.16520245 -0.020537311 0.15122885 -0.0038129056 -0.0049428707 -0.0059948256 -0.0041931514
-0.0043403804 -0.005824284 -0.005997184 0.17751785 -0.02385122 -0.011571343 0.17428415 0.004712591
0.17565934 -0.024315417 -0.0018155976 0.1786413 0.16262314 -0.0018311956 -0.021245848 0.0023296976
0.17709742 -0.016161148 -0.011344208 -0.0012497954 -0.01257367 0.53777176 0.0033740099 0.15349919
0.16668041 0.0021539666 0.004322747 0.0027914972 0.17274293 -0.02669597 0.47109532 0.18154636
0.0026633153 0.16424038 -0.01020548 0.1740784 0.17219028 -0.0044013457 0.17207545 -0.01578066
-0.0022963113 0.16008787 -0.005351998 0.16762622 0.17738551 -0.0002603071 0.45793673 0.0022584903
-0.019990273 0.17944461 -0.0025134883 0.17515197 -0.011211207 0.17398192 0.16739897 -0.0013545479
-0.0006795994 0.00039644574 0.16339037 -0.014593311 0.1607055 0.0026457207 -0.014053189 -0.0031729892
-0.014979746 0.1711918 0.18713562 -0.0055352664 0.16680115 -0.0048692455 0.17125629 0.18268403
0.16760716 0.16230832 0.17976353 -0.0017668278 0.17295909 0.0010162385 0.17142023 0.17683035
-0.012608618 0.16757971 0.17905082 -0.003289727 0.17417079 -0.0016074588 -0.019419597 -0.0041810917
0.0014566595 -0.012571372 -0.020586323 0.191502 0.16958803 0.015914094 0.16391107 0.0049504903
0.16875452 0.16432486 0.17319745 -0.0024208738 -0.009043054 0.17118923 -0.02124192 0.17347962
1.9094843e-05 -0.005781857 -0.01906529 -0.005154429 0.18408152 0.002300835 0.005444186 -0.0047993753
0.0045077363 0.16658098 0.1774603 0.17483862 -0.005366362 -0.017762963 0.16975841 0.00477863
00000000: 29ef f9bc d52a 293e dd3d a8bc bcdb 1a3e
00000010: f1e1 79bb cef7 a1bb 3e70 c4bb b466 89bb
00000020: c039 8ebb a3d9 bebb 0784 c4bb 3dc7 353e
00000030: a263 c3bc bb95 3dbc 8b77 323e 146c 9a3b
00000040: 0be0 333e 2031 c7bc 59f9 edba bfed 363e
00000050: ae86 263e ba04 f0ba c60b aebc d7ad 183b
00000060: 0759 353e 6264 84bc 0fdd 39bc 2dd0 a3ba
00000070: cb01 4ebc 69ab 093f 7e1e 5d3b e42e 1d3e
00000080: 45ae 2a3e 9029 0d3b d4a5 8d3b 8df1 363b
00000090: 86e3 303e 82b1 dabc 6833 f13e 4ae7 393e
000000a0: 048b 2e3b a12e 283e e334 27bc 9c41 323e
000000b0: a652 303e 2a39 90bb 8c34 303e 7146 81bc
000000c0: b67d 16bb 13ee 233e d05f afbb 35a6 2b3e
000000d0: 8ca4 353e d479 88b9 af76 ea3e 2e03 143b
000000e0: a4c2 a3bc 54c0 373e 56b9 24bb 0a5b 333e
000000f0: 36af 37bc 5128 323e a36a 2b3e 168b b1ba
00000100: 2527 32ba 0cda cf39 ce4f 273e c818 6fbc
00000110: fc8f 243e d463 2d3b 593f 66bc edf1 4fbb
00000120: 9c6d 75bc e74c 2f3e 7ba0 3f3e 2e61 b5bb
00000130: eccd 2a3e 318e 9fbb cf5d 2f3e 8611 3b3e
00000140: 36a1 2b3e 2734 263e ee13 383e e794 e7ba
00000150: 301c 313e 4e33 853a c988 2f3e 0413 353e
00000160: 6094 4ebc 049a 2b3e 1959 373e 7698 57bb
00000170: d459 323e 5eb1 d2ba d915 9fbc 8a01 89bb
00000180: 62ed be3a 28f8 4dbc a6a4 a8bc 1a19 443e
00000190: 7ca8 2d3e 465e 823c 4ed8 273e b937 a23b
000001a0: fccd 2c3e c744 283e ac5a 313e 86a7 1ebb
000001b0: 5129 14bc 3b4c 2f3e 8903 aebc a4a4 313e
000001c0: dd2d a037 bb75 bdbb d02e 9cbc 7ce6 a8bb
000001d0: de7f 3c3e 9bc9 163b 2465 b23b 1444 9dbb
000001e0: a2b5 933b 3494 2a3e 27b8 353e e508 333e
000001f0: 4fd8 afbb a283 91bc 26d5 2d3e 0e96 9c3b

layer3.weight f4 [2, 128]
-1.2793564 0.18849602 -0.26728427 0.16569547 -0.005483971 -0.0016965729 -0.0001099968 0.0017293681
-5.161129e-05 -0.003938609 -0.0031192242 0.17415759 -0.07507954 -0.5209805 0.19540109 0.002972162
0.21926723 -0.07313986 0.0039559705 0.20060594 0.16737029 0.00072655163 -0.09798614 -0.0032220175
0.19917132 -0.14021729 -0.06500322 -0.0020214505 -0.30052462 0.7880077 0.002677852 0.17270373
0.16615829 -0.0017991537 -0.0019599623 -0.0003621488 0.20419694 -0.07145334 1.1355273 0.24516992
-0.0016143783 0.18622038 -0.117038205 0.19345938 0.20194472 -0.0030429838 0.18399292 -0.088
-0.0026325092 0.19031806 -0.0026852118 0.202236 0.21946171 -0.0027164377 0.4528148 0.0021191342
-0.09107041 0.18587786 -0.0050638225 0.20239496 -0.10392695 0.17536323 0.17967488 0.0046302713
-0.0032898532 -0.0037679598 0.17871143 -0.12101456 0.1854414 -0.0017864866 -0.09624908 -0.000674373
-0.17871663 0.19865474 0.17427446 0.004032297 0.1770968 -0.0027245907 0.21279682 0.21167114
0.16290608 0.16204005 0.18065907 0.0028981185 0.19735861 0.0030314703 0.18446417 0.23806532
-0.09589764 0.18698439 0.18555853 0.0041847797 0.19164461 -0.004678928 -0.07275054 -0.0038260345
-0.005588986 -0.09366669 -0.09012235 0.21599656 0.18703298 0.040517133 0.2035179 -1.3883367
0.18042742 0.17279603 0.18045723 -0.0009874246 -0.127068 0.19794293 -0.06389128 0.19471875
0.0015467778 0.0013427428 -0.08656963 -0.0013468068 0.21155936 0.0033258619 0.0030659921 0.0049197758
-0.0042801034 0.18650508 0.20977348 0.1809624 -0.0016978865 -0.0843857 0.1878885 -0.0020269984
-1.2742181 0.17912082 -0.31932724 0.16402236 -0.001618509 -0.0035797977 -0.0027148172 -0.0013156735
-0.002262894 -0.004470071 -0.0004675958 0.18032151 -0.07524303 -0.48745897 0.19588266 -0.0028672796
0.22125454 -0.07018164 -0.0028002854 0.20780654 0.17489555 -0.004634428 -0.09139932 -0.0010374461
0.20330271 -0.12078386 -0.13956225 -0.0051737656 -0.6928865 0.68802345 -0.0061588576 0.1672209
0.15792082 -0.004845074 -0.0019169997 -0.0008502199 0.20392086 -0.07350029 0.89366126 0.22429843
-0.0012753649 0.17993537 -0.13460413 0.20420928 0.19456868 0.0015585003 0.19223411 -0.088620014
0.003593475 0.19544402 0.001190961 0.2061938 0.22308107 -0.0015095858 0.9633203 -0.004591702
-0.10072814 0.19237599 -0.0023616075 0.19087322 -0.121005885 0.16862975 0.17341106 -8.479848e-05
0.00471922 -0.0013464866 0.17542574 -0.11794539 0.17932203 -0.001186748 -0.09470231 0.003886105
-0.11900043 0.18650234 0.18190306 0.0041526966 0.16879846 0.0041187014 0.21232447 0.21897596
0.15152727 0.1493132 0.17600371 0.0037683786 0.19479911 0.0018473517 0.1866349 0.21390846
-0.11237925 0.17500103 0.1752697 0.002304318 0.19034812 -0.004958317 -0.08476074 0.0026345244
0.00063321646 -0.1073059 -0.08868131 0.22745235 0.17861886 -0.021479098 0.19928403 -0.9060874
0.1828502 0.17527144 0.1902463 -0.0031735008 -0.13245337 0.19379605 -0.07556939 0.19181097
0.005284499 -0.021763392 -0.07880357 0.003824389 0.19041157 -0.0053811204 0.002538524 0.0049338136
-0.019743929 0.17864293 0.19227038 0.18496732 0.0033911797 -0.08032915 0.18314843 -8.428347e-05
00000000: f3c1 a3bf 1a05 413e 7cd9 88be 13ac 293e
00000010: e2b2 b3bb 8a5f deba 15ae e6b8 f7ab e23a
00000020: 3379 58b8 720f 81bb e66b 4cbb 5e56 323e
00000030: 4dc3 99bd fa5e 05bf 3917 483e 9bc8 423b
00000040: 9787 603e 5aca 95bd 16a1 813b a56b 4d3e
00000050: 1e63 2b3e 0e76 3e3a f5ac c8bd 7c28 53bb
00000060: 91f3 4b3e 1f95 0fbe 6920 85bd 507a 04bb
00000070: 5dde 99be dfba 493f e77e 2f3b 3fd9 303e
00000080: 6625 2a3e 95d1 ebba b672 00bb cade bdb9
00000090: 0119 513e 2156 92bd f558 913f d30d 7b3e
000000a0: 8c99 d3ba 8eb0 3e3e bab1 efbd 371a 463e
000000b0: 99ca 4e3e cc6c 47bb a468 3c3e 5839 b4bd
000000c0: 2d86 2cbb bde2 423e 61fa 2fbb f416 4f3e
000000d0: 92ba 603e 4306 32bb 57d7 e73e 2ce1 0a3b
000000e0: 2083 babd c456 3e3e 6cee a5bb a040 4f3e
000000f0: a7d7 d4bd 6b92 333e b1fc 373e 88b9 973b
00000100: 949a 57bb e0ef 76bb 2100 373e 7bd6 f7bd
00000110: 5ae4 3d3e 8b28 eaba 3d1e c5bd 68c8 30ba
00000120: 7e01 37be 266c 4b3e 0175 323e 5c21 843b
00000130: dd58 353e 0c8f 32bb 69e7 593e 52c0 583e
00000140: dad0 263e d4ed 253e b1fe 383e 5cee 3d3b
00000150: 6018 4a3e a2ab 463b 2de4 3c3e 65c7 733e
00000160: fb65 c4bd d678 3f3e 0e03 3e3e 7a20 893b
00000170: 7c3e 443e b151 99bb 3cfe 94bd 35be 7abb
00000180: d023 b7bb 52d4 bfbd 1192 b8bd 342e 5d3e
00000190: 9385 3f3e 4bf5 253d ff66 503e 04b5 b1bf
000001a0: f7c1 383e 71f1 303e c8c9 383e 796c 81ba
000001b0: 1d1e 02be 8db1 4a3e 6ed9 82bd 5a64 473e
000001c0: 40bd ca3a f9fe af3a 6b4b b1bd 5687 b0ba
000001d0: 04a3 583e b4f6 593b d0ee 483b 1236 a13b
000001e0: 1c40 8cbb 30fb 3e3e dcce 563e 354e 393e
000001f0: 9e8b deba 69d2 acbd d865 403e 64d7 04bb
00000200: 9419 a3bf 736b 373e dc7e a3be 7af5 273e
00000210: 2624 d4ba 0a9b 6abb 13eb 31bb ad72 acba
00000220: 104d 14bb ac79 92bb a527 f5b9 34a6 383e
00000230: 0519 9abd 3994 f9be 7795 483e f8e8 3bbb
00000240: 8d90 623e 64bb 8fbd fe84 37bb 3dcb 543e
00000250: d217 333e 66dc 97bb 912f bbbd eafa 87ba
00000260: 962e 503e 875d f7bd 68e9 0ebe b188 a9bb
00000270: 0261 31bf 4e22 303f 3ed0 c9bb f53b 2b3e
00000280: ffb5 213e 6dc3 9ebb d643 fbba 4be1 5eba
00000290: a1d0 503e 5287 96bd fcc6 643f 7dae 653e
000002a0: 252a a7ba fa40 383e aad5 09be 3d1c 513e
000002b0: 033d 473e 9846 cc3a 05d9 443e 697e b5bd
000002c0: 8280 6b3b 7a22 483e 051a 9c3a 7824 533e
000002d0: 5d6f 643e 4bdd c5ba 299c 763f fd75 96bb
000002e0: 8e4a cebd 36fe 443e 33c5 1abb 4574 433e
000002f0: efd1 f7bd 47ad 2c3e ab92 313e d6d5 b1b8
00000300: b0a3 9a3b 987c b0ba cea2 333e 5a8d f1bd
00000310: 32a0 373e a88c 9bba 49f3 c1bd 06ae 7e3b
00000320: 7fb6 f3bd 78fa 3e3e cc44 3a3e 5813 883b
00000330: 81d9 2c3e 2cf6 863b 966b 593e 3c3b 603e
00000340: f729 1b3e 8fe5 183e 513a 343e e7f6 763b
00000350: 6b79 473e d622 f23a 381d 3f3e d20a 5b3e
00000360: 1827 e6bd 7833 333e e679 333e 0a04 173b
00000370: 9eea 423e 6179 a2bb 0a97 adbd fca7 2c3b
00000380: 70fe 253a 32c3 dbbd 8c9e b5bd 45e9 683e
00000390: dde7 363e eff4 afbc 1d11 4c3e 58f5 67bf
000003a0: 153d 3b3e 5b7a 333e edcf 423e 82fa 4fbb
000003b0: dba1 07be 7972 463e 20c4 9abd 186a 443e
000003c0: 9729 ad3b 2449 b2bc c463 a1bd 9aa2 7a3b
000003d0: 40fb 423e 1c54 b0bb 5e5d 263b d4ab a13b
000003e0: 05be a1bc 2cee 363e 87e2 443e 1368 3d3e
000003f0: 8e3e 5e3b 9c83 a4bd 438b 3b3e 58c1 b0b8

layer3.bias f4 [2]
0.1880786 0.11730566
00000000: ad97 403e f33d f03d
