cartpole_v1_best_model.pth (torch, 537012 bytes, 8 tensors)

layer1.weight f4 [256, 4]
000000 d5 0d ff 3d 7f 53 25 bd 76 3b 8b bd d0 42 ed 3d
       0.1245381 -0.04036283 -0.06798451 0.11585009
000010 e6 0b fd bd c5 f8 f9 bc 14 d3 00 3e b6 d9 ef bd
       -0.12355785 -0.03051413 0.1258052 -0.11711447
000020 33 30 08 3d 2f d2 12 be 6e 7d ad bb af 64 f4 3d
       0.03324909 -0.14337991 -0.0052944934 0.11933266
000030 95 54 c7 bc 53 f9 96 bc 8e 1b 8f 3c 2d 6c e9 bd
       -0.024332324 -0.018429434 0.017469194 -0.11397586
000040 01 51 57 3d 76 41 0d 3e 5d 93 1c 3c 94 3f 83 3d
       0.052567486 0.13794503 0.0095566185 0.06408611
000050 7d 18 60 3d 1e 58 28 3d e8 8a 8f bd 25 27 d6 3d
       0.054710854 0.04109966 -0.07008916 0.10456685
000060 f8 4a 72 3c 2d 9a 40 bd 11 90 85 bd 1c 23 bf bc
       0.014788382 -0.047022033 -0.06521619 -0.023332171
000070 a8 4b 98 bd 7f 3e 14 be 40 48 c0 3d eb ef 19 3e
       -0.07436305 -0.14476965 0.093887806 0.15032928
000080 f7 4c df bd 29 7d 81 3d f1 1f 49 3d a9 3b a4 3c
       -0.10903352 0.063227005 0.049102727 0.02004798
000090 18 ce a3 bd e2 95 7c 3d 34 5e c4 3d 8c 2a b7 3d
       -0.07998294 0.061666377 0.0958828 0.08943662
0000a0 9e bc c9 3d 2b 0f b6 3d c0 83 d3 3d 7a a4 c6 ba
       0.09850429 0.08889612 0.10327864 -0.0015155219
0000b0 fa 44 9c bc cd 5b dc bd b3 4a 14 be 84 53 2c bd
       -0.01907586 -0.10759697 -0.1448162 -0.042071834
0000c0 aa f0 e0 3d d4 0b 3f bd 9e a5 d1 3d 51 b6 0d be
       0.10983403 -0.04664214 0.10236667 -0.1383908
0000d0 23 a6 fc 3d 4e af 11 3d f2 cc d0 3d 50 7e 02 be
       0.123363756 0.035567574 0.1019534 -0.12743497
0000e0 35 b5 f5 3d 3f 5d c8 3d 2b f9 8c b6 ea ad 88 bd
       0.11997453 0.0978341 -4.201332e-06 -0.066737965
0000f0 67 b7 80 3d 75 fe f3 bc f3 67 06 be b1 12 40 bd
       0.06284981 -0.02978442 -0.13125591 -0.046892826
000100 a1 2d 0c 3d ff 89 17 be 9d e3 0f 3e a1 88 1a 3e
       0.034223203 -0.14798735 0.14051671 0.15091182
000110 a7 98 f6 bd df 13 e8 3d f6 f3 54 3c f0 42 ab 3d
       -0.12040835 0.11331915 0.012997618 0.08362377
000120 65 fa ee 3d 82 a5 ce bd 45 9d ce 3d 97 02 13 3e
       0.11668853 -0.10090162 0.100885905 0.14356457
000130 3f 17 47 bc 82 39 dc bd 14 c8 89 3d f6 b5 9c bd
       -0.012151538 -0.10753156 0.06727615 -0.07651894
000140 81 81 e7 bd 22 84 db 3d d7 03 9e 3d 51 e9 8a 3c
       -0.11303998 0.10718562 0.07715576 0.016956957
000150 0d 82 07 be de 9b cc bc ea 0d ea 3d 3d b2 04 bd
       -0.13233204 -0.024976667 0.11428435 -0.032396544
000160 cd b6 17 3e 51 0c d5 bd ae 62 07 be 68 c9 43 bc
       0.14815827 -0.1040274 -0.13221237 -0.011949874
000170 0e e5 6c bd a4 27 17 be 57 0a da 3d 16 11 d7 bd
       -0.05783563 -0.14761215 0.106465034 -0.10501306
000180 93 ba 0b 3d 97 20 12 3c 1c 51 06 3d ba 95 1d 3d
       0.034113478 0.008918903 0.032792196 0.03847287
000190 32 50 0b be 65 ad af bd ab 0b ae 3d 51 48 0e be
       -0.13604811 -0.08577994 0.08498319 -0.13894774
0001a0 8f d7 a9 3d e5 fa 17 3e eb 04 ac 3d 8b b6 b1 3d
       0.08293068 0.14841802 0.083993755 0.086773954
0001b0 9d 0d 92 bd cf 66 2a 3c 2e 16 a1 3d fa 29 e5 3d
       -0.07131503 0.010400488 0.078655586 0.11189647
0001c0 c5 54 eb 3d 31 71 44 bc 0a bc cf 3d cb 8f c9 bd
       0.11490778 -0.011989878 0.101432875 -0.098418795
0001d0 1d 35 a5 3d 95 cc c0 3d f1 cc 02 3e 6b 37 56 bd
       0.08066771 0.09414021 0.12773491 -0.052298944
0001e0 da 23 a0 3c b3 78 b4 3d 15 79 62 3d a2 df 94 bc
       0.019548345 0.08812084 0.055291254 -0.018173043
0001f0 e9 20 9f 3d f3 b4 82 bd 7e 39 9a 3b 26 f9 a3 3d
       0.07769949 -0.063821696 0.0047065606 0.08006506
000200 c7 cd ab bc a4 59 a5 3d 2b ed 07 be 0b bb 11 be
       -0.020972146 0.08073738 -0.13274066 -0.14231507
000210 26 01 4a 3d 46 08 10 3e 64 cf 8e 3d 3b c4 cb 3d
       0.0493175 0.14065656 0.0697315 0.09949537
000220 8b 59 d5 bd 94 4b 82 bd b2 bb a1 bc 48 24 54 3d
       -0.104174696 -0.06362072 -0.01974282 0.051792413
000230 8a fa 66 3d b3 2d 05 3e 8e f1 8b 3d a5 71 b5 3c
       0.056391276 0.13005714 0.06833182 0.022148916
000240 7f 55 ee bb 6a d4 75 3d 46 28 3a 3a 5b b6 d3 3d
       -0.0072733755 0.060017027 0.0007101338 0.10337516
000250 cd 03 ab 3d c3 6b 8f 3c ef f2 91 bd 23 6c 18 3b
       0.08350334 0.01750744 -0.07126414 0.0023257814
000260 d6 51 ef bd a0 42 f5 bd 29 31 f9 bc 4e 04 1a 3d
       -0.11685531 -0.11975598 -0.03041895 0.03760176
000270 0a 61 c0 bd 13 9c 53 3d ce cb 00 bd 30 82 3d bc
       -0.09393509 0.051662516 -0.031444363 -0.011566684
000280 3f ef 93 bd cc 6e e8 bd 9f 26 17 3e af 60 76 bd
       -0.07223367 -0.11349258 0.14760827 -0.0601508
000290 b8 67 09 be fb de 4d bd 9a 2e 47 bd f7 ec a5 3d
       -0.13418472 -0.05026148 -0.048628427 0.08101838
0002a0 40 c9 98 3d 69 f7 d8 3c 8b c1 80 3d 6b 4f 40 3d
       0.074602604 0.026485162 0.062869154 0.04695074
0002b0 6c cb 8e 3c f9 14 fd 3c c3 00 b8 bc 67 9a 01 3d
       0.017430983 0.03089379 -0.0224613 0.03164139
0002c0 52 3c ce 3d 36 a0 36 3d 17 aa 0f be 72 da 02 be
       0.10070099 0.044586383 -0.14029728 -0.12778643
0002d0 3e aa 97 3d c7 89 d8 3d b0 e4 19 be b4 ef 2f 3d
       0.07405518 0.10573154 -0.15028644 0.042953208
0002e0 b0 04 80 3c b3 b5 e4 bd 3c 93 10 be 46 a1 be bd
       0.015627235 -0.11167469 -0.14118665 -0.09308104
0002f0 d7 57 b5 bd 4d 4f 89 3d 1a de 11 be fe 24 88 3d
       -0.08854645 0.067045785 -0.14244881 0.06647681
000300 f2 de f4 3d 37 7d 20 3d 65 7b c1 3d 75 e3 b8 bd
       0.11956586 0.039181914 0.09447364 -0.09027759
000310 a3 31 50 39 dc 49 17 3e 93 9b ba bd 50 d0 f0 3d
       0.00019854917 0.14774269 -0.09111705 0.117584825
000320 0b 31 bb bd bf d1 fa 3d 61 23 f5 3d af e8 c7 bd
       -0.091402136 0.12247037 0.119696386 -0.09761178
000330 57 bc ff bd 63 c2 00 be 6c 20 51 bd dc 75 4d 3d
       -0.12487095 -0.12574153 -0.05105631 0.050161228
000340 67 60 cb 3d 81 91 15 3d 80 7f 00 be 84 35 a4 3d
       0.09930497 0.036515716 -0.12548637 0.0801802
000350 a9 ec 5a 3d fb 4b af bd 3b 33 91 3d 24 53 0f be
       0.053448353 -0.08559414 0.070898496 -0.1399656
000360 e5 ac 1a 3e 82 36 f8 b9 07 4e c2 3d 77 72 b3 3a
       0.15105017 -0.00047342858 0.09487539 0.0013690729
000370 58 bc 19 be 1c 82 0e 3e 14 7a e1 bd 03 ae 22 3d
       -0.15013254 0.1391682 -0.11009613 0.03971673
000380 65 68 1f 3d 83 d1 a8 3d 9a df 02 3e 80 f6 b6 3d
       0.038917918 0.08243086 0.1278061 0.08933735
000390 62 46 d0 3d 7d 46 fc bb 2c 21 57 3a af ec 11 3e
       0.101696745 -0.0076988325 0.0008206542 0.14250444
0003a0 f9 be 03 bd fb 6d 2e 3d 08 b7 a2 bb 3a 33 1a be
       -0.032164548 0.042585354 -0.0049656667 -0.15058604
0003b0 0e 3d f9 bd ff 51 20 bd 7f ac a6 bd 94 92 e4 3d
       -0.121698484 -0.039140698 -0.0813837 0.1116077
0003c0 87 cf b3 3d 29 a4 66 3d a3 ff 78 3c 00 26 6b 3d
       0.08779817 0.0563089 0.015197667 0.057409286
0003d0 93 4f 1a be bb a6 9d bd 44 84 0f 3e 2f 7f d7 3d
       -0.15069418 -0.07697817 0.14015299 0.10522305
0003e0 83 fd 48 bd 2d 24 f0 3c 27 82 95 bd a9 99 b8 bc
       -0.049069893 0.029314125 -0.07300215 -0.022534208
0003f0 3c 5d 91 3c 49 6a 36 3d 95 42 40 3d fc ff 04 be
       0.017744653 0.044534955 0.046938498 -0.12988275

layer1.bias f4 [256]
000000 00 00 00 00 00 00 00 00 00 00 00 00 00 00 00 00
       0.0 0.0 0.0 0.0
000010 00 00 00 00 00 00 00 00 00 00 00 00 00 00 00 00
       0.0 0.0 0.0 0.0
000020 00 00 00 00 00 00 00 00 00 00 00 00 00 00 00 00
       0.0 0.0 0.0 0.0
000030 00 00 00 00 00 00 00 00 00 00 00 00 00 00 00 00
       0.0 0.0 0.0 0.0
000040 00 00 00 00 00 00 00 00 00 00 00 00 00 00 00 00
       0.0 0.0 0.0 0.0
000050 00 00 00 00 00 00 00 00 00 00 00 00 00 00 00 00
       0.0 0.0 0.0 0.0
000060 00 00 00 00 00 00 00 00 00 00 00 00 00 00 00 00
       0.0 0.0 0.0 0.0
000070 00 00 00 00 00 00 00 00 00 00 00 00 00 00 00 00
       0.0 0.0 0.0 0.0
000080 00 00 00 00 00 00 00 00 00 00 00 00 00 00 00 00
       0.0 0.0 0.0 0.0
000090 00 00 00 00 00 00 00 00 00 00 00 00 00 00 00 00
       0.0 0.0 0.0 0.0
0000a0 00 00 00 00 00 00 00 00 00 00 00 00 00 00 00 00
       0.0 0.0 0.0 0.0
0000b0 00 00 00 00 00 00 00 00 00 00 00 00 00 00 00 00
       0.0 0.0 0.0 0.0
0000c0 00 00 00 00 00 00 00 00 00 00 00 00 00 00 00 00
       0.0 0.0 0.0 0.0
0000d0 00 00 00 00 00 00 00 00 00 00 00 00 00 00 00 00
       0.0 0.0 0.0 0.0
0000e0 00 00 00 00 00 00 00 00 00 00 00 00 00 00 00 00
       0.0 0.0 0.0 0.0
0000f0 00 00 00 00 00 00 00 00 00 00 00 00 00 00 00 00
       0.0 0.0 0.0 0.0
000100 00 00 00 00 00 00 00 00 00 00 00 00 00 00 00 00
       0.0 0.0 0.0 0.0
000110 00 00 00 00 00 00 00 00 00 00 00 00 00 00 00 00
       0.0 0.0 0.0 0.0
000120 00 00 00 00 00 00 00 00 00 00 00 00 00 00 00 00
       0.0 0.0 0.0 0.0
000130 00 00 00 00 00 00 00 00 00 00 00 00 00 00 00 00
       0.0 0.0 0.0 0.0
000140 00 00 00 00 00 00 00 00 00 00 00 00 00 00 00 00
       0.0 0.0 0.0 0.0
000150 00 00 00 00 00 00 00 00 00 00 00 00 00 00 00 00
       0.0 0.0 0.0 0.0
000160 00 00 00 00 00 00 00 00 00 00 00 00 00 00 00 00
       0.0 0.0 0.0 0.0
000170 00 00 00 00 00 00 00 00 00 00 00 00 00 00 00 00
       0.0 0.0 0.0 0.0
000180 00 00 00 00 00 00 00 00 00 00 00 00 00 00 00 00
       0.0 0.0 0.0 0.0
000190 00 00 00 00 00 00 00 00 00 00 00 00 00 00 00 00
       0.0 0.0 0.0 0.0
0001a0 00 00 00 00 00 00 00 00 00 00 00 00 00 00 00 00
       0.0 0.0 0.0 0.0
0001b0 00 00 00 00 00 00 00 00 00 00 00 00 00 00 00 00
       0.0 0.0 0.0 0.0
0001c0 00 00 00 00 00 00 00 00 00 00 00 00 00 00 00 00
       0.0 0.0 0.0 0.0
0001d0 00 00 00 00 00 00 00 00 00 00 00 00 00 00 00 00
       0.0 0.0 0.0 0.0
0001e0 00 00 00 00 00 00 00 00 00 00 00 00 00 00 00 00
       0.0 0.0 0.0 0.0
0001f0 00 00 00 00 00 00 00 00 00 00 00 00 00 00 00 00
       0.0 0.0 0.0 0.0
000200 00 00 00 00 00 00 00 00 00 00 00 00 00 00 00 00
       0.0 0.0 0.0 0.0
000210 00 00 00 00 00 00 00 00 00 00 00 00 00 00 00 00
       0.0 0.0 0.0 0.0
000220 00 00 00 00 00 00 00 00 00 00 00 00 00 00 00 00
       0.0 0.0 0.0 0.0
000230 00 00 00 00 00 00 00 00 00 00 00 00 00 00 00 00
       0.0 0.0 0.0 0.0
000240 00 00 00 00 00 00 00 00 00 00 00 00 00 00 00 00
       0.0 0.0 0.0 0.0
000250 00 00 00 00 00 00 00 00 00 00 00 00 00 00 00 00
       0.0 0.0 0.0 0.0
000260 00 00 00 00 00 00 00 00 00 00 00 00 00 00 00 00
       0.0 0.0 0.0 0.0
000270 00 00 00 00 00 00 00 00 00 00 00 00 00 00 00 00
       0.0 0.0 0.0 0.0
000280 00 00 00 00 00 00 00 00 00 00 00 00 00 00 00 00
       0.0 0.0 0.0 0.0
000290 00 00 00 00 00 00 00 00 00 00 00 00 00 00 00 00
       0.0 0.0 0.0 0.0
0002a0 00 00 00 00 00 00 00 00 00 00 00 00 00 00 00 00
       0.0 0.0 0.0 0.0
0002b0 00 00 00 00 00 00 00 00 00 00 00 00 00 00 00 00
       0.0 0.0 0.0 0.0
0002c0 00 00 00 00 00 00 00 00 00 00 00 00 00 00 00 00
       0.0 0.0 0.0 0.0
0002d0 00 00 00 00 00 00 00 00 00 00 00 00 00 00 00 00
       0.0 0.0 0.0 0.0
0002e0 00 00 00 00 00 00 00 00 00 00 00 00 00 00 00 00
       0.0 0.0 0.0 0.0
0002f0 00 00 00 00 00 00 00 00 00 00 00 00 00 00 00 00
       0.0 0.0 0.0 0.0
000300 00 00 00 00 00 00 00 00 00 00 00 00 00 00 00 00
       0.0 0.0 0.0 0.0
000310 00 00 00 00 00 00 00 00 00 00 00 00 00 00 00 00
       0.0 0.0 0.0 0.0
000320 00 00 00 00 00 00 00 00 00 00 00 00 00 00 00 00
       0.0 0.0 0.0 0.0
000330 00 00 00 00 00 00 00 00 00 00 00 00 00 00 00 00
       0.0 0.0 0.0 0.0
000340 00 00 00 00 00 00 00 00 00 00 00 00 00 00 00 00
       0.0 0.0 0.0 0.0
000350 00 00 00 00 00 00 00 00 00 00 00 00 00 00 00 00
       0.0 0.0 0.0 0.0
000360 00 00 00 00 00 00 00 00 00 00 00 00 00 00 00 00
       0.0 0.0 0.0 0.0
000370 00 00 00 00 00 00 00 00 00 00 00 00 00 00 00 00
       0.0 0.0 0.0 0.0
000380 00 00 00 00 00 00 00 00 00 00 00 00 00 00 00 00
       0.0 0.0 0.0 0.0
000390 00 00 00 00 00 00 00 00 00 00 00 00 00 00 00 00
       0.0 0.0 0.0 0.0
0003a0 00 00 00 00 00 00 00 00 00 00 00 00 00 00 00 00
       0.0 0.0 0.0 0.0
0003b0 00 00 00 00 00 00 00 00 00 00 00 00 00 00 00 00
       0.0 0.0 0.0 0.0
0003c0 00 00 00 00 00 00 00 00 00 00 00 00 00 00 00 00
       0.0 0.0 0.0 0.0
0003d0 00 00 00 00 00 00 00 00 00 00 00 00 00 00 00 00
       0.0 0.0 0.0 0.0
0003e0 00 00 00 00 00 00 00 00 00 00 00 00 00 00 00 00
       0.0 0.0 0.0 0.0
0003f0 00 00 00 00 00 00 00 00 00 00 00 00 00 00 00 00
       0.0 0.0 0.0 0.0

layer2.weight f4 [256, 256]
000000 8a 53 90 bc 6c b9 a5 bc 87 9e 43 bd fa 20 07 bd
       -0.01761796 -0.020230018 -0.047758605 -0.032990433
000010 f3 f8 8d 3c 6a 1a 14 3d 70 dc 9e bd 35 64 7c 3b
       0.017330622 0.036158003 -0.07756889 0.0038511876
000020 a3 2f ed bc c1 92 a5 3d 20 21 04 3d 9a 7f 13 bd
       -0.028953379 0.08084632 0.032258153 -0.036010362
000030 c9 ca bd bd 74 41 2e 3c bb d7 63 bd cd ff ca bc
       -0.09267194 0.010635722 -0.05562566 -0.024780178
000040 b0 92 d9 bd b6 fd b1 3c 5d 3e 56 bc ac 89 7e 3d
       -0.106236815 0.021727424 -0.013076392 0.062143013
000050 ed 68 da 3c c1 4a be bd 24 67 87 3d f9 92 c7 bd
       0.02666136 -0.09291602 0.066114694 -0.0974483
000060 0b 20 cd 3c 88 a7 9b bc fe d1 3f bd 83 a6 8a bc
       0.025039693 -0.019000784 -0.046831124 -0.016925102
000070 cb 9f c7 3d 42 52 04 3c 97 c6 38 3d ac f8 8d 3d
       0.09747275 0.008076252 0.045111265 0.06932196
000080 24 e1 6c bd 15 cc 7b bd 81 40 b5 3d c3 d6 cd 3d
       -0.0578319 -0.061473925 0.08850194 0.10050728
000090 aa 16 f6 bc 39 d5 c8 bc ef 12 b1 bd 95 2e 8d 3d
       -0.030040104 -0.024515735 -0.086461894 0.068936504
0000a0 15 89 89 3d 66 bf 39 bc bb 70 9e bc b4 9d cf 3d
       0.067155994 -0.011337137 -0.019340863 0.10137501
0000b0 93 e7 e8 3c de 2c f8 3c 10 4b 48 3d 78 5d 72 bd
       0.028430736 0.030294832 0.04889971 -0.05917117
0000c0 f9 f0 d6 3d 6f 60 e0 3c 6a d8 52 bd da 04 70 3d
       0.10495181 0.027389733 -0.05147592 0.058598377
0000d0 e4 29 28 bd 0e 64 c5 bd 32 0d 38 3b 4a 7d 11 3d
       -0.041055575 -0.096382245 0.0028084037 0.035519876
0000e0 84 06 89 bd 68 b6 6e 3d 1e 06 8d 3d b9 e3 ca bd
       -0.06690696 0.058279425 0.068859324 -0.09906716
0000f0 b6 21 cb bd 6a 70 c0 bd 79 2f 8b 3d c3 d1 e8 3c
       -0.09918539 -0.09396441 0.06796164 0.028420335
000100 23 fc 2e 3d 80 97 23 bd 4f 14 b6 3d 8b 8c 29 bb
       0.042720925 -0.039939404 0.08890592 -0.0025871124
000110 bd df 15 bc f1 7a 90 bd 93 a8 ae bd 42 ca 1e 3c
       -0.009147582 -0.07054699 -0.08528247 0.009691777
000120 cb 90 72 bd f3 3a 6f 3d fa fb cd bd 84 c4 22 bd
       -0.059220117 0.058405828 -0.10057826 -0.039738193
000130 92 fe 7e 3d ee 90 ed bc cb 18 bf 3d 90 32 32 bd
       0.062254496 -0.028999772 0.09330901 -0.04350525
000140 88 69 b2 3b dd a8 93 3d 4f fd 3f bd 93 9b ab bc
       0.005444709 0.072099425 -0.046872433 -0.020948207
000150 b7 a6 00 3d 03 ab 0e 3d 0b d1 a6 bd 44 29 b8 3d
       0.03140899 0.03483106 -0.081453405 0.08992246
000160 5b f1 ac 3d 73 4b 25 3d 5b 72 80 3d d0 83 90 3d
       0.084444724 0.040355157 0.062718116 0.07056391
000170 28 7c d8 3c f8 6b cf bc cb 7d da bd 6f ce 9e bd
       0.02642639 -0.025320038 -0.10668524 -0.07754218
000180 02 43 52 3d fb f5 02 3d f8 2f c6 3d 96 eb c9 bd
       0.051333435 0.031972867 0.09677118 -0.098593876
000190 04 f7 8c bd 94 d7 6f bd 9c df 0c 3d 94 99 83 3d
       -0.06883052 -0.0585552 0.034392938 0.06425777
0001a0 23 89 ed bc 7d 6c c7 bd e8 22 70 3d 18 c3 cd 3d
       -0.028996056 -0.09737489 0.05862704 0.10046977
0001b0 02 03 c7 bd bd 22 43 3d f7 7d 16 bd 5e 2a cb bd
       -0.097173706 0.04764055 -0.036741223 -0.0992019
0001c0 6c 4a 47 bc d5 a7 91 3d a5 d2 a8 bd 9f e9 81 3d
       -0.01216374 0.071120895 -0.08243302 0.06343388
0001d0 ee 1a b6 3d 16 ef 59 bc 9e 9a 86 3d 3c c9 0a 3d
       0.08891855 -0.013301631 0.0657246 0.03388332
0001e0 df c3 87 bc 1f 12 14 bd 9e 07 f3 3c 3b 15 a2 bd
       -0.01657289 -0.036150094 0.029666718 -0.07914206
0001f0 67 87 34 bd 79 fd 35 bd 93 a0 c9 3d 55 69 8f bc
       -0.044074442 -0.044431183 0.0984508 -0.01750628
000200 82 69 0c bd 78 94 91 bd 27 69 76 3d 37 43 17 bd
       -0.034280308 -0.07108396 0.060158875 -0.036929335
000210 f3 ef ac bd 90 9d 76 3d 64 f1 11 3d bc 0a c8 bc
       -0.08444204 0.060208857 0.0356306 -0.024419181
000220 90 32 a5 bc a4 f2 1f bd 16 b6 5d 3d 1e 58 04 bd
       -0.020165712 -0.03904976 0.05412873 -0.032310598
000230 8f 69 81 bd 8c e9 58 3c 74 02 d9 bd ff ad 68 3d
       -0.06318962 0.013239276 -0.10596171 0.05680656
000240 a5 f4 95 bd 28 1d 56 3d 72 1a c3 3c a9 f1 b0 bd
       -0.07322053 0.0522739 0.023816321 -0.08639843
000250 60 1b 84 bd c3 7d ab bd 30 d7 e0 3c 88 81 1f bc
       -0.06450534 -0.083735965 0.02744636 -0.0097354725
000260 b9 e1 bb bc 55 2e 16 3c 7e 06 44 bd 24 66 9c bc
       -0.022934781 0.00916632 -0.047857754 -0.019091673
000270 59 4f 93 3d a7 d0 c0 3d be 0c 4c bd 01 0f 8e bc
       0.07192869 0.09414797 -0.04981684 -0.017341139
000280 2b b3 3c bd 8f 35 09 3c 8e 48 09 3c c8 82 e6 3c
       -0.046069305 0.008374586 0.008379115 0.028138533
000290 90 30 be bd f6 e7 45 3d 7b d7 36 bc 9f 14 bd bd
       -0.09286606 0.04831692 -0.011159773 -0.09232449
0002a0 b3 58 1e 3d df c4 b5 3c f9 c3 ab bd 86 38 d7 3d
       0.03865881 0.022188602 -0.08386988 0.10508828
0002b0 bc b5 a8 3d 72 00 5c bd e9 15 94 bc e7 98 c1 bd
       0.08237788 -0.053711362 -0.018076854 -0.09452992
0002c0 54 82 dd 3d 6c 6d d4 bd 0d 7b dc 3d d2 a2 e3 3c
       0.10815874 -0.10372433 0.107656576 0.0277876
0002d0 dd e7 97 3d 8c 27 c9 bd 13 3e 50 bd d3 56 85 bc
       0.07417271 -0.09821996 -0.05084045 -0.016276753
0002e0 eb 6f 04 3c 53 33 7b 3d a8 91 3b bd ae 87 69 bb
       0.008083324 0.061328243 -0.045793205 -0.003563385
0002f0 45 93 55 3d 67 71 99 3d da c2 83 3c 7b 24 bd bc
       0.0521424 0.07492333 0.016084123 -0.023088684
000300 34 3c 04 bd 0d ae 94 3d 96 1f c4 3d 5a a7 27 ba
       -0.032283977 0.0725976 0.09576337 -0.0006395482
000310 29 59 f6 3b b6 09 a0 bc 32 7d 94 bd a4 52 93 bd
       0.007517953 -0.01953588 -0.072504416 -0.07193497
000320 90 73 14 bd a3 75 c9 bd e1 ba 34 bd 9b b3 dc 3d
       -0.03624302 -0.098368905 -0.044123534 0.107764445
000330 a5 bf 9d 3d 1a 7b 97 3d c5 35 d2 bd 8b d7 cf bc
       0.07702569 0.07396527 -0.10264162 -0.025371334
000340 e6 ad be bc 11 90 4c 3c 8e 5f 9a bc aa 20 e4 bc
       -0.02327628 0.01248552 -0.018844392 -0.027847607
000350 9c 20 7b bd 67 0d f7 3a af 00 b3 3d 05 84 ea bb
       -0.061310396 0.0018848599 0.08740365 -0.0071568512
000360 da bf 64 bd 64 2a dd 3d 5c da 3d bd ec 35 86 3d
       -0.055847026 0.10799101 -0.04635082 0.065532535
000370 15 bf c5 3b 31 dc 81 bd 2e cb c3 bd 0d e8 aa bd
       0.0060347416 -0.06340826 -0.09560238 -0.083450414
000380 2c 79 6b 3d 32 ca ac 3d 88 f8 93 3d ca ff 87 3d
       0.057488605 0.08437003 0.07225138 0.06640585
000390 e5 30 a9 bd 0e b2 ed 3c 65 cf a2 bc f9 53 7a 3d
       -0.08261279 0.029015567 -0.019874284 0.06111524
0003a0 cd ec 85 3d 17 7d 6a 3c b8 03 13 3d c2 b1 22 bd
       0.06539307 0.01431205 0.03589222 -0.039720304
0003b0 3a e4 74 3b d3 af 99 3d a4 e8 1c 3c 40 6a 61 bd
       0.003736748 0.07504239 0.00957695 -0.05503297
0003c0 99 d6 cf bc a1 92 c0 3d c6 99 b5 bd 1f 1d b3 bb
       -0.025370883 0.09402967 -0.088672206 -0.005466118
0003d0 86 c8 a7 bd 6d c1 b0 3d 1d d2 82 3d ba 2b 8c bd
       -0.08192544 0.08630643 0.06387732 -0.06844278
0003e0 0f 13 22 bc 40 9e 1b bc c0 e0 5d 3d af 9b a5 bd
       -0.009892239 -0.009498179 0.054169416 -0.08086335
0003f0 48 a0 9b 3c b5 ae bc bd 36 80 47 3d 7f 5e dc bd
       0.018997326 -0.0921301 0.048706256 -0.10760211

layer2.bias f4 [256]
000000 00 00 00 00 00 00 00 00 00 00 00 00 00 00 00 00
       0.0 0.0 0.0 0.0
000010 00 00 00 00 00 00 00 00 00 00 00 00 00 00 00 00
       0.0 0.0 0.0 0.0
000020 00 00 00 00 00 00 00 00 00 00 00 00 00 00 00 00
       0.0 0.0 0.0 0.0
000030 00 00 00 00 00 00 00 00 00 00 00 00 00 00 00 00
       0.0 0.0 0.0 0.0
000040 00 00 00 00 00 00 00 00 00 00 00 00 00 00 00 00
       0.0 0.0 0.0 0.0
000050 00 00 00 00 00 00 00 00 00 00 00 00 00 00 00 00
       0.0 0.0 0.0 0.0
000060 00 00 00 00 00 00 00 00 00 00 00 00 00 00 00 00
       0.0 0.0 0.0 0.0
000070 00 00 00 00 00 00 00 00 00 00 00 00 00 00 00 00
       0.0 0.0 0.0 0.0
000080 00 00 00 00 00 00 00 00 00 00 00 00 00 00 00 00
       0.0 0.0 0.0 0.0
000090 00 00 00 00 00 00 00 00 00 00 00 00 00 00 00 00
       0.0 0.0 0.0 0.0
0000a0 00 00 00 00 00 00 00 00 00 00 00 00 00 00 00 00
       0.0 0.0 0.0 0.0
0000b0 00 00 00 00 00 00 00 00 00 00 00 00 00 00 00 00
       0.0 0.0 0.0 0.0
0000c0 00 00 00 00 00 00 00 00 00 00 00 00 00 00 00 00
       0.0 0.0 0.0 0.0
0000d0 00 00 00 00 00 00 00 00 00 00 00 00 00 00 00 00
       0.0 0.0 0.0 0.0
0000e0 00 00 00 00 00 00 00 00 00 00 00 00 00 00 00 00
       0.0 0.0 0.0 0.0
0000f0 00 00 00 00 00 00 00 00 00 00 00 00 00 00 00 00
       0.0 0.0 0.0 0.0
000100 00 00 00 00 00 00 00 00 00 00 00 00 00 00 00 00
       0.0 0.0 0.0 0.0
000110 00 00 00 00 00 00 00 00 00 00 00 00 00 00 00 00
       0.0 0.0 0.0 0.0
000120 00 00 00 00 00 00 00 00 00 00 00 00 00 00 00 00
       0.0 0.0 0.0 0.0
000130 00 00 00 00 00 00 00 00 00 00 00 00 00 00 00 00
       0.0 0.0 0.0 0.0
000140 00 00 00 00 00 00 00 00 00 00 00 00 00 00 00 00
       0.0 0.0 0.0 0.0
000150 00 00 00 00 00 00 00 00 00 00 00 00 00 00 00 00
       0.0 0.0 0.0 0.0
000160 00 00 00 00 00 00 00 00 00 00 00 00 00 00 00 00
       0.0 0.0 0.0 0.0
000170 00 00 00 00 00 00 00 00 00 00 00 00 00 00 00 00
       0.0 0.0 0.0 0.0
000180 00 00 00 00 00 00 00 00 00 00 00 00 00 00 00 00
       0.0 0.0 0.0 0.0
000190 00 00 00 00 00 00 00 00 00 00 00 00 00 00 00 00
       0.0 0.0 0.0 0.0
0001a0 00 00 00 00 00 00 00 00 00 00 00 00 00 00 00 00
       0.0 0.0 0.0 0.0
0001b0 00 00 00 00 00 00 00 00 00 00 00 00 00 00 00 00
       0.0 0.0 0.0 0.0
0001c0 00 00 00 00 00 00 00 00 00 00 00 00 00 00 00 00
       0.0 0.0 0.0 0.0
0001d0 00 00 00 00 00 00 00 00 00 00 00 00 00 00 00 00
       0.0 0.0 0.0 0.0
0001e0 00 00 00 00 00 00 00 00 00 00 00 00 00 00 00 00
       0.0 0.0 0.0 0.0
0001f0 00 00 00 00 00 00 00 00 00 00 00 00 00 00 00 00
       0.0 0.0 0.0 0.0
000200 00 00 00 00 00 00 00 00 00 00 00 00 00 00 00 00
       0.0 0.0 0.0 0.0
000210 00 00 00 00 00 00 00 00 00 00 00 00 00 00 00 00
       0.0 0.0 0.0 0.0
000220 00 00 00 00 00 00 00 00 00 00 00 00 00 00 00 00
       0.0 0.0 0.0 0.0
000230 00 00 00 00 00 00 00 00 00 00 00 00 00 00 00 00
       0.0 0.0 0.0 0.0
000240 00 00 00 00 00 00 00 00 00 00 00 00 00 00 00 00
       0.0 0.0 0.0 0.0
000250 00 00 00 00 00 00 00 00 00 00 00 00 00 00 00 00
       0.0 0.0 0.0 0.0
000260 00 00 00 00 00 00 00 00 00 00 00 00 00 00 00 00
       0.0 0.0 0.0 0.0
000270 00 00 00 00 00 00 00 00 00 00 00 00 00 00 00 00
       0.0 0.0 0.0 0.0
000280 00 00 00 00 00 00 00 00 00 00 00 00 00 00 00 00
       0.0 0.0 0.0 0.0
000290 00 00 00 00 00 00 00 00 00 00 00 00 00 00 00 00
       0.0 0.0 0.0 0.0
0002a0 00 00 00 00 00 00 00 00 00 00 00 00 00 00 00 00
       0.0 0.0 0.0 0.0
0002b0 00 00 00 00 00 00 00 00 00 00 00 00 00 00 00 00
       0.0 0.0 0.0 0.0
0002c0 00 00 00 00 00 00 00 00 00 00 00 00 00 00 00 00
       0.0 0.0 0.0 0.0
0002d0 00 00 00 00 00 00 00 00 00 00 00 00 00 00 00 00
       0.0 0.0 0.0 0.0
0002e0 00 00 00 00 00 00 00 00 00 00 00 00 00 00 00 00
       0.0 0.0 0.0 0.0
0002f0 00 00 00 00 00 00 00 00 00 00 00 00 00 00 00 00
       0.0 0.0 0.0 0.0
000300 00 00 00 00 00 00 00 00 00 00 00 00 00 00 00 00
       0.0 0.0 0.0 0.0
000310 00 00 00 00 00 00 00 00 00 00 00 00 00 00 00 00
       0.0 0.0 0.0 0.0
000320 00 00 00 00 00 00 00 00 00 00 00 00 00 00 00 00
       0.0 0.0 0.0 0.0
000330 00 00 00 00 00 00 00 00 00 00 00 00 00 00 00 00
       0.0 0.0 0.0 0.0
000340 00 00 00 00 00 00 00 00 00 00 00 00 00 00 00 00
       0.0 0.0 0.0 0.0
000350 00 00 00 00 00 00 00 00 00 00 00 00 00 00 00 00
       0.0 0.0 0.0 0.0
000360 00 00 00 00 00 00 00 00 00 00 00 00 00 00 00 00
       0.0 0.0 0.0 0.0
000370 00 00 00 00 00 00 00 00 00 00 00 00 00 00 00 00
       0.0 0.0 0.0 0.0
000380 00 00 00 00 00 00 00 00 00 00 00 00 00 00 00 00
       0.0 0.0 0.0 0.0
000390 00 00 00 00 00 00 00 00 00 00 00 00 00 00 00 00
       0.0 0.0 0.0 0.0
0003a0 00 00 00 00 00 00 00 00 00 00 00 00 00 00 00 00
       0.0 0.0 0.0 0.0
0003b0 00 00 00 00 00 00 00 00 00 00 00 00 00 00 00 00
       0.0 0.0 0.0 0.0
0003c0 00 00 00 00 00 00 00 00 00 00 00 00 00 00 00 00
       0.0 0.0 0.0 0.0
0003d0 00 00 00 00 00 00 00 00 00 00 00 00 00 00 00 00
       0.0 0.0 0.0 0.0
0003e0 00 00 00 00 00 00 00 00 00 00 00 00 00 00 00 00
       0.0 0.0 0.0 0.0
0003f0 00 00 00 00 00 00 00 00 00 00 00 00 00 00 00 00
       0.0 0.0 0.0 0.0

layer3.weight f4 [256, 256]
000000 40 92 07 bd c7 b1 96 3c b1 88 83 3b 7b e9 e0 bb
       -0.03309846 0.018395318 0.0040140976 -0.0068637705
000010 21 78 eb ba 51 21 da 3a 5c 99 05 3d e3 fa c8 bd
       -0.0017964878 0.0016642009 0.032616958 -0.09813478
000020 1e fc 8a 3d 89 bf 75 bd 6e a3 7d bd fb b1 4a 3d
       0.06786369 -0.059997115 -0.061923437 0.04948614
000030 df 40 3d bc f2 38 36 3c 14 8f 15 bd 5e e6 05 3d
       -0.011551111 0.011121975 -0.036513403 0.0326904
000040 50 09 7c 3d 35 4f 3c 3d c2 72 b6 bd fd c6 8a 3d
       0.06153232 0.045973975 -0.08908607 0.06776235
000050 f2 dd b4 3d 9b ca d9 bb d1 73 cb 3d 56 ad a2 3d
       0.08831395 -0.006646467 0.099341996 0.079432175
000060 ec 97 87 bd e5 cd 18 3d e9 f4 11 bd 39 9b 57 3d
       -0.06620774 0.03730573 -0.035633955 0.052638266
000070 2b 65 53 3c a7 2e c3 bd 8c 5f 04 bd b9 5d 62 bd
       0.012902538 -0.095303826 -0.032317683 -0.055265162
000080 59 c3 62 3d 79 74 e8 3c 7b bb 28 3d c3 96 12 bd
       0.05536208 0.028375851 0.04119442 -0.03578831
000090 da e4 6a 3c 9b 50 d9 bc 15 0b a6 bd a9 70 0e 3d
       0.014336789 -0.026527693 -0.081075825 0.03477541
0000a0 4c b6 89 bc 7f c1 bc 3d 67 ec 8d bd 5e dc d1 bd
       -0.016810559 0.09216594 -0.06929856 -0.1024711
0000b0 12 1e 40 3c dd 00 c8 bd 1b f5 72 3d 90 26 ad 3d
       0.011725919 -0.0976579 0.059315782 0.08454621
0000c0 09 42 d3 3d ef 11 b1 ba ff ae 53 3c 49 a2 16 bd
       0.103153296 -0.0013509373 0.01292014 -0.03677586
0000d0 2e 16 40 bd ee 41 9c 3b cf c3 d8 3d 43 c5 3a 3c
       -0.046896152 0.0047686016 0.105842225 0.01139957
0000e0 eb 5c 8e bc 77 62 a2 3c 54 a9 e5 bc f5 17 5d ba
       -0.017378291 0.019822342 -0.028034844 -0.0008434051
0000f0 b1 4b c4 3d 2f 5d bd bd 90 f7 b8 3b c3 b1 97 bd
       0.095847495 -0.09246289 0.005644746 -0.07406952
000100 0e a2 19 3d 4a 70 74 3c c7 81 8c bd 7a a5 57 bd
       0.037508063 0.01491935 -0.068606906 -0.052648045
000110 f4 c5 d0 3d 9d 5e 19 3d 74 96 60 3c d8 b5 ed 3c
       0.101940066 0.037443746 0.013707746 0.029017374
000120 7b cf b9 3d a0 f6 bb bd d8 e1 2e bd e4 19 a3 3d
       0.09072777 -0.09177899 -0.04269585 0.079639226
000130 76 5d 80 bd 21 cc 93 bd 78 b8 d9 bd 4c ac 93 bd
       -0.06267826 -0.07216669 -0.10630888 -0.072105974
000140 ad cb 59 3d 32 98 a7 3a f8 95 2d 3d 57 b3 9e 3d
       0.053172756 0.0012786447 0.04237935 0.0774905
000150 63 70 c9 bd af 5c 80 3c 36 c8 8e bd 16 25 9d 3d
       -0.09835889 0.015669195 -0.06971781 0.07673089
000160 bd c7 42 bc d6 43 ab bb a4 f0 80 3d 20 c4 92 bd
       -0.011888442 -0.0052265925 0.062958986 -0.07166314
000170 cb fa d1 3c 00 5a 83 3d 14 82 4f 3d be 2c 2a bd
       0.025632283 0.064136505 0.05066116 -0.041546576
000180 12 b2 d2 3d be 9c 6f bc ea bc c7 3d dc df 24 3c
       0.102878705 -0.014624773 0.097528294 0.010063138
000190 58 02 50 3d 1b 31 69 3d b4 6e 14 bc 87 cb b2 3c
       0.050783485 0.056931596 -0.009059597 0.021825565
0001a0 62 2d 6e 3c 59 82 ba bd 62 9b 69 bb 6f 02 b0 3a
       0.014537187 -0.09106893 -0.0035645594 0.001342846
0001b0 1a c3 f1 3c ab b2 ad bc e9 5f ba bc 17 bf c4 bd
       0.029511977 -0.02120336 -0.022750812 -0.0960676
0001c0 f6 9e 86 bd 38 c1 88 bd a8 e2 bd bd 45 5f 9f 3c
       -0.06573288 -0.066774786 -0.09271747 0.019454608
0001d0 7d 30 bb bd 08 48 52 bc b9 d7 79 bd 94 e9 c9 bd
       -0.09140108 -0.012834556 -0.060996745 -0.098590046
0001e0 30 8f d1 bc a4 3a a2 3d c3 5c 36 3d 83 a6 bd bd
       -0.025580972 0.07921341 0.04452206 -0.09260275
0001f0 65 b6 02 bd 43 b3 c8 bd 24 93 ba bb b1 4a ac 3d
       -0.031912226 -0.097998165 -0.00569381 0.08412684
000200 88 9a e4 39 a2 da 7c 3b d7 ae bf 3b ad fe 93 3d
       0.00043602684 0.0038582464 0.0058497 0.0722631
000210 43 e7 50 bd 68 c8 31 bd bc 6b ad 3d ad 52 89 3d
       -0.0510018 -0.043404013 0.08467814 0.06705222
000220 df 45 b3 bd ea 7e 5a bd dc 7f 80 3d dd b2 8c 3a
       -0.08753561 -0.05334369 0.06274387 0.0010734458
000230 c0 5a c9 3c e1 2c 56 bd 08 54 19 3d aa 31 81 3d
       0.024579406 -0.052288894 0.037433654 0.06308301
000240 2f 3a 04 3d 7d 02 80 3d 21 56 87 bc bb f9 b1 bd
       0.03228205 0.062504746 -0.016520562 -0.086902104
000250 7c f3 06 39 5e 10 51 3b d7 cc 93 bd 77 1f 17 bd
       0.00012869941 0.0031900625 -0.072168045 -0.03689524
000260 95 ae 8f 3d e6 0c 87 3c 99 17 92 3d a8 a8 de bc
       0.07015721 0.016485643 0.07133407 -0.027180031
000270 6b 84 e1 3c e6 72 ce 3d 0c fa d6 bc 81 58 83 3d
       0.027528962 0.10080509 -0.026242279 0.06413365
000280 f9 94 d2 3d 9d 93 c8 3d d5 0f 1e 3d 3e 97 9b bd
       0.102823205 0.0979378 0.038589317 -0.075972065
000290 64 b3 1c bd 25 79 aa 3d 5e 33 33 3c 04 27 43 3d
       -0.038257018 0.08323888 0.01093754 0.04764463
0002a0 bc 2a 55 bd 42 48 fb 3c c0 b6 8d bc 24 4f 25 3c
       -0.052042708 0.030674104 -0.017299056 0.010089669
0002b0 44 8d b3 3d cd 8f b8 bd 97 fa b2 bd 6c 67 69 3b
       0.08767179 -0.09011803 -0.087392025 0.0035614623
0002c0 f6 e0 0b 3c df 7c c5 bd e6 9d c8 3d 6b fb 30 3b
       0.008537522 -0.09642958 0.09795742 0.0027005326
0002d0 c3 9c e6 bc 55 a3 60 bb a8 3a 7d 3d 4a 33 31 3d
       -0.028150922 -0.003427704 0.061823517 0.043261804
0002e0 e3 7e c9 bd cf d9 b3 3d dd 00 d1 3d c6 31 b9 bc
       -0.09838655 0.08781778 0.10205243 -0.022606742
0002f0 bc 4e ce 3d 80 93 fa bc 20 84 cd 3d f8 8a 76 3d
       0.10073611 -0.030587912 0.100349665 0.060191125
000300 26 21 d9 3d 4a b5 4e bd 05 a0 37 3c eb 10 c7 3d
       0.10602026 -0.05046586 0.011207585 0.09720024
000310 a2 e9 59 bd 66 b9 86 bd 3b 50 ae 3c 32 81 ad 3d
       -0.053201325 -0.06578331 0.021278491 0.08471908
000320 b0 f4 c4 bd b5 61 c4 bd f8 45 8e 3c 6c a0 80 3c
       -0.09616983 -0.09588949 0.017367348 0.015701495
000330 e5 72 23 3d 85 db 13 bd 40 96 3c 3d a1 23 7e 3d
       0.039904494 -0.036098022 0.046041727 0.062045697
000340 3f e3 db 3d 06 4e af bd 43 79 d4 bd ef a0 6f bd
       0.10736703 -0.08559804 -0.10374691 -0.058503088
000350 a5 b4 bf bd 0f 6c d1 3c f8 fc 60 bd 1c f2 d6 3d
       -0.09360627 0.025564222 -0.05492875 0.104953974
000360 18 55 ce bd 4b 5e 1c bc d6 c7 82 3c 99 b8 a3 3c
       -0.10074824 -0.009543966 0.01596443 0.019985484
000370 e8 69 03 3d 49 ba b2 3c 25 5c 9e 3d d2 d2 9c 3d
       0.032083422 0.021817343 0.07732419 0.07657398
000380 f5 63 64 bd 39 ec 38 bd 5b 33 86 bd 0c f4 12 3d
       -0.05575939 -0.045147154 -0.06552764 0.035877272
000390 38 8b b0 bd a8 4f da bd 33 15 75 bd 8b 59 d1 bd
       -0.08620304 -0.106597245 -0.05983467 -0.10222157
0003a0 2d 1c 21 3d e7 11 ce bd 3a 5c c1 3d 31 05 93 3c
       0.03933351 -0.10062008 0.09441419 0.017946811
0003b0 b0 90 d6 3d e1 2f b5 bd a2 be 76 3d da f1 91 3c
       0.10476816 -0.08847023 0.060240395 0.01781552
0003c0 d2 e1 67 bd 66 2d ca bd 28 16 97 3d c7 45 06 3d
       -0.056611843 -0.0987194 0.07377273 0.03278139
0003d0 00 ac d4 3d 08 29 29 bd b5 d0 99 bd 15 51 c0 3c
       0.10384369 -0.041298896 -0.07510511 0.023476163
0003e0 84 c7 72 3d 86 05 29 3d 94 25 ec bc 47 74 96 bd
       0.059272304 0.041265033 -0.028826512 -0.07346397
0003f0 29 a7 a8 3d 75 5a b9 3d cf 82 73 bd b8 e7 82 ba
       0.08235008 0.090504564 -0.05945092 -0.000998727

layer3.bias f4 [256]
000000 00 00 00 00 00 00 00 00 00 00 00 00 00 00 00 00
       0.0 0.0 0.0 0.0
000010 00 00 00 00 00 00 00 00 00 00 00 00 00 00 00 00
       0.0 0.0 0.0 0.0
000020 00 00 00 00 00 00 00 00 00 00 00 00 00 00 00 00
       0.0 0.0 0.0 0.0
000030 00 00 00 00 00 00 00 00 00 00 00 00 00 00 00 00
       0.0 0.0 0.0 0.0
000040 00 00 00 00 00 00 00 00 00 00 00 00 00 00 00 00
       0.0 0.0 0.0 0.0
000050 00 00 00 00 00 00 00 00 00 00 00 00 00 00 00 00
       0.0 0.0 0.0 0.0
000060 00 00 00 00 00 00 00 00 00 00 00 00 00 00 00 00
       0.0 0.0 0.0 0.0
000070 00 00 00 00 00 00 00 00 00 00 00 00 00 00 00 00
       0.0 0.0 0.0 0.0
000080 00 00 00 00 00 00 00 00 00 00 00 00 00 00 00 00
       0.0 0.0 0.0 0.0
000090 00 00 00 00 00 00 00 00 00 00 00 00 00 00 00 00
       0.0 0.0 0.0 0.0
0000a0 00 00 00 00 00 00 00 00 00 00 00 00 00 00 00 00
       0.0 0.0 0.0 0.0
0000b0 00 00 00 00 00 00 00 00 00 00 00 00 00 00 00 00
       0.0 0.0 0.0 0.0
0000c0 00 00 00 00 00 00 00 00 00 00 00 00 00 00 00 00
       0.0 0.0 0.0 0.0
0000d0 00 00 00 00 00 00 00 00 00 00 00 00 00 00 00 00
       0.0 0.0 0.0 0.0
0000e0 00 00 00 00 00 00 00 00 00 00 00 00 00 00 00 00
       0.0 0.0 0.0 0.0
0000f0 00 00 00 00 00 00 00 00 00 00 00 00 00 00 00 00
       0.0 0.0 0.0 0.0
000100 00 00 00 00 00 00 00 00 00 00 00 00 00 00 00 00
       0.0 0.0 0.0 0.0
000110 00 00 00 00 00 00 00 00 00 00 00 00 00 00 00 00
       0.0 0.0 0.0 0.0
000120 00 00 00 00 00 00 00 00 00 00 00 00 00 00 00 00
       0.0 0.0 0.0 0.0
000130 00 00 00 00 00 00 00 00 00 00 00 00 00 00 00 00
       0.0 0.0 0.0 0.0
000140 00 00 00 00 00 00 00 00 00 00 00 00 00 00 00 00
       0.0 0.0 0.0 0.0
000150 00 00 00 00 00 00 00 00 00 00 00 00 00 00 00 00
       0.0 0.0 0.0 0.0
000160 00 00 00 00 00 00 00 00 00 00 00 00 00 00 00 00
       0.0 0.0 0.0 0.0
000170 00 00 00 00 00 00 00 00 00 00 00 00 00 00 00 00
       0.0 0.0 0.0 0.0
000180 00 00 00 00 00 00 00 00 00 00 00 00 00 00 00 00
       0.0 0.0 0.0 0.0
000190 00 00 00 00 00 00 00 00 00 00 00 00 00 00 00 00
       0.0 0.0 0.0 0.0
0001a0 00 00 00 00 00 00 00 00 00 00 00 00 00 00 00 00
       0.0 0.0 0.0 0.0
0001b0 00 00 00 00 00 00 00 00 00 00 00 00 00 00 00 00
       0.0 0.0 0.0 0.0
0001c0 00 00 00 00 00 00 00 00 00 00 00 00 00 00 00 00
       0.0 0.0 0.0 0.0
0001d0 00 00 00 00 00 00 00 00 00 00 00 00 00 00 00 00
       0.0 0.0 0.0 0.0
0001e0 00 00 00 00 00 00 00 00 00 00 00 00 00 00 00 00
       0.0 0.0 0.0 0.0
0001f0 00 00 00 00 00 00 00 00 00 00 00 00 00 00 00 00
       0.0 0.0 0.0 0.0
000200 00 00 00 00 00 00 00 00 00 00 00 00 00 00 00 00
       0.0 0.0 0.0 0.0
000210 00 00 00 00 00 00 00 00 00 00 00 00 00 00 00 00
       0.0 0.0 0.0 0.0
000220 00 00 00 00 00 00 00 00 00 00 00 00 00 00 00 00
       0.0 0.0 0.0 0.0
000230 00 00 00 00 00 00 00 00 00 00 00 00 00 00 00 00
       0.0 0.0 0.0 0.0
000240 00 00 00 00 00 00 00 00 00 00 00 00 00 00 00 00
       0.0 0.0 0.0 0.0
000250 00 00 00 00 00 00 00 00 00 00 00 00 00 00 00 00
       0.0 0.0 0.0 0.0
000260 00 00 00 00 00 00 00 00 00 00 00 00 00 00 00 00
       0.0 0.0 0.0 0.0
000270 00 00 00 00 00 00 00 00 00 00 00 00 00 00 00 00
       0.0 0.0 0.0 0.0
000280 00 00 00 00 00 00 00 00 00 00 00 00 00 00 00 00
       0.0 0.0 0.0 0.0
000290 00 00 00 00 00 00 00 00 00 00 00 00 00 00 00 00
       0.0 0.0 0.0 0.0
0002a0 00 00 00 00 00 00 00 00 00 00 00 00 00 00 00 00
       0.0 0.0 0.0 0.0
0002b0 00 00 00 00 00 00 00 00 00 00 00 00 00 00 00 00
       0.0 0.0 0.0 0.0
0002c0 00 00 00 00 00 00 00 00 00 00 00 00 00 00 00 00
       0.0 0.0 0.0 0.0
0002d0 00 00 00 00 00 00 00 00 00 00 00 00 00 00 00 00
       0.0 0.0 0.0 0.0
0002e0 00 00 00 00 00 00 00 00 00 00 00 00 00 00 00 00
       0.0 0.0 0.0 0.0
0002f0 00 00 00 00 00 00 00 00 00 00 00 00 00 00 00 00
       0.0 0.0 0.0 0.0
000300 00 00 00 00 00 00 00 00 00 00 00 00 00 00 00 00
       0.0 0.0 0.0 0.0
000310 00 00 00 00 00 00 00 00 00 00 00 00 00 00 00 00
       0.0 0.0 0.0 0.0
000320 00 00 00 00 00 00 00 00 00 00 00 00 00 00 00 00
       0.0 0.0 0.0 0.0
000330 00 00 00 00 00 00 00 00 00 00 00 00 00 00 00 00
       0.0 0.0 0.0 0.0
000340 00 00 00 00 00 00 00 00 00 00 00 00 00 00 00 00
       0.0 0.0 0.0 0.0
000350 00 00 00 00 00 00 00 00 00 00 00 00 00 00 00 00
       0.0 0.0 0.0 0.0
000360 00 00 00 00 00 00 00 00 00 00 00 00 00 00 00 00
       0.0 0.0 0.0 0.0
000370 00 00 00 00 00 00 00 00 00 00 00 00 00 00 00 00
       0.0 0.0 0.0 0.0
000380 00 00 00 00 00 00 00 00 00 00 00 00 00 00 00 00
       0.0 0.0 0.0 0.0
000390 00 00 00 00 00 00 00 00 00 00 00 00 00 00 00 00
       0.0 0.0 0.0 0.0
0003a0 00 00 00 00 00 00 00 00 00 00 00 00 00 00 00 00
       0.0 0.0 0.0 0.0
0003b0 00 00 00 00 00 00 00 00 00 00 00 00 00 00 00 00
       0.0 0.0 0.0 0.0
0003c0 00 00 00 00 00 00 00 00 00 00 00 00 00 00 00 00
       0.0 0.0 0.0 0.0
0003d0 00 00 00 00 00 00 00 00 00 00 00 00 00 00 00 00
       0.0 0.0 0.0 0.0
0003e0 00 00 00 00 00 00 00 00 00 00 00 00 00 00 00 00
       0.0 0.0 0.0 0.0
0003f0 00 00 00 00 00 00 00 00 00 00 00 00 00 00 00 00
       0.0 0.0 0.0 0.0

layer4.weight f4 [2, 256]
000000 89 a3 fb 3d bf bf 47 bd bc cc 9f bc 11 be 1b 3c
       0.12287051 -0.048766848 -0.019506805 0.009505765
000010 97 6b 00 be 09 15 1d bd 7b 8d 15 3e c8 38 88 bd
       -0.12541042 -0.03835014 0.14604752 -0.06651455
000020 8b 87 ce bd 8a 8f 12 3e c5 84 8e bd f1 69 67 3d
       -0.100844465 0.14312568 -0.069589175 0.056497518
000030 78 35 e1 3d c9 64 cc bd 52 40 85 3d 04 89 08 be
       0.109965265 -0.09980161 0.06506409 -0.13333517
000040 d5 da f0 bd 77 c3 0e 3e ae 51 ce bd 8e d9 80 3c
       -0.11760489 0.13941751 -0.10074173 0.015728738
000050 78 6e b3 3d 8d 4e f5 3d 85 00 f5 3d 34 0f 2b 3d
       0.087613046 0.11977873 0.1196299 0.041762546
000060 05 b5 0c 3e df 28 c2 3d ed 28 f7 bd 3b fd e1 bc
       0.13740928 0.09480452 -0.12068353 -0.02758657
000070 ef 12 16 3e a1 47 d8 bd 85 b9 35 bc 19 fe e1 bd
       0.1465566 -0.10560537 -0.011091595 -0.110347934
000080 d3 15 e4 bd e2 32 14 bd 99 d7 c1 3d 77 73 1f 3d
       -0.11136975 -0.036181338 0.0946495 0.038928475
000090 93 7e 4a 3d 9e c7 7b 3d 55 93 fa 3d 8b ea dc bd
       0.049437117 0.061469667 0.122351326 -0.10786923
0000a0 aa 00 5d 3c f3 f3 b8 3d 1c 54 09 be 2f ec 4d bd
       0.013488928 0.090309046 -0.13410991 -0.05027407
0000b0 63 1a c4 bd 6f 9c e5 bd cd bf c4 3c 9b 3c 88 bd
       -0.09575345 -0.11211478 0.024017239 -0.066521846
0000c0 6a 5f 16 3e 6e 98 84 3c 16 09 5c bd d2 e7 05 3e
       0.14684835 0.016185965 -0.053719603 0.13076714
0000d0 f3 5e dd bd 04 da d8 3d 62 fd 04 3e a1 18 4d bd
       -0.10809126 0.10588458 0.12987283 -0.050072316
0000e0 a5 b3 eb 3c b1 b7 07 3e 54 5b a4 3d ad ca 66 bd
       0.028772185 0.13253666 0.08025232 -0.05634563
0000f0 e1 71 d5 3c dc 3e c2 3d 97 87 0b bc 96 84 14 3e
       0.026055278 0.09484646 -0.008516214 0.14503703
000100 75 6a 09 3e ff 2d 14 be 16 cd 00 3e 5c 25 70 3d
       0.13419516 -0.14470671 0.12578234 0.05862938
000110 35 23 2c bc 32 f2 f7 3d e5 3a 72 3d 90 63 11 3c
       -0.010506441 0.12106742 0.059138197 0.008873835
000120 8e 77 ff 3d c3 c5 a4 bd ad 3f 12 3e dc ac a4 3c
       0.12473975 -0.080455326 0.14282103 0.020101957
000130 65 b4 b8 bd ba 7e af bd 60 50 01 3e 27 ce 5c 3d
       -0.090187825 -0.08569093 0.12628317 0.05390754
000140 5e 72 e2 3d d5 3a 81 3d 5b fa 82 bc cb 1b 99 ba
       0.1105697 0.063100494 -0.01598852 -0.0011681257
000150 76 43 a4 3d 3b 2c 01 3d 10 f9 cc bd 25 cc d6 bd
       0.0802068 0.031536322 -0.100084424 -0.10488156
000160 b0 dc 9b 3d 96 35 15 3e 00 eb 83 bd bb 78 d5 3d
       0.07610452 0.14571223 -0.06441307 0.10423418
000170 ed eb 00 be 1e 76 9a bc 0a 67 f8 3d 72 58 c4 bb
       -0.12589999 -0.01885515 0.12129028 -0.005991989
000180 0f 45 d6 bd b0 3a e2 3a 3e 54 61 3d c3 9d 85 3d
       -0.10462391 0.0017259922 0.05501198 0.06524231
000190 2b df bd 3d c5 0b 3b bd 09 f9 85 bd 95 08 d0 3c
       0.092710815 -0.04566552 -0.0654164 0.025394717
0001a0 7e e1 f8 bd e4 aa c7 3c 90 37 94 3d a8 9b 00 3e
       -0.12152384 0.02437348 0.0723716 0.12559378
0001b0 3c a5 f6 bc 15 ec f8 bc cb 8f ed 3d c8 e0 68 3d
       -0.030108087 -0.03038601 0.11599692 0.056854993
0001c0 11 41 e8 3d 58 f6 0a 3e b7 7d 92 3d 25 fa 18 3e
       0.113405354 0.13570535 0.071528845 0.14939173
0001d0 65 de ab bd ed 8f c0 bd fc 07 d9 bd 5a 25 4e 3b
       -0.08392028 -0.09402452 -0.10597226 0.0031455369
0001e0 14 21 e9 3c 33 bc 04 3e 25 9a 35 3d e0 a5 0c 3e
       0.028458156 0.12962417 0.044336457 0.13735151
0001f0 77 3b 67 bd 0d f5 c8 bd d4 a9 a7 bc fc 67 c2 bd
       -0.056453194 -0.09812365 -0.020466723 -0.0949249
000200 5c e0 a6 3d 99 d9 ba bd 44 ad 80 bd 3a 05 58 3d
       0.08148262 -0.09123535 -0.06283048 0.05273936
000210 cb a2 4a 3d 5a b3 00 be 62 14 03 be 52 da 8b 3d
       0.049471658 -0.12568417 -0.12800744 0.06828751
000220 98 4d 10 3e 6b da 76 bd e8 87 d8 3d aa 3b d6 3d
       0.140921 -0.060266893 0.10572797 0.10460599
000230 22 1a 2c bd ce 8d 2f 3d cc 71 5f 3d e1 e6 b5 bd
       -0.04201711 0.042859845 0.054551885 -0.08881927
000240 78 8a e7 3d 07 1e a2 bc 11 f6 0a 3e 64 b5 d4 3c
       0.11305708 -0.019789709 0.1357043 0.0259654
000250 f9 53 0c 3e ef 14 0b 3e 86 ac b4 bd 0b a0 62 3d
       0.13703908 0.13582204 -0.08821969 0.05532841
000260 02 92 82 3b 80 0b 81 bc 17 a6 0b 3c c0 03 1b bd
       0.0039846906 -0.015752554 0.008523486 -0.037845373
000270 68 5e 01 3e 8b 98 07 be 84 bd 80 bd c6 81 34 3d
       0.1263367 -0.13241784 -0.06286147 0.044069074
000280 32 f6 b8 3b 6d fb 91 bd 5f 3c 2f bd c8 c9 9e bd
       0.005644583 -0.07128034 -0.042782184 -0.077533305
000290 dd 52 cd 3c 21 0f ba 3d 25 4b 17 be ab 4d e1 3d
       0.025063926 0.09084917 -0.14774759 0.11001142
0002a0 13 ca a6 3c 9e 56 47 bd 5c da 01 be 77 ab 86 3d
       0.020360028 -0.04866659 -0.12680954 0.06575673
0002b0 7e cd c2 3d a1 32 3f 3d 44 1c 78 3c 9b 05 0a 3e
       0.09511851 0.046679143 0.015143458 0.13478701
0002c0 76 77 26 3d 4c 3a 0b be 48 c3 a5 bc 80 de 50 3d
       0.04064127 -0.13596457 -0.020234719 0.050993443
0002d0 2f c4 cc 3d 98 b2 e5 3d c3 93 07 be fd 72 db 3d
       0.099983566 0.11215705 -0.1323996 0.10715292
0002e0 d7 b9 4d bd 92 ca 05 3b 05 28 96 bd e3 ba 19 bd
       -0.05022606 0.002041493 -0.07331852 -0.037531745
0002f0 b9 16 b7 3d be 50 10 bd 9f 6c f8 3d e8 40 d6 3d
       0.08939881 -0.03523325 0.12130093 0.10461599
000300 73 22 f2 3d a0 f3 a5 bc d9 7a 91 bd 39 a2 f5 bd
       0.11822977 -0.020257771 -0.071035095 -0.11993832
000310 cd ce c9 bd c7 28 90 3d 80 8c a0 3c 3b fe 1b 3e
       -0.09853897 0.07039028 0.019598246 0.152337
000320 7c 82 09 3e 17 13 0f 3d f1 1f d8 bd a0 45 a0 3d
       0.13428682 0.034930315 -0.10552967 0.0782578
000330 d1 80 e3 bd de 0e 60 3d 1c b1 a0 3d 42 78 db bd
       -0.11108554 0.05470168 0.07846281 -0.10716297
000340 5d 6a 19 be 1b 6a db 3a 09 a8 ef 3d 9a ca fb bd
       -0.1498198 0.0016739996 0.11701972 -0.122945026
000350 e1 24 2e 3d 38 c4 cd bd 3a 10 c0 3d 92 e0 15 be
       0.04251564 -0.100471914 0.09378095 -0.14636448
000360 76 ad e7 3d 9a 71 fe bd 43 11 03 3e 7e a7 f6 3d
       0.11312382 -0.124240115 0.12799554 0.12043665
000370 2e e0 30 bd ac a4 0c be a3 26 f4 bd b0 20 85 bc
       -0.043182544 -0.13734692 -0.11921432 -0.016250938
000380 80 31 a7 3d c2 d9 fa bc 66 e8 b3 ba 16 e8 58 bd
       0.08163738 -0.030621413 -0.0013725876 -0.05295571
000390 06 b8 ad bd 97 e5 7c bc 7e 2c 58 3d fd 65 04 bd
       -0.08482365 -0.015435598 0.052776806 -0.032323826
0003a0 79 22 6c bd 22 e2 9a 3d d3 76 25 bd 0b 1d 8d bc
       -0.057650063 0.07562663 -0.040396523 -0.017225763
0003b0 02 4e f4 3d 58 e3 e1 3d 39 3e c8 bd 83 7f 1c bd
       0.11928941 0.110296905 -0.09777493 -0.038207542
0003c0 22 12 1f bd 2c 22 1c be 32 6b 05 be 43 e2 5f bd
       -0.038835652 -0.1524741 -0.13029173 -0.05465914
0003d0 8a 1d fd bd b2 e2 a9 bd 95 f8 15 bd 00 30 15 3e
       -0.1235915 -0.08295192 -0.03661402 0.14569092
0003e0 7c 1f e2 bd 4d 6f fc bd 38 ed 61 b8 06 df 72 3d
       -0.110411614 -0.123259164 -5.3865107e-05 0.059294723
0003f0 b0 09 5e bd a0 ff ca 3d ea ad 0a bd ca 08 2f bd
       -0.054208457 0.09912038 -0.033857264 -0.04273299

layer4.bias f4 [2]
000000 00 00 00 00 00 00 00 00
       0.0 0.0
