cartpole_v1_best_model_DSP.pth (torch, 73094 bytes, 6 tensors)

layer1.weight f4 [128, 5]
-0.0007167949 0.0011885681 0.0022188958 -0.0004241284 0.000537346 -0.0033485135 0.0015721426 -0.00983063
-0.01172147 0.00034095588 -0.00016711558 0.00050798425 0.016892672 0.0033883243 -0.0005913497 -0.00034118933
-0.00058919407 -0.009918058 -0.007685807 -0.0003266545 0.08868097 0.05483853 0.45516303 0.28989577
0.045802753 0.0009249963 0.002373905 0.0071922303 -0.0035141823 -0.00054241385 -0.07758687 -0.0273837
-0.6487515 -0.115443885 -0.01561889 0.0001493872 0.0027323873 0.003658078 -0.0013765102 0.001045247
0.023726093 0.010070286 -0.08016665 -0.020804865 -0.005756171 -0.002101707 0.00097626675 0.005479381
-0.0010966733 0.00040589776 -0.00090491417 0.0021433588 -0.005227248 -0.0042052325 0.00093960046 -0.0012941454
0.0014837126 0.010017309 0.0024759483 0.0007804495 -0.00015289409 0.0009614497 0.004136069 -0.001531065
0.0012454945 0.036450334 0.0016357147 -0.015217127 0.09428002 0.018684568 -0.008588795 -0.0020373422
-0.07513064 -0.05327582 -0.0020070733 0.010423964 0.019430963 -0.025623173 -0.012511226 0.009270582
-0.038108803 -0.03164649 -0.23384543 -0.14514148 -0.018117126 -0.0015625627 0.001069653 0.011886712
-0.0002824404 0.00014036053 0.071601026 0.009718403 -0.019070107 0.0027732395 -0.027511682 0.032447457
0.022278372 0.32041857 0.11409665 0.01682971 0.0007562379 -0.00021865091 -0.0004284087 -0.0002259318
-0.0011145155 -0.05193223 0.019169493 0.72759646 0.2720852 0.023267683 0.002031138 0.0038334876
0.013049382 0.0030718204 0.001288418 9.524728e-06 0.00029141485 -0.0043547065 -0.0006701894 -0.0016423321
-0.003350744 4.318324e-05 0.024806352 0.0028986807 -0.0006300053 -0.0012380021 0.0010052791 -0.016091183
-0.0076532215 0.00095307495 -0.0017705146 0.0006692986 -0.022849746 -0.017589176 -0.0007995561 0.062481828
0.06864142 0.5625397 0.29696038 0.032927725 0.0011459722 0.0012545339 0.0013686678 -0.0015631422
0.0014043961 -0.004856308 0.0031049473 0.0054290793 0.0012508121 -0.008786119 0.0088773165 0.024713913
0.088140145 0.009181775 -0.0015350083 -0.0009591645 0.0010289111 0.0052215885 0.00020701802 0.00039786645
0.19000728 0.0036450094 -0.45171806 -0.019853141 0.00076248194 -0.0026559248 0.0017138764 0.005305913
-0.00015569596 0.00080030196 -0.041146737 -0.0024973364 -0.87445396 -0.2444138 0.009626644 0.035055403
0.02911684 0.83104557 0.25725967 0.027287586 -0.001077716 0.0008366193 0.010328624 0.00030197744
-0.0019042712 -0.0011699271 0.0015508878 0.013646293 0.004871 0.0005694954 -0.002502527 0.00044239435
-0.015236051 -0.011551353 0.00020708826 -0.0008409105 -0.0024827141 -0.015815295 -0.016995694 -0.002457233
-0.022334771 -0.016693782 0.14197625 0.054671623 0.010375474 -0.0034766265 -0.00044859352 -0.021679405
-0.015028856 -0.00041709634 -0.005362774 0.011462004 -0.28658724 -0.051086333 0.010121549 -0.0021000288
0.0007227767 -0.002525202 0.0045349593 -8.8615825e-06 -0.00040486298 4.174459e-05 -0.00053673005 5.4786615e-05
-0.0004699328 0.10515322 0.004685152 0.014042778 0.048384268 -0.040169448 0.0009512732 -0.00063207664
0.00040474648 -0.00055215525 -0.0015499971 -0.001982517 0.0008525117 -0.0037831767 -0.0035599603 0.0007330862
-0.0029865499 -0.0021190715 -0.008901001 -0.011400235 -0.00015042872 -0.0027718423 0.0018258555 0.0009192586
-0.0048377337 0.0009098591 -0.00075279566 0.00021417225 -0.016640348 -0.0044447267 -0.0051707216 -0.0019040819
00000000: 4be7 3bba bac9 9b3a e56a 113b 8d5d deb9
00000010: aedc 0c3a bc72 5bbb 5a10 ce3a a710 21bc
00000020: 690b 40bc 53c2 b239 bf3b 2fb9 3f2a 053a
00000030: 8062 8a3c a60e 5e3b ce04 1bba a8e1 b2b9
00000040: 2574 1aba 5a7f 22bc 39d9 fbbb d342 abb9
00000050: 5e9e b53d 5e9e 603d 210b e93e 386d 943e
00000060: ab9b 3b3d 737b 723a 8493 1b3b cdac eb3b
00000070: 324e 66bb c730 0eba dde5 9ebd c853 e0bc
00000080: 9414 26bf d86d ecbd 5fe6 7fbc d2a4 1c39
00000090: da11 333b 5dbc 6f3b 056c b4ba ab00 893a
000000a0: 395d c23c d7fd 243c 6a2e a4bd f76e aabc
000000b0: 439e bcbb cbbc 09bb 27ec 7f3a 618c b33b
000000c0: 40be 8fba adce d439 c337 6dba 9877 0c3b
000000d0: 5649 abbb 0ccc 89bb 854f 763a 50a0 a9ba
000000e0: 2279 c23a a41f 243c 8543 223b 1497 4c3a
000000f0: 3252 20b9 cc09 7c3a dd87 873b 04ae c8ba
00000100: dc3f a33a f24c 153d 7a65 d63a 4251 79bc
00000110: e215 c13d 6110 993c 04b8 0cbc ee84 05bb
00000120: 18de 99bd bf37 5abd 1a89 03bb 46c9 2a3c
00000130: af2d 9f3c b0e7 d1bc e3fb 4cbc a4e3 173c
00000140: fa17 1cbd c09f 01bd 2d75 6fbe f89f 14be
00000150: 5e6a 94bc e7ce ccba 9933 8c3a 7cc0 423c
00000160: 8214 94b9 be2d 1339 8fa3 923d f039 1f3c
00000170: ea38 9cbc 3dbf 353b 2e60 e1bc a0e7 043d
00000180: 2281 b63c e70d a43e 81ab e93d 76de 893c
00000190: 443e 463a a845 65b9 0b9c e0b9 1be8 6cb9
000001a0: ef14 92ba e4b6 54bd 5709 9d3c c343 3a3f
000001b0: c04e 8b3e de9b be3c d71c 053b 403b 7b3b
000001c0: 13cd 553c 9850 493b 22e0 a83a 65cc 1f37
000001d0: 0ac9 9839 edb1 8ebb a6af 2fba 8543 d7ba
000001e0: 2898 5bbb a71f 3538 b136 cb3c cbf7 3d3b
000001f0: f126 25ba 7544 a2ba 92c3 833a a8d1 83bc
00000200: e0c7 fabb c7d7 793a 9d10 e8ba de73 2f3a
00000210: 642f bbbc 2d17 90bc 4d99 51ba f2ec 7f3d
00000220: df93 8c3d 9a02 103f 310b 983e 39df 063d
00000230: 7234 963a 2c6f a43a df64 b33a 59e2 ccba
00000240: b713 b83a aa21 9fbb 5f7c 4b3b 6be6 b13b
00000250: 4af2 a33a a7f3 0fbc 2a72 113c d574 ca3c
00000260: d282 b43d 286f 163c 5532 c9ba 7170 7bba
00000270: 87dc 863a dc19 ab3b fa12 5939 bb98 d039
00000280: 4591 423e 1ce1 6e3b 9747 e7be 0ea3 a2bc
00000290: 4ce1 473a 060f 2ebb 26a4 e03a 39dd ad3b
000002a0: 5142 23b9 5bcb 513a 7b89 28bd 5aaa 23bb
000002b0: 37dc 5fbf 9c47 7abe 12b9 1d3c 4196 0f3d
000002c0: 7086 ee3c 67bf 543f 8ab7 833e 378a df3c
000002d0: 2642 8dba 9250 5b3a 6439 293c ba52 9e39
000002e0: bd98 f9ba 3d58 99ba 2947 cb3a b494 5f3c
000002f0: e99c 9f3b 304a 153a 7001 24bb 2af1 e739
00000300: a1a0 79bc e341 3dbc d525 5939 8c70 5cba
00000310: 08b5 22bb 148f 81bc 8e3a 8bbc 8709 21bb
00000320: 69f7 b6bc 66c1 88bc 3962 113e 5aef 5f3d
00000330: e4fd 293c 1dd8 63bb 3431 ebb9 0299 b1bc
00000340: 973b 76bc b9ad dab9 35ba afbb 21cb 3b3c
00000350: 90bb 92be e73f 51bd dad4 253c a3a0 09bb
00000360: b978 3d3a dc7d 25bb ff99 943b 35ac 14b7
00000370: ca43 d4b9 ea16 2f38 58b3 0cba aeca 6538
00000380: 5061 f6b9 925a d73d e785 993b ae13 663c
00000390: 952e 463d b888 24bd dd5e 793a f2b1 25ba
000003a0: 2734 d439 83be 10ba 4629 cbba 1eed 01bb
000003b0: 177b 5f3a 2cef 77bb 394e 69bb 952c 403a
000003c0: feb9 43bb 1fe0 0abb 81d5 11bc 0dc8 3abc
000003d0: 67bc 1db9 cca7 35bb 8b51 ef3a 66fa 703a
000003e0: da85 9ebb 9c83 6e3a 4357 45ba 6d93 6039
000003f0: 5751 88bc 12a5 91bb 286f a9bb 6392 f9ba

layer1.bias f4 [128]
0.20724446 0.2847782 0.28163505 0.10810892 -0.1011858 0.11279341 -0.033682827 0.07514634
-0.03532091 0.23979561 0.083288 0.19490515 0.061368648 0.0140286675 0.39293852 -0.036689237
0.03939122 0.24675052 -0.04144134 -0.03211355 -0.0012972611 -0.14467508 0.050585706 -0.0013754484
0.27318716 0.06993273 0.15505047 -0.0899627 0.05156163 -0.002074937 0.02647861 0.20700054
-0.1774023 0.23314801 -0.18416956 -0.09806804 0.18027602 0.23991685 0.14497755 0.13226457
-0.041498985 0.17874017 -0.072897255 0.18899289 -0.00042154043 -0.041426912 -0.0015908886 0.19350132
0.29743314 0.246579 0.22441737 0.17050962 0.12886906 -0.085422926 -0.23879552 -0.02586205
-0.0014090738 0.2366454 -0.12567617 0.22608581 0.16463381 0.10327368 0.24297768 -0.11767353
-0.07353884 0.011864554 0.16693455 0.3780097 0.07931079 0.15212162 0.18917961 0.19288228
-0.079537205 0.36751634 0.3411947 0.3334403 0.058201723 0.22686906 -0.0008916655 0.36730924
0.39691672 0.02467715 0.19875903 0.06577589 0.23644274 0.30787978 0.076236136 -0.13649979
0.35518155 0.19646499 -0.00080352096 0.07805909 -0.009661096 0.33169922 -0.0045918813 0.27270302
-0.0031627049 -0.09715736 -0.087444074 -0.0018147471 -0.07854747 0.20624058 -0.11422082 0.115063325
-0.10300913 0.26161122 0.09194402 0.14656928 0.041452654 0.33555478 0.039621066 0.3156796
0.30094397 0.38060457 0.38678986 -0.4098113 0.31118453 0.28973088 -0.18797784 0.27631688
-0.086120024 -0.18689272 0.12200747 -0.16662657 -0.03637818 0.23058864 -0.030399822 0.07882687
00000000: e437 543e 73ce 913e 7832 903e 3668 dd3d
00000010: 803a cfbd 3b00 e73d 01f7 09bd 53e6 993d
00000020: a9ac 10bd fb8c 753e e692 aa3d 3795 473e
00000030: b15d 7b3d 7fd8 653c 3d2f c93e 7447 16bd
00000040: b058 213d 2bac 7c3e 65be 29bd 7f89 03bd
00000050: dc08 aaba b425 14be f532 4f3d 6448 b4ba
00000060: 30df 8b3e e438 8f3d 8dc5 1e3e 5d3e b8bd
00000070: 4a32 533d abfb 07bb abe9 d83c f3f7 533e
00000080: f3a8 35be 5abe 6e3e f296 3cbe e6d7 c8bd
00000090: 479a 383e c3ac 753e ff74 143e 5d70 073e
000000a0: d7fa 29bd aa07 373e 284b 95bd 5a87 413e
000000b0: 3302 ddb9 44af 29bd 5d85 d0ba 3625 463e
000000c0: 2849 983e 357f 7c3e abcd 653e 139a 2e3e
000000d0: 40f6 033e 37f2 aebd d086 74be a6dc d3bc
000000e0: acb0 b8ba 2c53 723e 41b1 00be 0a83 673e
000000f0: c495 283e 2781 d33d 24cf 783e d2fe f0bd
00000100: 889b 96bd 8c63 423c e4f0 2a3e 7d8a c13e
00000110: b26d a23d c5c5 1b3e 4db8 413e ef82 453e
00000120: 67e4 a2bd 1a2b bc3e 12b1 ae3e b0b8 aa3e
00000130: ee64 6e3d 5d50 683e a9be 69ba f50f bc3e
00000140: ab38 cb3e bc27 ca3c 7d87 4b3e 83b5 863d
00000150: 0c1e 723e 6ba2 9d3e b121 9c3d 9ac6 0bbe
00000160: 5bda b53e 1e2e 493e 61a3 52ba 72dd 9f3d
00000170: 9349 1ebc 7bd4 a93e 7e77 96bb bb9f 8b3e
00000180: 6245 4fbb 70fa c6bd e115 b3bd cfdc edba
00000190: 7fdd a0bd bb30 533e 9bec e9bd 52a6 eb3d
000001a0: 73f6 d2bd e8f1 853e 254d bc3d 4216 163e
000001b0: 42ca 293d d6cd ab3e b349 223d c2a0 a13e
000001c0: 5415 9a3e 9ade c23e 5209 c63e c9d2 d1be
000001d0: 9453 9f3e 9b57 943e 437d 40be 6879 8d3e
000001e0: b25f b0bd ce60 3fbe 0ddf f93d 28a0 2abe
000001f0: 4901 15bd 6e1f 6c3e 0c09 f9bc fb6f a13d

layer2.weight f4 [128, 128]
0.19966283 0.104352586 0.31891584 0.04642465 -0.48812363 0.044135597 -0.28926212 0.02510842
-0.073355146 0.14418606 0.026898408 0.17223074 0.020298604 -0.005752415 0.12029973 -0.009686501
-0.09921295 0.16390929 -0.02414459 -0.050365314 0.00011646383 -0.59491813 0.015861511 -0.0014754115
0.2815884 0.018506687 0.041446604 -0.76686335 0.013208206 -0.0018178903 0.009259489 0.22167881
-0.39577043 0.16639535 -0.7471655 -0.5275974 0.052213572 0.203655 0.05579997 0.04898602
-0.026293265 0.058589343 -0.08674023 0.26772007 0.00017104972 -0.02077752 -0.000115452036 0.16543959
0.2893111 0.15147589 0.27539155 0.041612152 0.06010299 -0.030206367 -0.7220635 -0.090882406
0.0003553555 0.2829893 -0.44351068 0.29099992 0.08327567 0.045253117 0.217964 -0.19064839
-0.22752395 -0.018086433 0.08717255 0.18711413 0.031357568 0.064530365 0.12375236 0.2753163
-0.08478056 0.31829065 0.19535717 0.23070957 0.016861703 0.24207689 0.00022137437 0.320626
0.14542383 0.025622359 0.063046515 0.016525619 0.24296084 0.30554515 0.02379632 -0.5775342
0.1436357 0.16751711 -2.0108198e-05 0.022628194 -0.022689989 0.32415634 0.004648071 0.20670043
-0.0023182456 -0.58105785 -0.7205451 -0.00040552707 -0.012485642 0.11724695 -0.1666132 0.034913756
-0.6569667 0.24047089 0.032825757 0.10036318 0.014630532 0.28552008 -0.05311068 0.3111816
0.30848607 0.18476273 0.23947214 -0.12273172 0.3418307 0.1812478 -0.8283845 0.1925189
-0.48097354 -0.24976051 0.064926796 -0.49056724 -0.1855927 0.21556564 -0.13487022 0.02239747
-0.00796275 -0.003270119 -0.010246319 0.00014008148 0.32327482 0.005033614 0.5100923 0.00017341311
0.12552264 -0.003558767 -0.0008262696 -0.005749526 0.00016512859 0.07637861 -0.0045437515 0.019937253
0.11469524 -0.00020785102 0.026049329 0.11513995 2.8326569e-05 0.60677063 0.0020868178 -0.0025556514
-0.015766218 -0.001588743 -0.00048000386 0.50914896 -7.6207274e-05 0.0021018183 0.010608313 -0.007966421
0.27167916 -0.0055099144 0.5711389 0.5238167 0.0061468068 -0.0049471394 -0.0013168504 0.0049971864
0.030075265 -0.0027952527 0.057467796 -0.013011674 -6.157387e-05 0.12119736 -0.00012642502 -0.0072478103
-0.015699945 -0.0047260798 -0.04085796 0.0002658896 -0.00022725765 0.12474127 0.9334332 0.103332885
-0.0022340103 -0.035726685 0.35575524 -0.033324867 -0.00447183 0.001508349 -0.005176347 0.25717413
0.30092072 0.071241274 -0.0030665542 -0.0017299034 0.0013738392 -0.0025089614 0.00015846788 -0.0089716725
0.22129989 -0.004498695 -0.06840117 -0.006328674 -0.00032145376 -0.008070447 0.00015331862 -0.01436969
0.0070866463 0.013872847 -0.0008002848 -0.0006047205 -0.008842349 -0.0065555996 4.260498e-06 0.96502376
-0.004613861 -0.0055026654 0.0012954134 -0.00046382652 0.013312069 -0.008457922 -0.0018315213 -0.0056735924
0.032718677 0.64409447 0.44075674 -0.0016637339 0.009025577 -0.004628832 0.13307156 0.0010397282
0.73974943 -0.007950849 0.002601605 0.0034794994 0.0004246372 -0.004695006 0.18480983 -0.008674107
-0.009278103 0.015319344 0.0060889935 0.65365404 0.07627736 -0.002340864 0.5228519 -0.0041265422
0.32831645 0.34318098 -0.0008359471 0.34923726 0.3181578 -0.007704549 0.3922642 -0.0017021942
00000000: 6a74 4c3e cfb6 d53d f048 a33e c627 3e3d
00000010: 57eb f9be 87c7 343d 2a1a 94be 2cb0 cd3c
00000020: 393b 96bd 83a5 133e 0d5a dc3c 415d 303e
00000030: 4249 a63c c17e bcbb b45f f63d 21b4 1ebc
00000040: 2930 cbbd d6d7 273e e0ca c5bc dc4b 4ebd
00000050: 0b3e f438 8e4c 18bf 00f0 813c 9862 c1ba
00000060: 5b2c 903e 569b 973c eac3 293d 2851 44bf
00000070: 3b67 583c 4746 eeba 1db5 173c c5ff 623e
00000080: 6ca2 cabe 8b63 2a3e 3d46 3fbf a010 07bf
00000090: e6dd 553d f08a 503e 828e 643d 91a5 483d
000000a0: f964 d7bc 61fb 6f3d dda4 b1bd 9b12 893e
000000b0: cf5b 3339 9e35 aabc d71e f2b8 ff68 293e
000000c0: 9620 943e 7f1c 1b3e 1f00 8d3e 8171 2a3d
000000d0: 8e2e 763d 5873 f7bc 27d9 38bf 8e20 babd
000000e0: 024f ba39 f9e3 903e d513 e3be f1fd 943e
000000f0: 6f8c aa3d 555b 393d f431 5f3e 5539 43be
00000100: 0afc 68be 002a 94bc 8687 b23d d99a 3f3e
00000110: cb70 003d 7f28 843d e171 fd3d 42f6 8c3e
00000120: 6ea1 adbd fef6 a23e b60b 483e 213f 6c3e
00000130: 8e21 8a3c 01e3 773e bb20 6839 1729 a43e
00000140: fce9 143e fbe5 d13c 881e 813d bc60 873c
00000150: baca 783e 6a70 9c3e 80f0 c23c 48d9 13bf
00000160: 3d15 133e 9b89 2b3e 07ae a8b7 c35e b93c
00000170: 5be0 b9bc d2f7 a53e d84e 983b 47a9 533e
00000180: b5ed 17bb 35c0 14bf a575 38bf ec9c d4b9
00000190: 9490 4cbc 2b1f f03d a79c 2abe ba01 0f3d
000001a0: f82e 28bf 003e 763e 4d74 063d 368b cd3d
000001b0: e6b4 6f3c b02f 923e 968a 59bd 3253 9f3e
000001c0: e3f1 9d3e 7132 3d3e 2f38 753e c55a fbbd
000001d0: 6f04 af3e 0699 393e 0211 54bf ad23 453e
000001e0: 2a42 f6be 38c1 7fbe 57f8 843d a12b fbbe
000001f0: 030c 3ebe 3dbd 5c3e 6b1b 0abe e67a b73c
00000200: 3276 02bc 7e4f 56bb 2de0 27bc d6e2 1239
00000210: 4784 a53e 04f1 a43b 6995 023f 3ad6 3539
00000220: 0289 003e 343a 69bb 049a 58ba 8566 bcbb
00000230: 5e26 2d39 646c 9c3d c0e3 94bb 7353 a33c
00000240: 57e5 ea3d 95f2 59b9 6765 d53c 7ece eb3d
00000250: d89e ed37 5255 1b3f fec2 083b b77c 27bb
00000260: 2828 81bc 5e3d d0ba 07a9 fbb9 9657 023f
00000270: 78d1 9fb8 a9be 093b 7dce 2d3c 9785 02bc
00000280: 8819 8b3e 838c b4bb 2936 123f da18 063f
00000290: 276b c93b 9d1b a2bb 2b9a acba 70bf a33b
000002a0: 6760 f63c 8f30 37bb 5a63 6b3d eb2e 55bc
000002b0: 3821 81b8 5236 f83d f590 04b9 0a7f edbb
000002c0: 2c9d 80bc 3bdd 9abb ad5a 27bd 1967 8b39
000002d0: 034c 6eb9 5a78 ff3d 7af5 6e3f 31a0 d33d
000002e0: 7968 12bb 2556 12bd 8d25 b63e a87f 08bd
000002f0: 6e88 92bb cbb3 c53a 599e a9bb 54ac 833e
00000300: 4812 9a3e f2e6 913d 3ef8 48bb edbd e2ba
00000310: 6512 b43a 636d 24bb 662a 2639 ecfd 12bc
00000320: 709c 623e ca69 93bb ea15 8cbd c460 cfbb
00000330: cb88 a8b9 e839 04bc 27c4 2039 d96e 6bbc
00000340: 1937 e83b f04a 633c 34ca 51ba 1b86 1eba
00000350: 80df 10bc 5bd0 d6bb 66f5 8e36 cc0b 773f
00000360: df2f 97bb b44f b4bb dcca a93a be2d f3b9
00000370: dd1a 5a3c 1993 0abc a80f f0ba 8be9 b9bb
00000380: 0504 063d 60e3 243f deaa e13e a511 daba
00000390: 04e0 133c 75ad 97bb e943 083e 7d47 883a
000003a0: 3860 3d3f 4744 02bc b07f 2a3b 5008 643b
000003b0: d7a1 de39 91d8 99bb ca3e 3d3e d71d 0ebc
000003c0: 2f03 18bc fcfd 7a3c 2e86 c73b df55 273f
000003d0: 4e37 9c3d 2e69 19bb 9fd9 053f f237 87bb
000003e0: 1819 a83e 6bb5 af3e 7623 5bba 3acf b23e
000003f0: 94e5 a23e 7176 fcbb dad6 c83e 291c dfba

layer2.bias f4 [128]
0.2531232 -0.018429575 0.27631366 -0.0002943979 7.006044e-05 0.00015690771 8.438804e-05 0.00016433837
0.2733421 0.28522977 0.19350448 0.2500216 -0.0002712402 -0.00065649353 0.2684602 0.15855728
0.2424941 2.1449288e-05 -4.0224433e-05 -6.605118e-05 0.00015021373 -0.002759205 0.2898833 1.0122302e-05
0.26537722 0.14142206 -7.6965036e-05 0.27413335 0.19272983 1.2910762e-05 3.213078e-05 0.26517886
0.25114447 0.30492282 -6.75101e-05 0.23847048 0.30044279 0.2669997 0.3749565 -9.866927e-05
-0.0005579526 -0.0054589603 0.31081837 0.19832668 -0.0047965003 -0.00020160357 -0.016862163 0.24083279
0.26513833 -4.3379525e-05 -0.02074805 6.277943e-05 -0.00010534455 0.25912005 -0.00034887643 -0.00017952049
0.31460217 0.08502214 0.21571644 -5.0074865e-05 0.15715602 -0.00024356201 -0.00022886202 5.0354887e-05
-0.0008146165 -0.0026654622 -0.00016452998 0.23467168 -1.9775434e-05 0.11997035 -0.0020062705 0.10535084
-0.00026399718 0.27811763 0.33628997 0.22438376 0.18244204 0.00017977366 -0.00033446873 0.0899539
-4.6893827e-05 0.26937532 -6.362594e-05 0.3255676 0.2210881 0.14534968 0.102255136 0.23295113
-0.00027799062 0.24797697 0.24667828 0.00023727636 -0.010130535 -0.0002883705 0.1569685 0.30383062
0.19885089 -0.00016893027 0.28023547 0.09888238 -0.00060956314 0.23898308 3.7941365e-05 0.23191854
0.2455223 -0.00028092353 0.24600275 0.16778494 0.14885119 0.26434526 6.184454e-05 0.0001640504
0.25796166 -2.8362683e-05 0.114710644 0.00012863408 0.13416855 -0.00012430776 0.22873367 -0.00016417388
0.27021763 0.14370763 -0.032164086 -0.00017636213 0.2661769 0.2467561 0.3034701 0.2208238
00000000: 5d99 813e 9ff9 96bc fc78 8d3e 6b59 9ab9
00000010: 6aed 9238 9887 2439 7cf9 b038 3f52 2c39
00000020: 7ff3 8b3e a309 923e 0a26 463e d502 803e
00000030: 3e35 8eb9 8918 2cba 9e73 893e d75c 223e
00000040: 6050 783e ffed b337 a8b6 28b8 f584 8ab8
00000050: b182 1d39 c7d3 34bb 956b 943e f5d2 2937
00000060: 86df 873e f2d0 103e 4a68 a1b8 355b 8c3e
00000070: f85a 453e 4d9b 5837 2ac4 0638 86c5 873e
00000080: 0296 803e d81e 9c3e 3594 8db8 9b31 743e
00000090: a3d3 993e 2fb4 883e 4cfa bf3e a9ec ceb8
000000a0: 9143 12ba 14e1 b2bb 9623 9f3e 2616 4b3e
000000b0: f62b 9dbb 8c65 53b9 8522 8abc df9c 763e
000000c0: 36c0 873e 69f2 35b8 d1f7 a9bc 73a8 8338
000000d0: 6dec dcb8 62ab 843e 67e9 b6b9 aa3d 3cb9
000000e0: 8913 a13e 1620 ae3d c5e4 5c3e 7a07 52b8
000000f0: 82ed 203e ae64 7fb9 aefa 6fb9 2634 5338
00000100: fd8b 55ba 09af 2ebb ae85 2cb9 c64d 703e
00000110: 6ce3 a5b7 04b3 f53d a27b 03bb 2ec2 d73d
00000120: 1a69 8ab9 6f65 8e3e 332e ac3e dbc4 653e
00000130: 16d2 3a3e a081 3c39 a25b afb9 c039 b83d
00000140: ddaf 44b8 90eb 893e eb6e 85b8 ccb0 a63e
00000150: eb64 623e 8cd6 143e 246b d13d be8a 6e3e
00000160: 45bf 91b9 aded 7d3e 3b99 7c3e 63cd 7839
00000170: 8bfa 25bc 6f30 97b9 5abc 203e b08f 9b3e
00000180: 919f 4b3e e022 31b9 067b 8f3e d882 ca3d
00000190: 17cb 1fba fbb7 743e 3b23 1f38 0e7c 6d3e
000001a0: 336a 7b3e eb48 93b9 25e8 7b3e d1cf 2b3e
000001b0: 726c 183e 4358 873e 89b2 8138 f204 2c39
000001c0: 8d13 843e 66ec edb7 6aed ea3d f3e1 0639
000001d0: 7b63 093e 9c58 02b9 2939 6a3e 1726 2cb9
000001e0: f759 8a3e 1828 133e 7dbe 03bd d9ed 38b9
000001f0: 5748 883e a2ad 7c3e 6f60 9b3e a21f 623e

layer3.weight f4 [2, 128]
0.35204136 -0.53433263 0.34196594 8.653783e-06 5.539203e-05 -0.00015391328 -0.0002690355 -0.00014039298
0.32033488 0.30764455 0.72813916 0.34141007 2.0235031e-05 -0.0035593722 0.29649982 0.15949054
0.31663626 -0.0002062676 -0.00019909753 0.00026677732 0.00011002162 -0.035495467 0.3369739 -0.00021930537
0.32715303 0.17102142 -0.00013946458 0.302045 0.28550872 0.00085615093 3.8747316e-05 0.30822167
0.32937664 0.34660596 -0.0011382779 0.23708278 0.37121892 0.3076287 0.5793344 -0.00025638414
-0.002236896 -0.1099423 0.32475713 0.2747408 -0.043801393 2.653891e-05 -0.2640183 0.315965
0.23065773 0.00029303163 -0.19708954 -9.8616234e-05 -0.0042659375 0.31894138 -0.00022463413 0.00022367346
0.35539705 0.0890862 0.2323553 -0.00024130923 0.17546739 0.00019721357 -0.00011654534 0.00012516884
-0.0043166913 -0.09405643 -0.0001405767 0.30704698 4.6150482e-05 0.11821168 -0.0015123347 0.0985668
0.0002366153 0.32231298 0.3924078 0.16462938 0.2021504 -0.00019257938 -0.00021408506 0.074226424
-0.00026528345 0.25974157 -0.00013329614 0.35083362 0.32797983 0.12314368 0.09584356 0.24464525
-0.00010095849 0.29580486 0.35174266 0.00023712192 -0.013465684 -6.39504e-05 0.1389208 0.37415892
0.20333007 0.000120344484 0.21647118 0.09730039 0.00041032722 0.28052685 -0.000107049986 0.18679029
0.32070363 -0.000100179925 0.28569427 0.17114547 0.5876982 0.37244204 -0.00017253454 0.00023196373
0.28804672 -0.00013920668 0.11136548 -2.4024435e-05 0.14014837 -0.00027053224 0.24638502 0.00020513337
0.37116852 0.11630223 -0.3689176 -0.00014447035 0.35761032 0.34389633 0.34029844 0.21211949
0.37997058 -0.8400002 0.3583597 -0.00015643396 -1.21321e-05 -0.00016306674 0.00014073067 0.00011082134
0.34292048 0.3278155 0.016658818 0.37506154 -1.8845798e-05 -0.0030239997 0.32162037 0.17053914
0.33928078 -4.0471165e-05 8.155589e-05 0.00027357537 -0.00025664576 -0.0121603785 0.3654496 7.2859846e-05
0.3514239 0.17849939 -0.00016313812 0.32844082 0.28346807 -8.823773e-06 -0.00024314036 0.31271756
0.3617867 0.36483002 -0.0028506098 0.24808662 0.39745477 0.32744613 0.5159947 5.2943058e-05
0.00024033124 -0.22658394 0.34404963 0.25954115 -0.031239096 -0.00025447007 -0.25068742 0.3432518
0.2559022 -0.00023141471 -0.33845505 0.00010641205 -0.0033486586 0.34340024 9.488318e-06 0.0002519049
0.38391152 0.099580005 0.25104213 -0.0001576762 0.18286967 -7.54391e-05 5.7579622e-05 -0.00013527268
-0.0020442572 -0.09915965 0.0001556319 0.3330732 0.00016159729 0.13449992 -0.002240665 0.11175343
0.00020039648 0.34394047 0.3931081 0.19783065 0.21232393 9.0709094e-05 3.9764796e-05 0.086408
3.6035333e-06 0.26931977 0.00026231186 0.37619033 0.3533174 0.13913545 0.10893156 0.24877322
0.00024157001 0.31644884 0.38171923 0.0002562279 -0.013431987 0.00021219157 0.15784672 0.37599716
0.212553 -0.00018060718 0.25793526 0.10985867 0.00045112558 0.3000839 -8.925116e-05 0.21464759
0.34378573 0.00026733743 0.30569834 0.18630324 0.16668202 0.38052702 0.00024413521 -2.9906294e-05
0.29291898 -0.0001944213 0.12552156 -5.5155924e-05 0.15838113 -0.00015816904 0.25655508 2.413588e-06
0.37883136 0.12977818 -0.5430717 4.070285e-05 0.38935336 0.36963502 0.35107562 0.2198875
00000000: c43e b43e 06ca 08bf 2916 af3e b72f 1137
00000010: bd54 6838 c863 21b9 550d 8db9 7436 13b9
00000020: ef02 a43e 9683 9d3e 5467 3a3f 4dcd ae3e
00000030: 66be a937 5b44 69bb d3ce 973e 7d51 233e
00000040: 261e a23e 8a49 58b9 d6c4 50b9 3fde 8b39
00000050: 68bb e638 b263 11bd d887 ac3e 56f5 65b9
00000060: 9a80 a73e 3d20 2f3e 3d3d 12b9 a4a5 9a3e
00000070: 332e 923e 516f 603a 9d84 2238 3bcf 9d3e
00000080: 0ea4 a83e 5676 b13e 4532 95ba d4c5 723e
00000090: 6810 be3e 8281 9d3e 424f 143f 4c6b 86b9
000000a0: e398 12bb 6e29 e1bd 9146 a63e d3aa 8c3e
000000b0: 1769 33bd e09f de37 682d 87be 2ac6 a13e
000000c0: 8a31 6c3e 0aa2 9939 d7d1 49be 30d0 ceb8
000000d0: 47c9 8bbb 494c a33e c48b 6bb9 e389 6a39
000000e0: 9af6 b53e d372 b63d 8cee 6d3e f407 7db9
000000f0: b9ad 333e 1dcb 4e39 ce69 f4b8 c13f 0339
00000100: 0873 8dbb a8a0 c0bd c567 13b9 4335 9d3e
00000110: b491 4138 f718 f23d 8839 c6ba 64dd c93d
00000120: f01b 7839 3506 a53e ade9 c83e 9b94 283e
00000130: 8400 4f3e 22ef 49b9 057c 60b9 0604 983d
00000140: be15 8bb9 d9fc 843e 69c5 0bb9 77a0 b33e
00000150: f9ec a73e c132 fc3d a149 c43d 4984 7a3e
00000160: adb9 d3b8 bc73 973e 9d17 b43e eea3 7839
00000170: 2c9f 5cbc 1c1d 86b8 4141 0e3e c291 bf3e
00000180: c235 503e 7461 fc38 9faa 5d3e 6d45 c73d
00000190: 3021 d739 37a1 8f3e 0680 e0b8 f445 3f3e
000001a0: 4433 a43e b017 d2b8 8546 923e c240 2f3e
000001b0: 6473 163f b9b0 be3e 63ea 34b9 4a3b 7339
000001c0: dc7a 933e 02f8 11b9 9613 e43d 1588 c9b7
000001d0: 0e83 0f3e 39d6 8db9 5b4c 7c3e 1219 5739
000001e0: cd09 be3e dd2f ee3d c5e2 bcbe f77c 17b9
000001f0: b318 b73e 2e13 b03e 993b ae3e da35 593e
00000200: 818b c23e 410a 57bf ec7a b73e 6c08 24b9
00000210: f98a 4bb7 e5fc 2ab9 1a91 1339 c168 e838
00000220: 4693 af3e 6fd7 a73e 1378 883c 1108 c03e
00000230: 0b17 9eb7 4c2e 46bb 6dab a43e d0a1 2e3e
00000240: 36b6 ad3e 95bf 29b8 fc08 ab38 aa6e 8f39
00000250: 698e 86b9 533c 47bc 361c bb3e 55cc 9838
00000260: d5ed b33e 8bc8 363e 0e10 2bb9 6529 a83e
00000270: ba22 913e d109 14b7 7ef3 7eb9 841c a03e
00000280: 1b3c b93e 00cb ba3e 4cd1 3abb 6b0a 7e3e
00000290: 317f cb3e 05a7 a73e 3b18 043f 2d0f 5e38
000002a0: 6d01 7c39 9f05 68be 4627 b03e 94e2 843e
000002b0: 22e9 ffbc 656a 85b9 1a5a 80be b3be af3e
000002c0: 9d05 833e eaa7 72b9 fb49 adbe 8929 df38
000002d0: 2b75 5bbb 28d2 af3e 0430 1f37 1a12 8439
000002e0: 0d90 c43e 9af0 cb3d 9888 803e e255 25b9
000002f0: 3042 3b3e 0f35 9eb8 a681 7138 fcd7 0db9
00000300: f2f8 05bb 3714 cbbd 1f31 2339 9288 aa3e
00000310: 7172 2939 59ba 093e 1fd8 12bb fbde e43d
00000320: 8521 5239 f718 b03e 7745 c93e 1e94 4a3e
00000330: 726b 593e 133b be38 20c9 2638 adf6 b03d
00000340: 3bd4 7136 48e4 893e e786 8939 059c c03e
00000350: 05e6 b43e 8679 0e3e 8217 df3d 68be 7e3e
00000360: f54d 7d39 9505 a23e b470 c33e 5456 8639
00000370: d611 5cbc be7f 5e39 92a2 213e b382 c03e
00000380: 7ea7 593e 5f61 3db9 1710 843e 95fd e03d
00000390: 0d85 ec39 99a4 993e 5a2c bbb8 94cc 5b3e
000003a0: af04 b03e 6c29 8c39 7e84 9c3e 47c6 3e3e
000003b0: b1ae 2a3e 70d4 c23e 8cfe 7f39 47df fab7
000003c0: 7af9 953e 92dd 4bb9 b988 003e 3957 67b8
000003d0: aa2e 223e 2eda 25b9 305b 833e 20f9 2136
000003e0: 2ff6 c13e 92e4 043e bf06 0bbf 5ab8 2a38
000003f0: 5359 c73e cd40 bd3e 2fc0 b33e 302a 613e

layer3.bias f4 [2]
0.12983865 0.17146242
00000000: 6cf4 043e d893 2f3e
