cartpole_v1_best_model.pth (torch, 284370 bytes, 14 tensors)

layer1.weight f4 [256, 4]
000000 f2 00 0a 3d 20 e5 cb bc 1c 18 9e 3d 7e 80 b4 bd
       0.033692308 -0.024889529 0.07719442 -0.088135704
000010 4f 2e 31 bc 81 3e 5f 3d 62 5f 03 3e f0 57 0a be
       -0.0108142635 0.054502968 0.12829354 -0.13510108
000020 63 83 8d bc d5 45 b0 bd f9 d8 aa 3c 14 93 c7 bd
       -0.017274564 -0.086070694 0.020855414 -0.0974485
000030 30 7a a0 bd 75 da 98 bd 95 ed 9e bc a3 f3 81 bd
       -0.078358054 -0.07463542 -0.019400397 -0.06345298
000040 7b 52 4d 3d ee b4 2a 3e fa 39 16 3d 85 44 06 3e
       0.050127488 0.16670582 0.036676385 0.13112076
000050 c0 fd 9b 3d 2e 7e b1 bd e5 59 d2 3b dc c9 12 be
       0.07616758 -0.08666645 0.0064194077 -0.14334816
000060 29 70 cf 3d e3 40 71 bd e7 30 0e be b4 8a a3 3d
       0.10128815 -0.05889977 -0.13885842 0.0798544
000070 72 42 ce bc bd 3c e0 bb 64 22 19 be 11 94 8f 3b
       -0.025178168 -0.006843178 -0.14954525 0.0043816646
000080 3e 2b ae 3c 41 ed fa bd e6 a8 fb 3d b2 fb 2f 3d
       0.021260854 -0.12252284 0.12288074 0.042964645
000090 98 cf 91 bd 2e 7e d2 bd 67 bb 84 3d 80 af d5 bd
       -0.071196735 -0.10277973 0.06481057 -0.104338646
0000a0 ef d0 0c be 3e 77 9d 3c 47 1d f7 bd 36 65 07 3c
       -0.13751577 0.019221898 -0.12066131 0.008263877
0000b0 3f 68 93 bd 46 ff d0 bd 4e 4c b4 bd 17 e5 25 3d
       -0.07197618 -0.102049395 -0.088036165 0.04050168
0000c0 e6 7c a8 3d 47 50 f3 bd c3 f5 fd bd cc e5 d0 bd
       0.082269475 -0.11880546 -0.12400391 -0.1020008
0000d0 cc d5 61 bd 3d 0c 84 3d bd 2b 37 3d 94 b5 08 be
       -0.055135533 0.06447647 0.044719446 -0.13350517
0000e0 b2 ff b3 3b 4a 7f ee 3d 19 1d a9 3d 28 fc 9e bd
       0.0054931277 0.11645372 0.08257503 -0.07762939
0000f0 3a c8 49 bd 51 88 39 3d 7f 2b 09 3e 5a e5 26 3e
       -0.049263217 0.045296017 0.13395499 0.16298428
000100 86 43 77 3c ba 97 38 bd cc 6a 9b 3d 04 33 77 3c
       0.015091782 -0.045066573 0.07588729 0.015087847
000110 32 36 aa bd ed db 1e bd e6 a6 1a bd 54 4d 34 3d
       -0.08311118 -0.038783956 -0.037756823 0.04401906
000120 f4 6b 07 be 2a df 60 bb 7f f3 73 bd 9c 0c 11 3e
       -0.13224775 -0.0034312704 -0.059558388 0.14164966
000130 d3 db a4 bd d1 f9 d7 bc c5 9e d6 3c 97 d0 40 bd
       -0.08049741 -0.026364239 0.026198754 -0.047073927
000140 aa df b7 3d 87 63 1a bd 43 b8 0f 3e 13 2a d4 bc
       0.089782074 -0.037692573 0.14035134 -0.025898969
000150 2d ce c5 bc ec a7 a3 3d 2d 53 13 be 95 98 c6 3d
       -0.024146164 0.07991013 -0.14387198 0.096970715
000160 64 00 52 3d 09 50 5a bd f4 27 30 bd 32 12 9f bc
       0.051269904 -0.053298984 -0.043006852 -0.019417856
000170 2b 47 8f bd a3 ad 13 3d 0d af 15 be 2a 49 03 be
       -0.06995996 0.036054265 -0.14617558 -0.12820879
000180 e4 3e df 3d de 3e 86 bb e4 a6 e7 bd ca 0a 6a 3d
       0.10900667 -0.00409685 -0.11311129 0.057139196
000190 7e 50 47 3c 9a 8a a3 bd 4f b4 f7 bc 18 b9 64 3d
       0.012165187 -0.079854205 -0.030237345 0.05584058
0001a0 5c 75 c3 3d b8 49 ca 3d ec 57 b8 3d d4 ad a0 bd
       0.09543869 0.09877342 0.09001145 -0.07845655
0001b0 33 a8 62 3d 04 99 c5 3d f5 47 3d bd 40 72 bc bc
       0.05533619 0.09648326 -0.0462112 -0.023003697
0001c0 5b 39 87 bd 49 b9 ad bd 87 bb 0f be b7 3a 9c 3d
       -0.066027366 -0.08482606 -0.1403638 0.076283865
0001d0 41 9a e8 3d f7 bc be 3d ca af c5 3c 16 f8 a5 bd
       0.113575466 0.09313386 0.024131674 -0.08103959
0001e0 9f 7c f5 3d 4e 19 a7 3c a8 a0 56 3d d2 db fb 3d
       0.1198666 0.020397808 0.052399307 0.12297787
0001f0 af c3 86 3d c0 4d a9 3d c7 01 07 3e 0e fa ce 3a
       0.065802924 0.08266783 0.13184272 0.0015791075
000200 31 ec a9 bd 6c 43 0e 3e e0 24 bf bd b3 e9 6f 3d
       -0.08297003 0.13892907 -0.09333205 0.058572482
000210 ec 21 e2 bd 08 20 ef 3c be c4 60 3c 6d 31 09 be
       -0.11041626 0.029190078 0.013718782 -0.1339776
000220 04 e3 cb 3d b8 b1 19 3e 37 1b 45 3d 48 11 f1 bc
       0.09955409 0.150092 0.048121657 -0.029427186
000230 ca ee 11 3d e2 e9 ad bc 53 d1 87 bd ab 10 e2 3d
       0.035628118 -0.021229688 -0.06631722 0.110383354
000240 c5 38 7b bd 1b 97 17 bd 86 9e 08 3e 15 49 57 bd
       -0.061333437 -0.03700934 0.13341722 -0.05255993
000250 4b f4 eb 3d c8 d0 0a be f8 17 0a be b4 b4 cf bd
       0.115212046 -0.13556206 -0.13485706 -0.10141888
000260 aa c5 ca 3c 63 70 13 be 7a 73 63 3d 50 b0 00 3e
       0.024752457 -0.14398341 0.05553005 0.12567258
000270 45 16 c5 bb 3a 68 cb bc 43 1a 87 bc b3 3e 1d 3e
       -0.0060146176 -0.024829973 -0.016492015 0.15355949
000280 57 ac a8 bd 82 bd 35 3d ec 98 75 3d d9 28 ab bd
       -0.08235996 0.04437018 0.05996029 -0.083574004
000290 ed 2f 1e bc 5e 57 e0 3b e6 b7 fd bd e7 eb b8 bd
       -0.009654981 0.0068463525 -0.123885915 -0.0902937
0002a0 f3 9d be 3d f8 76 ca 3d 9c e4 ef 3d cc cd 09 be
       0.0930747 0.09885973 0.11713526 -0.13457412
0002b0 77 7a ce bd a7 a5 b7 3d 91 f3 83 bd ff 6f a3 bd
       -0.10081952 0.089671426 -0.06442941 -0.07980346
0002c0 9d b6 81 3d 54 4f e9 3d 30 e0 64 bd 51 ce 03 be
       0.06333659 0.11392084 -0.055877864 -0.12871672
0002d0 a5 e9 9c 3d 3d 95 ff 3c 6c 5f 08 3e f3 0f fb bd
       0.07661752 0.031199092 0.1331765 -0.122589014
0002e0 0a 9d 54 bd 4a 70 c4 bc b2 26 08 3e cc 15 bb bc
       -0.051907577 -0.023979325 0.13296011 -0.022837542
0002f0 7b bd 7a 3d f7 8f 13 3e 6c 0e 02 3e 62 ca 8e 3d
       0.06121586 0.14410387 0.12700814 0.06972195
000300 ba 04 02 3e bf 4c c1 bd b7 68 06 3e 83 b7 06 3c
       0.12697116 -0.09438466 0.13125883 0.008222464
000310 f8 98 12 3e 5e 32 07 be 3a 7f 96 3d 32 75 ca bd
       0.14316165 -0.13202807 0.07348485 -0.098856345
000320 69 14 17 be 49 ab 0a be d6 43 47 bd 14 96 0b be
       -0.1475388 -0.13541903 -0.048648678 -0.13631469
000330 61 c8 07 3d 27 eb 0a be d5 58 92 bd 25 f7 c9 3d
       0.03315008 -0.13566266 -0.071458496 0.09861592
000340 0a 7d ba bd 99 81 d3 3d a2 26 5a 3d 21 6a ab bd
       -0.091058806 0.10327453 0.0532595 -0.08369852
000350 17 09 ad bd 38 a2 15 bc 63 16 f6 bd 9f 00 c2 bd
       -0.084489994 -0.009132914 -0.12015989 -0.09472775
000360 e5 88 13 3e 75 3a b6 3d 05 82 25 3b 3c 28 9e 3c
       0.1440769 0.088978685 0.00252545 0.019306295
000370 64 51 38 bd f5 a5 0f bd 12 2e cf 3c 49 8f 32 3d
       -0.044999495 -0.03507038 0.025290523 0.04359368
000380 b4 b0 c6 3d 7b b8 1b 3e e8 20 1d be 66 b1 f1 bd
       0.09701672 0.15207092 -0.15344584 -0.11801414
000390 5d e8 3e bc cc a1 f2 bd c3 e9 07 be d1 61 8d 3d
       -0.011652079 -0.118472666 -0.13272767 0.069034226
0003a0 47 4e 0d be 3a a5 80 3d f1 86 b8 3c ec 04 c4 3d
       -0.13799392 0.062815145 0.022525283 0.09571251
0003b0 31 5f d4 ba 4d a1 95 3d b7 d6 0e 3e 95 8e a8 3d
       -0.0016202686 0.07306156 0.13949095 0.0823032
0003c0 67 8d 98 bd 6d 43 cd bd b7 90 2e 3c aa 21 14 be
       -0.07448845 -0.10022626 0.01065462 -0.14465967
0003d0 aa ac e7 bd c0 f6 c6 3d 02 5b 45 bc 67 c7 03 3e
       -0.1131223 0.097150326 -0.012045624 0.12869035
0003e0 bf c9 c0 bd 43 92 92 3d 06 92 b1 3d 0f a0 eb 3d
       -0.0941348 0.071568035 0.0867043 0.11505138
0003f0 4b 90 08 be 95 a4 4a bd f0 94 d3 bd d7 6b 7c 3d
       -0.13336293 -0.049473364 -0.10331142 0.06162628

layer1.bias f4 [256]
000000 88 ca 04 bb 9a d0 17 3b 16 13 12 bc 6f df 35 3c
       -0.002026232 0.0023165108 -0.008915683 0.011100634
000010 7c ba 34 3a 50 d1 73 bb 9b 18 d2 38 f7 00 02 39
       0.00068942434 -0.0037203617 0.000100181634 0.00012398126
000020 3b df 43 3a fd bb 7d bb bb 9e ea 3a d1 13 c9 bb
       0.00074719236 -0.0038716786 0.0017900089 -0.0061363955
000030 cd 70 e7 3a a8 25 eb 3a 4a f2 17 ba 60 c6 12 3b
       0.0017657519 0.00179403 -0.0005796297 0.0022396073
000040 aa f3 3b bc 67 5b 8f bb d2 55 da 3b 19 45 1e bb
       -0.011471668 -0.0043749097 0.0066630626 -0.0024150072
000050 a3 9d e1 3a a9 04 14 bb aa 25 92 3a a4 82 03 3c
       0.0017213117 -0.0022585785 0.0011150141 0.008026753
000060 4d 57 84 bb 56 8b 00 ba ca 5d 07 bb 43 51 d9 3a
       -0.0040387274 -0.0004903575 -0.0020655268 0.0016580004
000070 91 7b eb bb c7 dd 03 bc 2c e7 2c 3b 5a d5 fe bb
       -0.007186361 -0.008048481 0.0026382906 -0.0077768983
000080 f6 53 3c bc 4b 6a 3f ba c4 76 15 3b db 68 c3 3a
       -0.011494627 -0.00073019107 0.0022806386 0.0014908569
000090 df 9e a8 bb cf f7 9a 3b 55 f1 8c bb ab 50 d3 b8
       -0.005145892 0.004729248 -0.00430123 -0.000100762896
0000a0 3c 0b 01 3b e0 6b d6 bb b1 d3 8b bb 4d 4d bd bb
       0.0019690534 -0.0065436214 -0.004267179 -0.0057770372
0000b0 34 d1 ce bb 28 85 91 bb 4e 73 09 bc 83 89 ae 3b
       -0.00631156 -0.0044409223 -0.008389307 0.0053264513
0000c0 a1 d1 8b 3b 74 49 02 bc 01 d7 de bb 63 88 c5 3b
       0.004266933 -0.007952083 -0.006800533 0.0060282215
0000d0 6d 4b 93 3b 23 42 92 3b 9c 7b 81 bb c6 92 48 3b
       0.0044950754 0.0044634505 -0.003951503 0.0030605062
0000e0 f4 0c e4 bb 2a dd c1 b9 f4 a4 5f bc ae 72 2a 3c
       -0.006959552 -0.0003697661 -0.013650168 0.010403318
0000f0 7b 47 7f 39 81 d7 de 3b 94 9a 00 bb bd 7f f1 3b
       0.00024345324 0.0068005924 -0.0019623386 0.007369964
000100 17 91 f2 b9 a8 e8 5f 3b df af f9 39 5c c0 fe b8
       -0.00046265937 0.0034165774 0.00047624015 -0.000121474935
000110 e5 06 63 3b 98 7b 09 3c 06 76 0a 3c 9d 67 2e 3b
       0.003464156 0.008391283 0.008450991 0.0026612051
000120 bf 19 00 bc 23 e3 24 bb ea e5 df 3b f9 cc b6 3b
       -0.007818638 -0.0025159798 0.006832828 0.005578634
000130 3f cf 2c 3a 46 21 2c 3c cc 88 87 bb 7f 26 50 3a
       0.00065921614 0.01050598 -0.0041361805 0.00079403067
000140 ef a2 61 3b dc b0 b1 ba 70 8d 8b 3b 52 6b b4 ba
       0.0034429391 -0.0013556737 0.004258804 -0.0013764894
000150 e7 fe e7 3b db 3a 02 bc 61 29 35 ba 9c ad 87 3a
       0.0070799473 -0.007948603 -0.0006910768 0.0010351422
000160 cd 62 2b 3b 91 24 de 3b af a6 00 3c a0 98 a2 bb
       0.002615142 0.0067792614 0.00785224 -0.004962042
000170 fb 65 ab 3b c0 a3 c9 39 dc b4 4c bb ea f0 af ba
       0.005230663 0.0003845971 -0.003123573 -0.0013423238
000180 c0 66 33 3a 82 e0 91 bb 5f 7a 9a 3a db 9f 15 bc
       0.0006843619 -0.0044518122 0.0011785737 -0.009132351
000190 cc 17 8d bb d7 8f 8a bb fd 39 52 ba 76 ee e5 3b
       -0.0043058153 -0.004228573 -0.0008019505 0.007016952
0001a0 b8 5c 6c ba d4 b3 6f bb 65 c7 5f bb f0 06 28 bb
       -0.0009016502 -0.0036575692 -0.0034145948 -0.00256389
0001b0 74 c2 35 ba f2 0c 07 bc de 45 11 3b 3a a3 1f bb
       -0.0006933578 -0.0082428325 0.0022166888 -0.0024358765
0001c0 8b ce 38 3c 3c 04 bc 3b 1e 99 76 bb 73 ad ef ba
       0.011279712 0.0057378095 -0.0037627886 -0.0018285945
0001d0 ef 7a 42 bb f7 c7 b7 3b e7 04 8e 3a 76 57 5c bb
       -0.0029675325 0.0056085545 0.0010835201 -0.0033621467
0001e0 38 a1 c5 39 d9 50 f3 3b e8 71 33 3c 3e 63 4f 3b
       0.00037694885 0.0074254093 0.01095245 0.0031644846
0001f0 c2 76 6f 3b 39 bf 24 bc 86 43 77 b9 30 76 7a 3b
       0.003653929 -0.010055357 -0.0002358091 0.0038217418
000200 b2 e3 6e 3b d3 50 8f ba d6 95 ce 3a f4 b0 16 3c
       0.0036451635 -0.0010934122 0.0015761207 0.009197462
000210 ee be 40 3b cc a6 58 3b ff 57 6e 3b b9 9b 08 3b
       0.0029410678 0.0033058403 0.0036368368 0.002084477
000220 b2 58 be 3b c4 70 f2 3a f1 32 4c bc ee 5a 06 3c
       0.005808913 0.0018496742 -0.012463317 0.00820039
000230 41 9b 2d 3c 20 d7 a7 bb 14 24 01 bc bd 6b 8a 3b
       0.010596097 -0.0051220804 -0.007882137 0.004224269
000240 36 55 06 bb 61 ae be b9 c8 6b 43 3c 4d c9 32 3c
       -0.0020497567 -0.00036369546 0.0119275525 0.010912252
000250 0d 10 d4 ba 19 7c c5 3b 64 48 88 3b d9 55 8b 3a
       -0.00161791 0.0060267565 0.0041590203 0.0010630443
000260 cd 49 b9 3b 6d da 93 ba fd 48 a7 bb 50 bd 46 bb
       0.0056545497 -0.0011280306 -0.0051051364 -0.0030325241
000270 20 b4 80 bb 37 68 80 3b 04 bf 10 bc 89 6e 1e 3c
       -0.0039277226 0.0039186734 -0.008834604 0.009669908
000280 49 44 32 bc 3b 3e 09 3c f0 49 e7 3a d2 1c 1a bc
       -0.010880538 0.008376653 0.0017645936 -0.009406285
000290 f3 18 b5 bb 8f fa e1 3b 78 d3 0f 3c 00 cb 07 3c
       -0.005526656 0.006896324 0.008778445 0.008288145
0002a0 a3 19 f8 ba ca 37 c0 bb 94 69 0b 3b 08 26 f3 3b
       -0.0018928539 -0.0058660256 0.0021272646 0.007420305
0002b0 4c e5 4c 3a 3d 79 65 3b 51 56 21 3b d2 d6 b9 3b
       0.00078161503 0.003501489 0.00246181 0.0056713605
0002c0 ce df ed 3b c7 34 94 37 2a 4c 57 bb 49 f4 4f 3b
       0.0072593456 1.7667551e-05 -0.0032851794 0.0031731299
0002d0 8e 52 ef bb 64 46 ad bb b0 4b ae 3a 53 3a 68 3c
       -0.0073035425 -0.005287932 0.0013297703 0.014174062
0002e0 15 b3 0a bb 89 0b 93 3b 8c 39 9a 3a 42 24 8e 3b
       -0.002116387 0.004487459 0.0011766418 0.0043378184
0002f0 ec 2c 10 3b e2 97 b7 bb 2c b2 cb 3b 7f 22 0a 3b
       0.0021999432 -0.0056028226 0.006216308 0.002107769
000300 7a fb ce bb d3 5a 33 3c c4 04 fa 3a 2b ff f7 bb
       -0.0063165994 0.010946947 0.0019074907 -0.00756826
000310 00 dd 15 bb 1e cd 05 bc 8d 0e b5 3b 75 f5 bf 3b
       -0.0022867322 -0.0081665795 0.005525416 0.005858118
000320 c2 07 e4 3a 74 5c be bb 2e 6a 15 bc c7 20 55 bc
       0.0017397332 -0.005809361 -0.0091195535 -0.013008303
000330 c9 bc 15 3b c5 94 fb bb c1 9a 9f 3b 59 3e 08 bc
       0.002284812 -0.007677647 0.004870743 -0.008315646
000340 82 41 e5 bb d0 9e cd b9 e3 94 74 3a c9 1e 70 bb
       -0.0069963345 -0.00039218972 0.0009330047 -0.0036639443
000350 65 17 d0 bb c4 38 1a 3c cb 65 31 bb dd 65 04 bb
       -0.006350445 0.009412948 -0.002706873 -0.0020202317
000360 41 f3 40 b9 00 37 3f bb ce ff 91 ba 62 e1 09 bc
       -0.00018401166 -0.002917707 -0.0011138858 -0.008415552
000370 29 5c 36 3b 85 7f 06 3c 4c e4 e8 bb 5c a3 ae 3a
       0.0027825928 0.008209114 -0.0071072932 0.0013323831
000380 fb d9 e4 3b 9d 41 da ba f6 7b 06 bc 66 fc 82 bb
       0.006983993 -0.0016651634 -0.0082082655 -0.0039973734
000390 ee 01 a4 ba ab a9 4b 3b eb df 14 3c 66 d5 11 bc
       -0.0012512782 0.0031076472 0.009086589 -0.008900976
0003a0 0f b2 fa 3a bf 90 5f 3b 9d 65 e4 bb 44 12 56 3a
       0.0019126552 0.0034113375 -0.006970121 0.0008166174
0003b0 d8 d6 e9 bb 14 ad e9 bb 36 ca fb 3a b2 e7 cd ba
       -0.007136207 -0.007131228 0.0019210044 -0.0015709309
0003c0 a6 96 27 bb 41 48 ee 3b cb bd a1 bb 40 9a 69 3a
       -0.0025571971 0.007271797 -0.004935955 0.00089112297
0003d0 3f 30 2b bc d1 46 5e bb 16 2b 03 bc 5b 92 07 3b
       -0.0104485145 -0.0033916722 -0.008005878 0.00206866
0003e0 49 0c 94 bb c7 aa e3 ba f8 f0 8a 39 18 de ec bb
       -0.004518066 -0.0017369621 0.00026500947 -0.007228624
0003f0 f7 a6 10 bc 5f 9a c0 3b 65 bd 8b 3b fe 86 8e 38
       -0.00882887 0.0058777775 0.004264521 6.796232e-05

layer2.weight f4 [256, 256]
000000 d5 f5 c4 bd 2a f6 fd 3c d3 25 4d 3d f2 13 f7 bc
       -0.09617201 0.03100117 0.0500849 -0.030160878
000010 87 3a 4c bb cb 6d d2 3c 0c 1f b9 3d c8 e1 1f 3d
       -0.0031162815 0.025687119 0.09039125 0.03903368
000020 24 b4 d2 3d 1d 13 9f 3d 46 1b b3 bc 5f 08 d8 bb
       0.10288265 0.077673174 -0.02186359 -0.006592795
000030 2d 5a d8 3d cf 6d a3 3d 0e 57 a1 bd 78 1d ba bd
       0.10564075 0.07979929 -0.078779325 -0.09087652
000040 1b 8f a7 bc 91 8f 1a 3d dd 6b c6 bd cd 57 ed 3b
       -0.02045398 0.03773457 -0.09688542 0.0072431327
000050 32 d3 4b bd e2 9c 70 bd d3 42 90 3d 4d 69 2a bb
       -0.04976196 -0.058743365 0.07043996 -0.0026002706
000060 7f 99 87 bd 9c 12 f2 bc 04 c2 69 3d 4f 0b 30 bd
       -0.06621074 -0.02954989 0.057069793 -0.042979535
000070 fb 27 a4 bc 85 d0 a9 3b 42 6f ed 3c 39 4d 3a bd
       -0.020038595 0.005182328 0.028983716 -0.0454838
000080 27 7b cd bd f1 b9 66 bc dc 1a 9e bd 18 7a 9f 3d
       -0.10033255 -0.014082418 -0.07719967 0.077869594
000090 0b de 0b 3d 18 6d c2 3d db 62 fc 3c 32 d7 dc bc
       0.034147304 0.09493464 0.030808857 -0.026958082
0000a0 bf f1 07 3d d5 53 b0 bd 64 6d 84 3d 55 18 34 bd
       0.03318953 -0.0860974 0.06466177 -0.043968517
0000b0 da 47 dc 3b 73 48 93 3d f6 83 c1 3d c6 87 8a 3a
       0.0067224326 0.07191553 0.09448998 0.0010569028
0000c0 ff 10 da bd a6 98 e4 3b 0b 56 c3 bd a6 99 8e bd
       -0.10647773 0.006976205 -0.09537896 -0.069629
0000d0 32 b7 45 bb b6 73 55 3c e7 04 6c bd 0c b8 26 bd
       -0.0030169007 0.013028076 -0.057621863 -0.040702865
0000e0 56 68 0b bc 9e e2 ac bd 66 77 89 3c bb 29 2d bd
       -0.008508762 -0.08441661 0.016780566 -0.042276125
0000f0 9e 5a d7 3d 23 14 52 3d 23 6a 97 3d f1 b3 1c 3d
       0.10515331 0.051288735 0.07393291 0.038257543
000100 bc 5d 76 bd 6b 74 ce 3d 6c 5a 41 bc 16 c5 7c 3c
       -0.060147986 0.10080799 -0.011801343 0.015427848
000110 e1 fb 96 bd e3 07 cd bb 4e de a2 3c 0b 5a 41 3d
       -0.07372261 -0.0062570437 0.019881394 0.047205012
000120 2b 9b 81 3c fe 92 a2 bd 00 7b c8 bd cd 74 7b 3d
       0.01582106 -0.07938193 -0.097890854 0.061390687
000130 d3 60 9d bd 5a a8 d6 bd ad c8 07 bd a8 c1 82 3d
       -0.076844834 -0.10481329 -0.033150364 0.06384593
000140 00 02 20 bd d0 68 09 bd ce 42 a7 3b d9 b8 af 3c
       -0.039064407 -0.033547223 0.0051043993 0.021450447
000150 44 dc 40 bc 58 18 8c bc e9 26 b7 bd 99 4f 4d 3c
       -0.011771265 -0.017101452 -0.089429684 0.012531185
000160 c9 5e 54 3c 70 07 98 3d dc 1f b1 3c 6c 31 3c 3d
       0.012962052 0.074232936 0.021621637 0.04594557
000170 1d a7 85 3d 13 c3 4c 3d 6b 9d 66 3d 83 6b 8d bd
       0.06526015 0.049990725 0.05630247 -0.06905272
000180 e4 9e d4 bc 77 13 f0 bc 05 a0 9b 3d 05 07 d8 3d
       -0.025954671 -0.029306157 0.07598881 0.10548214
000190 7c 6a d7 bd 49 88 bd 3d de 4e cb 3c 3e 0d c3 3d
       -0.10518357 0.0925451 0.02481788 0.0952401
0001a0 33 e5 d9 bd 9c a8 ff 3c c7 96 8c 3d 52 3e e4 3c
       -0.106394194 0.031208329 0.06864696 0.027861748
0001b0 67 40 ce 3d 58 f7 b8 3d 4d db d0 3d 31 99 7b 3c
       0.100708775 0.09031552 0.10198078 0.015356348
0001c0 55 62 a8 bc fd 57 78 bd 9c d4 c5 3d 87 f4 3b bd
       -0.0205547 -0.060630787 0.09659693 -0.045887496
0001d0 14 bd cc bd 09 e2 41 3d de 1f 58 bd a4 65 89 3d
       -0.09997001 0.047334705 -0.052764766 0.067088395
0001e0 2a 8d e0 3c 8f 7f db bc cc 91 6f 3c 06 c8 0c bd
       0.027411062 -0.026794223 0.014622163 -0.034370445
0001f0 45 8b e0 3d bf 59 25 bd fe 1a c7 3d 18 0f 7f 3d
       0.109640636 -0.04036879 0.09721945 0.062270254
000200 43 ec bf 3d 50 45 2e bc 47 ed e4 bc 51 de 6f 3d
       0.09371235 -0.010636643 -0.027945174 0.058561627
000210 31 2e 9e bd 9e da 9f 3d 15 54 bc 3d 40 da b1 bd
       -0.07723654 0.0780537 0.09195725 -0.08684206
000220 30 54 a4 bd 15 8e a8 3d 6b ad 45 3b 03 c9 89 bd
       -0.0802387 0.08230225 0.003016318 -0.06727793
000230 79 f4 0c ba 9b 48 7c bd 91 18 de 3c a4 ff d3 bc
       -0.00053770054 -0.06159268 0.027111324 -0.025878735
000240 9c bc a1 3d f1 c0 1c 3d 99 35 e5 bc 16 34 ea 3c
       0.078973025 0.03826994 -0.027979659 0.02858929
000250 f4 94 1b 3d 72 63 57 bb ca 87 85 bc 74 61 17 3d
       0.03798385 -0.003286567 -0.0163001 0.036958173
000260 16 9f 60 3d 4f 48 89 3c 60 4d 22 3c 04 71 5c 3d
       0.054839216 0.016758112 0.009906143 0.053818718
000270 df 67 8c 3d df 43 a3 bd a5 19 9c 3d 32 22 bc bd
       0.06855749 -0.0797193 0.07622079 -0.0918621
000280 50 31 3c bd 09 86 d3 3d 23 a6 18 3d 74 78 9e bd
       -0.045945466 0.103282996 0.037267815 -0.07737818
000290 d1 5e 78 bd 1c 38 6b 3d 4d 03 64 3d 2e 05 0a 3c
       -0.0606373 0.057426557 0.05566721 0.0084240865
0002a0 bd 6e 3b bd 08 d6 a3 3a ec b4 cc bd ed 3b c5 3d
       -0.045759905 0.0012499699 -0.099954456 0.096305706
0002b0 29 10 b5 bd 7d 66 f5 bc 38 64 25 bc bc c4 d6 3c
       -0.08840973 -0.029956097 -0.010094695 0.026216857
0002c0 31 c7 2b bd ad de e2 3d a5 05 c9 3d c8 48 b9 3d
       -0.04193801 0.11077628 0.0981553 0.09047085
0002d0 41 15 ca 3c f3 d7 a6 3d 58 58 c4 3c 21 f7 da bd
       0.024668338 0.08146658 0.023967907 -0.10691667
0002e0 59 81 b9 bc ad 18 75 bd aa 86 c3 3d 58 5e 55 bd
       -0.022644686 -0.059837986 0.095471695 -0.052091926
0002f0 d2 92 22 3d 47 ab b8 3d 16 a4 4d bd 58 de 81 3d
       0.0396908 0.090170436 -0.050205313 0.06341237
000300 5a 63 a0 bd 4b 40 1d bd 10 ad b0 3c 52 08 92 bd
       -0.0783145 -0.038391393 0.021566898 -0.07130493
000310 d2 61 61 bd c4 c6 b1 bd a6 de e8 ba 45 75 3b 3d
       -0.05502493 -0.0868049 -0.001776655 0.045766134
000320 d8 08 94 bd c8 6c 6b bd 6d 74 1a bd 44 0c 3d bd
       -0.07228249 -0.05747679 -0.03770869 -0.046154276
000330 10 9b cd 3d 1e 51 37 bd ba 2c ba bd 73 32 fc 3b
       0.100393414 -0.044755094 -0.09090562 0.0076964437
000340 56 5d 44 bd 10 f8 7d 3b 73 3f 5c bd e5 76 b5 3d
       -0.047940575 0.0038752593 -0.053771447 0.08860568
000350 d0 78 6a 3d 26 8f 9c 3c 63 88 8b bd 5e ae b7 bd
       0.057244122 0.019111227 -0.06813123 -0.08968805
000360 1c 41 58 bd c6 b7 6c bd 7d 12 40 3a 70 1b ae 3c
       -0.05279647 -0.057792448 0.0007326974 0.021253318
000370 32 18 78 bd 1a a4 89 3d cc c2 ae 3d cb 48 90 3d
       -0.06056995 0.06720753 0.08533248 0.07045134
000380 74 1e a0 3d d1 f9 18 3d 9f 59 bd bd da 7e bb 3c
       0.078183085 0.03734762 -0.092456095 0.022887636
000390 ac b5 22 3d 22 83 aa 3c 75 28 68 bd 00 48 be 3d
       0.039724037 0.020814482 -0.056679208 0.09291077
0003a0 6c 75 b2 bd 47 19 95 3b 9b 48 cb bc 8e 55 48 bd
       -0.08713803 0.0045501324 -0.024814894 -0.048909716
0003b0 45 0c ce bd ab 59 ae 3d 2b 5c ae 3a 1c fd 84 bd
       -0.10060934 0.085131966 0.0013302615 -0.06493589
0003c0 93 61 c1 3d 13 8a a9 bd 4b b7 82 3d 72 03 b8 3d
       0.09442439 -0.08278289 0.063826166 0.08985032
0003d0 34 54 d6 3d 8c 69 56 bd 78 6a a0 bd 86 39 14 bd
       0.10465279 -0.05234675 -0.07832807 -0.03618767
0003e0 05 ca 66 3c cb d7 26 3d 49 ae 61 bd bc 63 08 bc
       0.014086251 0.04073314 -0.055097852 -0.00832456
0003f0 dd d6 04 bd 0b 27 b8 3d ed 98 77 bc 06 a1 05 bd
       -0.032431472 0.08991822 -0.015112144 -0.032624267

layer2.bias f4 [256]
000000 84 31 5c 39 01 1d df b9 b5 7d 85 3a 97 57 23 3a
       0.00020999281 -0.00042555484 0.0010184558 0.00062310084
000010 bf d8 8d 3a 0d a0 89 b9 20 e9 92 b7 fb 4a c6 b9
       0.0010822042 -0.00026249923 -1.7513114e-05 -0.00037821368
000020 c9 8b 3a b9 6a 10 2e 3a 45 5a 34 ba bb 48 c1 39
       -0.00017790416 0.0006640019 -0.0006879906 0.00036866017
000030 c4 1a af 3a 2c b4 cf 3a 03 83 79 bb 7b bd 57 39
       0.0013359417 0.0015846542 -0.0038072474 0.00020574585
000040 22 e2 c5 3a 2c 6d 84 39 73 93 66 b9 3d 7f b7 39
       0.00150973 0.0002525834 -0.00021989438 0.0003499928
000050 c3 59 c4 b9 9b fe 40 ba 45 eb b7 bb ec 3a 5c bb
       -0.0003745091 -0.0007362158 -0.005612763 -0.0033604456
000060 31 24 6e b9 c9 06 7b 3a 30 77 85 39 38 e7 c5 b6
       -0.00022710931 0.0009575901 0.00025456538 -5.897975e-06
000070 d1 67 99 3a bd 63 0f ba f3 f4 41 ba 33 1f 09 3b
       0.0011703913 -0.0005469879 -0.0007398866 0.0020923137
000080 13 dc a4 ba c8 47 6f 3a 7f c2 9f bb dd f2 06 3b
       -0.0012577794 0.00091278227 -0.0048754807 0.0020591535
000090 aa 4a c2 ba 92 00 69 b8 18 f8 33 3b 3e 54 76 b9
       -0.0014823277 -5.555206e-05 0.0027461108 -0.00023491771
0000a0 67 6b 5c ba d6 56 83 b9 9b 3c 73 b8 9c 3e 43 3a
       -0.0008408338 -0.00025050965 -5.7992158e-05 0.0007447989
0000b0 85 be 2a 3a 03 a7 16 ba d2 3c e8 3a c4 4e ac ba
       0.0006513375 -0.00057469326 0.0017718321 -0.0013146033
0000c0 bd e1 33 3b f8 6c 23 3a 47 33 9c 3a 92 bb 2d ba
       0.0027447783 0.0006234194 0.0011917137 -0.00066273764
0000d0 d8 8c ff b9 a0 20 8f 3b 98 a9 aa ba c6 6a c6 3a
       -0.00048742327 0.004367903 -0.0013020514 0.0015138022
0000e0 0c 61 d5 b9 ae 23 eb 39 0b d5 8d ba cf 11 83 b9
       -0.0004069883 0.00044849276 -0.0010820938 -0.00024999536
0000f0 57 c4 9d ba c0 93 bc b9 57 e6 e9 ba d6 ad 2b bb
       -0.0012036663 -0.00035968237 -0.0017845136 -0.0026196144
000100 9d 96 07 3a 26 56 91 39 fc 32 4e 3b 8e a3 23 ba
       0.00051722844 0.0002772074 0.0031463495 -0.0006242328
000110 e3 e7 93 38 71 70 80 ba 55 b0 7b 3a eb d3 44 39
       7.0526985e-05 -0.0009799135 0.00096011657 0.00018770962
000120 ca bd ef ba 1d c5 74 ba 2d ad b4 3a eb 6a 33 bb
       -0.0018290814 -0.00093372335 0.001378452 -0.002737696
000130 fc ef 08 3b 77 10 97 ba 49 2b e1 ba 7e d1 e8 b9
       0.0020894995 -0.0011525293 -0.0017179038 -0.00044406572
000140 d7 b8 57 3a a3 d7 72 ba 37 cc 80 b8 d5 9d c8 ba
       0.00082291424 -0.00092637 -6.1415536e-05 -0.0015305827
000150 ed 67 cc ba 36 25 43 3a 99 37 57 ba f9 8e ce 3a
       -0.0015594937 0.00074442045 -0.0008209884 0.0015759162
000160 fe 4e 2c bb 42 47 e6 b9 a8 e8 aa ba f9 c7 6a 3a
       -0.00262922 -0.0004392211 -0.0013039308 0.000895619
000170 60 49 5e b7 5c e8 80 b7 11 0d c2 39 34 aa df 39
       -1.3249315e-05 -1.536699e-05 0.000370123 0.00042660686
000180 b3 50 aa 39 85 8f 04 3a ad 90 1d 3a 4a 38 15 ba
       0.00032485052 0.00050567865 0.0006010633 -0.00056922866
000190 15 a0 61 3a 9f f4 a6 ba c5 56 84 b9 b2 16 1c 38
       0.0008606923 -0.0012737698 -0.0002524165 3.7214435e-05
0001a0 80 e1 0a 3b 41 e1 5a bb 19 62 ff ba 3e c3 35 bb
       0.0021191537 -0.0033398422 -0.0019484191 -0.0027734782
0001b0 75 d2 c2 b9 11 96 3e 3b 59 21 ad b9 95 a4 23 3b
       -0.00037159366 0.0029081146 -0.00033021977 0.0024969925
0001c0 35 30 8a b9 a1 2f 75 ba a7 d5 82 b9 3d be 07 bb
       -0.00026357328 -0.00093531056 -0.00024954716 -0.0020712756
0001d0 e7 79 45 bb 76 49 12 ba 00 62 61 3a 4b c9 98 ba
       -0.0030132474 -0.00055804045 0.0008597672 -0.001165667
0001e0 ba 9a 0e 39 f7 b8 03 3b 63 66 98 36 71 52 0c bb
       0.00013599815 0.0020099261 4.5418724e-06 -0.0021411444
0001f0 d9 96 f1 39 cf cc 2e ba dc 72 84 ba b4 9f a2 38
       0.00046079492 -0.0006668092 -0.0010105032 7.754509e-05
000200 e3 20 52 3a 96 bc 86 b9 fd 67 b6 3a ef f4 46 39
       0.0008015765 -0.0002569898 0.0013916489 0.00018973996
000210 28 36 c3 ba 57 67 0b ba b8 f8 3e ba 5f 1e 8e b9
       -0.0014893459 -0.0005317828 -0.0007284987 -0.0002710698
000220 07 98 ed b9 f5 e2 b5 39 e5 52 0e ba 1f b7 a5 3a
       -0.00045317432 0.00034692106 -0.00054292224 0.0012643075
000230 84 45 34 b9 63 d4 03 3a 3b 86 fb 38 14 f2 a2 39
       -0.00017192034 0.00050289015 0.00011993615 0.0003107941
000240 99 cd d6 3a ed ba 30 3b 94 31 4d ba e5 8b f5 39
       0.0016388177 0.0026966885 -0.0007827517 0.0004683427
000250 f5 11 90 3a 34 f4 8c ba 98 03 d5 37 69 29 00 b9
       0.001099168 -0.001075393 2.5393252e-05 -0.00012222458
000260 21 21 e1 3a 1e 7d fb 3a c0 79 d4 39 7f b6 1c ba
       0.0017176011 0.0019187068 0.00040526502 -0.0005978122
000270 a7 05 2c 3b 25 04 34 3b b9 41 4e ba 81 ac b5 b9
       0.0026248486 0.002746829 -0.000786807 -0.00034651536
000280 02 de 96 3a 92 db be 39 71 38 7e 3a b5 51 a7 ba
       0.0011510255 0.00036403217 0.00096977415 -0.001276544
000290 5c 0c 3a 3b d3 f3 ee 3a a6 38 34 b7 7a 05 31 bb
       0.0028388714 0.0018230624 -1.0742026e-05 -0.002701132
0002a0 d8 a2 a8 ba 26 f4 2e b9 50 a5 27 bb f6 72 34 bb
       -0.0012865914 -0.00016684885 -0.0025580712 -0.0027534342
0002b0 15 3f ed 3a 46 ae e2 38 8b 70 50 3a c6 ac 10 3b
       0.0018100465 0.00010808981 0.00079513405 0.0022075637
0002c0 d5 89 d2 38 f9 43 41 3a 79 8e 3d 3a de 9f 8a ba
       0.000100392535 0.00073724944 0.0007231008 -0.0010576209
0002d0 38 7e 26 3a 3e da 74 39 1d 01 8f 39 62 17 33 ba
       0.00063512055 0.00023350955 0.00027275915 -0.00068317924
0002e0 02 c8 91 3a f6 ef 8f ba 14 6e 38 3a 61 b4 8c b8
       0.0011122229 -0.0010981548 0.0007035446 -6.7093184e-05
0002f0 d2 ec 40 b9 a5 86 5d ba 9d 99 95 39 1b 7a bd 39
       -0.0001839877 -0.00084505446 0.00028533945 0.00036139865
000300 22 d5 ef 39 c1 41 97 3a fa 37 a5 ba e0 73 92 38
       0.0004574443 0.0011539982 -0.0012605183 6.983406e-05
000310 b5 9e f2 3a e4 ff 8c ba 3e 79 45 3b a2 7e a8 b9
       0.0018510433 -0.0010757414 0.003013208 -0.00032137806
000320 56 5f 8b ba a2 10 25 ba e5 67 db b9 01 60 1e 3b
       -0.0010633271 -0.0006296729 -0.00041848343 0.002416611
000330 0c 92 e1 ba b7 27 cc b9 a1 2d 31 ba 32 df 4e b8
       -0.0017209663 -0.00038939502 -0.00067588134 -4.9322094e-05
000340 79 40 09 3a 81 8c 9a ba 50 61 8f 3a 93 c0 f5 39
       0.00052357424 -0.0011791141 0.0010939036 0.0004687352
000350 2d 1d f8 b9 ab 53 ea b9 e5 8f 94 39 50 fc 12 b9
       -0.00047323984 -0.00044694296 0.0002833597 -0.00014017639
000360 07 84 b6 39 92 7c b8 ba ae 7a aa 3a e7 58 2e 39
       0.00034812113 -0.0014075211 0.0013006532 0.00016627052
000370 4f e3 03 3b a5 fb 30 bb a0 3e 21 bb 1a 91 60 bb
       0.00201245 -0.002700546 -0.0024603978 -0.0034266175
000380 ba 51 92 b9 06 15 eb 3a a4 c2 7e ba e3 61 18 3b
       -0.0002790818 0.0017935343 -0.0009718335 0.0023251704
000390 3c 8e 62 3a c7 b2 5a 39 3e 18 a4 39 3d 95 3b ba
       0.00086424104 0.000208567 0.0003129858 -0.0007155722
0003a0 8d bf 8a 3a 50 84 a7 39 17 cf ff b7 d2 66 35 ba
       0.0010585651 0.00031951303 -3.0494803e-05 -0.00069199235
0003b0 d8 e3 c1 3a c1 1b f8 b9 ad c6 d2 b8 a1 d6 a3 3a
       0.0014792634 -0.00047322924 -0.000100505866 0.0012499877
0003c0 62 bf 05 ba 57 0f 58 3a 6e de 72 3b d0 a4 40 b9
       -0.00051020656 0.0008242032 0.0037058848 -0.00018371944
0003d0 05 66 ae 3a e3 de 73 bb 3b 1c 8b bb 04 00 4b 39
       0.0013305551 -0.0037211708 -0.0042453087 0.00019359594
0003e0 00 2a 52 ba 4a 38 1b b9 f1 54 27 3a 86 24 1f 3a
       -0.0008017123 -0.00014802921 0.00063832017 0.0006070811
0003f0 ff 9c 08 b9 40 a2 d4 b9 fb 20 14 3b 9f 95 0c 3a
       -0.00013028456 -0.00040556677 0.0022602666 0.00053628715

layer3.weight f4 [2, 256]
000000 2b 2b 8c ba 41 2d 8d bd c9 d6 c6 b8 92 7d ec bc
       -0.0010694017 -0.06893397 -9.4813826e-05 -0.02886847
000010 63 db 14 3e dd 6f 36 3c dd 4c 95 3c a0 8e 97 3d
       0.14536814 0.011135069 0.018225128 0.074002504
000020 03 fd 06 3e f5 6a b8 bd 5c 08 0a bd a8 f8 4a 3b
       0.13182454 -0.090047754 -0.03369938 0.0030970965
000030 b4 df 4f bd fc be 10 3e 6c 1b 0a be c6 38 7a 3d
       -0.05075045 0.14135355 -0.13487023 0.0610893
000040 b2 c6 8c 3d af 6e 1b 3c f2 78 3b 3d 52 c5 0d bd
       0.068738356 0.009486838 0.04576964 -0.034612007
000050 15 2a 09 be 1e 3a 3d bd 35 7b 6f bd c3 3d 0d bd
       -0.1339496 -0.046198003 -0.05846711 -0.03448273
000060 93 23 21 3c af e5 f3 bd 9f 54 af bd c4 2c b8 bc
       0.009835142 -0.11909043 -0.08561062 -0.022482283
000070 d3 00 b1 3d ec 7d 13 3e 48 dd 11 be d9 a9 1c bd
       0.08642735 0.14403504 -0.14244568 -0.038247917
000080 5f 30 ff bc 3c 40 05 be 58 ed 70 bc f6 61 ab 3d
       -0.031150995 -0.13012785 -0.014705025 0.08368294
000090 cf f7 ae bd 92 38 93 3c f1 d8 e3 bc 5b d8 82 3d
       -0.085433595 0.01797131 -0.027813407 0.06388923
0000a0 52 e2 c5 bb d1 08 8c 3d 6d 8a ba bd 76 e8 85 3d
       -0.0060389424 0.06837619 -0.09108434 0.06538479
0000b0 27 89 05 be 7f 76 81 bc 1a 13 1b 3e a9 c3 7d bd
       -0.130406 -0.015803574 0.15144005 -0.061954174
0000c0 52 b9 02 bc c5 13 58 3d 60 d8 02 3e 06 40 fc bd
       -0.007978754 0.05275323 0.12777853 -0.12316899
0000d0 c6 32 5b 3a ac da b0 3d ca be 81 3d 30 33 93 3d
       0.0008361753 0.08635458 0.06335218 0.071874976
0000e0 aa 91 90 bc 62 0d f1 3d ef 57 ac 3c e5 9a 78 3d
       -0.017647583 0.11770131 0.021038024 0.060694594
0000f0 d3 62 c5 bc ec 74 49 3c 7f ab 56 bc 3e 22 19 3e
       -0.024094975 0.012295943 -0.013102411 0.14954469
000100 78 d6 5f 3d 3e 6c f7 3d 85 6e dd bc 04 bd 22 bd
       0.054647893 0.120811924 -0.027030239 -0.03973104
000110 03 16 14 3e c9 6f 45 3d cb 63 3d bd 54 b4 c4 bc
       0.14461522 0.04820231 -0.046237748 -0.024011768
000120 c4 32 0d 3d 6e e0 f2 bd bf b0 0e 3e 09 86 37 3d
       0.034472242 -0.11859213 0.13934611 0.04480556
000130 47 2e 78 bd c7 6e b7 3d ab 20 08 3e f0 32 74 3c
       -0.06059101 0.08956676 0.13293712 0.014904723
000140 1d b7 14 3e 45 c6 91 3d 14 cb d7 3c 5b 4e ec bc
       0.14522977 0.07117895 0.026341952 -0.028845957
000150 7d 37 d4 bd 64 89 ac bd 7c d6 36 bd fd 71 1b 3e
       -0.10362146 -0.08424643 -0.044638142 0.15180202
000160 3c 9c 93 3b 62 a7 b8 bb 46 74 02 be 95 e7 a7 bd
       0.0045047086 -0.005635188 -0.12739667 -0.08198468
000170 6c 1a 4c bd 12 90 ce 3d c0 5d ea bd 5e 43 38 3d
       -0.049829885 0.10086073 -0.11443663 0.04498612
000180 f6 44 a5 3d 3c 6a ec 3d 9d 0e 6d bd 82 97 98 3d
       0.08069794 0.115437 -0.057875264 0.07450773
000190 c9 7a b2 bd 9c 2d 58 3d a1 b8 cf bd d4 57 b3 bd
       -0.08714826 0.05277787 -0.10142637 -0.08756986
0001a0 de 1d b1 3d 53 e9 16 bd b3 4f 97 3d a1 a7 dd bd
       0.08648275 -0.03684361 0.07388248 -0.10822988
0001b0 6f 8b 0c be ac e7 f1 bc 18 3b 06 3e b7 9b 58 3d
       -0.13725065 -0.029529415 0.1310848 0.052882876
0001c0 df bf f8 3c 8e b9 82 bd 6e 67 a0 bc 2f 3e 87 3d
       0.030364929 -0.06383048 -0.01958057 0.066036575
0001d0 8a 47 03 3e 2f de 89 bd 11 a0 ef 3b 16 8c a3 3d
       0.12820259 -0.06731831 0.0073127826 0.07985704
0001e0 5a 76 da 3d f2 37 b8 bd 08 0c f3 bc 7e 45 c1 bd
       0.10667105 -0.08995046 -0.029668823 -0.09437083
0001f0 7f 8d 5e 3d d9 53 46 3d 83 cb e6 bd f9 18 55 bc
       0.05433416 0.048419807 -0.112692855 -0.013006442
000200 28 94 62 3d 9c b8 45 bd a1 1a 7c 3d 89 08 30 3d
       0.055317074 -0.04827176 0.061548833 0.04297689
000210 fb 65 15 bc c8 2c 29 bd ec 55 71 bd 8a 92 a3 3a
       -0.009118552 -0.041302472 -0.058919832 0.0012479585
000220 c4 73 97 3c 70 fe 08 bc c3 f1 9a bd dc f4 0d be
       0.018487819 -0.008361444 -0.07565644 -0.13862938
000230 e1 8e df bd 1a f5 96 3d 65 71 f2 3d 87 cf aa bd
       -0.10915924 0.07370968 0.118380345 -0.08340364
000240 ac 4f 9e bd 87 77 e5 bd fe e6 1f bd bb 3a 91 bd
       -0.0773004 -0.11204439 -0.03903865 -0.0709128
000250 3a 65 73 3d 26 50 1e 3e cf 43 13 3e 4c 2f 87 bb
       0.05942271 0.15460262 0.14381336 -0.0041255113
000260 1d 25 b0 3d b1 a6 70 3d bd e6 ae bd 36 1f ce bd
       0.08600829 0.05875272 -0.085401036 -0.10064547
000270 46 a8 04 3e a8 5c 1a 3d e3 65 e1 bc f5 0b 74 3c
       0.12954816 0.03768602 -0.027514404 0.014895429
000280 f5 e1 ad bd 06 23 bb bd 95 52 da bd 7f 3c 12 3e
       -0.084903635 -0.091375396 -0.106602825 0.1428089
000290 34 33 2b 3d 4d 63 e2 3d 7e 4c 6c 3c 19 ca 0d 3d
       0.041796878 0.11054096 0.014422534 0.034616563
0002a0 8a 62 cd 3d de 39 14 3e 70 20 44 bd 1a 6f 68 bd
       0.100285605 0.144752 -0.047882497 -0.05674658
0002b0 a7 c9 0c 3d f7 62 58 bc fc 8b bc 3d 5a 97 0a be
       0.034372 -0.013207189 0.092063874 -0.13534299
0002c0 75 18 f0 3c b4 cd 15 bd 2c ae f8 3d df 7c cd 3d
       0.029308537 -0.036573127 0.12142596 0.10033583
0002d0 0c 96 f8 b9 f9 01 fc 3d 42 68 e7 3d 31 97 f6 bc
       -0.0004741404 0.12305064 0.112991825 -0.03010139
0002e0 55 02 0f 3e f9 ff 84 ba f1 33 b5 bd d8 fe c9 bb
       0.13965733 -0.0010147087 -0.08847798 -0.006164413
0002f0 b2 67 c8 3b ae 03 10 3e 03 db 6e 3d 41 4b e7 3d
       0.006115877 0.14063904 0.058314335 0.112936504
000300 5c 36 e0 3d 20 77 c8 bd 93 e9 f7 bd ca c0 be bc
       0.10947868 -0.09788346 -0.121050976 -0.023285288
000310 28 73 cb 3d e6 a7 c1 bd 84 c4 0b 3e f9 b7 12 3d
       0.09934074 -0.09455852 0.13649184 0.03581998
000320 fa d4 af bd 8a 38 20 bd fd da 73 3d 76 1f 8c bc
       -0.08585544 -0.03911642 0.059535015 -0.017104845
000330 19 42 13 3e 8e fc 56 bb 3d 36 f0 3d 2d cc 1b 3e
       0.14380683 -0.0032804343 0.11729095 0.15214606
000340 c9 aa 4e 3d bf 50 9b 3d d4 1c 1a 3e e3 12 06 be
       0.050455842 0.075837605 0.1505006 -0.13093142
000350 98 ba ff 3c 39 21 fe 3d d3 03 b7 3c 80 84 a9 bd
       0.031216905 0.124086805 0.02234069 -0.082772255
000360 96 b1 7f 3d 46 d7 bd 3d 93 34 e9 bd a6 9a 5d bc
       0.06242522 0.09269576 -0.11386981 -0.013525641
000370 58 fd 0a be 40 0d 15 3d a4 73 ca 3d 48 c5 9e bc
       -0.13573205 0.03638959 0.09885338 -0.01938118
000380 4e f5 99 bb 2d 27 ab bd 94 f0 09 bd 00 5c 90 3d
       -0.004698432 -0.083570816 -0.0336767 0.070487976
000390 ea 91 1c 3e 7c 36 37 bd 91 00 81 bd de 4d 99 3d
       0.15290037 -0.044729695 -0.06298936 0.07485555
0003a0 c9 7e 8d 3d 84 f3 81 bd 24 a1 fa 3d ac fa a1 bd
       0.06908948 -0.06345275 0.122377664 -0.0790914
0003b0 b6 fd e9 bd d8 d1 02 bd 95 7d 77 3d b3 8e 82 3d
       -0.11425345 -0.031938404 0.0604225 0.06374874
0003c0 e6 d5 f3 bc b3 2d fc bd 36 fc b4 3d 07 c2 5f 3d
       -0.02976508 -0.12313404 0.08837168 0.0546284
0003d0 73 f0 21 3d bc 7a b9 3d bb d0 ed 3d ac db 0b bd
       0.03953595 0.09056613 0.11612078 -0.034145042
0003e0 bb 00 05 bd 79 ba fb 3c 1f 97 c4 bd 48 ed 00 3e
       -0.0324714 0.030728566 -0.095991366 0.12590516
0003f0 16 13 ad bd 43 9d f4 3d 1d 37 e9 bd 0c 5a 92 bb
       -0.08450906 0.11944058 -0.11387465 -0.004466301

layer3.bias f4 [2]
000000 76 b4 bc 3b af 9d 40 3c
       0.0057588173 0.011756345

bn1.weight f4 [256]
000000 04 e2 7e 3f d7 52 81 3f 89 e3 7e 3f fc 90 81 3f
       0.9956362 1.0103406 0.9956594 1.0122371
000010 cf 23 7f 3f 98 53 7f 3f d0 c3 7d 3f 42 28 80 3f
       0.99664015 0.9973693 0.9912691 1.0012286
000020 b9 39 7f 3f 12 5d 81 3f cb c9 7d 3f f2 35 81 3f
       0.9969745 1.0106528 0.99136037 1.0094588
000030 37 ed 7f 3f ed ac 7c 3f fc b5 80 3f 7b 8d 80 3f
       0.99971336 0.98701364 1.0055537 1.0043176
000040 bb c2 7f 3f ed 2d 7f 3f 21 14 81 3f 1c 8c 80 3f
       0.9990651 0.9967945 1.0084268 1.0042758
000050 67 c3 7f 3f 57 0d 81 3f d0 57 7d 3f 62 c7 80 3f
       0.99907535 1.0082196 0.98962116 1.0060847
000060 20 1e 80 3f 79 8c 80 3f 13 90 7e 3f 08 00 7f 3f
       1.0009193 1.0042869 0.9943859 0.9960942
000070 be 84 7e 3f af b5 7e 3f 9a b6 80 3f 33 43 7c 3f
       0.994213 0.9949598 1.0055726 0.9854004
000080 d9 bf 7e 3f b4 bd 7e 3f 3c a7 80 3f b6 77 81 3f
       0.99511486 0.99508214 1.0051036 1.0114658
000090 5e 4d 81 3f 8a 2d 7f 3f de 77 7f 3f 2d 2c 80 3f
       1.0101736 0.9967886 0.9979228 1.0013481
0000a0 c0 89 7e 3f 39 c0 80 3f 2d c7 7d 3f 3f 98 80 3f
       0.9942894 1.0058662 0.99132043 1.0046462
0000b0 f2 40 7f 3f d7 e3 80 3f c0 e0 80 3f a8 d3 7d 3f
       0.99708474 1.0069531 1.0068588 0.99151087
0000c0 16 10 7f 3f b4 2b 7f 3f 14 34 7f 3f 20 2e 7f 3f
       0.9963392 0.9967606 0.9968884 0.99679756
0000d0 e9 38 80 3f dc 63 7f 3f 3d c3 80 3f bc 5f 80 3f
       1.0017368 0.9976175 1.0059582 1.0029216
0000e0 a4 ed 7a 3f eb e7 7e 3f 8c 26 80 3f c4 16 7f 3f
       0.9801886 0.9957263 1.0011764 0.9964411
0000f0 2b 60 81 3f ff 1f 80 3f a8 8c 81 3f 6d 3b 7e 3f
       1.0107473 1.0009764 1.012105 0.99309427
000100 c2 f5 7f 3f 77 b2 7f 3f ab 44 7e 3f 7a ab 7f 3f
       0.9998437 0.9988169 0.9932353 0.9987103
000110 db 99 7e 3f 14 85 81 3f d8 7c 7f 3f 3a 8f 81 3f
       0.99453515 1.0118737 0.9979987 1.0121834
000120 d3 4a 80 3f 56 d4 7f 3f 7a ea 7b 3f 14 ad 7e 3f
       1.0022835 0.99933374 0.9840466 0.99482846
000130 29 67 80 3f b7 55 80 3f c9 14 7f 3f d1 55 7f 3f
       1.0031482 1.0026158 0.9964109 0.9974032
000140 0d eb 7f 3f f7 df 7d 3f 14 4a 7f 3f 44 9c 81 3f
       0.99968034 0.9916987 0.9972241 1.0125813
000150 5f 85 7c 3f 45 61 82 3f 0e 1f 7b 3f 51 60 80 3f
       0.9864101 1.0185934 0.9809426 1.0029393
000160 20 75 80 3f 58 65 81 3f a6 f7 80 3f 18 f7 80 3f
       1.0035744 1.0109053 1.0075576 1.0075407
000170 a5 49 81 3f 83 cb 80 3f 75 c4 7f 3f 38 6d 80 3f
       1.01006 1.0062107 0.99909145 1.0033331
000180 9c 54 80 3f 7a d9 80 3f 25 ad 80 3f 44 4e 7d 3f
       1.0025821 1.0066369 1.005284 0.9894755
000190 4a 01 80 3f d7 0f 81 3f 32 44 7d 3f 2c 07 7f 3f
       1.0000393 1.0082959 0.9893218 0.9962032
0001a0 ab 17 80 3f 8c 91 7c 3f 56 16 81 3f f2 ed 80 3f
       1.0007223 0.98659587 1.0084941 1.0072615
0001b0 f6 ed 7e 3f b8 15 7d 3f 88 17 80 3f bd e2 80 3f
       0.9958185 0.98861265 1.0007181 1.0069195
0001c0 e3 b0 7d 3f 77 6a 81 3f 89 7a 80 3f 92 41 7f 3f
       0.9909803 1.0110615 1.0037395 0.9970943
0001d0 55 8a 80 3f c1 47 7f 3f 97 7f 7e 3f 48 82 7f 3f
       1.0042216 0.9971886 0.99413437 0.9980817
0001e0 33 9d 7f 3f 08 77 80 3f cb 19 7f 3f 54 d1 81 3f
       0.9984924 1.0036325 0.9964873 1.0142007
0001f0 a1 4c 80 3f da 64 81 3f d5 e4 80 3f 33 d8 7e 3f
       1.0023385 1.0108902 1.0069834 0.99548644
000200 13 98 80 3f 7d ea 7e 3f 7c f5 7f 3f 31 9a 80 3f
       1.0046409 0.9957655 0.99983954 1.0047055
000210 d8 cb 7e 3f 3f c2 80 3f 8d 61 7d 3f d4 27 81 3f
       0.9952979 1.0059279 0.98976976 1.009028
000220 70 bc 7f 3f 7a 17 7d 3f 27 95 80 3f 17 e7 81 3f
       0.9989691 0.9886395 1.0045518 1.0148648
000230 f4 a2 7e 3f f3 63 7f 3f e4 05 7f 3f 9b ec 80 3f
       0.99467397 0.99761885 0.99618363 1.0072206
000240 6a f6 7e 3f 45 4a 80 3f 15 42 7f 3f a3 9e 80 3f
       0.9959475 1.0022665 0.9971021 1.0048412
000250 c5 48 7f 3f c6 f0 80 3f 8d 79 7e 3f 2e 64 7f 3f
       0.9972041 1.0073478 0.9940422 0.9976224
000260 20 e5 7e 3f 11 cc 7d 3f 97 47 80 3f 59 2d 81 3f
       0.99568367 0.99139506 1.0021847 1.0091964
000270 c7 14 7f 3f 1b 27 80 3f 57 50 7f 3f db 83 7f 3f
       0.9964108 1.0011934 0.99731964 0.9981057
000280 23 66 7f 3f 25 a9 7e 3f 6b a5 80 3f a1 a0 7d 3f
       0.99765223 0.99476844 1.0050482 0.99073225
000290 26 5c 80 3f 0f c2 80 3f de 4e 81 3f f0 56 80 3f
       1.0028121 1.0059222 1.0102193 1.0026531
0002a0 c7 f5 7f 3f 05 c9 7e 3f a3 1c 81 3f a6 be 7e 3f
       0.999844 0.9952548 1.0086864 0.99509656
0002b0 f4 e4 7e 3f f2 19 7b 3f 1c 77 7e 3f 24 69 7e 3f
       0.99568105 0.98086464 0.99400496 0.9937918
0002c0 1d 8a 7c 3f 5e 2a 7e 3f 02 d1 7e 3f 77 20 81 3f
       0.98648244 0.992834 0.9953767 1.0088032
0002d0 c8 6b 80 3f 9a 20 81 3f e0 78 7f 3f b0 fe 80 3f
       1.0032892 1.0088074 0.99793816 1.0077724
0002e0 fb c1 7e 3f 74 ff 7d 3f d9 5d 7f 3f 05 cc 80 3f
       0.9951474 0.99217916 0.99752575 1.0062262
0002f0 bb 40 81 3f d4 d0 7f 3f 0e 65 7f 3f ae 22 80 3f
       1.0097879 0.9992802 0.9976357 1.0010583
000300 a8 d9 81 3f 42 5b 7e 3f d1 d8 81 3f ba c0 7e 3f
       1.0144548 0.99358 1.0144292 0.9951283
000310 24 e6 7d 3f 84 0f 7c 3f a1 1a 7e 3f a6 c5 80 3f
       0.9917929 0.98461175 0.9925938 1.0060318
000320 b4 85 81 3f fa 40 7e 3f 36 06 80 3f b5 b2 7d 3f
       1.0118928 0.99317896 1.0001895 0.9910081
000330 5c c4 80 3f f4 49 7f 3f 10 79 80 3f b6 8c 7e 3f
       1.0059924 0.9972222 1.0036945 0.9943346
000340 da 08 80 3f 1e f2 80 3f bf 85 80 3f fa c7 7f 3f
       1.0002701 1.0073888 1.0040816 0.99914515
000350 04 d2 80 3f 83 1d 7e 3f da 07 80 3f 42 0f 80 3f
       1.0064092 0.9926378 1.0002396 1.0004656
000360 dd 35 80 3f 0d fd 80 3f ba d2 80 3f e8 99 82 3f
       1.0016438 1.0077225 1.0064309 1.0203218
000370 8d 0a 7c 3f 5e 58 7e 3f d4 2d 7f 3f c3 2d 81 3f
       0.984536 0.9935359 0.99679303 1.009209
000380 bf 00 81 3f 5e 81 7f 3f 30 ad 80 3f 09 a9 7d 3f
       1.0078353 0.99806774 1.0052853 0.9908605
000390 25 ca 7c 3f 16 4c 80 3f 8d 34 80 3f c3 69 81 3f
       0.9874595 1.002322 1.0016037 1.0110401
0003a0 7e 6e 7e 3f 25 05 81 3f b0 4e 80 3f 1b bb 7d 3f
       0.9938735 1.0079695 1.0024014 0.99113625
0003b0 49 d2 81 3f 38 43 7f 3f 42 88 7c 3f 74 2e 7e 3f
       1.0142299 0.9971194 0.9864541 0.9928963
0003c0 30 66 7f 3f 1b da 7f 3f ed 05 82 3f 99 13 7e 3f
       0.997653 0.9994218 1.0158058 0.99248654
0003d0 65 79 7f 3f c4 08 80 3f 58 ec 80 3f fa 8b 80 3f
       0.9979461 1.0002675 1.0072126 1.0042717
0003e0 42 b1 80 3f 29 81 80 3f 70 8b 80 3f 91 02 7f 3f
       1.0054095 1.0039417 1.0042553 0.9961329
0003f0 52 b6 80 3f be 92 80 3f 7f b1 7f 3f 25 53 80 3f
       1.005564 1.0044782 0.9988021 1.0025374

bn1.bias f4 [256]
000000 81 70 38 3a 40 7f d6 3b 54 0b 5b bc b4 3e 5f 3c
       0.00070358074 0.006545931 -0.0133694 0.013625789
000010 d3 9c f5 3b 40 ff 0e bb 4c d9 62 bc 29 18 8e 3b
       0.0074955015 -0.0021819621 -0.013845753 0.004336376
000020 cf 3c 83 bb e6 60 12 3c 49 20 74 bb 6d 26 25 3c
       -0.0040050517 0.008934235 -0.0037250689 0.010079962
000030 1c f5 73 bb ae 7f 4f bc 89 6d 26 bc a3 41 db 3b
       -0.0037224954 -0.012664719 -0.010157951 0.006691174
000040 e1 2a 24 bb b4 f3 24 ba b9 52 70 3c ca 74 11 3c
       -0.0025049972 -0.0006292418 0.01466816 0.008877942
000050 05 25 49 bb 22 20 7a 3c c4 74 43 bc 86 fc bf 3a
       -0.0030692231 0.01526645 -0.011929695 0.0014647401
000060 d1 7e 20 bb 97 33 ba 3a 4e 24 1c bc 26 8f df 3a
       -0.002448965 0.0014206049 -0.00953014 0.0017056211
000070 07 a3 57 ba 10 14 82 bb e2 48 0f 3c aa cb 11 bc
       -0.0008225892 -0.003969677 0.008745404 -0.008898655
000080 2e b4 b7 bb b2 83 c7 bb 3a fe ee 3b af 1c 99 bb
       -0.005606196 -0.0060886974 0.0072934898 -0.004672609
000090 cc 84 72 3c 4f fd 8e bb 5c 8a 7b bb 72 8d 69 3b
       0.014802169 -0.004363693 -0.003838203 0.0035637286
0000a0 bc 07 ea ba 83 e2 6d bb d6 84 d5 bb ab 37 a4 3b
       -0.0017855088 -0.0036298342 -0.0065160794 0.005011519
0000b0 d5 87 ea bb 34 85 d1 3b 79 1e 68 3b 9c a8 9d bb
       -0.0071573057 0.006394053 0.0035418554 -0.0048113596
0000c0 f9 bb db 3b 9c 30 69 bb be 81 9d ba 05 f3 0f bc
       0.0067057577 -0.0035581952 -0.0012016816 -0.008785968
0000d0 89 88 0a bc 89 a9 e2 bb bb ff 1f bc 96 d1 43 bb
       -0.008455404 -0.006917183 -0.009765561 -0.0029879562
0000e0 dd 39 93 bc 3e c9 4f bb e8 b5 2c 3b f0 fe 82 39
       -0.017971927 -0.0031705643 0.0026353542 0.00024985475
0000f0 0c f3 a2 3b ed 8f 20 ba 89 b3 3f 3c 19 b1 6c bc
       0.004972821 -0.0006124962 0.011700519 -0.01444652
000100 00 00 a7 ba 0d c8 9c bb cb 74 12 bc 7f f0 57 bb
       -0.0012741089 -0.00478459 -0.008938978 -0.0032949743
000110 ee ac 22 ba 67 b1 52 3c 39 f9 4d 3a bd 72 9f 3c
       -0.0006205578 0.012859679 0.00078572665 0.019463891
000120 0e ff e3 3b c3 f0 9e ba 99 b1 66 bc 94 97 d6 3a
       0.006957895 -0.0012126196 -0.0140804285 0.0016372078
000130 8c b4 3a 3c 37 ea 8a 3b ed 14 26 ba 35 7b 1c ba
       0.011395585 0.0042393464 -0.00063355156 -0.0005969287
000140 29 de 7d b9 d5 48 fe ba 79 d9 1a 3c 49 f5 04 3c
       -0.00024210721 -0.0019400368 0.009451264 0.008115121
000150 8f 30 7a bb 07 f5 3c 3c 0a 2b 83 bc ef 62 41 b9
       -0.0038175916 0.011533028 -0.016011734 -0.0001844277
000160 7f 01 b9 3b 4d 8e 00 3c 3a 95 28 bc e3 bc c1 3b
       0.0056459303 0.007846427 -0.010289485 0.0059124096
000170 e3 bf be 3b 1e d4 dd 3b e3 e1 19 3b a2 40 39 3c
       0.0058212145 0.006769671 0.0023480586 0.011306914
000180 7c 2e 7a bc 96 5f 58 3c e6 fb 17 bc 02 26 91 39
       -0.015269872 0.013206383 -0.009276366 0.00027684873
000190 48 28 d3 3b 58 0a 5d 3b 9e 5e 97 3a 32 3c fa bb
       0.006444011 0.003372809 0.0011548584 -0.0076365704
0001a0 c2 22 8f 3b 80 92 4b bc 79 5f cd 39 7c 82 14 3c
       0.004368157 -0.012425065 0.0003917178 0.009064313
0001b0 2e 73 47 3a 6f 2f 6a bc d6 ef 4d bb a7 1e 2f 3b
       0.00076084107 -0.014293536 -0.003142347 0.002672115
0001c0 f6 17 a8 b8 4a 75 27 3c 58 ff 00 ba 95 78 5d b9
       -8.015327e-05 0.010220835 -0.00049208617 -0.00021121123
0001d0 7d f6 0d 3c 60 71 01 bc 8f 90 8a 3a f5 61 1f 3c
       0.008664724 -0.007900566 0.0010571646 0.009727945
0001e0 2b ae 65 bb 2f 73 95 3a d3 eb 3a ba 27 5d be 3b
       -0.003504644 0.0011402125 -0.00071304775 0.0058094445
0001f0 50 7d a4 b9 4a fd 6f 3c dc f5 86 ba c7 8c 6c bb
       -0.00031373883 0.014647791 -0.001029666 -0.0036094652
000200 c3 59 92 bb bb 9e f5 39 f5 e7 1a 3a 8c 4c 28 ba
       -0.004466267 0.00046848305 0.0005909198 -0.0006420098
000210 d9 69 29 bc df 63 e3 39 bc 16 99 bb de 86 2f bc
       -0.010340177 0.00043371224 -0.0046718996 -0.010713307
000220 42 c3 3b 39 11 b1 6b bc 5a 38 bf 3a c6 18 81 3c
       0.00017906449 -0.014385478 0.0014588938 0.015758883
000230 d9 83 95 bb 8f 7f 21 bb be 4c aa 3b 74 36 d7 3b
       -0.0045628366 -0.0024642681 0.0051971367 0.0065677706
000240 a8 db de 39 45 80 49 bb 87 e5 21 3b 33 9e b9 3b
       0.00042506796 -0.003074662 0.002470346 0.005664611
000250 16 22 48 bc 33 38 7b 3c 5f 95 be bb 8e 71 09 bb
       -0.012215158 0.015333223 -0.0058161463 -0.0020972225
000260 35 c3 8b 3a f2 30 d5 bb 9a 78 38 3c 5e fa 74 3c
       0.0010663035 -0.006506079 0.011259222 0.01495227
000270 4e b0 50 3a 0e d8 21 3b 63 d2 e0 39 37 6a b4 3a
       0.0007960842 0.002469543 0.0004288136 0.0013764565
000280 5f 6c cb bb 11 b2 4a bb dd f7 11 37 fc 8f b2 bb
       -0.006207987 -0.003092889 8.700384e-06 -0.005449293
000290 4c c8 ca 3b 05 75 10 3c 4b 18 15 3c 7e 0b 46 3a
       0.006188428 0.008816962 0.00910003 0.0007554813
0002a0 bd bd b6 bb eb 0c 35 3b a4 b3 a6 3a 1a 81 c0 39
       -0.005576818 0.0027626108 0.0012718332 0.00036717282
0002b0 49 39 84 bc 55 99 47 bc 4a d2 dc 3b be ce 33 bc
       -0.016140597 -0.012182553 0.0067389356 -0.010974584
0002c0 26 35 73 bc 52 7c 0f bc de 90 c1 3a 11 14 4a 3c
       -0.014844215 -0.008757668 0.0014767905 0.012333886
0002d0 15 74 89 3a 50 16 09 3a 95 69 2d 3b 17 0c d5 3b
       0.0010486866 0.000522946 0.0026460637 0.0065016854
0002e0 59 3b e6 ba db 73 4a bb a3 07 25 bc 5d d9 a5 3b
       -0.0017565294 -0.003089181 -0.0100726215 0.005061312
0002f0 fc 2c bb bb b4 1c a0 3b 09 2d b4 bb 59 fe 89 ba
       -0.0057121497 0.004886234 -0.0054985327 -0.0010528072
000300 d2 a1 6d 3b 9b 68 ca bb b6 e1 d3 3b 35 01 1b bc
       0.0036259783 -0.0061770207 0.006466116 -0.009460737
000310 26 3e 1b ba 65 8e 80 bb f9 f5 7d 3a c7 dc 82 3b
       -0.00059220416 -0.0039232248 0.0009687837 0.003993604
000320 1f 96 dd 3b 71 27 fe bb 9f 22 2f 3b 5b c1 65 3b
       0.0067622806 -0.0077561666 0.0026723517 0.0035057876
000330 51 1a ff 39 19 08 1e bc 26 c6 0c bc c5 2d 26 3a
       0.00048656997 -0.009645485 -0.008592164 0.00063392177
000340 da ee d7 b9 58 cf ed 3b e2 61 d1 3b 64 44 00 3b
       -0.00041185954 0.0072573833 0.0063898424 0.0019572014
000350 81 34 3c 3a f9 99 f3 bb 8e 16 e7 bb 7f c3 08 3c
       0.00071794546 -0.0074341265 -0.0070522493 0.008347391
000360 5a 10 9d bb a9 2d c4 b9 01 e3 bb 3b e5 01 94 3c
       -0.004793209 -0.00037418053 0.005733848 0.01806731
000370 a6 3a 55 bc 12 26 01 bc 1e 6c aa 3a be 88 cb 39
       -0.013014471 -0.007882612 0.0013002192 0.00038821058
000380 e5 8b e8 ba 4c 20 7d bb ff c0 4c 3a 4a fb bd 3b
       -0.0017741887 -0.0038623987 0.0007810741 0.0057977783
000390 0a 86 2f bc b6 60 16 3b 65 ce 15 3c 3f b9 82 3c
       -0.01071311 0.0022945828 0.009143447 0.015957473
0003a0 bb f4 a6 3b 0d f3 a0 3c 57 fe d6 3b 47 c9 d4 bb
       0.005095092 0.019647146 0.0065610814 -0.0064937207
0003b0 90 90 e6 3b dc 52 fc ba 7b fd 02 bc 60 01 59 bc
       0.007036276 -0.0019250768 -0.007995005 -0.013244957
0003c0 ef e9 f2 bb 5d 67 2f ba 69 b1 5b 3c f6 74 29 bc
       -0.007413141 -0.00066911225 0.013408997 -0.010342827
0003d0 da 30 e8 ba 4b e9 d4 ba 7b a8 30 3c af ac cb 3b
       -0.0017714754 -0.0016243843 0.010782356 0.006215654
0003e0 3a e2 bb bb f1 94 a5 3b 51 a2 6f ba 1d de 57 bb
       -0.0057337554 0.0050531556 -0.00091413135 -0.0032938786
0003f0 2a c0 2d 3c 0a 69 7b bb 59 67 bf 3b 66 16 1d bc
       0.0106048975 -0.0038362169 0.0058411774 -0.00958786
