cartpole_v1_best_model_NoDSP_Random.pth (torch, 73184 bytes, 6 tensors)

layer1.weight f4 [128, 5]
00000000: 1bba f93a abd9 29bb 271c 973b 1363 b53b
00000010: 4228 cb3b 981b 643c 0c3d 303b 4aa6 183e
00000020: 75eb 723d 5e87 bd3a 9c90 c9bb a9fa c4bb
00000030: afb4 c73c cc37 803c 5f82 ca3b a2e7 ac3d
00000040: d9b9 a23d b21b 3fbd 1613 0ebd a90a 62bc
00000050: 3f4a 79b9 76f4 46bb f6e7 2b3c adb5 173c
00000060: 64e5 023c 952d 403b 9e7e d0ba 3247 933b
00000070: ecfc dd3b 574e ea3b 6a45 08bd a586 05bd
00000080: fd00 82bd ec21 a83b c06b b0bc 4512 e3bd
00000090: 25ef d9bb 42e6 69bf d887 02be 28bf 5fbc
000000a0: e96f 09ba c7c5 e63a 06f7 0f3a 2d26 393a
000000b0: d770 cfba a958 cab9 a6e3 c2ba 1d5e 5f3c
000000c0: b279 143c de15 e33b ed38 6aba a629 f13b
000000d0: 2e25 79bd 0242 44bd 3b29 c73b abf9 973b
000000e0: 9bc8 bb3a 4689 d6bc 40e2 1abc 7bfa dd3b
000000f0: 5fd7 033b c332 a23a a881 b0bd 2276 15bc
00000100: e5cb 0e3c 74db 46bc 6944 fa39 98af 833e
00000110: c640 dc3d 4bf4 24b8 6877 193c 737d 3bbd
00000120: b49a 5dbe accd 90bd 4cb5 d5bb 74c1 83bd
00000130: 6334 12bd c23d ecbd 8ec3 20bd f277 a8bc
00000140: 523d c539 e772 f8ba 3cb6 853b 9555 543c
00000150: c3fc f23b 0010 313c 8967 2d3c b39e 06be
00000160: f26d c9bd fabb ff3b f3e9 b9ba 22b8 9dba
00000170: ca97 4c3c 2bb1 363c d384 003c 170a 953a
00000180: eb01 1eba 8a6b ff3a 7e6d 48ba 9d64 42ba
00000190: a41c e8b8 03cc 683a b1e4 20bc be0e f13a
000001a0: e1ad e63b 77de a83a 0828 cdba 2ca5 9a3b
000001b0: ce37 033c ed6a d13b 2e24 b23c 7f1c 8bbb
000001c0: eb74 273e 3ddf a83d 8e39 0abc 9e5e e139
000001d0: df27 32bb ab96 113c a578 623c afac 233c
000001e0: 6852 1b3d bccb 043d 4639 813f 2c5a ad3e
000001f0: def1 41bb 039d 2fbd e854 27bc 563e 2dbf
00000200: b89d 6abe c7fe e73b a2d9 f43d faac 533d
00000210: 7819 f63b c647 043c 9402 babb 1caf 983b
00000220: 54c1 1fbb f7c2 ddbd 7405 47bc efc0 65ba
00000230: 0a1b 25ba 8825 ba3a cc82 98ba 67fb c13a
00000240: 6ee8 ebba 2bfe 4eb9 b19b 25b9 1487 863a
00000250: 6308 93ba 8d65 6ab9 4bb1 f93c c46d a33c
00000260: 296b 9e3f 8b19 de3e c083 2b3a 88ab 91bc
00000270: f146 153c 0160 10bf 362c 82bd 6ffe 9f3b
00000280: b061 afbd c90a b9bc d1c1 79bf 0e3c e9bd
00000290: 3d76 ccbb 4b25 5338 a1ac f7ba fe71 c13b
000002a0: 54e5 703c 2731 dd3b 8a00 753c f652 23bc
000002b0: 80c3 9bbe 315e 5abe 7380 223c f4b8 1bbd
000002c0: a6fa 933a e8ab 0ebd 086d d2bb 7be0 a1bb
000002d0: 6a51 06b9 65b3 9bba bbbd e73b ec3a 073c
000002e0: 35aa 013c aec6 aa3a f5f3 adb9 4c01 13bb
000002f0: 326b b53b f2a4 fe3b e412 2abe 2114 c0bc
00000300: 2cf3 353e a070 753d 1c7c afbc bc07 a43a
00000310: 1270 9e3b f782 753f 14d9 ef3e 3291 203b
00000320: 899c e13d c182 883d 3716 bb3d dcf5 823c
00000330: 607f e2bb 1bda c3ba 020b d4ba fb1d 15bb
00000340: f6e2 083c f01b 003c 0b7a 083e c61b 843d
00000350: 3594 de3e b011 df3d 1fe7 aa3c 0074 5f3c
00000360: 3813 c7bb fa8c 9f3b e882 f03b 7bee 073c
00000370: 030e d43c a031 4abb 33c2 f73e 649e 313e
00000380: 6a16 813c f7cc b93b 5fe9 383d e10c 993e
00000390: 8052 863d d4e2 9dbc c17c 543b 3643 9d3b
000003a0: 2a8d f6bd 8b3b a7bc 8198 073c cf8c 623c
000003b0: 4ad4 08bd 2e59 c23d 51de 3d3d 0679 78bd
000003c0: 1fc8 b13b 143e cf3b 7bc5 17be 38cd cabd
000003d0: 4ce9 e73b dc18 c63c 2c98 12bd 8922 d33d
000003e0: 98bc 683d ca6b 80bd 6c8c 65ba 059d 9fba
000003f0: 0946 5fbd eecf 77b9 c79d 053c abb5 103e
0.0019052656 -0.0025917094 0.0046115103 0.005535492 0.0061998675 0.0139225945 0.0026891856 0.14907184
0.05930658 0.0014459898 -0.006151272 -0.0060113263 0.024378149 0.015651606 0.006180092 0.08442618
0.07945604 -0.04665727 -0.03468617 -0.013796487 -0.0002377415 -0.0030358112 0.0104923155 0.0092596235
0.007989261 0.0029324044 -0.0015906875 0.004494571 0.0067745354 0.007150452 -0.033269323 -0.03259911
-0.06347845 0.005130997 -0.021535754 -0.11087469 -0.0066508227 -0.9136697 -0.12747133 -0.013656415
-0.0005242811 0.001760655 0.00054918265 0.00070628786 -0.0015826476 -0.000385945 -0.001486887 0.013633278
0.009062218 0.006930097 -0.0008934874 0.007359701 -0.060826473 -0.047914512 0.006077913 0.004637917
0.0014326753 -0.026188504 -0.009453356 0.0067742444 0.0020117385 0.0012374747 -0.0861848 -0.009122403
0.008715604 -0.012137283 0.00047734685 0.25719905 0.10754542 -3.9328163e-05 0.009366848 -0.045773935
-0.21641046 -0.07070479 -0.0065218564 -0.06433383 -0.03569449 -0.11535217 -0.039248995 -0.020565007
0.00037620455 -0.0018955142 0.004080562 0.0129598575 0.0074153855 0.010807037 0.010583767 -0.13146476
-0.098354235 0.007804391 -0.0014184102 -0.0012033025 0.012487361 0.011150639 0.007844168 0.0011370805
-0.00060275075 0.0019487005 -0.000764571 -0.0007415505 -0.00011067957 0.0008880498 -0.009820149 0.0018391234
0.007039771 0.0012883683 -0.0015652189 0.004719397 0.00800891 0.0063909204 0.021745767 -0.0042453404
0.16353194 0.08245704 -0.008436574 0.0004298584 -0.002718441 0.00888602 0.013822709 0.009989901
0.037920386 0.03242086 1.0095603 0.33857858 -0.0029593627 -0.042874347 -0.010213114 -0.6767324
-0.22911727 0.0070799324 0.11955573 0.051678635 0.0075103603 0.008073753 -0.005676577 0.0046595465
-0.0024376707 -0.10828202 -0.012147296 -0.0008764406 -0.00062982796 0.0014201859 -0.001163566 0.0014799655
-0.0017998347 -0.00019740376 -0.00015793626 0.0010263645 -0.0011217709 -0.0002235381 0.030480048 0.019949801
1.2376453 0.43378863 0.00065427646 -0.017781988 0.009111152 -0.5639649 -0.06356089 0.004882626
-0.08563554 -0.02258815 -0.97561365 -0.11388408 -0.006239681 5.0341052e-05 -0.0018896052 0.0059034815
0.014703114 0.006750244 0.014953742 -0.00996851 -0.30422592 -0.21324994 0.00991832 -0.038018182
0.0011289909 -0.03483191 -0.006421689 -0.0049400902 -0.00012809565 -0.0011879025 0.007072178 0.008253794
0.007914116 0.0013029182 -0.00033178894 -0.0022431193 0.0055364603 0.007771128 -0.16608769 -0.023447098
0.17768544 0.05992186 -0.021421485 0.0012514512 0.004835137 0.9590296 0.46845305 0.0024500606
0.11016185 0.06665564 0.091350965 0.015986376 -0.006912157 -0.001494232 -0.0016177597 -0.0022753465
0.008354893 0.007819161 0.13327806 0.0645061 0.43472448 0.108920455 0.02086216 0.013638496
-0.006075289 0.0048691006 0.007339824 0.008296604 0.025885588 -0.0030852333 0.4839035 0.17345577
0.015757758 0.0056701857 0.045144435 0.29892638 0.065587044 -0.0192732 0.0032422992 0.004799272
-0.12038644 -0.020414134 0.008276106 0.013827517 -0.03340558 0.09489666 0.046354596 -0.060662292
0.0054254676 0.006324539 -0.14821427 -0.099024236 0.0070773717 0.024181776 -0.035789654 0.103093214
0.056820482 -0.06270559 -0.0008756581 -0.0012177533 -0.05451015 -0.00023633215 0.008155293 0.14131801

layer1.bias f4 [128]
00000000: 4e9a 6d3d 3838 d8bc ffb8 903e c49f 063e
00000010: 456b 203e 539f 823d bb1e a03e fab3 b0bd
00000020: 9f05 01bb 4dfd 0a3e e9c8 773e e883 7b3e
00000030: 3b05 893e 7161 39bd 0399 d03c 6bb0 a73e
00000040: efec 333e 76d1 343e 779d fe3d 520c 00ba
00000050: f79e 813e 520f 9c3d 6ccc b43a f0bb 4c3e
00000060: 8f66 7bbd 8374 dcbd 72f9 9bbc 7ccc 1bbc
00000070: 47d1 01ba 3589 28bb 4635 1cbe 853d 60bd
00000080: 2e73 a5bd f110 bd3d b69b 973e 1e43 d13e
00000090: 828a 1d3e 2892 2f3e b7dd 883e d2a7 0dbe
000000a0: da04 c4bc ea2d 8b3e 5f4c 20bd 71bf 90bc
000000b0: 3e6f 99bd f02f 9b3e e6aa 8d3e e35c 893c
000000c0: 9d1e 813e cad4 363b c5d7 873e 4dc2 9e3e
000000d0: 619d 873e 829f 5cbc 552b 063e 4205 753e
000000e0: 2a2d 9ebd 2ada c33e 2e44 aabc 3f7d 143e
000000f0: 2618 28be cc84 82bc 7213 babc 1391 ffbc
00000100: cb57 acba 0691 243e 0671 2abd 6d3b 3dbd
00000110: 5c0c f5bd c12d 5f3d 9daf 7d3d 3417 943c
00000120: c250 973d 7d98 f33d 99e4 11be 05cb 423e
00000130: cdc2 c7ba a76b 03be 1047 6ebe a1ea 2abc
00000140: a877 02bc bbdb f0ba 1c6c dc3e a2ad 563e
00000150: 668e 8d3e aeed db3d edc5 8c3e 60a9 dd3d
00000160: 6e37 373a 0f45 b7ba c449 863e df9d 1ebc
00000170: 0172 26bd dfcc d13d ec7e c5bd 1981 623c
00000180: c962 54ba 90ee 1b3d 779a 693e f8c4 6e3d
00000190: efa6 913e ff3e 3abd d769 0cba f9a6 8d3e
000001a0: 3c6e 81bd cc09 0bbc 6b85 e7bb e7c2 973d
000001b0: d5ce ccbd ef49 a13d dbb6 003e 73b7 96ba
000001c0: d250 8f3e 1a00 6c3e bde7 8c3e 1a50 883e
000001d0: 07e0 2fbe 5fac 413e 7efb f23d 74d9 63ba
000001e0: e350 80bd 5681 883e ad42 de3d 965f d23e
000001f0: f31e 5c3e 539e de3d e352 c63d 88e7 cbbc
0.058008485 -0.026393995 0.2826614 0.13146883 0.1566592 0.06378045 0.31273445 -0.08628078
-0.0019687188 0.13573189 0.24197735 0.24562037 0.26761803 -0.045258943 0.025463587 0.32751784
0.17570852 0.17658028 0.12432378 -0.00048846484 0.25316593 0.076201096 0.0013793833 0.19993567
-0.061377104 -0.1076441 -0.019039843 -0.009509202 -0.0004952144 -0.0025716547 -0.15254697 -0.05474617
-0.080786094 0.09231747 0.29610986 0.4087152 0.15384868 0.17145598 0.26731655 -0.1383355
-0.023928095 0.27183467 -0.039135333 -0.017669411 -0.07491921 0.3031001 0.27669448 0.016767925
0.2521867 0.0027897828 0.26531807 0.31007615 0.26487258 -0.013465764 0.13102467 0.23927787
-0.07723458 0.38252383 -0.020784464 0.14500903 -0.16415462 -0.015932463 -0.02271435 -0.031197106
-0.0013148723 0.16070947 -0.041611694 -0.04619925 -0.11965248 0.054486994 0.061935056 0.01807747
0.0738845 0.11894319 -0.1424736 0.19022758 -0.001524055 -0.12834035 -0.23269296 -0.010431916
-0.007963099 -0.0018376032 0.4305123 0.20964673 0.27647704 0.10738693 0.27494755 0.10823321
0.00069891557 -0.0013982373 0.26228154 -0.009681194 -0.040636066 0.10244154 -0.09643349 0.013824725
-0.00081018783 0.038069308 0.2281283 0.058293313 0.28447673 -0.045470234 -0.00053563475 0.27666453
-0.06319854 -0.0084862225 -0.007065465 0.074102215 -0.100003876 0.0787543 0.12569754 -0.0011498764
0.27991349 0.23046914 0.27520552 0.26623613 -0.17175303 0.1891341 0.118643746 -0.0008691766
-0.06265428 0.26661175 0.10852561 0.4108855 0.21496181 0.10870042 0.09683778 -0.024890676

layer2.weight f4 [128, 128]
00000000: eb25 6d39 6756 a3b8 0291 efb8 6098 13b8
00000010: c4a0 3db8 d8df 67b8 eeca 02b9 99ab 9a39
00000020: d503 b238 7158 c4b9 d50e a239 cbce 7839
00000030: de3a 9739 1065 0939 22aa abb9 7a62 1339
00000040: 5685 7d38 d0d1 0c39 cb4c 7339 48f7 8ab9
00000050: 4864 2cb7 f54f 6f39 eeba 85b9 b8a4 28b9
00000060: bbc9 c9b9 01c0 8db9 975b a639 2dd8 90b9
00000070: 50b0 ea38 5d0c eb35 4b69 a2b8 078b 69b9
00000080: 4fa6 d137 7fcd 0038 3984 a439 d2c3 2eb5
00000090: 46ed 8c39 d8b4 aeb8 09e9 3438 e2d6 83b9
000000a0: 3f15 2db9 4c12 8936 cf30 17b9 adff 1bb9
000000b0: 87c4 b9b9 1c91 6b36 ffa8 a938 f7b8 a1b9
000000c0: de10 b5b9 f799 4e39 6836 fe38 0ebb 81b9
000000d0: ed6c 01b9 5c09 b0b8 6989 4138 7441 9cb9
000000e0: 1d2f 8039 ec51 aa39 3a3e 8a39 d5d5 21b9
000000f0: 822f a1b9 ca9a 8138 77f7 9a39 c2ff 09b9
00000100: ce20 c9b9 b087 0837 8db7 8db8 f90d 35b9
00000110: 4e04 1fb9 ec1b 6939 805e 9239 6cb6 8c39
00000120: a452 55b9 c385 ee38 eb21 cdb9 3a6a 9db7
00000130: 125c 2939 9062 b837 5c7c 64b7 dafb 02ba
00000140: ad7c 1239 0406 e7b9 0aac 5c37 dff2 67b9
00000150: 3b28 34b9 b4d0 dcb9 79d2 b5b9 d1c5 9637
00000160: d333 8638 9799 bbb9 5f73 f138 1303 99b9
00000170: 4e82 8639 cc28 7837 6c20 a9b9 8400 a739
00000180: 50a1 c9b8 5c92 8339 4139 9039 647a a739
00000190: 60b7 8639 1c6c 2638 d587 e2b9 7e72 38b9
000001a0: 943c 0939 18aa a439 80c5 4f39 4486 8db9
000001b0: 0e67 9d39 6e3b c8b9 e4a9 31b9 9aa3 a8b8
000001c0: ac77 3138 6c40 09b9 65a5 d7b9 8b5f ee37
000001d0: 7102 8439 9494 e7b9 463d 1939 f4ec f1b8
000001e0: 4de2 85b9 ec40 ceb9 d8ef 44b9 0e95 b139
000001f0: ce06 b3b9 a6f4 5ab9 485b d838 d06b 9839
00000200: d308 053c fd1f 52bc b8b5 633e bbd1 fc3d
00000210: 39e0 323d 0c74 fd3b d149 9a3e d6f6 67be
00000220: c23f 8439 82a8 893d 2752 7d3e 34f0 6c3e
00000230: 8908 a23d 9002 81bc 37b0 e23b fc5d 8f3e
00000240: bc07 663d 1dfe 003d cb1a 073d 0f06 3438
00000250: a083 573e 2969 743c 8fa3 1abd 7383 1c3d
00000260: 513c 25be 437e 92be 3627 59ba 08fd 15ba
00000270: b207 8eb9 9882 9fb8 30f3 cbbe 1695 1cbd
00000280: 4a95 61be 798e 4b3c ee06 1b3e 1506 c63e
00000290: ae00 8a3d b0c3 d13d 02ff c43d 82c7 c5bd
000002a0: fc1c 04bd 4915 433e b5b2 c3bb e502 60ba
000002b0: 3137 86bd 2d6c cd3d db70 d83d 650b 05bc
000002c0: 54d6 da3d 7cc8 96b9 88bc d43d 0b38 143e
000002d0: 5fc3 583e f1e0 83bb 1ff6 1c3d ebbb 3a3e
000002e0: 087c 18be b4e4 4d3e 4ade d1bc 86f6 813c
000002f0: 9195 3bbe 877d 39bb e165 ec3b 9070 9abc
00000300: 2175 4a39 af69 813d b450 09bd f7f6 acbd
00000310: ec30 3abe aeec 8d3c 458d 3d3c c4a7 1dbb
00000320: 0b96 163c 0f05 b43c 0930 0ebe 3691 673d
00000330: 43a6 c4b9 d389 59be ff3a 64be 676c 67bc
00000340: 9bee 04bb b45c d838 6e41 bd3e 3973 473d
00000350: 8969 c83d b607 423c 3c7a 4c3e 0dac 763c
00000360: 6306 303a 8937 9f39 eaf8 603e 9e64 1abb
00000370: 8f82 60bc ee74 943c d26d 95be 3f4b 8fbc
00000380: f66b 663a 094b b83b 4219 783d 52fd f53b
00000390: 09ee 7a3e 9b16 adbc 045e 183a 1cc1 543e
000003a0: 8642 b2bd f90c d2bb 5c2f 5dbb c1e3 fb3b
000003b0: 5b7d b0be cd98 433c 8a58 1f3d 192e 3a39
000003c0: ac69 433e d593 f73d 4f46 553e 63ad 4e3e
000003d0: 6c08 f5bd 0c85 b63d 4537 153d b0ac acba
000003e0: 303a b8bd 3daf 4e3e cdab 3a3c 2387 dd3e
000003f0: 896a 293e a1f0 313d 4c48 813c 0933 bebb
0.00022616207 -7.7885394e-05 -0.00011423418 -3.518944e-05 -4.5210836e-05 -5.5283163e-05 -0.00012473363 0.0002950102
8.488415e-05 -0.00037449927 0.000309101 0.0002372816 0.00028844824 0.00013102987 -0.0003274242 0.00014055698
6.044408e-05 0.00013429602 0.00023202893 -0.0002650565 -1.0275347e-05 0.00022822602 -0.0002550701 -0.00016083091
-0.00038488008 -0.0002703667 0.00031730227 -0.00027626884 0.0001119083 1.7512463e-06 -7.744374e-05 -0.00022272403
2.4992185e-05 3.070896e-05 0.0003137903 -6.510501e-07 0.00026879663 -8.330651e-05 4.3132375e-05 -0.00025146367
-0.0001650648 4.085048e-06 -0.00014418665 -0.00014877199 -0.00035432374 3.5102194e-06 8.090026e-05 -0.00030846123
-0.00034535577 0.00019703047 0.00012121798 -0.00024744164 -0.00012342977 -8.394077e-05 4.614276e-05 -0.00029803405
0.00024449165 0.00032485963 0.00026367774 -0.00015433815 -0.0003074371 6.180031e-05 0.00029557545 -0.00013160615
-0.0003836215 8.137824e-06 -6.757593e-05 -0.0001726671 -0.00015165025 0.00022231013 0.00027917698 0.00026838796
-0.00020344049 0.000113736394 -0.00039125918 -1.8765324e-05 0.00016151395 2.1980406e-05 -1.3618814e-05 -0.0004996635
0.0001397009 -0.00044064235 1.3153078e-05 -0.00022120353 -0.00017181125 -0.00042117166 -0.00034679825 1.7973509e-05
6.399271e-05 -0.00035781853 0.00011513265 -0.00029184725 0.00025655556 1.4791451e-05 -0.00032258348 0.00031853106
-9.614474e-05 0.00025095313 0.00027508478 0.0003194391 0.00025695097 3.967817e-05 -0.00043207282 -0.00017590259
0.00013087905 0.00031407247 0.00019814633 -0.0002699365 0.00030022155 -0.0003819125 -0.00016943325 -8.0413374e-05
4.231154e-05 -0.00013089337 -0.00041131224 2.8416302e-05 0.0002517882 -0.00044170453 0.00014614043 -0.000115359115
-0.00025536344 -0.00039339752 -0.00018781365 0.00033871125 -0.0003414661 -0.00020881239 0.00010316685 0.00029072026
0.00811978 -0.012825009 0.22237289 0.123446904 0.043670867 0.007734781 0.30134442 -0.22652754
0.00025224505 0.067215934 0.2473837 0.23138505 0.07911784 -0.015748292 0.006917979 0.28001392
0.05615972 0.03149234 0.032984536 4.2920987e-05 0.21046305 0.01491765 -0.037753638 0.038211297
-0.1613629 -0.28611955 -0.0008283736 -0.00057216035 -0.00027090084 -7.606036e-05 -0.39833975 -0.038228117
-0.22029606 0.012424105 0.15139362 0.38676515 0.06738411 0.102424026 0.096189514 -0.09657194
-0.032254204 0.19051088 -0.0059722313 -0.0008545353 -0.06553496 0.100303985 0.105684005 -0.008120392
0.10685411 -0.00028759602 0.10387522 0.14474504 0.21168278 -0.004024618 0.038320657 0.18235748
-0.14891064 0.20106775 -0.025618691 0.015864622 -0.18318774 -0.002830358 0.0072142933 -0.018852502
0.00019307855 0.06318986 -0.03352423 -0.08445542 -0.18182725 0.017324772 0.011569326 -0.0024056295
0.0091910465 0.021975068 -0.13885511 0.05653497 -0.00037507908 -0.21243982 -0.2228813 -0.014124966
-0.0020283822 0.0001031695 0.3696398 0.04869387 0.09785754 0.011842659 0.19968504 0.015055669
0.0006714819 0.0003036822 0.21969953 -0.0023558508 -0.013703003 0.018122163 -0.2918535 -0.017491935
0.0008789891 0.0056241793 0.060570963 0.007507005 0.24504866 -0.021128943 0.0005812349 0.2077679
-0.087040946 -0.006410238 -0.0033750152 0.0076870625 -0.3447064 0.011938286 0.038902797 0.00017755515
0.1908328 0.120887436 0.20827602 0.2018333 -0.11964497 0.089120954 0.036429662 -0.0013174023
-0.089954734 0.20184036 0.0113935 0.43267164 0.16544546 0.043442372 0.015781544 -0.0058044237

layer2.bias f4 [128]
00000000: ffe4 bfb9 de2f 963e 21c2 b5b8 83b5 723c
00000010: 839f 833e 2cfa 72bc 16f4 973e f67f 233e
00000020: 557b 943e 923c 8c3e 0793 1f3e e020 e4b9
00000030: 6d38 183e 164a c3b8 0802 15b9 357f 9d3e
00000040: ee76 b73e 7690 3f3e b647 4cbb 076d 623e
00000050: ad20 8c3e 5c7a a7bd 3222 733e 3e48 593e
00000060: 7a1f 813e 1ab3 a737 ccda 32b8 c2a9 5b3e
00000070: bdad 893e 6bbc 8f3e 7f2b e838 f6a9 4e3e
00000080: 90f1 13bd 6c03 613e fa3d 443e 06d3 893e
00000090: 8c86 263e 0381 14b9 43b6 bab9 f349 9db9
000000a0: 46c1 8c3e 3534 993e 89b5 9eb9 41a0 2a3e
000000b0: 2e38 113e 1d4f 5db9 5db5 503e 9467 cc3d
000000c0: 1a99 fa38 a62f 543e 86d8 613e dbff 423e
000000d0: 4c2d 01bd c3d4 c3b9 867a b0b9 7a3e 0d39
000000e0: 02c5 913e c190 9dba f1be edb7 85c0 50bc
000000f0: 35fd adb9 4bf1 cbb9 a090 6f3e 35cd 4239
00000100: c6dc eaba c3f1 8db7 4f72 903e 2ad6 213e
00000110: 5028 72bd 6237 443e 986c 9339 7ec3 3939
00000120: 5de7 2a3e 3094 6a3e a4b6 7a3e 6874 323e
00000130: 9b0e b3b9 c734 4dbd 4827 4f3e a65d 513e
00000140: 093e 173e fbfd 233e 2aba 623e decb c3b9
00000150: 645a 923e 559d 3f3e 4a24 43bc 8ba0 c138
00000160: 1973 05bd 344d 1f39 1802 abbd e7a5 663e
00000170: df8a ff3d 9f35 903e 8bae 8c38 9e2d e1bc
00000180: 18c4 0a37 6750 9139 846e cbba 7392 16b5
00000190: 5ef5 a039 bee2 38bb abda 453e 698f 833e
000001a0: cd54 ee38 b8e0 f23d 9012 9dbd 4d08 a3b9
000001b0: 7d2c 6fba 6278 343e fdbc 9a3e c9e7 9c3e
000001c0: 0ef1 ddb9 8adf 0b3e 999e 8abd 6106 6dbc
000001d0: bbae 3a3e 7dac 1536 6535 28b9 4ec8 51b9
000001e0: 74d5 523e 63fc 433e 9620 333e 85c1 e03d
000001f0: a256 803e 75dd 3d3e 5cff 883e 70bc 993e
-0.00036600974 0.29333395 -8.666912e-05 0.014813784 0.25707635 -0.014830153 0.2967841 0.15966782
0.29000345 0.2738996 0.1558343 -0.00043512043 0.14865275 -9.312124e-05 -0.00014210504 0.30761114
0.35832924 0.18707451 -0.0031170673 0.22111903 0.2736868 -0.08177635 0.23743513 0.21218964
0.25219327 1.9991352e-05 -4.2642278e-05 0.21451476 0.26890364 0.2807344 0.00011070724 0.20182022
-0.036119044 0.21973962 0.19164267 0.2691881 0.16262263 -0.0001416244 -0.0003561248 -0.0003000047
0.27491206 0.29922643 -0.00030271363 0.16662695 0.14181587 -0.00021105674 0.20381685 0.099806935
0.00011949446 0.20721301 0.22055253 0.19042914 -0.03153734 -0.00037351818 -0.00033660623 0.00013470082
0.28470618 -0.001202129 -2.8341516e-05 -0.012741213 -0.00033185785 -0.00038898955 0.23395014 0.00018577727
-0.0017918579 -1.6921089e-05 0.2821221 0.15804353 -0.059120476 0.19161752 0.00028118934 0.00017715801
0.1668982 0.22908092 0.24483734 0.17427218 -0.00034152422 -0.05009916 0.20229828 0.2044588
0.14769758 0.16014855 0.22141328 -0.0003734519 0.28584588 0.18712361 -0.011910507 9.2328606e-05
-0.03258047 0.00015192182 -0.08350009 0.22524224 0.124776594 0.2816591 6.7082314e-05 -0.027487572
8.271098e-06 0.0002771646 -0.0015520607 -5.6092466e-07 0.0003070039 -0.002821132 0.19321696 0.2569535
0.0001136452 0.11859268 -0.07669556 -0.00031095967 -0.0009123756 0.17624047 0.30222312 0.30645588
-0.00042332005 0.13659492 -0.06768531 -0.014466853 0.18230717 2.2303132e-06 -0.0001604162 -0.00020006413
0.20589238 0.19139247 0.174929 0.10974411 0.25066096 0.1854151 0.26757324 0.3002658

layer3.weight f4 [2, 128]
00000000: de7a d239 4169 733e cbb5 c137 7a73 153d
00000010: 23c1 6c3e f13a 27be 3b51 653e b200 003e
00000020: 6b7e 943e 001d a83e 732b 7a3e 7020 6039
00000030: 9f22 3a3e 4ebf 1c37 f133 12b7 2e0d 5a3e
00000040: 44ea 783e dafd 613e 28e4 3ebc fb1e 5f3e
00000050: 3ef6 cd3e 04ac 38bf 5f0b 463e a795 583e
00000060: e6fb cd3e b0d6 d637 8bda 7cb9 dbc6 5a3e
00000070: 8753 a03e 0900 923e e4fc db38 9567 403e
00000080: 1993 b3be 14a5 6f3e 66e7 3d3e 0e8e a93e
00000090: 9e18 5f3e 3723 8c39 0429 5e39 c258 b539
000000a0: d6ed ab3e 23a3 4e3e 8ebe 56b9 1dfb 183e
000000b0: 14b4 4a3e 8035 e437 2250 483e cebc 173e
000000c0: 23c0 9fb9 5c63 2e3e 632b 2f3e 6054 4b3e
000000d0: 622d 26bd 47d6 4c39 0829 79b9 8161 4c39
000000e0: 23cd 833e 7afe 73bb d3c3 003a b0b8 32be
000000f0: 2dea 8639 7f1c 6b39 385f 423e 8db9 b237
00000100: a5d0 35bb 279b e1b7 b38d 9c3e de46 0a3e
00000110: 02e7 96bf 7733 2f3e 8f22 9c38 250c b6b9
00000120: c88e 2d3e 8f59 4f3e 54ab 2e3e dbab f43d
00000130: e625 c6b8 c687 05bf 4d91 4f3e 12f2 373e
00000140: 21bc 073e 78f7 173e 83d2 3d3e 86e9 63b9
00000150: 196d 943e 718c 333e 6bdb 8fbd 97f8 4839
00000160: f064 7abe 7e0b 84b9 7bac 3ebf dcd3 503e
00000170: 4f31 013e 7e9b b23e 7872 7838 9f01 57be
00000180: a28f 1fb7 a39f d0b8 59f2 8db8 518c 8439
00000190: 10b6 9e39 4885 a8bc 4727 1e3e a31d 553e
000001a0: af8c fc38 7970 313e 2187 79bf 4108 5639
000001b0: 1f2d 0ebb ef61 5c3e 22b6 a93e 703b 903e
000001c0: 9a1a e1b6 9eb3 e93d 0ece a9bf c09e 4fbe
000001d0: dfeb 263e 9485 75b8 7935 9639 fe38 12b9
000001e0: 1857 343e 7f6e 223e 98b3 123e db1e 183e
000001f0: bf7c 983e 1397 ec3d 4470 a13e 45da b83e
00000200: af21 92b9 8636 693e 22dd 6439 3773 07bd
00000210: f379 643e 9279 5abd c3d3 5b3e 2721 fb3d
00000220: 02d9 943e 64ee a73e c6a4 fd3d 0f34 f7b7
00000230: acef 3f3e 94d8 9937 d2e4 8639 c2db 4a3e
00000240: 05b0 5d3e 48d7 6a3e 4e9a e9bb 8c7a 4e3e
00000250: 583a ba3e 54e0 65bf 1861 3e3e 3a82 4e3e
00000260: 8b71 d13e 6ff2 6db9 d91c 55b7 cde6 533e
00000270: 0671 9e3e 96ba 8e3e c8f6 bab8 839e 3b3e
00000280: 5d7c 81bd 5302 673e 8898 383e bf63 ab3e
00000290: d26b 593e df7b abb9 2e48 a939 39ba acb9
000002a0: 68a9 aa3e 57ca 453e d75c 8fb9 8d80 153e
000002b0: cae9 4c3e 45cd 65b9 0b06 423e 381b 103e
000002c0: 723a cdb8 43e3 273e 052c 293e 5037 543e
000002d0: 7612 32be 864b 26b9 9215 4b37 9034 26b9
000002e0: 6845 7a3e ce36 88bb 27fd a2b9 85fb 85bd
000002f0: 3f9e c5b9 b995 a7b9 5d15 3b3e 8479 7d39
00000300: ce8d dbb9 eec9 7eb9 bcbe 9d3e c72a 073e
00000310: 0032 9fbf fb77 2a3e 30f4 08b9 afc5 3e39
00000320: 34c8 293e ab89 483e bef7 273e 94df ed3d
00000330: fd46 9f38 b403 11bf ff4c 543e 5891 323e
00000340: 360f 063e 4369 153e 9eb0 373e 86ca 1ab9
00000350: 7235 953e d5f7 2d3e 12ca 2ebc 2588 94b9
00000360: 28a3 22bd c72b 0939 bb55 0dbf 175d 3e3e
00000370: 2671 ff3d 054b ba3e 0bc5 a5b9 d9c9 85bb
00000380: 66fc 0039 15d2 9db9 a79e c1b9 a217 2638
00000390: 38d3 f4b8 8b6b 1bbc 6ab2 1a3e 348c 4c3e
000003a0: f8a3 4eb9 57cc 2c3e cee2 a9bf 40ca 9ab9
000003b0: aebc 78ba 95df 603e 5e15 223f b47e 8d3e
000003c0: 5a08 30b9 4fd0 e73d 0050 8cbf 5c68 7dbd
000003d0: 4f10 223e 3b21 21b9 4cd2 cd37 edf9 16b9
000003e0: 631c 2f3e 5b3e 1e3e cfbb 0f3e 90b7 153e
000003f0: 14ab 993e a852 e63d cf0d a03e a02a ae3e
0.00040145864 0.2377062 2.3092047e-05 0.03648708 0.23120551 -0.16331078 0.22394268 0.12500265
0.290027 0.32834625 0.24430637 0.00021374389 0.1817727 9.342866e-06 -8.714372e-06 0.2129409
0.24308115 0.22069493 -0.011651076 0.21789162 0.4022693 -0.72137475 0.19340275 0.21150838
0.40231246 2.561076e-05 -0.00024114006 0.2136492 0.31313726 0.28515652 0.00010489838 0.18789513
-0.35073164 0.23402816 0.18545303 0.33116192 0.21786734 0.00026729118 0.0002118685 0.0003458914
0.33579892 0.20179419 -0.00020479618 0.14939542 0.19795257 2.720463e-05 0.19561818 0.14818117
-0.00030469996 0.1703009 0.17106394 0.19856405 -0.040570624 0.0001953478 -0.00023761776 0.00019491279
0.25742444 -0.0037230537 0.00049119926 -0.17453265 0.00025732946 0.00022421962 0.18981636 2.1305657e-05
-0.002774277 -2.6894339e-05 0.30576858 0.13503596 -1.1789248 0.17109476 7.445097e-05 -0.00034722793
0.16948998 0.20249008 0.17057544 0.11946841 -9.448435e-05 -0.521603 0.20270272 0.17963436
0.13255359 0.14840496 0.18537335 -0.00021735401 0.28989485 0.17534043 -0.070242725 0.00019166093
-0.24452567 -0.00025185564 -0.74481934 0.20393318 0.12616466 0.34884256 5.9234415e-05 -0.20996712
-9.510581e-06 -9.9479475e-05 -6.768545e-05 0.00025281546 0.00030271756 -0.020571366 0.1544467 0.20812087
0.00012042501 0.17328061 -0.97471815 0.00020411705 -0.0021694375 0.21521734 0.3314677 0.28170347
-6.7086194e-06 0.114112124 -1.3266008 -0.20275402 0.16300915 -5.8536956e-05 0.0002865007 -0.00013944876
0.17611349 0.15862463 0.14326322 0.1485552 0.29782674 0.115522526 0.31530964 0.36104026
-0.00027872386 0.22774705 0.00021826153 -0.03306886 0.22312145 -0.053338595 0.214675 0.12262183
0.29071814 0.32799065 0.12384944 -2.9468936e-05 0.18743771 1.8339873e-05 0.00025728956 0.19810393
0.21649177 0.22933686 -0.0071289903 0.20163935 0.36372638 -0.8979542 0.18591726 0.20166865
0.4090694 -0.00022692395 -1.2702506e-05 0.20693512 0.30945605 0.2787673 -8.915138e-05 0.18322186
-0.063225485 0.2255948 0.18026936 0.33474538 0.21232536 -0.00032707953 0.0003228797 -0.00032945143
0.33332372 0.19315468 -0.00027344257 0.1459982 0.20011058 -0.0002191561 0.18947618 0.14072883
-9.786048e-05 0.16395287 0.16520698 0.20724225 -0.17389855 -0.00015859128 1.2104765e-05 -0.00015850575
0.24440539 -0.004156924 -0.0003108766 -0.06542114 -0.0003769267 -0.00031964274 0.18269868 0.00024173228
-0.00041876588 -0.00024298552 0.3080958 0.13199912 -1.2437134 0.16647331 -0.00013060938 0.00018193455
0.16580278 0.19583766 0.164031 0.1161491 7.5949334e-05 -0.56646276 0.20732497 0.17438257
0.1309174 0.14590935 0.17938468 -0.0001476203 0.29142338 0.16989072 -0.0106682945 -0.00028330195
-0.03970638 0.00013081646 -0.5520894 0.18590198 0.12472753 0.3638536 -0.0003161806 -0.0040829
0.00012301057 -0.00030101897 -0.00036930034 3.9599494e-05 -0.00011674169 -0.009486089 0.15107122 0.19975358
-0.00019706774 0.16874824 -1.327234 -0.00029523857 -0.00094885647 0.2196029 0.63313854 0.2763573
-0.00016787779 0.113190286 -1.0961914 -0.061867103 0.15826534 -0.00015366536 2.4535831e-05 -0.0001439822
0.17100672 0.15453474 0.14036487 0.14620805 0.30013335 0.11246234 0.31260535 0.34016895

layer3.bias f4 [2]
00000000: be0f 5a3e e02b 233e
0.21295068 0.15934706
