friction_and _mass_random_change_training_data_without_predictor.pth (torch, 73666 bytes, 6 tensors)

layer1.weight f4 [128, 5]
00000000: d5e7 0929 17b2 2b26 ca3f 94a7 e6e8 3329
00000010: ca20 27a8 4869 993a 3daf a33d ce4c 8ac0
00000020: a959 6bbf 17fa 4f3b 88ae 0527 79bd ce27
00000030: f25e 6328 3bed a8a8 f7c3 19a8 f943 dca8
00000040: 8a14 64a9 5517 afa8 05d4 2728 cd9a 07a9
00000050: 2ce5 6b3b 40d6 053b ad85 aebf f9f7 b3be
00000060: 381d 623c 74d8 f9a8 963b 47a6 0c0a 07a7
00000070: fe7b f927 784f 9fa8 ac6d 8328 e376 0ca9
00000080: a6db 4328 629c ba28 708b daa8 a27c ebbb
00000090: 4fff b4bd 4c7f 6f40 8371 d03f 4e5f 1bbc
000000a0: a480 84bb 8f9b 77bc b8fa 543b f9d7 1cbe
000000b0: a2dd 763d b0b0 bda7 cec2 1ca9 fc02 f528
000000c0: 6ed9 29a8 82c0 b9a8 cc12 3229 ad51 a6a8
000000d0: e0dc 7629 6a91 9227 2e4d 6ca8 f8e3 56bb
000000e0: 8351 14bd fb21 7240 84de 6b3f e4ba 053d
000000f0: 5088 eda8 aa8c c428 0440 0129 8abb 2528
00000100: f20e 97a8 9b82 bebb 8d9e 6dbc 97e7 ce3b
00000110: 1f07 dfbd 74f1 4b3d 2dad ac28 f0cf 9e28
00000120: 2813 5629 1893 6327 ce64 f0a8 a871 a0a7
00000130: 1a5e d9a8 0016 8628 d866 3ca8 04e5 34a8
00000140: 6803 11bc 79e8 89bc e6e4 703c 707c febd
00000150: e3b3 693d a8a2 45ba f975 6dbb 8c84 30b8
00000160: f253 eebc 2c34 4c3c b99a 38a8 ce2b 89a8
00000170: c5eb aea8 01cd 18a9 56c5 b3a7 7fba 2c29
00000180: a642 2ca8 a8a4 4a28 5437 6ea8 1e67 21a9
00000190: 591c b3a8 1a68 27a9 3a52 0ea8 f559 c5a6
000001a0: 0b39 46a8 c17a 213b ff36 543d bc20 8bc0
000001b0: 0a78 43bf 6483 8a3b 2efd 00a9 75cc 54a8
000001c0: 0a70 1ca8 8814 c628 84ed 96a8 96ed cabb
000001d0: 0cef b13d 8405 3140 e4bb ae3f cdd4 1cbc
000001e0: 39bd 0eba 532a 9ebd c0cd 0ac0 6256 25bf
000001f0: f9e7 0a3d 01f0 1529 a602 eda8 4b07 3429
00000200: 7323 3828 80ba 59a8 5c64 b4bb 9c5e 45bc
00000210: 6d16 043c a425 04be 6ae8 5a3d 5b83 7ea8
00000220: 3b62 b228 50be 1029 3298 37a8 d0a9 4da8
00000230: 348c f7a7 1715 cfa8 5e57 7e28 20ec 1da8
00000240: ff53 7ea8 5b36 23a8 708f c4a8 b450 4427
00000250: 2c18 d528 eca0 3ea8 6bfe 3ebb b49e 21bc
00000260: 2e08 be3a 2613 96bd 9129 083d 8728 dbbc
00000270: 0bba 80bc a722 d33c 61fc 58bd 0f27 8a3c
00000280: 4f91 e2bb 6dec 91bc 23d2 da3b 4d7e 06be
00000290: 65ad 703d b8b3 36ba f19f 743b e647 a23b
000002a0: 501f 15bb 3b54 7d3b a93b 2c29 a3b8 0fa9
000002b0: 20aa 5229 24ef 8aa8 7c12 e9a8 a59b 08bc
000002c0: 6e93 85bc e1b0 633c c766 0dbe 091c 7e3d
000002d0: 69ce 7428 5126 bf28 b7ab 1128 f6f5 3da8
000002e0: 067b 41a8 a09b d3a8 eaf2 dfa7 73cf 8ba8
000002f0: f0d7 a3a8 d7db 30a9 dd78 1d29 2547 56a9
00000300: b437 61a8 0c8b f3a8 914f a3a8 6be1 c6a8
00000310: 3765 a228 70cc d527 aac7 ce28 2fe3 b6a8
00000320: 753d 1627 eab9 b7a8 c912 afa8 f09b d5a8
00000330: 4a64 c4a8 e64f d1b9 e89d 22bc df8e 7d3b
00000340: 4419 d4bd d10a 493d 80af 5ebc 15aa 93bc
00000350: c041 bd3c 8879 01be 6835 613d 20f5 6f3c
00000360: dd92 d83b e1b8 cdbb 3aef 9bbc 2fe7 1db7
00000370: 2166 01a8 6329 8028 0b04 fc28 05e8 d328
00000380: ac5e 52a8 9c1f d028 5aa0 bca8 7586 b3a8
00000390: 5080 7fa8 7645 22a9 f2c7 50a8 2fca 2ba8
000003a0: e9b3 5629 6cf1 81a9 eae3 12a9 9614 0d29
000003b0: d92b bca7 0c6b 3ba8 206b 13a8 1411 6fa8
000003c0: 9963 23ba ac69 21bb da76 5fba 04c1 97bc
000003d0: 0a39 f33b 8d69 32bc ba27 9ebc 8bc5 8c3c
000003e0: 541c 2cbe 55ed 973d 5e98 17a8 1dea e528
000003f0: b1e9 6129 cf11 afa8 c4f9 34a9 a3ca 3da9
3.0621193e-14 5.95689e-16 -4.1147412e-15 3.994799e-14 -9.277472e-15 0.001170435 0.079924084 -4.3218756
-0.91933686 0.0031734759 1.8552071e-15 5.7381912e-15 1.2621619e-14 -1.8754629e-14 -8.535699e-15 -2.4454385e-14
-5.0643985e-14 -1.9439022e-14 9.316337e-15 -3.011029e-14 0.0035994751 0.0020421892 -1.3634545 -0.35150126
0.013800912 -2.7738425e-14 -6.912275e-16 -1.874046e-15 6.9245816e-15 -1.768701e-14 1.4591484e-14 -3.1189362e-14
1.0872303e-14 2.0717968e-14 -2.4263333e-14 -0.0071864882 -0.08837759 3.7421446 1.6284641 -0.009483172
-0.0040436555 -0.015112772 0.0032498073 -0.15316762 0.06026996 -5.2649603e-15 -3.4807925e-14 2.7201758e-14
-9.428532e-15 -2.0622613e-14 3.9540243e-14 -1.8465123e-14 5.481455e-14 4.06808e-15 -1.3117367e-14 -0.0032789689
-0.036210548 3.783324 0.92136407 0.032648936 -2.6371402e-14 2.1821375e-14 2.869928e-14 9.200006e-15
-1.677085e-14 -0.005813909 -0.0145031335 0.0063142288 -0.1089003 0.049790815 1.9170939e-14 1.7631702e-14
4.753416e-14 3.1582318e-15 -2.668907e-14 -4.4532147e-15 -2.413265e-14 1.488653e-14 -1.0458397e-14 -1.0041667e-14
-0.00885091 -0.016834484 0.014703011 -0.12426078 0.05705632 -0.0007539191 -0.0036233647 -4.2085114e-05
-0.029092763 0.012463611 -1.0247602e-14 -1.5229053e-14 -1.942013e-14 -3.3928592e-14 -4.9896432e-15 3.835343e-14
-9.56237e-15 1.1248957e-14 -1.3223651e-14 -3.583862e-14 -1.9885286e-14 -3.7171743e-14 -7.9004135e-15 -1.3694004e-15
-1.1003577e-14 0.0024639817 0.05181026 -4.347746 -0.7635504 0.0042270888 -2.8641308e-14 -1.1812699e-14
-8.684034e-15 2.199132e-14 -1.6756351e-14 -0.006192873 0.08688173 2.7659616 1.365109 -0.00957222
-0.00054450665 -0.077229165 -2.168808 -0.64584935 0.033912633 3.3292816e-14 -2.6313434e-14 3.9974355e-14
1.0221739e-14 -1.20863606e-14 -0.005505128 -0.012046482 0.008061987 -0.12904984 0.053444304 -1.4128316e-14
1.980457e-14 3.2139493e-14 -1.0191543e-14 -1.1416608e-14 -6.870828e-15 -2.2990763e-14 1.4118777e-14 -8.766452e-15
-1.4118046e-14 -9.060104e-15 -2.1822577e-14 2.7244213e-15 2.3658233e-14 -1.0582013e-14 -0.0029143344 -0.009864498
0.0014498287 -0.07327871 0.033242766 -0.026752723 -0.015713712 0.02577336 -0.052975062 0.016864328
-0.006914295 -0.017812932 0.0066778823 -0.13134117 0.058759112 -0.0006969529 0.0037326778 0.0049524186
-0.002275426 0.0038654942 3.824342e-14 -3.1912525e-14 4.6776927e-14 -1.5424788e-14 -2.5876213e-14 -0.00833789
-0.016305652 0.013897152 -0.13808738 0.062038455 1.3589479e-14 2.1221877e-14 8.086352e-15 -1.0544942e-14
-1.0740329e-14 -2.3493197e-14 -6.21583e-15 -1.5522067e-14 -1.8190283e-14 -3.927053e-14 3.4965835e-14 -4.7579253e-14
-1.2502088e-14 -2.7038721e-14 -1.8131142e-14 -2.2080175e-14 1.8029508e-14 5.9341028e-15 2.2957185e-14 -2.0304584e-14
2.0849998e-15 -2.0397709e-14 -1.943705e-14 -2.3715378e-14 -2.1803865e-14 -0.00039923115 -0.009925343 0.0038689894
-0.103563815 0.04908258 -0.013591647 -0.018025437 0.023102641 -0.12644017 0.054982573 0.014645845
0.0066093043 -0.006278143 -0.01903497 -9.411756e-06 -7.183084e-15 1.4228803e-14 2.7979374e-14 2.3526328e-14
-1.16778704e-14 2.3106347e-14 -2.0941734e-14 -1.9931304e-14 -1.4183167e-14 -3.6031474e-14 -1.1589676e-14 -9.5362484e-15
4.7673593e-14 -5.770631e-14 -3.2616196e-14 3.1326145e-14 -5.222802e-15 -1.0403797e-14 -8.183368e-15 -1.3270868e-14
-0.0006232798 -0.0024629636 -0.0008524485 -0.018524654 0.007422571 -0.010889423 -0.019306052 0.01718404
-0.16807681 0.07418314 -8.415223e-15 2.5525638e-14 5.016273e-14 -1.9436626e-14 -4.0184666e-14 -4.214219e-14

layer1.bias f4 [128]
00000000: e31e 33a9 eda5 e5bd 6d9f 3ca9 8d10 2c29
00000010: 2072 ecbd f01a 00a8 aaa1 2b29 4197 4fbd
00000020: caf3 b73e 375b 34a9 eb31 a828 48a7 80be
00000030: 41ba c428 5864 8f3e 07ea 3f29 3b58 2ca9
00000040: 390c a93e 4e0a 913d 19c8 10a9 3170 8a28
00000050: fa21 9d28 aecd e6bd 7654 9428 86c2 24bd
00000060: 4588 8bbe 4d71 f4a8 b6fb ab3e b2a5 b3a8
00000070: 3eb5 2aa8 64bc 07a9 e420 3d3e 6e5e f73d
00000080: 6cd9 a83e c56a 10bd c03b b028 7d23 ba3e
00000090: 8935 1929 e339 b1a8 2a3c 3f29 7e7e 2229
000000a0: cff8 98a8 7ef5 953e 5d58 a93e 02d5 45bc
000000b0: a89a 6b29 7e78 0ca9 8bed 9728 9689 e428
000000c0: d440 2d3d b453 da3e f310 9128 ef70 d427
000000d0: aad5 9e3e 727a 903d 7f3c 6329 1004 203c
000000e0: cef7 2c29 af99 c4a8 0995 a63e 5411 25a9
000000f0: b1df 913e 1320 cf3d f11a c8bd dd0d 2129
00000100: 9bd4 1529 9bec b8bd e484 36a9 7669 98ad
00000110: df63 c33e bb61 9725 1b00 d728 9df7 22bd
00000120: 6693 a23e e7e4 4aa7 cbda 2b29 959b c5a8
00000130: 3a9c 16a9 5756 5bbe 5bc3 00a8 77f8 873e
00000140: 2fda 20a8 06ff f3bd a567 bd3e 0d99 b33e
00000150: b717 ada8 c512 b23e f5f1 2229 2a4f dba8
00000160: f2f3 6329 ef65 10be e269 56be 471e a93e
00000170: 25dc c83e 3d89 953d b8e7 1f29 eb13 82a8
00000180: e4da 93a8 ab1b 2127 8e3c 803e 006e 2e29
00000190: 5997 bd3e 4695 9b28 7aa6 72bd 9e15 a1bd
000001a0: ea14 b728 ffd3 55bd 4f3b f73d 274d 74be
000001b0: 730a 0d29 50ad 9c3d 532b 3229 4e24 d43e
000001c0: d7a4 abbd c76b 3428 ed7d 84a8 0d34 1fad
000001d0: 8d71 1bbe ab92 bba8 c29e ce28 e908 c53e
000001e0: 538e 623e 2cf6 4f29 8cf9 cd3e b49c 803d
000001f0: b865 98a8 7993 173e 1bf6 a43e 3a8c 6529
-3.9772774e-14 -0.112132885 -4.1882666e-14 3.8206028e-14 -0.11545205 -7.1112685e-15 3.810985e-14 -0.050681356
0.35928184 -4.0047145e-14 1.8673395e-14 -0.25127625 2.1841146e-14 0.28006244 4.2613506e-14 -3.82682e-14
0.33017138 0.070820436 -3.214798e-14 1.5369733e-14 1.7445236e-14 -0.11269699 1.646793e-14 -0.040224575
-0.27252403 -2.7138578e-14 0.33590478 -1.9944851e-14 -9.476196e-15 -3.0139424e-14 0.18469578 0.12078558
0.3297838 -0.035258073 1.9565838e-14 0.363552 3.401926e-14 -1.9676052e-14 4.2462704e-14 3.608094e-14
-1.6983294e-14 0.29288858 0.33075228 -0.012074711 5.2314625e-14 -3.1190755e-14 1.6867386e-14 2.5372753e-14
0.042298153 0.42641985 1.6105584e-14 5.8964263e-15 0.31022388 0.070546046 5.0456597e-14 0.009766594
3.840661e-14 -2.1827021e-14 0.3253558 -3.665239e-14 0.28490975 0.101135395 -0.09770764 3.5761206e-14
3.3269052e-14 -0.09029504 -4.0527382e-14 -1.7327233e-11 0.38162133 2.626055e-16 2.386984e-14 -0.039786924
0.3175308 -2.815722e-15 3.81594e-14 -2.1938867e-14 -3.3442196e-14 -0.21419655 -7.147788e-15 0.2655675
-8.929095e-15 -0.11913876 0.36993137 0.35077706 -1.9217143e-14 0.34779945 3.618109e-14 -2.4348216e-14
5.0615714e-14 -0.14101385 -0.20938829 0.33030912 0.39230457 0.07301567 3.5506076e-14 -1.4441537e-14
-1.6415207e-14 2.2358237e-15 0.250462 3.873117e-14 0.37029532 1.7273194e-14 -0.059240796 -0.07865451
2.0326151e-14 -0.05220413 0.12071859 -0.23857556 3.1317353e-14 0.07650244 3.9561517e-14 0.41433948
-0.0838105 1.0015378e-14 -1.4709556e-14 -9.049661e-12 -0.15180035 -2.0824778e-14 2.2939445e-14 0.3848336
0.22124605 4.6176753e-14 0.40229452 0.06279889 -1.6919503e-14 0.1480235 0.32219014 5.096984e-14

layer2.weight f4 [128, 128]
00000000: cbe0 06a8 32c6 dcbe 89fb 4e28 72d0 4628
00000010: daa7 c8bd 7240 c5a5 6a91 7728 ed11 43be
00000020: a725 563e 14d2 9ea7 98fd d128 3299 11bf
00000030: c5d9 0c28 de95 243e 181c a028 1689 1c28
00000040: e6cc dc3d e58e 353d 6755 6a27 f1d7 be28
00000050: fd0c e227 9823 10be 7c92 8728 e36e 18bd
00000060: a664 89bd bb0f d827 90c5 183e 8e7c 9226
00000070: 13cb a5a7 0aa9 07a7 59d4 f53d dc4a 893c
00000080: 5287 383e 4f7b 29bd 3a5b 4c28 ff5c 013e
00000090: 4e2e c528 662f 86a6 5c19 c728 1170 8228
000000a0: 4aec 0927 1528 4c3e ed96 b03d 43b4 81bc
000000b0: 2ebb c028 6c34 28a6 66ba d128 f53a 6828
000000c0: ece7 d53c 979d 203e 9a8c b428 f46c 2c28
000000d0: 4150 553e a186 3f3c 1019 ad28 e956 ae3b
000000e0: d1e1 a028 efe0 03a8 1e31 6a3e 8f63 ec25
000000f0: 0e7a 223e fea1 7f3c 721e b5bd 4ef7 a428
00000100: 1947 4b28 9c7b bebd 4be9 f327 d639 9cad
00000110: 976d 9c3d 19a8 d926 96a9 8728 3e27 c3bd
00000120: 9d75 343e 866b e627 d425 ce28 02c6 2527
00000130: 06be a226 dbcd 03be c193 0da8 6609 d63d
00000140: 9560 eea7 b4cb 20bd db98 6e3e 9200 973d
00000150: 7466 5e27 c3c7 7f3e 589f 2028 5032 0128
00000160: 80c0 cd28 d146 3ebe d7cd 8ebd 0dfe a93d
00000170: bb1e 923e 2fb5 373c 68b7 2f28 eaab 5c27
00000180: 0974 dfa5 f2a5 c7a7 2366 223e 6a07 3d28
00000190: f016 c63d a6aa e428 0e1e 11be 2403 1fbe
000001a0: 7ffd 1028 f55d 9abc a904 d63c a8d6 23be
000001b0: 4440 8128 2fd7 713c 6256 a228 441e ee3d
000001c0: 903d 6dbe 2034 1428 5cac 0127 e304 29ac
000001d0: ae49 35be 73ed 63a7 41d5 7128 a3e9 8e3e
000001e0: b085 0c3d 0ef3 ba28 7032 3c3e 4851 143c
000001f0: dc5f 91a5 eab9 bb3d 58d9 ff3d c260 e628
00000200: e784 faa7 928c 0228 500b d7a7 7c51 e3a5
00000210: c0db 2926 f911 1128 4e30 19a7 e94a c3a7
00000220: 003e f127 9957 20a6 da17 25a8 066c 0327
00000230: c47d 34a6 8e7f c7a6 2f65 27a8 6265 92a7
00000240: 7491 f6a7 d3b4 aea7 d47f 39a7 3561 aca7
00000250: 6e58 eaa7 3a90 3727 a266 2da7 8b3f 0226
00000260: 4aa9 9ca7 138e 0ba8 b74c 3aa7 0071 9827
00000270: b51f 6227 2634 0627 c11b ab27 187d 41a7
00000280: 833c b4a7 ea87 0ba8 16a7 23a8 9bf3 06a8
00000290: e290 f0a7 d0bc c5a7 16ae cda7 33e3 1aa7
000002a0: 2845 dca6 f230 b8a7 4f38 6727 aa01 02a8
000002b0: 7a2d 58a6 c15c b927 c008 4e26 71dd b7a7
000002c0: 8261 8ea7 629f 85a7 bc75 b3a7 d944 19a8
000002d0: 829e a527 8d34 b5a7 9a3f b727 04dd 2ca5
000002e0: ad7a c0a7 4e39 c127 8ccf ae27 d371 ff27
000002f0: 085d 3ca7 93dd 1ca8 684c d6a7 0302 15a6
00000300: 0d50 6227 04a5 03a8 c77a 0c28 4f4a 82a7
00000310: 2376 af27 eeb9 ad26 c57b b327 b6bf e4a6
00000320: 40c6 18a8 446b ae27 715a e827 eecf aba7
00000330: 53da 15a6 010d f6a7 fde1 d5a7 367a b927
00000340: 958e a527 5ab1 f027 5cb6 6c27 fa46 8427
00000350: c4df 0e28 1b87 a1a7 05a1 54a4 9683 b027
00000360: 9f15 cba7 f05b 00a8 3329 a027 fab4 92a7
00000370: 41f8 d0a7 8b00 f7a7 7bbc 8726 1b9c e527
00000380: 700d d6a7 47c5 ac26 3aaf c9a7 f0ba dfa7
00000390: c118 0ca7 bb52 4ca7 f409 7fa7 f0e8 65a7
000003a0: 1859 7027 3858 8e27 734a 3f27 a4a5 ff27
000003b0: 5f13 d027 05dc 9fa7 ca56 00a7 de61 75a7
000003c0: 3ee5 37a7 4dd8 b1a7 e1c0 a5a7 13c0 61a7
000003d0: ee28 0b28 4042 4d27 660d 49a6 455b d0a7
000003e0: ca2b fda7 d9a7 e6a7 7b61 3527 ca2d dc27
000003f0: 3f30 0027 9bc3 1c27 538e 08a7 5297 b025
-7.4872385e-15 -0.4311996 1.148984e-14 1.1036407e-14 -0.0979764 -3.4217722e-16 1.3742786e-14 -0.19049807
0.209128 -4.4081577e-15 2.331364e-14 -0.5687438 7.818782e-15 0.16072795 1.7775752e-14 8.689465e-15
0.10781269 0.044325728 3.252032e-15 2.1187887e-14 6.2741683e-15 -0.14076078 1.5051538e-14 -0.037215125
-0.0670865 5.99691e-15 0.14919114 1.0164546e-15 -4.6016873e-15 -1.882665e-15 0.12003393 0.016759329
0.1802037 -0.041377362 1.13440565e-14 0.12633131 2.1891475e-14 -9.310965e-16 2.2104436e-14 1.44815e-14
1.9140662e-15 0.19937165 0.08622537 -0.015833026 2.1397458e-14 -5.8357754e-16 2.3284499e-14 1.2891371e-14
0.026111566 0.15685116 2.004499e-14 9.5715435e-15 0.20831396 0.011689813 1.9217727e-14 0.005320419
1.78615e-14 -7.3207355e-15 0.22870299 4.1006938e-16 0.15866873 0.015602587 -0.088436976 1.8314909e-14
1.12841805e-14 -0.0930092 6.7698985e-15 -1.7760831e-11 0.0763809 1.5102963e-15 1.5061557e-14 -0.09528969
0.17622991 6.39544e-15 2.2887e-14 2.300569e-15 1.1292514e-15 -0.12871496 -7.859111e-15 0.10451011
-6.6162984e-15 -0.039256766 0.23300497 0.07373156 3.0864229e-15 0.24978547 8.916336e-15 7.171848e-15
2.2843056e-14 -0.18581702 -0.069728546 0.083004095 0.2853907 0.011212631 9.754221e-15 3.0624328e-15
-3.8762962e-16 -5.5413514e-15 0.15859275 1.0493215e-14 0.09672344 2.5387092e-14 -0.14171621 -0.15528542
8.048574e-15 -0.01884363 0.026125269 -0.15999854 1.4349748e-14 0.014760776 1.8023076e-14 0.116268665
-0.23168015 8.226953e-15 1.7995782e-15 -2.4019057e-12 -0.17703888 -3.16313e-15 1.34244295e-14 0.27912626
0.03430718 2.0755556e-14 0.18378615 0.009052582 -2.5218447e-16 0.0916632 0.12492627 2.5577092e-14
-6.953303e-15 7.246931e-15 -5.9686753e-15 -3.943344e-16 5.893147e-16 8.053014e-15 -2.1259201e-15 -5.420459e-15
6.6958158e-15 -5.562987e-16 -9.164512e-15 1.8238462e-15 -6.262049e-16 -1.3842973e-15 -9.292303e-15 -4.063306e-15
-6.8436417e-15 -4.849075e-15 -2.5743203e-15 -4.7844982e-15 -6.5043923e-15 2.5474537e-15 -2.406421e-15 4.5188927e-16
-4.348224e-15 -7.7468575e-15 -2.5854273e-15 4.231099e-15 3.1380989e-15 1.8624505e-15 4.7492125e-15 -2.6851944e-15
-5.0025643e-15 -7.745522e-15 -9.084549e-15 -7.491318e-15 -6.6770464e-15 -5.4883195e-15 -5.7087674e-15 -2.1494958e-15
-1.5284311e-15 -5.1123326e-15 3.2088215e-15 -7.2168105e-15 -7.5001686e-16 5.144838e-15 7.1482466e-16 -5.103279e-15
-3.9518636e-15 -3.708772e-15 -4.981013e-15 -8.508135e-15 4.5968554e-15 -5.0294568e-15 5.086166e-15 -1.4993505e-16
-5.342371e-15 5.363039e-15 4.8519724e-15 7.0900126e-15 -2.6140673e-15 -8.707786e-15 -5.947977e-15 -5.1697486e-16
3.1407196e-15 -7.307743e-15 7.798184e-15 -3.6162814e-15 4.870034e-15 1.2054683e-15 4.981667e-15 -1.5872641e-15
-8.480684e-15 4.8411e-15 6.4490992e-15 -4.7687472e-15 -5.1990644e-16 -6.8292815e-15 -5.9364393e-15 5.1480316e-15
4.5951288e-15 6.6805666e-15 3.2850436e-15 3.6714313e-15 7.931105e-15 -4.483296e-15 -4.610656e-17 4.899248e-15
-5.636726e-15 -7.125363e-15 4.445359e-15 -4.0719356e-15 -5.8000755e-15 -6.855686e-15 9.418595e-16 6.372952e-15
-5.94115e-15 1.198837e-15 -5.597869e-15 -6.209761e-15 -1.9442322e-15 -2.8355535e-15 -3.5393755e-15 -3.190641e-15
3.3354989e-15 3.9508564e-15 2.6546934e-15 7.0956306e-15 5.77526e-15 -4.436991e-15 -1.7810617e-15 -3.4053634e-15
-2.5520624e-15 -4.9361883e-15 -4.600582e-15 -3.1329146e-15 7.724925e-15 2.848538e-15 -6.975404e-16 -5.783055e-15
-7.0269083e-15 -6.4019805e-15 2.517164e-15 6.111191e-15 1.7789723e-15 2.1755387e-15 -1.8950946e-15 3.0633672e-16

layer2.bias f4 [128]
00000000: f00e c23e b340 8227 b965 a33e 7ed4 283d
00000010: 4376 0327 ad17 8f3e 25d9 ff3e dad8 5ba7
00000020: 792e 0fba 95bb a0a8 862f e63e ecfd 713d
00000030: d840 bb27 452e e126 ce0e e63e 72d8 da3e
00000040: dbab 27a7 4054 163e 791a c23e c09e b83e
00000050: 0bfe 6dac 06ed 45a7 8633 13a8 a89d deae
00000060: 38ec caa8 eb73 17b9 750d b5a7 f6ca d6a7
00000070: b23a 0cbe 5ab0 99b7 aefd 0e27 312e 9f3c
00000080: e4a9 a03e bc66 5ca6 758a 953d 23cf e926
00000090: a2b4 88be d671 ca3e 67eb 9427 c906 76a8
000000a0: 1581 0227 1c16 003f 6089 f3a7 00b5 e33e
000000b0: 66eb 84aa 4800 b427 9ab3 87a8 29db acab
000000c0: 5291 f8a7 290e b827 4b09 82a7 a611 88a7
000000d0: 9710 c03e ef1e 3ca8 15db 0226 c9c2 62a7
000000e0: 7579 663d 391a 0c3e 5dcc f4a9 3f1f eaa7
000000f0: 605e d7a6 7e83 ee3d 0f82 06a8 3220 aaa9
00000100: 2dbb 1c3e 50c4 a5a6 bdd9 f5a7 23ed f427
00000110: 1015 a5a7 f36c d7a7 e8aa 1e27 3d47 0ba8
00000120: 8a7a 583e be0d caad ffd1 be26 7eb5 33a5
00000130: 5f8f bb27 77e9 523e d80c 3fa5 86c5 25a8
00000140: 4a85 e73e 5bd7 9c3e 9ea7 9ca5 d70d 92ac
00000150: 2f9a 0028 dae2 ee3e 68e5 95bc 736f 8d25
00000160: f5fc 8d3e 9ab3 f8bc ff89 1627 5ea6 66bc
00000170: b5d1 a127 8473 983e 396d c33e 258c a53d
00000180: 2815 4eaa d3ec beac ea88 a1be 1aa2 e327
00000190: 03a1 7da8 cb2c 0da8 4bce ba27 0b05 5627
000001a0: c4fb 183e e399 1a26 1ec6 aa27 70f1 2825
000001b0: d9d3 a6a8 9eb3 c33e 6a8e ada7 c20e ee26
000001c0: 0ad0 933e fbbc 1da8 a1a9 11a8 4265 cb3e
000001d0: a4dd 84a8 7288 c6a6 c471 b927 d7fb fb26
000001e0: eed4 993e 5a41 393e b8ff f4a7 473a c13e
000001f0: 3694 6327 dfba 2da8 9b54 9b3e aee4 ecbc
0.3790202 3.6152395e-15 0.31913546 0.041218273 1.8244012e-15 0.2794775 0.49970356 -3.050991e-15
-0.0005461942 -1.7844919e-14 0.44958133 0.05908005 5.197323e-15 1.5625053e-15 0.4493317 0.4274326
-2.3269069e-15 0.14680576 0.37910822 0.36058617 -3.3820748e-12 -2.7467733e-15 -8.171312e-15 -1.01233966e-10
-2.2528949e-14 -0.00014443665 -5.025218e-15 -5.9616983e-15 -0.13694265 -1.8321141e-05 1.9843979e-15 0.019431205
0.31379616 -7.6467064e-16 0.07301799 1.6223767e-15 -0.26700312 0.39539975 4.1333476e-15 -1.36572145e-14
1.81111e-15 0.50033736 -6.759499e-15 0.4447403 -2.361125e-13 4.996034e-15 -1.50659e-14 -1.2282164e-12
-6.8991384e-15 5.108561e-15 -3.6092324e-15 -3.7766717e-15 0.37512657 -1.0442804e-14 4.539972e-16 -3.1469394e-15
0.056268174 0.13681878 -1.0871228e-13 -6.4981924e-15 -1.4944202e-15 0.11646174 -7.466696e-15 -7.5551016e-14
0.15305777 -1.1502386e-15 -6.8237233e-15 6.798071e-15 -4.5819536e-15 -5.979261e-15 2.2019553e-15 -7.731497e-15
0.21140495 -2.2970844e-11 1.3240818e-15 -1.5587267e-16 5.205837e-15 0.20596872 -1.6570961e-16 -9.202171e-15
0.4521888 0.30633053 -2.7175268e-16 -4.151106e-12 7.138861e-15 0.4665745 -0.018297866 2.4535122e-16
0.27732053 -0.030359078 2.089149e-15 -0.014077751 4.491384e-15 0.2977563 0.38169268 0.08083371
-1.8303815e-13 -5.4264176e-12 -0.3154977 6.3180908e-15 -1.4079235e-14 -7.836785e-15 5.1849034e-15 2.97012e-15
0.14939791 5.363804e-16 4.7399278e-15 1.465348e-16 -1.8521576e-14 0.38222975 -4.817155e-15 1.6518568e-15
0.2886966 -8.756229e-15 -8.085899e-15 0.3972569 -1.4751065e-14 -1.3775994e-15 5.147116e-15 1.7484885e-15
0.30045265 0.18091336 -6.8000855e-15 0.37739775 3.1582924e-15 -9.64395e-15 0.30337986 -0.028917637

layer3.weight f4 [2, 128]
00000000: fea8 523e 56ed e6a7 7d85 f33e 71ca 0b3e
00000010: 2dff 9425 e217 233f 9bc2 743e 7690 49a7
00000020: e7cc 243b 79ff c7a8 14ec cb3e 1586 543e
00000030: e346 5da6 fbd9 98a7 9706 873e 38ac 693e
00000040: 73de 74a8 df79 db3e 0161 593e 297d ae3e
00000050: 1596 24ac 7b1c 91a6 dd74 6ea7 c948 e3b2
00000060: 6f39 dda8 ac72 00ba 1958 b027 0661 7727
00000070: 2e55 09bf a5e1 7b3b 95e3 3da7 f8f7 8f3c
00000080: ce41 523f e46b 47a7 9d9c a13f 041b 1627
00000090: e2b8 ecbe 8ccb f03e bfe1 b3a7 3009 bea8
000000a0: 0325 0227 5948 7f3e 561c 3da6 09f7 873e
000000b0: 2203 2da9 4e64 1927 efe0 0ba7 147b e62b
000000c0: eb05 4326 08aa ed27 fd48 e1a7 93a1 ed27
000000d0: c934 973f 2e15 7e28 e462 a927 8eab f927
000000e0: c8de 803d c0ee e33e 0457 12aa 47a5 e727
000000f0: 2bba 2a2a 9ff0 c43e 220a 8627 b0a1 dd26
00000100: 7b67 4b3e b94f a626 dacd bfa7 15aa c7a7
00000110: 5158 5ca6 8cd2 a6a7 0f61 6ea8 721c 0128
00000120: 1a02 143e 09e4 a82d d9cc 4b27 e194 86a7
00000130: 028f 3ba7 c877 f03e 1560 daa7 9b1c 8ba7
00000140: 55c3 853e c8ec 6f3e 434e 0ba8 905c 262a
00000150: fd71 a227 b188 a13e 9c3b e5bb 8dc6 0d27
00000160: a923 2a3e bf4c f0bc 3d67 a2a6 8b2a 273d
00000170: 6150 01a5 ffe1 6f3e 774a 983e 4ba0 3a3e
00000180: 031f 342a d1ac 18a9 f0a8 47bf f435 0027
00000190: f358 e327 81e2 8a27 a1cd 9827 3e69 75a7
000001a0: 3abd fe3e 07e1 73a7 8e79 96a7 cfbd 2227
000001b0: aa02 3ca9 1e8c 703e 2279 a3a7 b308 daa6
000001c0: d358 0e3f d340 1427 b3ed 06a7 fc8e c03e
000001d0: 5145 de26 8d6a c027 01ce dfa7 b930 e3a7
000001e0: 1bee 183f 324b d93e 43af 5327 27ab be3e
000001f0: 29f1 f527 a6ce 7c26 5b99 883f 93b5 4cbf
00000200: 4d03 463e 6c99 ad24 9a50 cc3e f7fb db3d
00000210: 8a7f 8d27 570f 3a3f 9e20 683e 21f7 c0a7
00000220: 1e92 f238 58ed 1f28 2842 c73e 7072 4c3e
00000230: c9b3 8527 daf5 5aa7 fabb 833e ff68 613e
00000240: 25da 1228 3019 e23e 20bb 4e3e 7df0 ac3e
00000250: feae 8cab d6c1 11a7 48f7 f826 4e7a 15b3
00000260: afcb 8a28 62dd 0f38 f2d3 aea6 1297 78a7
00000270: 95f3 ac3d 0297 3f3a 49e5 b4a7 9479 8d3c
00000280: 45ac 5c3f 5797 91a7 055b e73e 1c1d a2a7
00000290: a4e4 3fbf d0cf e03e 16a1 da26 ee86 f0a7
000002a0: 1043 3ca6 3e45 723e e916 84a7 517d 823e
000002b0: 543a d728 6673 bda7 185a 25a6 e73c e72b
000002c0: 88b7 6ba7 9b4c 4fa7 52c6 0e25 07d9 2ea6
000002d0: 913f b03f 9e5a cda6 1fc4 1a26 49fa e527
000002e0: 6b08 673d 1109 bb3e b979 00aa a20c 3fa4
000002f0: 529b a7a6 7e5e cb3e de93 d126 9836 f129
00000300: e361 413e 6d58 0ea6 c4a4 e7a7 d258 8127
00000310: a82e dca3 4350 80a7 4ae2 a825 95c5 d727
00000320: e4f4 113e 2e6f af2d 6387 d727 d565 b5a7
00000330: 816d caa6 a962 d13e 9f56 0a27 187d 5b26
00000340: c19b 803e 1fae 663e f1b2 94a7 9cd9 71a6
00000350: b7b8 3228 cfe7 893e e81c 89bb ea7c 4128
00000360: 3109 243e 4ea9 fabc 1388 87a7 391a 15bc
00000370: 6929 17a7 6d85 603e a66a 903e c0d6 343e
00000380: 9714 49aa 6a29 0828 ac75 adbe 898b 59a7
00000390: dbe2 8d27 341f d325 1cca 9ba7 05e9 f926
000003a0: aa86 113f bf60 36a6 03ba 3427 8845 c8a7
000003b0: 616f 9b27 775a 643e 9b01 fb26 ab3d 5da7
000003c0: 89bc 023f 7488 aea6 d535 f526 6b5e bb3e
000003d0: bd04 d8a7 15b3 de25 bf98 06a7 6c33 cca7
000003e0: 6ff4 0d3f 7740 c33e af16 e6a7 f984 b23e
000003f0: a03c 5ca7 4dc6 0a28 9a66 a33f 9e79 c4bd
0.20572278 -6.4095144e-15 0.4756278 0.13651444 2.584682e-16 0.6370832 0.23902361 -2.7972666e-15
0.0025146545 -2.2204232e-14 0.3982855 0.20754273 -7.6770847e-16 -4.242481e-15 0.26372215 0.22819602
-1.3592957e-14 0.42866418 0.2122841 0.34079865 -2.3389114e-12 -1.0069116e-15 -3.3092487e-15 -2.6459377e-08
-2.4560837e-14 -0.00048999 4.894533e-15 3.4330732e-15 -0.536456 0.0038434055 -2.6352391e-15 0.017574295
0.8213166 -2.7675285e-15 1.262592 2.0831327e-15 -0.46234804 0.47030294 -4.9927235e-15 -2.1098222e-14
1.8061188e-15 0.24929942 -6.561095e-16 0.2655566 -3.8416434e-14 2.128739e-15 -1.9412062e-15 1.6376644e-12
6.7662236e-16 6.5965062e-15 -6.252918e-15 6.5955893e-15 1.1812984 1.4104425e-14 4.701414e-15 6.9297383e-15
0.06292492 0.4451809 -1.2997595e-13 6.4294574e-15 1.5163623e-13 0.3846483 3.7203457e-15 1.5378781e-15
0.19863693 1.1540173e-15 -5.3236334e-15 -5.5418e-15 -7.6447524e-16 -4.630253e-15 -1.32327e-14 7.167107e-15
0.14453927 1.9200657e-11 2.8282957e-15 -3.7353886e-15 -2.6028988e-15 0.46966386 -6.0611327e-15 -3.8611264e-15
0.2612559 0.23430169 -7.73302e-15 1.4775876e-13 4.508762e-15 0.315496 -0.0069956314 1.9675315e-15
0.16615166 -0.02933347 -1.1268991e-15 0.040812057 -1.12162e-16 0.23426054 0.29744312 0.1822521
1.5997971e-13 -3.3900674e-14 -0.77992153 1.7792816e-15 6.3101596e-15 3.854827e-15 4.241142e-15 -3.4057632e-15
0.49753743 -3.3845012e-15 -4.1765153e-15 2.2584912e-15 -4.1746696e-14 0.2349095 -4.537292e-15 -1.5129147e-15
0.55604285 2.0574267e-15 -1.8725093e-15 0.37609088 1.5423133e-15 5.3406228e-15 -6.2118284e-15 -6.305798e-15
0.5973832 0.42440182 2.9377142e-15 0.37239954 6.8262627e-15 8.7710124e-16 1.06718 -0.7996456
0.19337197 7.52867e-17 0.39905244 0.10741418 3.927364e-15 0.72679657 0.22668692 -5.3558643e-15
0.00011566676 8.877739e-15 0.3891766 0.1996553 3.710984e-15 -3.0386854e-15 0.25729352 0.22012709
8.151931e-15 0.44159842 0.2018857 0.33777228 -9.996168e-13 -2.022787e-15 1.7275483e-15 -3.4803e-08
1.5409411e-14 3.4300036e-05 -1.2131123e-15 -3.449881e-15 0.08444897 0.00073085737 -5.0208628e-15 0.017269887
0.8620036 -4.0409668e-15 0.4518663 -4.4995593e-15 -0.7495825 0.43908548 1.5170451e-15 -6.6759673e-15
-6.531649e-16 0.23659226 -3.66622e-15 0.25486234 2.389509e-14 -5.2583153e-15 -5.7367975e-16 1.6430441e-12
-3.2712294e-15 -2.8768549e-15 1.238373e-16 -6.0662504e-16 1.3769399 -1.4249294e-15 5.3695277e-16 6.3831628e-15
0.056404512 0.36530355 -1.1410915e-13 -4.1427223e-17 -1.1630052e-15 0.3972053 1.4542368e-15 1.07120205e-13
0.18884997 -4.9385986e-16 -6.429402e-15 3.590099e-15 -2.3872207e-17 -3.5614157e-15 2.9296694e-16 5.9888706e-15
0.14253575 1.994457e-11 5.9821274e-15 -5.0348e-15 -1.4046247e-15 0.40895584 1.9198305e-15 7.615042e-16
0.2511883 0.2252736 -4.127226e-15 -8.3908587e-16 9.9210386e-15 0.26934668 -0.004184354 1.0740739e-14
0.16019131 -0.030598309 -3.761756e-15 -0.00910049 -2.0977908e-15 0.21925898 0.28206366 0.17660046
-1.785953e-13 7.558497e-15 -0.3387884 -3.0190442e-15 3.938132e-15 3.662381e-16 -4.324027e-15 1.7341006e-15
0.56846106 -6.327505e-16 2.5080855e-15 -5.5586537e-15 4.31419e-15 0.22300135 1.7417059e-15 -3.0703341e-15
0.5106893 -1.2110661e-15 1.7014881e-15 0.36595473 -5.995718e-15 3.8632212e-16 -1.867904e-15 -5.6677126e-15
0.554511 0.3813512 -6.3862418e-15 0.34867075 -3.0563998e-15 7.7035385e-15 1.2765687 -0.09593509

layer3.bias f4 [2]
00000000: e979 d43e fd55 cf3e
0.4149926 0.4049529
