friction_and _mass_cartpole_v1_best_model_DSP_Random.pth (torch, 73354 bytes, 6 tensors)

layer1.weight f4 [128, 5]
0	0xbda5bdaa	-0.08092816
1	0xbdd3a690	-0.10334504
2	0x3dd3e2c7	0.10345989
3	0xbe46a64f	-0.19399379
4	0x3d411eb6	0.04714843
5	0x3ddc6cf3	0.10762968
6	0xbde60072	-0.11230554
7	0xbd907964	-0.070544034
8	0xbeace91a	-0.33771592
9	0xb98854f6	-0.00026003242
10	0xbebcf5e6	-0.36906356
11	0xbda5a46d	-0.08088002
12	0xbd4feb53	-0.050761532
13	0xbecaecf1	-0.39633897
14	0x3e82e9c6	0.2556898
15	0x3e4c5579	0.1995448
16	0x3d2fa450	0.04288131
17	0xbe003103	-0.12518696
18	0xbea7c912	-0.32770592
19	0xbe17bb62	-0.14817575
20	0x3e0b7953	0.136205
21	0xbe4a52ae	-0.19758102
22	0x3e7d3df5	0.24730666
23	0x3e828873	0.25494727
24	0xbe94a844	-0.29034626
25	0x3eccfe85	0.40037933
26	0x3e277fec	0.16357392
27	0xbd8b58b6	-0.0680403
28	0x3e897f4a	0.26854926
29	0xbd56b0bf	-0.052414652
30	0xbd94448a	-0.07239635
31	0x3e1541a1	0.14575817
32	0x401ded75	2.4676182
33	0x3f4dbfae	0.80370605
34	0x3aa671d5	0.001269872
35	0x3e88eae8	0.2674172
36	0xbc0a9fef	-0.008460983
37	0x3ecb90e5	0.39758983
38	0x3e99bc31	0.3002639
39	0xbdd590dd	-0.10428021
40	0xbd6f887a	-0.058479764
41	0xbd63db3c	-0.055629
42	0x3d902552	0.07038368
43	0xbe5c78b6	-0.21530423
44	0xbe2da273	-0.169565
45	0x3c121413	0.008915919
46	0x3d5534d9	0.052052353
47	0x3e905d01	0.28195956
48	0x3d96bb94	0.073599964
49	0x3e89e7f4	0.2693478
50	0xbe6a9d3a	-0.2291154
51	0x3d392555	0.04520162
52	0x3ed3ddca	0.4138015
53	0xbb2e73fe	-0.002661943
54	0xbe5619a1	-0.20908214
55	0xbe4cdc24	-0.20005852
56	0xbe7f4184	-0.24927336
57	0xbf003176	-0.5007547
58	0xbdff1895	-0.124558605
59	0x3da0e482	0.078560844
60	0xbe2f349d	-0.17109914
61	0xbd5a9b93	-0.053371023
62	0x3e095340	0.13410664
63	0xbe1a7783	-0.15084653
64	0xbea05924	-0.3131801
65	0xbda3b03c	-0.079925984
66	0x3d4c8d83	0.049939644
67	0xc04cdf1e	-3.201118
68	0xbf04ffae	-0.51952636
69	0x3b0a1d5d	0.002107463
70	0x3e03225a	0.12806073
71	0xbe81de10	-0.25364733
72	0xbec55a51	-0.38545468
73	0x3d8d9f79	0.069151826
74	0x3cde4042	0.02713025
75	0x3da1ac56	0.078941986
76	0xbe793a6a	-0.2433869
77	0xbe8748b0	-0.26422644
78	0x3ec1adab	0.3782781
79	0xbe85dca9	-0.26144913
80	0xbd78bb6a	-0.060725607
81	0xbe94ea5d	-0.29085055
82	0x3df33b6c	0.11876568
83	0xbe8dd44d	-0.27701035
84	0x3ea8fa1d	0.3300332
85	0xbd4750ea	-0.04866115
86	0xbe449785	-0.19198425
87	0x3f5b8ed3	0.8576481
88	0x3d38192c	0.04494588
89	0xbe95c1dc	-0.29249465
90	0x3e418abd	0.1890058
91	0x3e227268	0.15863955
92	0x3e364cff	0.17802809
93	0x3e4cc8ff	0.19998549
94	0xbc945447	-0.018106593
95	0xbe52f647	-0.2060176
96	0x3e64fdca	0.22362438
97	0x3ec824f2	0.39090687
98	0xbe682c66	-0.22673187
99	0xbe34ba1d	-0.17649122
100	0xbe52bbc1	-0.20579435
101	0xbeb3cf33	-0.35119018
102	0xbf154e49	-0.5832258
103	0xbc45c7b2	-0.012071537
104	0x3d24f9c7	0.04027727
105	0x3e06803d	0.13134857
106	0x3dadbae5	0.08482913
107	0xbda5d851	-0.080979
108	0x3ea4d802	0.3219605
109	0x3d54ce48	0.051954538
110	0x3d7af21b	0.061266046
111	0x3d126e54	0.03574975
112	0x3e94baaa	0.29048663
113	0xbe817ba2	-0.25289637
114	0x3e2ce4c8	0.16884148
115	0xbdced58b	-0.10099324
116	0xbe2f092d	-0.17093344
117	0x3d88f4a7	0.06687289
118	0xbd85244a	-0.06501062
119	0xbe1e5c41	-0.1546488
120	0x3e9568ff	0.29181668
121	0xbd08f221	-0.033434037
122	0x3f0e7b32	0.5565673
123	0xbe2609c8	-0.16214669
124	0xbe6fb1a9	-0.23407616
125	0x3ecfdeea	0.40599757
126	0x3e54e309	0.20789732
127	0xbdda7b69	-0.1066807
128	0x3ceb471e	0.028720435
129	0xbe62b06a	-0.22137609
130	0x3e539eb3	0.20666008
131	0x3d9e9988	0.077441275
132	0x3ef46ab4	0.47737658
133	0xbecb7698	-0.39738917
134	0x3e9fdc69	0.31222847
135	0x3d8a449d	0.06751368
136	0xbdf0399f	-0.1172974
137	0xbf06b2c0	-0.526165
138	0xbe0ab868	-0.13546908
139	0x3bb81f92	0.005618998
140	0xbe8ab2e5	-0.2708961
141	0x3e1e6f59	0.15472163
142	0xbdbea7b7	-0.09309333
143	0x3ec235b5	0.379316
144	0x3c974311	0.018464597
145	0x3df5e339	0.1200623
146	0xbd7e3903	-0.06206609
147	0xbdcc1d12	-0.09966482
148	0xbec37e5e	-0.38182348
149	0x3dfe0c99	0.124047466
150	0x3de79d59	0.113093086
151	0x3e8cf866	0.27533263
152	0xbf1965c2	-0.59920895
153	0x3c24a0db	0.010048117
154	0x3e1cb29d	0.1530251
155	0x3e325697	0.17415844
156	0x3d8e7690	0.06956208
157	0xbf4406e4	-0.76573014
158	0xbd871b21	-0.06596971
159	0x3d9f5d19	0.07781429
160	0x3ed37be7	0.41305467
161	0xbe811714	-0.2521292
162	0x3e966613	0.2937475
163	0x3eba5f13	0.3640066
164	0xbe8bd8b6	-0.27313775
165	0xbe52a23e	-0.20569703
166	0xbead38fa	-0.33832532
167	0x3e824a67	0.2544739
168	0xbbadd3fa	-0.0053048106
169	0xbe996c0f	-0.29965255
170	0xbd5c623a	-0.053804614
171	0x3d6177a1	0.055045728
172	0xbd362358	-0.0444673
173	0x3ecee0eb	0.40405974
174	0x3e0c4204	0.13697058
175	0xbc97b9f3	-0.018521285
176	0xbe313f97	-0.17309414
177	0xbe7df4ee	-0.24800465
178	0x3dba2a36	0.09090082
179	0xbe5fb303	-0.21845631
180	0x3e507502	0.20357135
181	0x3ec96c23	0.39340314
182	0x3b55fb3a	0.0032650963
183	0x3eea24cf	0.45731208
184	0x3e8ccbe8	0.27499318
185	0x3ec9d2f8	0.3941877
186	0xbdbf8f87	-0.093535475
187	0x3f189bce	0.5961274
188	0x3e1030a6	0.14081058
189	0xbe44a5d1	-0.19203879
190	0x3ed0cbed	0.40780583
191	0x3eb60e37	0.3555772
192	0x3f5ec6ae	0.8702191
193	0xbd98ce82	-0.07461263
194	0x3dee9be0	0.116508245
195	0xbe4d8fec	-0.20074433
196	0xbdb05da4	-0.086116105
197	0x3d5558f4	0.052086785
198	0xbe66305a	-0.22479382
199	0x3dec8ae2	0.11549927
200	0xbde16852	-0.11006226
201	0x3eb5fc54	0.35544074
202	0x3df6cac9	0.12050397
203	0x3ea76de0	0.32701015
204	0xbdf7f93b	-0.12108084
205	0xbe25d9a1	-0.161963
206	0xbe2c1f5d	-0.16808839
207	0x3e36c3a9	0.17848076
208	0xbde106ec	-0.10987648
209	0x3d45b949	0.048272405
210	0xbdc933b8	-0.09824318
211	0xbd466f2e	-0.048445873
212	0xbee27c3a	-0.44235402
213	0x3dec96d8	0.11552209
214	0x3e19e6f6	0.15029511
215	0x3d6253eb	0.05525581
216	0xbe89d09c	-0.2691697
217	0x3e1b996e	0.15195248
218	0x3e293317	0.16523395
219	0x3d449c08	0.048000365
220	0xbde06216	-0.109562084
221	0x3eadb5e2	0.33927828
222	0x3e160561	0.1465049
223	0xbea37db7	-0.3193185
224	0xbe4981ed	-0.19678469
225	0x3d1cf077	0.038315263
226	0x3cc07491	0.023493083
227	0x3f88f83d	1.0700756
228	0x3e87fc5c	0.26559722
229	0x3e4dda1b	0.20102732
230	0xbe2fc5dc	-0.17165321
231	0x3e86fc22	0.26364237
232	0x3d81ce02	0.06338121
233	0x3e3c69f9	0.183998
234	0xbd6bd47a	-0.05757568
235	0xbea01fa0	-0.31274128
236	0xbeb08658	-0.34477496
237	0xbeb063dd	-0.3445119
238	0x3eafdc5f	0.34347817
239	0xbe77d1ff	-0.24201201
240	0x3e4f2159	0.20227565
241	0xbc210bc2	-0.009829463
242	0xbeac1587	-0.33610174
243	0x3ce9e0cd	0.028549576
244	0xbe99ad9a	-0.3001526
245	0xbe019b5d	-0.12656923
246	0xbe74c256	-0.23902258
247	0x3eecd34a	0.4625495
248	0xbda62363	-0.08112218
249	0x3e9bed6c	0.30454576
250	0xbf10061d	-0.5625933
251	0xbf1786a0	-0.59189796
252	0xbf89bdcf	-1.076105
253	0xbe81c579	-0.25345972
254	0x3d987e1c	0.074459285
255	0xbaa82942	-0.0012829679

layer1.bias f4 [128]
0	0xbed664ab	-0.4187368
1	0xbe95ffcb	-0.29296717
2	0xbec572c9	-0.38564137
3	0xbeaffa09	-0.3437045
4	0x3e98bdf1	0.29832414
5	0x3e62a675	0.22133811
6	0xbc8847c1	-0.016635777
7	0x3dc3e59c	0.09565279
8	0x3e70547b	0.23469727
9	0xbe594ea0	-0.212214
10	0x3e2ee959	0.17081203
11	0x3ed8e0f4	0.42359126
12	0xbeb045c8	-0.3442824
13	0xbd37d851	-0.04488403
14	0x3f096740	0.5367317
15	0x3e0b892d	0.13626547
16	0xbe90af82	-0.28258902
17	0x3df0b48a	0.11753185
18	0xbdb15d4b	-0.08660372
19	0x3ea9e522	0.33182627
20	0x3ec4fc51	0.38473752
21	0x3e8f0c5c	0.27939117
22	0xbebcf66d	-0.36906758
23	0xbdb7b655	-0.08970324
24	0x3ec8cf6e	0.39220756
25	0x3e59e9c9	0.21280588
26	0xbec8435e	-0.39113897
27	0x3eacb2aa	0.3373006
28	0x3eb7a3a3	0.35867032
29	0xbf06e052	-0.52686036
30	0x3eaa97d0	0.3331895
31	0x3e179ae3	0.14805178
32	0x3e5e7a4a	0.21726337
33	0xbe86445e	-0.26224035
34	0x3ee471e8	0.44618154
35	0xbdb50e69	-0.08840639
36	0x3eb77792	0.35833412
37	0x3e96d4fe	0.29459375
38	0x3e2afd3d	0.16698165
39	0xbd2802e6	-0.04101839
40	0x3e9adb5a	0.30245477
41	0xbede7dea	-0.4345544
42	0x3e09678d	0.13418408
43	0xbeb3e89e	-0.3513841
44	0xbd27b186	-0.040940784
45	0xbe668de7	-0.22515069
46	0xbd08ed25	-0.033429284
47	0xbe8c38c4	-0.2738706
48	0xbe23a21c	-0.15979809
49	0xbedd5ec1	-0.43236354
50	0xbedcb08a	-0.4310344
51	0xbe9d2e1d	-0.30699244
52	0x3ee0861f	0.43852326
53	0xbe0066f3	-0.12539272
54	0x3ed399f0	0.41328382
55	0xbc7952e4	-0.015217517
56	0x3dec44da	0.1153657
57	0xbec8d00f	-0.39221236
58	0xbd3a60e0	-0.045502543
59	0x3ecbca7e	0.39802927
60	0xbd128a57	-0.035776462
61	0xbeb2fc5b	-0.34958157
62	0xbead1a8c	-0.33809316
63	0xbd44306c	-0.04789774
64	0xbe58c994	-0.21170646
65	0xbea909c4	-0.33015263
66	0xbd9c24b6	-0.076241896
67	0x3e028d6e	0.12749264
68	0xbeac8d22	-0.33701426
69	0xbd0092c4	-0.031389967
70	0x3f0406b5	0.51572734
71	0xbee284d8	-0.44241977
72	0x3e88a692	0.26689583
73	0xbe4f47a5	-0.20242174
74	0xbde8deec	-0.11370644
75	0x3d884007	0.06652837
76	0xbe12be84	-0.14330488
77	0x3e92e56b	0.28690657
78	0x3ed9ddcd	0.42552033
79	0xbe71811a	-0.23584405
80	0xbeac0722	-0.33599192
81	0x3e4735fb	0.19454186
82	0x3ecf205a	0.4045437
83	0xbe2e20ae	-0.17004654
84	0x3e8ac706	0.27104968
85	0xbedc6d0e	-0.43051952
86	0xbe62bad8	-0.22141588
87	0xbe997d64	-0.29978478
88	0x3edf15e7	0.43571398
89	0xbe235e19	-0.15953864
90	0x3f103c5c	0.563421
91	0xbe5de803	-0.21670537
92	0x3ecfb786	0.40569705
93	0xbe3702d5	-0.17872174
94	0xbebcf3da	-0.36904794
95	0x3e0fd425	0.1404577
96	0x3e409dc4	0.18810183
97	0xbe9a1e5a	-0.3010128
98	0xbe706299	-0.23475112
99	0x3e724672	0.23659685
100	0x3dcccff1	0.10000599
101	0x3d772f6d	0.060347963
102	0x3ed88393	0.42287883
103	0x3e04ca9c	0.12967914
104	0xbe0ca6c3	-0.1373549
105	0x3e8789db	0.26472363
106	0x3e13115c	0.14362091
107	0xbe57c73f	-0.210721
108	0x3e12e336	0.14344487
109	0x3eeaceba	0.45860845
110	0xbe8fa99e	-0.28059095
111	0x3e626379	0.22108258
112	0x3dcb2f48	0.099211276
113	0x3e8f6697	0.28007957
114	0xbe8a581c	-0.27020347
115	0x3e6745dd	0.22585244
116	0xbe7af085	-0.24505813
117	0x3e90201b	0.28149495
118	0xbf0fc8e0	-0.56165886
119	0x3ea13009	0.3148196
120	0xbeb255e8	-0.34831166
121	0xbd0e0e85	-0.034681816
122	0x3ee87d12	0.4540792
123	0x3eac394d	0.33637467
124	0x3ec6c906	0.38825244
125	0x3ebcd3f0	0.36880445
126	0x3e70af14	0.23504287
127	0x3e412b9c	0.18864292

layer2.weight f4 [128, 128]
0	0xbd8b154d	-0.06791172
1	0xbbd79d4c	-0.0065800305
2	0xbd0a0d09	-0.033703838
3	0xbcc0a581	-0.023516418
4	0xbd580f33	-0.05274887
5	0xbc2a0c7c	-0.010378953
6	0x3af4a2da	0.0018664256
7	0xbd29c9c6	-0.04145219
8	0x3d533147	0.051560666
9	0x3d885efc	0.06658742
10	0xbd84bd1a	-0.06481381
11	0xbd31db6a	-0.04342214
12	0x3d60a889	0.054848228
13	0xbd0ec9a7	-0.03486028
14	0xbd7d4fbc	-0.06184362
15	0xbcb1e08c	-0.021713518
16	0xbd1c0f70	-0.03810066
17	0xbce472f0	-0.027886838
18	0x3d5a9625	0.053365845
19	0x3bb61f8b	0.0055579594
20	0x3c4f5677	0.012654892
21	0x3d2e1863	0.042503726
22	0xbd882ab5	-0.06648771
23	0x3c81badd	0.015836174
24	0xbd412127	-0.047150757
25	0xbd12ef8f	-0.035872992
26	0xbd164e73	-0.03669591
27	0x3c233f69	0.009963849
28	0x3c8b8a4d	0.01703372
29	0xbc7fdb1e	-0.015616206
30	0xbd3f458d	-0.04669719
31	0xbc8efdde	-0.017455038
32	0x3d487354	0.04893811
33	0x3d5e4706	0.054266952
34	0x3c33a62e	0.010964913
35	0x3ca7c63b	0.020480266
36	0x3d1af04b	0.037826817
37	0xbd857d21	-0.06518007
38	0xbc0734e7	-0.008252359
39	0xbd1a80ba	-0.03772042
40	0xbd0938ca	-0.033501424
41	0xbd73715a	-0.059434272
42	0x3b485129	0.0030565953
43	0xbd4602a9	-0.04834238
44	0x3bdce10f	0.0067406963
45	0x3cfa7664	0.030574031
46	0xbd5c9153	-0.05384953
47	0xbd325996	-0.043542467
48	0xbd1471bc	-0.036241278
49	0xbc575cfb	-0.013144727
50	0x3c3e2301	0.011605025
51	0xbd0c719f	-0.034288045
52	0x3c11fd3a	0.008910472
53	0x3d66622e	0.056245975
54	0x3cfbcdaa	0.030737717
55	0xbd25f26b	-0.04051439
56	0xbcc7aa8b	-0.024373313
57	0x3cee0f38	0.029059991
58	0xbb9c2120	-0.004764691
59	0xbd060b99	-0.032725904
60	0xbcdc82e5	-0.026917884
61	0xbcd5c2c9	-0.026093857
62	0x3d8271ff	0.06369399
63	0xbd1d32e1	-0.0383786
64	0xbcd39a53	-0.025830423
65	0x3cc1129d	0.023568446
66	0x381ea3ed	3.7822803e-05
67	0x3d10ebe0	0.035381198
68	0x3ca7bedf	0.020476757
69	0xbd7c5780	-0.061606884
70	0xbd507b37	-0.050898757
71	0x3d3348a6	0.043770455
72	0xbcdfae8a	-0.027304906
73	0x3c5893e0	0.01321885
74	0xbcaa9485	-0.020822773
75	0x3d5f7101	0.05455113
76	0xbd7b36f0	-0.06133169
77	0xbd328d10	-0.04359156
78	0xbc7037fc	-0.014661785
79	0xbc8b1268	-0.01697655
80	0xbcae808e	-0.021301534
81	0xbd6dd60e	-0.058065467
82	0xbc11cb2c	-0.008898538
83	0x3c977427	0.018488003
84	0xbcf37b6c	-0.029721938
85	0xbd74110f	-0.05958658
86	0x3d117a07	0.035516765
87	0xbcfeea2c	-0.031117521
88	0xbd47ed01	-0.04881001
89	0xbc045e7c	-0.008079167
90	0xbcc4ffd5	-0.024047771
91	0xbd1956ff	-0.03743648
92	0xbd0dd71c	-0.034628972
93	0xbd806648	-0.062695086
94	0x3d2ecbba	0.042674758
95	0x3d305d4b	0.04305772
96	0x3c04e2c7	0.008110709
97	0xbd792945	-0.060830373
98	0x3cb0e0c8	0.021591559
99	0xbbf3e026	-0.007442492
100	0xbd28e274	-0.041231588
101	0x3c590dbc	0.013247903
102	0x3d27eaf5	0.040995557
103	0x3d09b420	0.033619046
104	0x3cae70a9	0.021293955
105	0xbbbb758c	-0.0057208
106	0xbd36b398	-0.044604868
107	0xbd4b17c5	-0.049583215
108	0x3ba86388	0.005138818
109	0xbceb414b	-0.028717658
110	0xbd2b6465	-0.04184379
111	0x3c9123da	0.01771729
112	0x3d36de86	0.04464581
113	0x3bb2a873	0.0054522096
114	0xbcf2c48d	-0.029634738
115	0xbd80bf17	-0.062864475
116	0xbd7bb752	-0.061454125
117	0xbcc16085	-0.023605594
118	0xbd385a6e	-0.045008115
119	0x3d1ecb8f	0.038768347
120	0xbd125d6d	-0.03573363
121	0xbd6d8b04	-0.057993904
122	0x3d82ce69	0.06387026
123	0x3d52f545	0.05150344
124	0xbd6eff9c	-0.058349237
125	0x3bff9884	0.0078001637
126	0x3cdd9e53	0.027053034
127	0xbcb65a7f	-0.022259949
128	0xbd340b95	-0.043956358
129	0x3d769cc7	0.06020811
130	0x3d7cbbac	0.061702415
131	0xb98df71c	-0.00027077727
132	0xbd10445c	-0.035221443
133	0xbcc38bab	-0.02387031
134	0xbc461310	-0.012089506
135	0x3cf6b291	0.030114444
136	0x3baef9cc	0.0053398367
137	0xbd794806	-0.060859703
138	0xbc769b90	-0.015051737
139	0xbcae205d	-0.021255666
140	0xbcbfceb8	-0.023414
141	0x3d76279d	0.060096372
142	0xbba852dd	-0.005136831
143	0x3d59848b	0.05310492
144	0x3d0d82bd	0.03454851
145	0xbb92089c	-0.0044565927
146	0x3c2395a7	0.00998441
147	0x3cbcd705	0.023051748
148	0x3d6c212e	0.05764883
149	0xbc656561	-0.014001221
150	0x3ca88f24	0.020576067
151	0xbb85beef	-0.004081599
152	0x3cd8bf95	0.026458541
153	0x3d407428	0.046985775
154	0xbd5886bb	-0.052862864
155	0x3cddef75	0.027091721
156	0xbd4b62f5	-0.04965492
157	0x3ceadf0e	0.028670814
158	0xbd519b87	-0.051173713
159	0x3d189c66	0.03725853
160	0x3c7ba166	0.015358305
161	0x3d6d1301	0.05787945
162	0xbd6b4418	-0.057437986
163	0x3a97bd16	0.0011576738
164	0x3cca2437	0.024675472
165	0xbd0e0209	-0.03466991
166	0xbd7cc952	-0.06171543
167	0x3d818d99	0.06325836
168	0xbd7e214e	-0.06204348
169	0x3d074c53	0.033031773
170	0x3d0525c9	0.032506738
171	0x3d757549	0.059926305
172	0xbd2e813e	-0.042603724
173	0xbb8efb4c	-0.004363453
174	0xbcc23d2f	-0.023710815
175	0x3d4ae1c8	0.049531728
176	0xbd006ab0	-0.031351745
177	0xbd838a89	-0.06422908
178	0xbd7ea7e8	-0.062171847
179	0x3c968ba4	0.018377133
180	0x3d77e616	0.06052216
181	0x3d56f47b	0.05247925
182	0xbd6ac326	-0.057315014
183	0x3ced1c32	0.028944109
184	0x3d525fd5	0.051360924
185	0xbd72cd87	-0.059278037
186	0x3c032e54	0.008006651
187	0xbc04d474	-0.008107293
188	0xbb4301da	-0.0029755742
189	0xbd777771	-0.060416643
190	0x3d4cfed3	0.050047707
191	0x3d32e531	0.043675605
192	0x3d382860	0.04496038
193	0x3c07f643	0.008298459
194	0x3cf10e07	0.029425634
195	0xbd3acbf4	-0.04560466
196	0xbb3f9c3a	-0.0029237405
197	0xbd5ee882	-0.054420955
198	0xbc3b0cb1	-0.0114166
199	0x3d0d5aa0	0.034510255
200	0x3c9ff8e0	0.019527853
201	0x3cbb8950	0.022892624
202	0x3d7431f4	0.05961795
203	0x3d8a426f	0.067509525
204	0xbc632388	-0.013863452
205	0xbd267b92	-0.04064519
206	0xbc353876	-0.011060825
207	0x3c09c1f3	0.0084080575
208	0x3d70e165	0.058808703
209	0xbbfe2bd8	-0.0077566914
210	0xbd4be72a	-0.049781002
211	0x3d528f30	0.051406085
212	0xbc8a6eb6	-0.016898494
213	0xbcc83679	-0.024440037
214	0x3d441be8	0.047878176
215	0xbbeec68a	-0.0072868513
216	0xbd486f32	-0.04893417
217	0x3d25241e	0.040317647
218	0x3d5cf5af	0.05394524
219	0xbd73f94f	-0.05956393
220	0xbbc99b42	-0.0061525414
221	0xbd58cadd	-0.05292784
222	0x3d2593a2	0.040423997
223	0xbc0649e5	-0.008196329
224	0x3d04fc42	0.032467134
225	0xbcdaa3e9	-0.026689487
226	0x3b2c7390	0.0026313998
227	0x3d4759c6	0.0486696
228	0xbce23eff	-0.02761793
229	0x3d22876a	0.039679922
230	0xbd70fe24	-0.058836117
231	0xbc381dbf	-0.011237561
232	0xbd6bea7e	-0.057596676
233	0x3d5893c7	0.052875306
234	0x3ce3b962	0.027798358
235	0x3d30909e	0.043106668
236	0xbcbc1966	-0.02296133
237	0x3cc56686	0.024096739
238	0x3d72b9f8	0.059259385
239	0xbd10df79	-0.03536937
240	0x3cc49ce1	0.024000587
241	0x3d47c558	0.048772186
242	0x3c4a6c52	0.012354927
243	0xbd4f6a5d	-0.050638545
244	0x3d23c6f8	0.039984673
245	0x3c07d25f	0.0082899025
246	0xbc4629ea	-0.012094954
247	0x3cebb070	0.028770655
248	0x3d619e17	0.055082407
249	0x3d7efde8	0.062253863
250	0x3d00b0a3	0.031418454
251	0xbd8af22b	-0.06784471
252	0x3d0b6f1f	0.03404152
253	0xbd19f145	-0.03758361
254	0xbd75b6d2	-0.059988804
255	0x3d44160e	0.047872595

layer2.bias f4 [128]
0	0xbd7930c3	-0.06083752
1	0xbb8666ac	-0.004101595
2	0x3cae7681	0.021296741
3	0xbd39487e	-0.04523515
4	0xbcff4616	-0.03116135
5	0xbd1fc257	-0.039003696
6	0xbdbdca66	-0.0926712
7	0xbdcaaca0	-0.09896207
8	0x3e98ec58	0.29867816
9	0x3e57aed8	0.21062791
10	0x3e89447a	0.26810056
11	0xbc59a3ad	-0.013283652
12	0x3dac2b8c	0.084067434
13	0x3d3b52cd	0.04573326
14	0x3e91afcd	0.28454438
15	0x3cd39823	0.02582938
16	0xbc9cdc5e	-0.019148048
17	0x3c821b04	0.015882023
18	0xbde9ef1b	-0.11422559
19	0x3cbced18	0.023062274
20	0x3d02de93	0.031950545
21	0x3e8e9ed0	0.2785554
22	0xbd594b06	-0.053050064
23	0x3d105c4b	0.035244267
24	0x3e88609b	0.26636204
25	0x3d4819bc	0.048852667
26	0x3c3ff03e	0.011714993
27	0xbd9fcbe9	-0.07802565
28	0xbd7d728c	-0.06187682
29	0x3e85ed11	0.2615743
30	0x3dabca42	0.08388187
31	0xbd8064e5	-0.06269244
32	0xbd889f9d	-0.06671069
33	0x3bdb08be	0.0066843918
34	0xbc9c481b	-0.019077351
35	0xbc860764	-0.016360946
36	0x3e2d3944	0.16916376
37	0xbcf2c1eb	-0.029633483
38	0x3c36ff4b	0.011169265
39	0xbd3ffda8	-0.046872765
40	0x3cdd586e	0.027019706
41	0x3d3e12d0	0.04640466
42	0xbe302e36	-0.17205128
43	0xbd6ac444	-0.05731608
44	0x3de24643	0.110485576
45	0x3e450b9e	0.19242713
46	0x3cbe02cd	0.023194695
47	0x3d668794	0.05628164
48	0xbd271c72	-0.040798612
49	0xbd191118	-0.037369817
50	0x3dddfefa	0.108396485
51	0x3e801b1c	0.25020683
52	0x3c489d8a	0.0122445915
53	0x3d852987	0.06502061
54	0xbe14adec	-0.14519471
55	0x3c827ac3	0.015927678
56	0x3e76d969	0.24106373
57	0x3e355ca9	0.17711128
58	0x3e7a8548	0.24464905
59	0xbd9635b2	-0.0733446
60	0x3e5d0511	0.21583964
61	0x3d3549ec	0.04425995
62	0xbd110a03	-0.03540994
63	0xbe1443f6	-0.1447905
64	0xbcc67fbf	-0.024230836
65	0x3e5647bb	0.209258
66	0x3e16d4e7	0.14729653
67	0x3cc7dd22	0.024397437
68	0x3d097f43	0.03356863
69	0x3e19d564	0.15022808
70	0xbe1a911a	-0.15094414
71	0x3c588935	0.013216306
72	0x3e92b4d6	0.28653592
73	0xbd50e027	-0.05099502
74	0x3e989d21	0.2980738
75	0x3d54ae39	0.051923964
76	0x3d824e89	0.06362636
77	0x3d6d89e4	0.05799283
78	0xbd1c1c52	-0.038112946
79	0x3d1198c9	0.035546098
80	0x3d3563de	0.044284694
81	0x3d979822	0.07402064
82	0x3cc3c384	0.02389694
83	0x3b7d37f2	0.0038638082
84	0x3d91a8e5	0.07112292
85	0x3d040f39	0.03224108
86	0x3df68e56	0.12038867
87	0xbdb528d6	-0.088456795
88	0x3d695c46	0.056972764
89	0xbcd9cd4a	-0.026587147
90	0xbd859a15	-0.065235294
91	0xbd0ef64d	-0.03490286
92	0x3d9f278d	0.077712156
93	0x3d8c9672	0.06864633
94	0xbd921a59	-0.07133932
95	0x3d61d5a8	0.0551354
96	0xbd2e86cd	-0.042609025
97	0x3b1f85e9	0.0024341291
98	0xbda7ba6f	-0.08189856
99	0x3e94c0fd	0.29053488
100	0x3d074813	0.03302772
101	0x3d74fce1	0.059811477
102	0x3de235de	0.110454306
103	0xbccb0b57	-0.02478568
104	0xbd53e57d	-0.05173253
105	0x3e8eb035	0.2786881
106	0xbd974c53	-0.073876046
107	0xbd00d85a	-0.03145633
108	0x3d6039e8	0.054742724
109	0xbcb2052c	-0.021730982
110	0xbcab80b0	-0.020935386
111	0x3d9f4769	0.07777292
112	0x3db9a72f	0.09065091
113	0x3bbd47a9	0.005776365
114	0xbd7a58dc	-0.0611199
115	0xbd603d9a	-0.054746248
116	0x3dec59a2	0.115405336
117	0xbd255465	-0.040363688
118	0xbbe3ccfb	-0.006951926
119	0xbd34af5a	-0.04411254
120	0xbd89a3fc	-0.06720731
121	0xbc3a83a1	-0.011383922
122	0xbc87a182	-0.016556505
123	0x3e881eea	0.26586086
124	0x3e0c6bbe	0.13712975
125	0x3d0bc224	0.034120694
126	0xbdb9d36a	-0.09073527
127	0x3e0472bd	0.12934394

layer3.weight f4 [2, 128]
0	0x3cb30e2c	0.021857344
1	0xbd7277e9	-0.059196386
2	0x3d6eb74a	0.058280267
3	0xbd9001c5	-0.070315875
4	0xbd03d1ea	-0.03218261
5	0xbe04db65	-0.12974317
6	0xbdd293b5	-0.10282079
7	0xbd68d8bc	-0.05684732
8	0x3eaea2a9	0.34108475
9	0x3d83d9d7	0.06438034
10	0x3ea327c6	0.31866282
11	0xbd13025d	-0.035890926
12	0xbf5d6e4f	-0.8649644
13	0x3ccd42c5	0.025056252
14	0x3ec6458b	0.38724932
15	0xbd4b773e	-0.049674265
16	0xbd6d7434	-0.057972148
17	0xbd49031f	-0.049075242
18	0xbd01141f	-0.03151333
19	0xbd39528d	-0.045244742
20	0x3d628688	0.05530408
21	0x3eb8d644	0.36100972
22	0xbd91fccf	-0.071282975
23	0x3e0f535e	0.13996646
24	0x3ea689c6	0.32526988
25	0xbd7344ee	-0.05939191
26	0xbccc6a6b	-0.024953088
27	0xbe0a9b6b	-0.1353585
28	0xbd79a3b4	-0.060947135
29	0x3ebcaa2b	0.36848578
30	0x3dd352a6	0.10318498
31	0xbd62420f	-0.05523878
32	0xbe14adcd	-0.14519425
33	0xbda4324f	-0.08017408
34	0xbd9554c8	-0.07291561
35	0xbd30f677	-0.043203797
36	0x3df1f1b4	0.11813679
37	0xbc4e22e5	-0.012581562
38	0xbd0579e1	-0.032586936
39	0xbd31f7d0	-0.043449223
40	0xbdac3dae	-0.08410202
41	0x3d88e4a4	0.06684235
42	0xbe202a40	-0.15641117
43	0xbd3f1967	-0.046655085
44	0x3f1a3bc7	0.60247463
45	0x3eaa8548	0.3330481
46	0x3d995b5f	0.07488131
47	0x3f07ffb5	0.5312455
48	0xbdaadc6b	-0.08342823
49	0xbca8278d	-0.020526672
50	0x3e0305c9	0.12795176
51	0x3e32e458	0.17469919
52	0xbd16e677	-0.036840882
53	0x3df321ee	0.11871706
54	0xbe0c77c3	-0.1371756
55	0xbd3b7336	-0.04576417
56	0x3f157d3d	0.58394223
57	0x3e9f51ab	0.31116995
58	0x3ec1db4c	0.37862623
59	0xbe338010	-0.1752932
60	0x3e79ca29	0.24393524
61	0xbe079615	-0.13240846
62	0xbd8449d5	-0.06459395
63	0xbd64202a	-0.055694737
64	0xbd8a0045	-0.06738333
65	0x3e8f01f4	0.27931178
66	0x3d8162c5	0.06317667
67	0xbcdb472b	-0.026767334
68	0x3dda3ee5	0.106565274
69	0x3db4dd3e	0.08831261
70	0xbea2c63d	-0.3179187
71	0xbd7a5c4c	-0.061123177
72	0x3eb3b36f	0.35097834
73	0xbdd12671	-0.1021241
74	0x3ec249aa	0.37946826
75	0xbd703471	-0.058643762
76	0xbd3dcb5a	-0.04633651
77	0x3d71dee8	0.05905047
78	0xbe408a90	-0.18802857
79	0x3e3d79f2	0.1850355
80	0x3d21f9d8	0.03954491
81	0x3e071e99	0.13195266
82	0x3d707e79	0.058714364
83	0x3d349bf3	0.044094037
84	0x3f0209c9	0.5079618
85	0xbd60c41a	-0.054874517
86	0x3f17c2b0	0.59281445
87	0xbdacbe5f	-0.08434748
88	0x3d3a74ed	0.045521665
89	0xbd9ba7d4	-0.0760037
90	0x3d2daa0b	0.042398494
91	0xbd8b9afe	-0.06816672
92	0x3d8bf0a9	0.06833012
93	0x3f14c045	0.5810588
94	0xbe06800e	-0.13134786
95	0xbd5d4a6b	-0.05402605
96	0x3cae29ec	0.021260224
97	0xbd17e310	-0.037081778
98	0xbe027b83	-0.12742428
99	0x3e919813	0.28436336
100	0x3ddc1e0e	0.1074792
101	0x3f0aebb4	0.54265904
102	0x3da87887	0.08226114
103	0x3c74dd27	0.014945305
104	0x3b2f7528	0.0026772711
105	0x3eadaad4	0.33919394
106	0xbdeaab4b	-0.11458453
107	0xbe034233	-0.12818222
108	0x3df80730	0.12110746
109	0xbd94534b	-0.072424494
110	0xbd382dca	-0.044965543
111	0x3d9dc8b1	0.077042945
112	0x3e01e722	0.12685826
113	0x3d1d485b	0.03839908
114	0xbe398128	-0.18115675
115	0x3c77744b	0.01510341
116	0x3d95c473	0.0731286
117	0xbd8653fd	-0.06558988
118	0xbdf13477	-0.11777585
119	0x3d35a9b7	0.044351306
120	0xbe0cca13	-0.1374896
121	0xbda7aa84	-0.0818682
122	0xbd0a7ff6	-0.03381344
123	0x3ecb7b07	0.397423
124	0x3e6a12ac	0.22858685
125	0xbd2cdbec	-0.04220192
126	0xbe004310	-0.12525582
127	0x3da8b11c	0.08236906
128	0x3c27c87f	0.010240673
129	0xbd7f5818	-0.062339872
130	0xbc9ee519	-0.019396352
131	0xbd9a36e8	-0.07530004
132	0x3ac6fc37	0.0015181367
133	0xbe113cc0	-0.1418333
134	0xbe12e66d	-0.14345713
135	0xbdbdc055	-0.092652
136	0x3ed3f617	0.4139869
137	0x3dfb9100	0.12283516
138	0x3ebe064f	0.37114188
139	0x3d87655e	0.06611131
140	0x3dc1923b	0.094517194
141	0x3c898258	0.016785786
142	0x3ec92eec	0.3929361
143	0xbbeef995	-0.007292936
144	0xbd15b927	-0.03655353
145	0xbd516141	-0.05111814
146	0xbd65e137	-0.056122985
147	0x3d29c830	0.04145068
148	0xbc5089d2	-0.012728171
149	0x3e9cd24e	0.306292
150	0xbe0a90df	-0.13531826
151	0x3e0068ee	0.12540027
152	0x3ec9ba6e	0.39400047
153	0xbd6484d7	-0.05579075
154	0xbd61159c	-0.05495225
155	0xbe0ca79a	-0.1373581
156	0x3bc31e20	0.005954519
157	0x3ea1be55	0.31590524
158	0x3e1e5914	0.15463668
159	0xbcf5b262	-0.029992286
160	0xbe1518ce	-0.14560243
161	0xbc570e89	-0.013126024
162	0xbc733257	-0.014843545
163	0xbd68f268	-0.0568718
164	0x3e01baa6	0.12668857
165	0xbcb91fdf	-0.022598205
166	0xbcbabd8d	-0.022795463
167	0x3d501c2b	0.050808113
168	0x3ce33153	0.02773348
169	0x3cf50a6a	0.029912192
170	0xbe7e1ce9	-0.24815716
171	0xbd2f9356	-0.04286512
172	0x3f076897	0.52893966
173	0x3ea57237	0.32313702
174	0x3c774588	0.015092261
175	0x3f152765	0.58263236
176	0xbd7bef33	-0.061507415
177	0x3d851ea2	0.06499983
178	0x3dfc8b68	0.12331277
179	0x3e657aa9	0.22410072
180	0xbaa14365	-0.001230341
181	0x3d4591c8	0.04823473
182	0xbe3bbed2	-0.18334511
183	0xbd282a30	-0.041055858
184	0x3f025cf7	0.50923103
185	0x3e95f5bb	0.2928904
186	0x3ec7fc64	0.39059746
187	0xbddef400	-0.10886383
188	0x3e38f6fe	0.1806297
189	0xbeba7321	-0.3641596
190	0x3d8b853a	0.0681252
191	0xbdc60e62	-0.09670712
192	0x3d8ac7bf	0.0677638
193	0x3e86af50	0.26305628
194	0x3d9eadb5	0.07747976
195	0xbd5adcf8	-0.05343339
196	0x3e15156d	0.14558955
197	0x3dd9d22b	0.106357895
198	0xbe549868	-0.20761263
199	0xbbd0a075	-0.006366784
200	0x3ecea3a1	0.40359214
201	0xbd6a58cf	-0.0572136
202	0x3ea078a6	0.31342047
203	0x3cfcf856	0.030880135
204	0xbd46f43b	-0.04857276
205	0xbd53fed5	-0.0517567
206	0xbe484b23	-0.19559912
207	0x3e0378a9	0.12838997
208	0xbc5225d1	-0.012826399
209	0x3e1b22ce	0.15149996
210	0xbce733ee	-0.028223004
211	0xbbc29192	-0.0059377635
212	0x3f018f4a	0.50609267
213	0xbd6f2266	-0.058382414
214	0x3f2c9fb7	0.67431206
215	0xbd961b10	-0.073293805
216	0x3d7b1028	0.061294705
217	0xbce2d27f	-0.027688263
218	0xbd79efe7	-0.061019804
219	0xbcfb8a20	-0.030705512
220	0x3df7bf02	0.12096979
221	0x3f241e85	0.6410907
222	0xbe0ffd2c	-0.14061421
223	0xbcf6e268	-0.030137256
224	0xbba25eae	-0.0049551344
225	0x3d6c4a53	0.05768807
226	0xbdce9e10	-0.10088742
227	0x3eb3548e	0.35025448
228	0x3dcf3187	0.101168685
229	0x3f120cd8	0.5705085
230	0x3d610fcc	0.054946706
231	0x3d1f48d4	0.038887814
232	0xbc8ba8f6	-0.01704834
233	0x3e6ecd47	0.23320495
234	0xbdfed35c	-0.12442657
235	0xbd625000	-0.055252075
236	0x3db9e480	0.09076786
237	0xbdc1ac01	-0.09456635
238	0xbd23f898	-0.040032
239	0x3c01ba93	0.007918018
240	0x3d976c59	0.073937126
241	0x3ee6b3a7	0.4505894
242	0xbe530e57	-0.20610939
243	0xbc0828a4	-0.008310471
244	0x3d9cf969	0.07664759
245	0x3d4758c1	0.048668627
246	0xbdb1ba26	-0.08678083
247	0xbdb4de69	-0.08831484
248	0xbde6922e	-0.1125835
249	0xbe08e1f0	-0.13367438
250	0xbdbfe227	-0.09369307
251	0x3e9fada8	0.31187177
252	0x3e65e3e8	0.2245022
253	0xbd3d10d2	-0.04615862
254	0xbe28c2c7	-0.16480552
255	0x3debc721	0.1151259

layer3.bias f4 [2]
0	0x3d924c9d	0.07143519
1	0x3df0e8c5	0.11763147
