masscart_cartpole_v1_best_model_NoDSP_Random.pth (torch, 73274 bytes, 6 tensors)

layer1.weight f4 [128, 5]
0.14186709 -0.038475472 -0.091426186 -0.06826243 0.039709058 -0.17965564 0.04373698 -0.061787218
-0.017422149 -0.027045593 0.059443146 0.05859332 -0.12227765 -0.08493677 0.04012736 -0.20163172
0.11188661 0.09477012 0.06612343 0.04013493 -0.122611165 0.061709333 0.0047580726 0.002494871
0.020199837 -0.16694161 0.014414616 -0.17175674 -0.034651008 -0.028317813 0.081811324 5.0308827e-05
0.084228635 -0.031237323 -0.020145185 0.038063332 0.019868672 -0.076783314 -0.057776786 -0.07026885
0.025525492 0.071356885 0.08794829 0.015494394 0.042730816 -0.22910878 0.0922294 0.105940804
0.14479046 0.011007839 -0.11485454 0.22174919 0.07203853 0.17615612 0.001482373 -0.036491986
0.01728761 -0.14332515 0.02072838 -0.07238742 0.0644608 0.020725587 -0.11826531 -0.010233694
0.04434802 -0.06115833 0.15832421 0.07598271 0.038743857 0.046187323 -0.21451713 -0.05708035
0.12264275 0.13736098 0.045099474 0.229508 -0.25329342 -0.088116676 0.024809891 0.007051056
-0.04552997 0.055061676 -0.0128534455 0.011910426 0.0008166792 0.080411516 0.02420148 -0.045675673
-0.04446202 0.012294246 -0.12973048 -0.07888969 0.0030342618 -0.112696 0.07430575 -0.23264953
0.19231975 0.17768593 0.20500131 0.0005854356 -0.19620351 0.056905493 0.17185137 0.0663364
-5.017257e-05 0.22184068 -0.19422658 -0.08508217 0.042744424 -0.00024371393 -0.09502996 0.042662393
0.091563605 -0.09930666 0.0155662205 0.20417811 -0.30874196 -0.058017563 0.08006092 0.0039843633
-0.008446569 -0.0051625716 -0.028678315 -0.07226537 0.007141478 0.08338605 -0.031460542 -0.068671875
-0.031719115 -0.07281966 -0.022136966 0.02332475 0.061329674 -0.010560482 0.027212987 -0.0902045
0.008757368 -0.020743003 0.028486261 0.0143643385 0.018315833 -0.05694861 0.00028538206 -0.090408675
-0.036237653 -0.069271795 -0.00087261904 -0.07470971 -0.0028828178 -0.05950554 -0.1635315 0.14289345
-0.026430268 0.08197483 0.006627482 0.061506603 0.047482815 0.019914363 -0.049130697 -0.071968324
-0.117673516 0.055062838 -0.0075959116 0.021547465 -0.095432945 -0.1742576 0.14495188 0.04898864
0.18540518 0.012949548 -0.05207466 0.019132819 -0.07045182 0.041563362 -0.085985504 -0.14897592
0.0166851 -0.041475046 0.006505953 -0.048621695 0.06427598 -0.15625748 -0.014136436 0.005893666
0.00040034403 -0.04111868 -0.026244827 0.053356163 0.1446721 0.036199655 -0.15391181 0.0025673723
0.0894225 0.10805851 0.0002982688 0.018416326 -0.033640135 0.07573912 0.0035218808 -0.07724767
-0.05126249 0.0986431 0.037527896 -0.0023492961 0.0021405597 0.031206654 0.015736178 -0.04869115
-0.008681157 0.0042157816 0.050388854 0.03066329 0.01983625 -0.039047718 -0.0014302428 0.08133018
-0.19963405 -0.058161624 -0.068103425 -0.00031824125 -0.0023653198 0.07662011 0.19844714 0.07341751
4.2942824e-07 0.019784527 -0.04707434 0.00028302128 0.031079395 -0.050104026 0.059288286 -0.018998705
-0.10188816 0.05004343 0.03671564 0.0019257093 -0.11344512 0.020364288 0.04252317 -0.0063024214
0.13166977 -0.20640378 -0.0038496614 -0.0005964019 0.00077724556 0.19478114 -0.21960339 0.006420503
-0.04160735 -0.00031870132 -0.024645815 0.016551608 -0.05235796 -0.083843626 -0.07523322 0.016175158
00000000: 9b45 113e 7598 1dbd a73d bbbd 2ccd 8bbd
00000010: f7a5 223d a6f7 37be 8c25 333d 9814 7dbd
00000020: e5b8 8ebc b88e ddbc a87a 733d 8dff 6f3d
00000030: b46c fabd 54f3 adbd 965c 243d 8c78 4ebe
00000040: cf24 e53d d616 c23d b96b 873d 8664 243d
00000050: 901b fbbd edc2 7c3d 9be9 9b3b fd80 233b
00000060: 217a a53c bef2 2abe 482b 6c3c 00e1 2fbe
00000070: 37ee 0dbd c2fa e7bc b28c a73d b102 5338
00000080: 1080 ac3d 6ae5 ffbc 8407 a5bc 4ce8 1b3d
00000090: a0c3 a23c 9240 9dbd 5aa7 6cbd 1de9 8fbd
000000a0: d61a d13c 8f23 923d 3c1e b43d 33dc 7d3c
000000b0: 8206 2f3d 7e9b 6abe c5e2 bc3d 7ef7 d83d
000000c0: f343 143e 395a 343c db38 ebbd 3812 633e
000000d0: f088 933d 4562 343e 2f4c c23a 9f78 15bd
000000e0: bf9e 8d3c d4c3 12be 90ce a93c db3f 94bd
000000f0: 0604 843d b5c8 a93c 1535 f2bd 39ab 27bc
00000100: 45a6 353d 2881 7abd be1f 223e d39c 9b3d
00000110: e1b1 1e3d eb2e 3d3d 61aa 5bbe 16cd 69bd
00000120: 1f2c fb3d 5ba8 0c3e 3aba 383d 2504 6b3e
00000130: adaf 81be 8476 b4bd 1d3e cb3c 8b0c e73b
00000140: a27d 3abd 5a88 613d 4297 52bc f323 433c
00000150: 6a16 563a cbae a43d 2f42 c63c 6a16 3bbd
00000160: cf1d 36bd ce6d 493c 11d8 04be eb90 a1bd
00000170: 77da 463b 29cd e6bd 9d2d 983d ae3b 6ebe
00000180: 78ef 443e 4df3 353e ddeb 513e eb77 193a
00000190: 93e9 48be bc15 693d cef9 2f3e 61db 873d
000001a0: 6370 52b8 342a 633e 55e3 46be 903f aebd
000001b0: c714 2f3d 768d 7fb9 119f c2bd c3be 2e3d
000001c0: b385 bb3d 4a61 cbbd 7609 7f3c 1114 513e
000001d0: 6d13 9ebe d3a3 6dbd fbf6 a33d 438f 823b
000001e0: 7a63 0abc ca2a a9bb c9ee eabc deff 93bd
000001f0: 0f03 ea3b 4ec6 aa3d c5dc 00bd d7a3 8cbd
00000200: e7eb 01bd 7922 95bd 9558 b5bc 8c13 bf3c
00000210: d334 7b3d df05 2dbc c5ed de3c 23bd b8bd
00000220: 107b 0f3c 3bed a9bc 055c e93c 6758 6b3c
00000230: 160b 963c f242 69bd 559f 9539 2f28 b9bd
00000240: ef6d 14bd 5fde 8dbd 79c0 64ba 6801 99bd
00000250: a8ed 3cbb 15bc 73bd cd74 27be a952 123e
00000260: 4a84 d8bc 6be2 a73d 592b d93b 59ee 7b3d
00000270: 577d 423d 7223 a33c 453d 49bd 2164 93bd
00000280: d0fe f0bd 9289 613d 20e7 f8bb 4f84 b03c
00000290: 5972 c3bd 9670 32be 446e 143e 50a8 483d
000002a0: dbda 3d3e 572a 543c 3d4c 55bd 6ebc 9c3c
000002b0: 0b49 90bd 583e 2a3d 2b19 b0bd 258d 18be
000002c0: 31af 883c bde1 29bd e42f d53b 8b27 47bd
000002d0: 20a3 833d f601 20be 839c 67bc a71f c13b
000002e0: 44e5 d139 106c 28bd 64ff d6bc fe8b 5a3d
000002f0: ec24 143e 1746 143d 0f9b 1dbe 5c41 283b
00000300: 2523 b73d c84d dd3d f660 9c39 d6dd 963c
00000310: 3dca 09bd 1d1d 9b3d 5bcf 663b 0734 9ebd
00000320: 9ef8 51bd 6505 ca3d dab6 193d a6f6 19bb
00000330: a248 0c3b 19a5 ff3c 28e9 803c 5f70 47bd
00000340: 693b 0ebc 8a24 8a3b 8b64 4e3d 9431 fb3c
00000350: a27f a23c 80f0 1fbd fc76 bbba 7090 a63d
00000360: de6c 4cbe e23a 6ebd cf79 8bbd 9ed9 a6b9
00000370: 7b03 1bbb 01eb 9c3d ba35 4b3e eb5b 963d
00000380: 2b8c e634 2913 a23c 06d1 40bd 7962 9439
00000390: 379a fe3c e139 4dbd 46d8 723d 2ca3 9bbc
000003a0: bdaa d0bd 57fa 4c3d 2463 163d 1568 fc3a
000003b0: ea55 e8bd 02d3 a63c c72c 2e3d 8b84 cebb
000003c0: 71d4 063e 835b 53be 9a4a 7cbb db57 1cba
000003d0: 11c0 4b3a b574 473e b6df 60be 1563 d23b
000003e0: 786c 2abd 5e17 a7b9 05e6 c9bc 3d97 873c
000003f0: 4d75 56bd 35b6 abbd e013 9abd c481 843c

layer1.bias f4 [128]
0.23171626 0.120383516 0.41699308 -0.5649865 -0.48283663 0.1316546 -0.064253196 -0.021198515
-0.44264522 -0.43840727 -0.5222554 0.12952498 -0.0120147355 -0.49905634 -0.42222908 0.56846905
0.047857974 0.368896 0.07431264 -0.5820556 -0.6492654 0.53076005 -0.16612758 0.6119599
-0.16691147 -0.03828706 0.29467225 -0.49115774 -0.020980578 0.12119618 -0.28365356 -0.059174716
0.1772852 -0.5041196 -0.017006192 0.13469349 0.49134564 -0.51928765 -0.4336718 -0.08285373
-0.15060776 0.32363427 -0.019947987 0.5248555 -0.40416473 -0.058128387 -0.15141413 0.070727326
0.58051217 0.5109899 -0.081312865 -0.055208676 0.16723938 0.31853536 -0.37430334 -0.11902193
-0.012552232 0.49757072 0.5683224 -0.56975937 0.21158506 -0.052662693 0.14155121 0.5087678
-0.015698401 0.12649597 0.40935072 0.023831554 -0.03790406 -0.07342033 -0.48093092 -0.40474933
-0.070595525 -0.08980884 0.35706195 0.5686596 -0.13369378 -0.048252463 -0.22795412 -0.07397429
-0.6254386 0.14632517 0.6047427 -0.37534046 -0.47938433 -0.056274395 -0.45521075 -0.17413963
-0.004082463 -0.40174234 -0.47560713 0.08388393 -0.20378795 0.38866788 -0.028762655 0.13467933
0.13904724 0.48751375 0.463418 0.14968345 0.5184447 0.4255734 -0.52506304 -0.35812175
-0.051121116 -0.09197638 -0.54364824 -0.10758221 -0.51721567 -0.07049209 0.62481207 -0.006044825
-0.08777316 -0.19504897 0.5212905 -0.42967418 0.1308648 -0.004058812 -0.30714703 -0.3583329
0.3736451 0.5646816 0.008641333 0.09749003 -0.04196929 0.29329997 0.41595852 0.54048014
00000000: 0747 6d3e a28b f63d 1e80 d53e f5a2 10bf
00000010: 5d36 f7be 77d0 063e 2e97 83bd 82a8 adbc
00000020: 65a2 e2be eb76 e0be 88b2 05bf 32a2 043e
00000030: 74d9 44bc 5084 ffbe 692e d8be 3087 113f
00000040: b906 443d f0df bc3e 3a31 983d 9901 15bf
00000050: 4236 26bf e4df 073f 591d 2abe 67a9 1c3f
00000060: d7ea 2abe e4d2 1cbd 48df 963e 0779 fbbe
00000070: 76df abbc b435 f83d 0a3b 91be 3061 72bd
00000080: 408a 353e fb0d 01bf 9250 8bbc 17ed 093e
00000090: a891 fb3e 09f0 04bf 3b0a debe 37af a9bd
000000a0: ec38 1abe 64b3 a53e f669 a3bc ee5c 063f
000000b0: aeee cebe 0818 6ebd 4e0c 1bbe 7dd9 903d
000000c0: 729c 143f 3cd0 023f 5c87 a6bd 7e22 62bd
000000d0: cd40 2b3e 1117 a33e b0a4 bfbe c5c1 f3bd
000000e0: e0a7 4dbc 97c1 fe3e 947d 113f c0db 11bf
000000f0: c1a9 583e d6b4 57bd cdf2 103e 9b3e 023f
00000100: ef99 80bc 2988 013e 6b96 d13e 643a c33c
00000110: 4a41 1bbd 665d 96bd 943c f6be 4e3b cfbe
00000120: 6394 90bd b2ed b7bd d3d0 b63e ad93 113f
00000130: 06e7 08be 60a4 45bd ce6c 69be d57f 97bd
00000140: be1c 20bf 44d6 153e 6bd0 1a3f a02c c0be
00000150: dd71 f5be fb7f 66bd 6211 e9be a951 32be
00000160: 2fc6 85bb 2cb1 cdbe c782 f3be 57cb ab3d
00000170: caad 50be 7aff c63e a99f ebbc 61e9 093e
00000180: 6662 0e3e 679b f93e 2045 ed3e 9e46 193e
00000190: cbb8 043f c2e4 d93e 886a 06bf bc5b b7be
000001a0: 6064 51bd 1d5e bcbd 882c 0bbf 1054 dcbd
000001b0: 3f68 04bf 285e 90bd aff3 1f3f ab13 c6bb
000001c0: 6ac2 b3bd ebba 47be 4b73 053f 41fe dbbe
000001d0: 6c01 063e c8ff 84bb 6042 9dbe 6977 b7be
000001e0: 694e bf3e f98e 103f 6194 0d3c daa8 c73d
000001f0: fde7 2bbd 6a2b 963e 84f8 d43e e85c 0a3f

layer2.weight f4 [128, 128]
-0.010946128 0.12757628 0.01031987 -0.02261456 -0.020500677 0.125556 0.0052171317 -0.007442629
0.0037013392 -0.016297081 -0.025745485 0.10693082 -0.011270576 -0.013796215 -0.010649986 0.10953097
0.011408667 0.016461916 0.010071595 0.0028464324 -0.018349677 0.061147865 -0.006503032 0.14749546
0.00027070421 -0.01715108 0.016378198 -0.006412558 0.018394738 0.11349929 -0.012894677 0.00028059364
0.06480972 -0.0015261444 -0.0025911692 0.079820596 0.024461897 -0.0044730376 0.00150336 0.018278213
0.0075521874 0.005153151 0.011621231 0.152251 0.00833028 0.009192101 0.016674357 0.065494165
0.009696366 0.12459344 0.0060923123 0.006496309 0.019282727 0.009026384 -0.017971436 -0.0025927445
-0.0014452442 0.0063191745 0.10791805 -0.013689834 0.00789667 -0.0055549657 0.09809349 0.05656627
0.0144220125 0.10564264 -0.008353659 0.036822144 -0.0056213513 -0.017660582 -0.0059057074 -0.01692486
0.01664431 0.015982991 0.010371657 0.12304772 -0.01550509 -0.011473772 0.009068699 0.005898418
-0.01883432 0.053511094 0.059293985 -0.004454372 -0.017032595 -0.010001571 -0.0027972152 0.0041739605
-0.0034617267 -0.010049659 -0.021158056 0.04993049 0.001857135 0.01429604 -0.005141554 0.10070132
0.11197955 0.13584773 0.01597583 0.064512596 0.12601513 0.00336353 -0.010479612 0.010934661
0.010777695 -0.0031842415 -0.013697027 0.006993532 -0.008206704 -0.0030921 0.07347622 -0.017243182
-0.008594399 -0.00060651323 0.049137373 0.00068785436 0.1213891 -0.0019739585 -0.013302927 -0.016820332
-0.01164688 -0.0020696206 0.000125015 -0.011806871 0.005169443 -0.0068595246 -0.012586231 0.16181332
0.010707664 0.08437328 0.0017230854 -0.02513593 -0.009639496 0.081476405 0.017508922 0.0031748933
0.011959053 -0.0073424205 -0.02394885 0.10022155 0.009739268 0.010426065 0.0077287895 0.08773927
-0.020994745 0.012624852 0.004952572 0.003333213 -0.026749147 0.0679839 0.005153769 0.15056778
-0.009867422 -0.012756192 -0.012875795 0.001014592 0.0044565774 0.07369634 0.010131506 -0.014237478
0.058238186 -0.027409902 -0.0013373271 0.07088629 0.0149161685 0.0026076778 -0.004627143 0.0037297306
-0.018272122 -0.0162692 -0.0033572454 0.11747087 -0.015084113 0.0028709087 0.01610697 0.036123395
0.025820034 0.10092861 -0.002194224 -0.006596369 0.047684684 -0.015414798 0.0013976677 -0.014400896
-0.016182508 -0.002632671 0.083380185 -0.019688182 -0.022687647 0.0159372 0.08852805 0.066703565
-0.015719308 0.07672223 0.0028874713 0.023365436 -0.013584191 0.008705476 -0.014352739 -0.013297252
-0.008006641 0.010009299 0.0014912209 0.085463434 -0.005762562 -0.008549825 -0.017180009 -0.017728098
-0.0321468 0.044671297 0.05661893 -0.018613316 -0.003669385 0.0026530828 0.009146678 -0.004791009
-0.01288412 0.0012860942 -0.014691017 0.054024365 -0.008969284 -0.008089458 0.012550037 0.07187811
0.08829854 0.047080893 0.0007753341 0.039668344 0.061360996 -0.005373409 -0.013905903 -0.017199924
-0.00096135103 -0.013139163 -0.018242516 -0.009401452 -0.012599985 0.010945941 0.07200328 -0.01242318
-0.0023811972 -0.015227598 0.07183874 -0.013140265 0.070179775 -0.014007974 0.009055239 0.0036703374
-0.0012727263 0.0038658574 0.007904699 0.011405513 -0.00020335095 0.0025531237 0.017137922 0.12009084
00000000: 6357 33bc 5ba3 023e ac14 293c 2b42 b9bc
00000010: 09f1 a7bc c191 003e 79f4 aa3b 4ce1 f3bb
00000020: 2b92 723b 7581 85bc 32e8 d2bc 8cfe da3d
00000030: 39a8 38bc 8509 62bc 477d 2ebc c651 e03d
00000040: 6beb 3a3c 24db 863c 5503 253c 368b 3a3b
00000050: 1052 96bc 2f76 7a3d 6317 d5bb 0d09 173e
00000060: 4eed 8d39 6c80 8cbc 922b 863c 6f20 d2bb
00000070: 90b0 963c 5172 e83d 3244 53bc a41c 9339
00000080: f5ba 843d e908 c8ba 9bd0 29bb fb78 a33d
00000090: 5164 c83c 8f92 92bb 640c c53a 31bc 953c
000000a0: 5778 f73b c4db a83b fa66 3e3c b0e7 1b3e
000000b0: ba7b 083c 779a 163c a998 883c ce21 863d
000000c0: 82dd 1e3c d82a ff3d 05a2 c73b fdde d43b
000000d0: cff6 9d3c 66e3 133c d538 93bc 09eb 29bb
000000e0: 596e bdba 1411 cf3b 2304 dd3d 534b 60bc
000000f0: 0961 013c 6e06 b6bb 3de5 c83d 08b2 673d
00000100: 4e4a 6c3c 2b5b d83d c9dd 08bc d1d2 163d
00000110: 5033 b8bb edac 90bc aa84 c1bb 01a6 8abc
00000120: a659 883c c3ee 823c e2ed 293c 7100 fc3d
00000130: 1009 7ebc 7dfc 3bbc e194 143c 8447 c13b
00000140: 6f4a 9abc 732e 5b3d 40de 723d fbf5 91bb
00000150: f187 8bbc a1dd 23bc 7c51 37bb b8c5 883b
00000160: 23de 62bb 53a7 24bc a953 adbc ea83 4c3d
00000170: 1c6b f33a f039 6a3c 7b7a a8bb 7e3c ce3d
00000180: 8955 e53d ab1b 0b3e bedf 823c 2e1f 843d
00000190: 1c0a 013e ab6e 5c3b aeb2 2bbc 4b27 333c
000001a0: ee94 303c b5ae 50bb 7f69 60bc 002a e53b
000001b0: 6975 06bc d4a4 4abb b37a 963d 9341 8dbc
000001c0: 86cf 0cbc 6afe 1eba 4544 493d 2051 343a
000001d0: d99a f83d 875d 01bb 85f4 59bc cbca 89bc
000001e0: 8ed2 3ebc 79a2 07bb 7516 0339 9b71 41bc
000001f0: 6e64 a93b ddc5 e0bb 7b36 4ebc 64b2 253e
00000200: 336f 2f3c e6cb ac3d 27d9 e13a dee9 cdbc
00000210: faee 1dbc 1add a63d df6e 8f3c df11 503b
00000220: e7ef 433c b098 f0bb 6130 c4bc f540 cd3d
00000230: 7391 1f3c 16d2 2a3c c941 fd3b a5b0 b33d
00000240: 2cfd abbc 78d8 4e3c 2f49 a23b 0972 5a3b
00000250: 0721 dbbc 253b 8b3d f3e0 a83b 712e 1a3e
00000260: f8aa 21bc 59ff 50bc 00f5 52bc 0ffc 843a
00000270: 7b08 923b 1bee 963d 9efe 253c 5044 69bc
00000280: 2a8b 6e3d bb8a e0bc 4049 afba d52c 913d
00000290: f262 743c 93e5 2a3b 4a9f 97bb 7f6e 743b
000002a0: 6baf 95bc fc46 85bc 3b05 5cbb 9194 f03d
000002b0: 5b23 77bc db25 3c3b c4f2 833c 20f6 133d
000002c0: 8984 d33c a9b3 ce3d f8cc 0fbb 5b26 d8bb
000002d0: 0451 433d 598e 7cbc f231 b73a bcf1 6bbc
000002e0: 2e91 84bc e488 2cbb 3bc3 aa3d 1c49 a1bc
000002f0: 72db b9bc bb8e 823c 324e b53d e19b 883d
00000300: c7c5 80bc 8b20 9d3d bb3b 3d3b df68 bf3c
00000310: 3a90 5ebc 6aa1 0e3c c027 6bbc b8dc 59bc
00000320: 492e 03bc 0bfe 233c 1275 c33a 7407 af3d
00000330: e0d3 bcbb 9114 0cbc 17bd 8cbc 843a 91bc
00000340: 5dac 03bd 40f9 363d 40e9 673d f47a 98bc
00000350: 117a 70bb 58df 2d3b f3db 153c e5fd 9cbb
00000360: eb17 53bc 2992 a83a 97b2 70bc a748 5d3d
00000370: e7f3 12bc a589 04bc ac9e 4d3c d534 933d
00000380: ddd5 b43d e5d7 403d ca3f 4b3a 467b 223d
00000390: ab55 7b3d 6c13 b0bb 96d5 63bc dbe6 8cbc
000003a0: 2d03 7cba a545 57bc 5471 95bc 8c08 1abc
000003b0: 2b70 4ebc 9b56 333c 7576 933d 988a 4bbc
000003c0: dc0d 1cbb 2d7d 79bc 3020 933d 444a 57bc
000003d0: 6aba 8f3d b481 65bc 6d5c 143c 0b8a 703b
000003e0: 9cd1 a6ba 535a 7d3b b682 013c 30de 3a3c
000003f0: 9b3a 55b9 4f52 273b d464 8c3c 30f2 f53d

layer2.bias f4 [128]
0.31134215 0.30450433 0.03743457 -0.019212587 -0.016846506 0.3732832 -0.017883245 0.06843937
0.15748237 0.30035228 0.2440785 0.070070274 0.060494427 0.4012035 -0.020332785 -0.011962059
0.011919015 0.007186569 -0.014356488 0.6213885 0.39815113 -0.046586312 0.11099499 -0.0036546001
0.58534425 0.013886579 -0.016203683 -0.0011490677 -0.03307166 0.054153707 -0.0046677776 -0.00049184856
0.6090906 -0.010527317 0.003862483 0.013523902 0.0036712983 -0.17135671 0.010693747 0.0873833
0.0062514585 -0.016534198 0.0056501646 0.017009335 -0.010084822 0.013161311 0.1047489 0.013232584
-0.008744762 -0.007713904 0.013292253 0.5511882 0.014336724 -0.010012188 0.03692039 -0.0070810346
-0.0058822264 -0.024421567 0.010965058 0.022745492 0.015688002 -0.01515522 0.022972787 0.30024642
0.0052963225 -0.01688012 0.12944359 0.24483608 0.0038470028 0.017062347 0.013961142 -0.0027152705
0.0121842045 0.010461933 -0.001440733 -0.009292404 -0.0039965403 -0.0134299025 -0.03267227 -0.014243737
-0.011609552 -0.018011428 -0.025411703 -0.01225646 0.105146095 0.14555553 0.013470358 -0.009485738
0.0021203207 0.015665712 0.07965521 -0.015922377 0.2269491 0.01013145 -0.008463778 0.008834093
0.015234079 -0.018175453 0.0064887647 -0.00042580703 0.29670614 0.0022771815 -0.011232012 -0.018111885
-0.48530185 0.007779144 -0.01719524 0.25657517 -0.010675378 0.00071919814 0.23281033 -0.017760096
0.0024506329 -0.009343832 0.23889436 0.0024781406 0.037974875 -0.012212993 -0.014741149 0.046918806
0.012967199 0.0018668772 -0.0048774974 0.07742685 0.074061394 0.014173112 -0.0019072931 -0.36463743
00000000: 3d68 9f3e fee7 9b3e fe54 193d b763 9dbc
00000010: af01 8abc fa1e bf3e e27f 92bc f129 8c3d
00000020: 0f43 213e c6c7 993e b7ef 793e 0181 8f3d
00000030: 01c9 773d 8c6a cd3e f190 a6bc 83fc 43bc
00000040: f947 433c 4f7d eb3b 7a37 6bbc 5113 1f3f
00000050: 77da cb3e 4ad1 3ebd 5751 e33d 0482 6fbb
00000060: 1fd9 153f 8984 633c 96bd 84bc 509c 96ba
00000070: 2676 07bd 47d0 5d3d 28f4 98bb 66ef 00ba
00000080: 5ded 1b3f c57a 2cbc b621 7d3b 5b93 5d3c
00000090: 2a9a 703b 2278 2fbe d334 2f3c 04f6 b23d
000000a0: 09d9 cc3b ba72 87bc 0425 b93b 2957 8b3c
000000b0: cf3a 25bc 8aa2 573c 9786 d63d 7bcd 583c
000000c0: 3146 0fbc ebc4 fcbb c0c7 593c ab1a 0d3f
000000d0: 94e4 6a3c 290a 24bc d639 173d 0608 e8bb
000000e0: b1bf c0bb bd0f c8bc c9a6 333c c154 ba3c
000000f0: 2084 803c 9a4d 78bc 6d31 bc3c e6b9 993e
00000100: c68c ad3b 2d48 8abc dc8c 043e 4fb6 7a3e
00000110: ff1d 7c3b 56c6 8b3c 46bd 643c aef2 31bb
00000120: 42a0 473c 8768 2b3c fad6 bcba 2b3f 18bc
00000130: 69f5 82bb 1809 5cbc 5cd3 05bd 905e 69bc
00000140: fe35 3ebc b48c 93bc 342c d0bc 52cf 48bc
00000150: d656 d73d 820c 153e c7b2 5c3c 126a 1bbc
00000160: 14f5 0a3b 6155 803c 4522 a33d a56f 82bc
00000170: 5865 683e 62fe 253c a8ab 0abc dfbc 103c
00000180: 5c98 793c b0e4 94bc b49f d43b da3e dfb9
00000190: dee9 973e c43c 153b 7906 38bc 605f 94bc
000001a0: 7c79 f8be 31e8 fe3b 08dd 8cbc d25d 833e
000001b0: c8e7 2ebc 9288 3c3a d565 6e3e 9f7d 91bc
000001c0: cc9a 203b df16 19bc b9a0 743e 4d68 223b
000001d0: 8b8b 1b3d 0119 48bc dc84 71bc ef2d 403d
000001e0: 6074 543c 01b2 f43a 6ad3 9fbb f891 9e3d
000001f0: 80ad 973d 5736 683c 23fe f9ba c2b1 babe

layer3.weight f4 [2, 128]
0.0063774395 0.0025961648 0.02019596 0.018496882 0.0010403018 0.008836252 7.399212e-05 0.016885905
0.0033438583 0.0056769177 0.00067476055 0.004792365 -0.03281651 0.009283967 -0.003955854 -0.0006577157
0.0026858211 0.011288433 -0.014319568 0.0071075526 0.007478003 3.2996035e-05 0.0033359244 -0.0026500402
0.00012482662 0.03108504 -0.015834145 -0.009738804 -0.0006057488 0.00053711847 0.0164792 0.0043062647
-0.00041547345 -0.012745712 0.001983675 -0.0050769364 -0.017103937 -0.0011374074 0.0016859566 0.004694087
0.09263174 -0.011130139 0.009912064 0.0122329295 0.018417493 -0.006331305 0.019450432 -0.004448363
-0.010981559 -0.0033947749 0.024226349 -0.00023710013 -0.0033731249 -0.0022773151 0.0042879004 0.015323985
0.0091452915 0.0017404332 -0.009177102 -0.0004898168 -7.922665e-05 -0.0089494 0.009065129 0.0046293107
-0.013981079 -0.012045444 0.0033489575 0.0029606244 0.005039192 0.010013161 -0.014346846 0.013137606
-0.015336147 -0.0057981783 0.00089316483 6.0847365e-06 0.013120606 0.0029198711 0.0010815754 0.007622291
-0.0052659074 -0.006840359 0.006735179 -0.011962659 -0.0008068069 0.036985833 -0.0017534741 0.0017413289
0.016952904 0.010216662 0.003945019 -0.0047477987 0.0026542267 -0.014609797 -0.013400284 0.013761835
-0.0074513997 -0.012143857 -0.01438374 -0.004376493 0.033597652 0.0001313456 0.015333919 0.017318197
-0.0115825385 -0.012348397 0.009320634 0.026170759 -0.010686471 -0.012351124 0.030616714 0.0024056537
-0.018735064 -0.007840668 0.0060302243 -0.0009545883 0.00065250014 0.0018268502 -0.014881836 0.005189157
0.0013381123 0.010213868 -0.0037924408 -0.0023661763 0.004384592 0.013192749 0.0069993935 -0.0019449501
0.0064112223 0.0028461032 0.015857697 0.011243253 -0.018609695 0.008784337 -0.00022493945 0.016654463
0.0033620293 0.0058299364 0.00037604032 0.006174633 -0.017074578 0.007900701 0.010861626 -0.009902243
0.0021019953 -0.017374573 0.0049310164 0.0069732866 0.00801478 6.7867346e-05 0.0031461248 -0.0073136725
-0.00084509025 0.029827965 0.0103281615 0.0007648508 -0.00041661263 0.00028241708 0.019616276 -0.009609283
-0.00047710413 0.018844528 0.010195638 0.0016916951 -0.0077570076 -0.0010475294 0.0010380935 0.0041412697
0.04857256 -0.01100711 -0.015993388 0.002859234 -0.0150685785 0.019077267 0.017495813 -0.003317285
-0.012949877 0.0052187843 0.020141214 -0.00020313522 -0.008064992 -0.00090707716 0.001352274 0.0151940705
0.0024965855 -0.0010003719 -0.014646926 0.00988945 0.008205469 -0.013237861 0.016666643 0.0044868533
-0.01739938 0.0012187472 0.003066159 0.0029220895 -0.003043883 0.0009315494 -0.006015429 -0.015392733
-0.017210327 0.015882049 -0.0014393824 0.00014833274 0.010913441 0.0053472007 0.001137301 0.018996073
0.0032698999 0.0043898895 0.017647674 -0.015873117 -0.00052556855 0.037192035 0.015545858 0.007686414
0.005583378 -0.004424712 0.004318221 0.002075507 0.0027183623 -0.009885486 0.0061966386 0.007985785
0.008566249 -0.016368201 -0.015091509 -0.0066925054 0.036459345 0.0058654533 0.000466729 0.010414136
-0.010188324 0.014003821 0.006489038 0.024362208 0.0040707006 0.017256338 0.029008962 -0.004578211
0.0022337136 0.011907772 0.0064864918 -0.007971158 0.00010871439 -0.00981243 0.0050290874 0.002869034
0.000988534 -0.018731141 0.011035169 0.006576729 -0.005121469 -0.015207845 0.0023220307 -0.0025019243
00000000: d7f9 d03b 6b24 2a3b ff71 a53c c686 973c
00000010: bc5a 883a edc5 103c 382c 9b38 4f54 8a3c
00000020: a224 5b3b 7005 ba3b 6ae2 303a 4509 9d3b
00000030: 9b6a 06bd c81b 183c 1ca0 81bb 8e6a 2cba
00000040: 9a04 303b 1ff3 383c 9f9c 6abc 79e6 e83b
00000050: 090a f53b 3965 0a38 869f 5a3b 4cac 2dbb
00000060: e4e3 0239 0ea6 fe3c 9cb6 81bc 818f 1fbc
00000070: 1dcb 1eba 69cd 0c3a 63ff 863c 911b 8d3b
00000080: e7d3 d9b9 64d3 50bc 8b00 023b 6e5c a6bb
00000090: 8e1d 8cbc 0f15 95ba 51fb dc3a dbd0 993b
000000a0: b6b5 bd3d 305b 36bc 3666 223c a06c 483c
000000b0: 48e0 963c d676 cfbb 8356 9f3c 93c3 91bb
000000c0: ffeb 33bc df7a 5ebb 5676 c63c 159e 78b9
000000d0: a50f 5dbb 023f 15bb 8481 8c3b 7411 7b3c
000000e0: 22d6 153c 3f1f e43a 8e5b 16bc 0d67 00ba
000000f0: 7c26 a6b8 81a0 12bc e885 143c 79b1 973b
00000100: e510 65bc 415a 45bc 2f7a 5b3b 0907 423b
00000110: ce1f a53b 3e0e 243c 090f 6bbc 1d3f 573c
00000120: 7644 7bbc a5fe bdbb 4723 6a3a 7d2b cc36
00000130: cff7 563c 4f5b 3f3b a6c3 8d3a 69c4 f93b
00000140: a28d acbb 1725 e0bb c7b2 dc3b 07ff 43bc
00000150: e57f 53ba 757e 173d d4d4 e5ba 4d3d e43a
00000160: d1e0 8a3c c963 273c 3845 813b 6c93 9bbb
00000170: 89f2 2d3b ee5d 6fbc dd8c 5bbc 5279 613c
00000180: df2a f4bb 07f7 46bc c7a9 6bbc af68 8fbb
00000190: b19d 093d d1b9 0939 1e3b 7b3c e4de 8d3c
000001a0: b0c4 3dbc ee50 4abc 93b5 183c 0f64 d63c
000001b0: 4f16 2fbc 5e5c 4abc e7cf fa3c 2ca8 1d3b
000001c0: 477a 99bc 2576 00bc 3099 c53b 563d 7aba
000001d0: 8b0c 2b3a ec72 ef3a f2d2 73bc ce09 aa3b
000001e0: 9963 af3a 1158 273c 998a 78bb da11 1bbb
000001f0: a0ac 8f3b 6626 583c 2b5b e53b b2ed feba
00000200: 3b15 d23b b085 3a3b 00e8 813c 9f35 383c
00000210: 5c73 98bc 2eec 0f3c b9dd 6bb9 f16e 883c
00000220: 7e55 5c3b 0d09 bf3b 4727 c539 9354 ca3b
00000230: fcdf 8bbc f171 013c f6f4 313c 043d 22bc
00000240: a1c1 093b 1f55 8ebc 5d94 a13b 2b80 e43b
00000250: 6c50 033c 0154 8e38 372f 4e3b 88a7 efbb
00000260: 0c89 5dba c759 f43c 7337 293c 4580 483a
00000270: cd6c dab9 6111 9439 50b2 a03c 4170 1dbc
00000280: d523 fab9 d75f 9a3c 9b0b 273c debb dd3a
00000290: 7f2e febb 414d 89ba a310 883a 7db3 873b
000002a0: 05f4 463d 2a57 34bc 9104 83bc fd61 3b3b
000002b0: 33e2 76bc ee47 9c3c 6153 8f3c cf66 59bb
000002c0: b92b 54bc 5602 ab3b 30ff a43c b200 55b9
000002d0: 0723 04bc ebc8 6dba c93e b13a 8df0 783c
000002e0: c19d 233b e91e 83ba a9f9 6fbc 5c07 223c
000002f0: 3b70 063c 9de3 58bc 7c88 883c 7406 933b
00000300: 2589 8ebc 5fbe 9f3a 9df1 483b 8780 3f3b
00000310: e27b 47bb 3933 743a 131d c5bb cd31 7cbc
00000320: acfc 8cbc 121b 823c a9a9 bcba c489 1b39
00000330: 4ace 323c 9237 af3b 7d11 953a a79d 9b3c
00000340: d14b 563b 10d9 8f3b db91 903c 5708 82bc
00000350: 4fc6 09ba ad56 183d 0eb4 7e3c 50de fb3b
00000360: c5f4 b63b 2dfd 90bb dd7f 8d3b 3b05 083b
00000370: 8d26 323b bcf6 21bc 2c0d cb3b cfd6 023c
00000380: 7459 0c3c 9b16 86bc 6042 77bc ce4c dbbb
00000390: 6556 153d fd32 c03b 4eb3 f439 0da0 2a3c
000003a0: eeec 26bc 4870 653c ffa1 d43b 4193 c73c
000003b0: 8363 853b 2a5d 8d3c 34a4 ed3c d104 96bb
000003c0: 7f63 123b d118 433c a38c d43b 7699 02bc
000003d0: 98fd e338 50c4 20bc 0bcb a43b 6706 3c3b
000003e0: b291 813a 0d72 99bc dacc 343c 9a81 d73b
000003f0: ffd1 a7bb 532a 79bc 362d 183b 53f7 23bb

layer3.bias f4 [2]
1.0463506 1.0199881
00000000: d1ee 853f f88e 823f
