masscart_cartpole_v1_best_model_DSP_Random.pth (torch, 73254 bytes, 6 tensors)

layer1.weight f4 [128, 5]
-0.091397636 0.18990621 -0.02009829 -0.098193586 -0.09913846 -0.24719712 -0.100937895 0.11476212
0.208316 -0.23653744 -0.101901785 -0.006272553 0.06580294 -0.07333844 -0.20827 -0.060514573
-0.12070498 0.35056677 0.17603938 0.0064317104 -0.09884549 0.019789241 0.0047956896 0.013147115
0.10262446 -0.064566195 -0.2857271 0.22511089 0.2827624 0.060264293 0.19036472 0.03477742
-0.009648686 0.15313227 0.16960952 -0.16362934 -0.12560312 0.04499062 -0.17459479 -0.070882104
0.0784094 0.15118025 0.06260754 -0.089978755 -0.114306524 0.12741672 -0.34639615 0.061129376
0.16368778 0.006290188 -0.18475999 0.30214247 0.23915401 0.23223038 0.10751957 0.09581341
-0.13600093 0.17401049 0.22847134 -0.11981566 -0.09442063 -0.09257254 -0.12483167 0.113699645
-0.18165733 -0.023753209 0.08188821 0.006482451 -0.09443513 -0.10865913 0.114796795 -0.018286249
-0.07906196 0.036889505 0.2259582 0.20036195 0.18634099 -0.299732 -0.1170388 -0.13840808
0.055298235 0.22023366 -0.045990806 0.13177262 0.17421299 0.089812696 0.27961364 0.1186312
0.027496608 0.032816235 -0.17148231 -0.08144324 -0.0026640191 0.061954103 0.022545503 0.17071682
-0.03198732 -0.09454152 -0.0834668 0.08781538 0.03530239 -0.09300649 0.05669086 0.1898836
-0.16047023 0.21007736 -0.0062528607 0.09393087 -0.29280627 0.027431186 0.14397219 -0.07500054
0.45671868 0.40978986 0.16073418 0.050014175 -0.09238437 -0.048856366 0.1728758 -0.06039205
0.050231997 0.31558987 -0.13461685 -0.2773626 0.11558386 0.040954817 0.11338923 0.2691806
0.037406504 -0.00016255194 0.14375234 -0.14661989 -0.20434473 -0.062670186 -0.113422245 0.17212737
0.12476709 -0.18570493 -0.061494075 -0.10409525 0.017830433 -0.016268369 0.27488077 0.16771191
0.13070118 0.027755009 0.034279134 0.19838032 -0.19508678 -0.17372772 0.17763597 0.17144713
-0.27965167 -0.11915451 0.15716313 0.28536823 -0.27652252 0.08240591 -0.14860182 -0.00062603987
-0.13372962 0.23406103 -0.1138452 -0.22780222 0.03894844 0.17919739 0.26419166 0.091747716
0.15893619 -0.17969924 0.0074669695 0.21148247 -0.12698303 -0.08802348 0.15208086 0.07360508
-0.2224971 0.024285797 -0.005507178 0.14267363 0.13434389 -0.016196832 0.0001845338 -0.08591541
-0.105200365 0.024194242 -0.19305092 -0.08668594 0.07499755 -0.097099006 0.24086611 -0.10024074
0.14867379 -0.017818158 -0.00015434556 0.101437956 0.16475943 0.0074993423 -0.07159629 0.18494515
-0.00070382986 0.14011203 0.1976102 0.18936287 0.19860283 -0.116726115 -0.041290883 -0.15293409
-0.044832215 -0.00018364777 0.2736185 0.08786908 0.12165687 0.16032737 0.07345745 -0.0410467
0.3628839 -0.38063946 -0.30873075 -0.0015107366 -0.03814491 0.15726636 -0.27078697 0.0684326
0.00056718034 0.22882189 0.24314964 -0.25142118 0.0960658 -0.016322562 -0.10904123 -0.17586626
-0.06959781 0.27144185 0.12992802 0.09442171 0.054301593 0.17107163 0.05879958 -3.8089474e-05
0.19756882 0.046262387 -0.55534863 -0.485177 0.037958663 0.247175 -0.109512664 0.21178758
-0.04806903 -0.25813898 0.14449711 0.041372575 -0.08077351 -0.03622167 0.13160613 0.23895006
00000000: af2e bbbd c676 423e 2ba5 a4bc b819 c9bd
00000010: 1b09 cbbd 3e21 7dbe 87b8 cebd 6708 eb3d
00000020: ca50 553e df36 72be e2b1 d0bd fd89 cdbb
00000030: b1c3 863d 7732 96bd bb44 55be 21de 77bd
00000040: 2c34 f7bd 7d7d b33e ab43 343e 19c1 d23b
00000050: 816f cabd 0c1d a23c 2925 9d3b ff66 573c
00000060: c62c d23d 483b 84bd d34a 92be 7883 663e
00000070: 3cc6 903e b1d7 763d f8ee 423e c572 0e3d
00000080: 8615 1ebc b5ce 1c3e 1eae 2d3e 738e 27be
00000090: 1b9e 00be 1648 383d fac8 32be a32a 91bd
000000a0: 1c95 a03d ffce 1a3e 6238 803d c846 b8bd
000000b0: 8a19 eabd 8779 023e d65a b1be cc62 7a3d
000000c0: c59d 273e ec1d ce3b b931 3dbe 6bb2 9a3e
000000d0: cae4 743e cdcd 6d3e 3833 dc3d d239 c43d
000000e0: d443 0bbe ce2f 323e 64f4 693e ea61 f5bd
000000f0: 9a5f c1bd ac96 bdbd bfa7 ffbd 5cdb e83d
00000100: 6104 3abe 1796 c2bc 01b5 a73d be6a d43b
00000110: 3567 c1bd ae88 debd 951a eb3d 0bcd 95bc
00000120: 3deb a1bd 7319 173d 9661 673e af2b 4d3e
00000130: 2cd0 3e3e 7976 99be 0ab2 efbd d9ba 0dbe
00000140: 6780 623d ef84 613e db60 3cbd 67ef 063e
00000150: e464 323e b8ef b73d 8529 8f3e eaf4 f23d
00000160: 9140 e13c 516a 063d 0f99 2fbe b7cb a6bd
00000170: d396 2ebb 96c3 7d3d 59b1 b83c 64d0 2e3e
00000180: 2305 03bd fc9e c1bd a4f0 aabd 8dd8 b33d
00000190: 3d99 103d 307a bebd ad34 683d d970 423e
000001a0: 4f52 24be 851e 573e cce4 ccbb d45e c03d
000001b0: b4ea 95be 5eb7 e03c 726d 133e e299 99bd
000001c0: 08d7 e93e facf d13e 8097 243e aadb 4c3d
000001d0: 0434 bdbd 9d1d 48bd 5b06 313e a75d 77bd
000001e0: 11c0 4d3d ff94 a13e 00d9 09be 7902 8ebe
000001f0: 3bb7 ec3d 3dc0 273d 9d38 e83d 0ad2 893e
00000200: 9037 193d b472 2ab9 d033 133e 8623 16be
00000210: bf3f 51be 3a59 80bd ec49 e8bd 2842 303e
00000220: e385 ff3d 6f29 3ebe 36e1 7bbd e42f d5bd
00000230: 2111 923c 3e45 85bc 2cbd 8c3e acbc 2b3e
00000240: 88d6 053e 795e e33c 4768 0c3d 3624 4b3e
00000250: d4c4 47be aee5 31be 34e6 353e d68f 2f3e
00000260: 812e 8fbe 4807 f4bd 5fef 203e c91b 923e
00000270: 5c94 8dbe 6ec4 a83d 132b 18be d31c 24ba
00000280: 6bf0 08be b2ad 6f3e ac27 e9bd fc44 69be
00000290: 6688 1f3d 857f 373e 2144 873e 3ae6 bb3d
000002a0: 2bc0 223e 1403 38be 7bad f43b dc8e 583e
000002b0: d707 02be a745 b4bd 16bb 1b3e 43be 963d
000002c0: 48d6 63be 02f3 c63c 8f75 b4bb 0919 123e
000002d0: 7291 093e 38af 84bc 6a7f 4139 6bf4 afbd
000002e0: 4a73 d7bd 0133 c63c 24af 45be 6688 b1bd
000002f0: 5198 993d d8db c6bd 9ba5 763e 044b cdbd
00000300: f13d 183e 63f7 91bc d2d7 21b9 b4be cf3d
00000310: b2b6 283e 0bbd f53b 13a1 92bd 4362 3d3e
00000320: 3981 38ba 8779 0f3e 545a 4a3e 57e8 413e
00000330: 8a5e 4b3e 1a0e efbd a120 29bd c19a 1cbe
00000340: fca1 37bd 9391 40b9 b917 8c3e b4f4 b33d
00000350: 3d27 f93d dc2c 243e dc70 963d 9620 28bd
00000360: ebcb b93e 2de3 c2be f511 9ebe e903 c6ba
00000370: d63d 1cbd 6f0a 213e 97a4 8abe 6426 8c3d
00000380: d4ae 143a 4950 6a3e 38fc 783e 47ba 80be
00000390: 25be c43d e5b6 85bc 0251 dfbd 4916 34be
000003a0: 4c89 8ebd 6dfa 8a3e da0b 053e 2b60 c13d
000003b0: 596b 5e3d 672d 2f3e d4d7 703d 43c2 1fb8
000003c0: 7b4f 4a3e a17d 3d3d 542b 0ebf 1f69 f8be
000003d0: 8b7a 1b3d 711b 7d3e 2d48 e0bd d8de 583e
000003e0: 08e4 44bd cb2a 84be 0df7 133e 4a76 293d
000003f0: 956c a5bd 2d5d 14bd c2c3 063e 53af 743e

layer1.bias f4 [128]
0.15056245 -0.2168881 -0.19262029 0.46639043 0.10882232 0.26495895 0.3571009 0.15915278
0.23481476 0.55128163 -0.20545273 -0.038066592 0.22589761 0.25515845 -0.30123615 0.1745039
0.5153604 0.34268066 0.20441969 -0.28748444 0.17829463 -0.39242312 0.17774731 -0.004749539
0.20025931 -0.057452444 -0.04639466 0.18457869 0.4642148 0.13220476 -0.0127366 0.4560799
-0.09856933 -0.05248217 -0.29935583 -0.068978675 0.28989294 0.22451518 0.41400436 -0.47220293
0.083811045 -0.11526747 0.06806129 -0.082753204 -0.029133795 -0.1642642 -0.1285768 0.0027208289
-0.2599254 -0.14463347 0.093627535 0.21673109 -0.4605988 -0.09716202 -0.37579808 0.16217312
0.27749676 0.6083724 -0.062048987 0.18120204 0.5640057 0.3017559 -0.15413007 0.101509996
0.44233328 0.15189286 -0.24436921 0.3793345 0.2716804 -0.31567097 -0.19617915 -0.18919834
0.37350392 0.28136078 -0.013434832 0.15806152 -0.10741622 -0.3903303 -0.23232749 -0.19845474
0.15296406 -0.09655878 -0.544337 -0.21082164 -0.11267952 0.033424035 0.22673987 0.4275227
0.24129392 0.4431668 -0.17717645 0.43604952 0.22344938 0.019352825 0.32242337 0.31513318
-0.12502949 -0.15518865 0.36489978 0.11545659 -0.25374842 -0.07332644 0.43835875 0.4583136
0.06743175 0.1756237 0.39583415 0.36377773 0.3619735 0.2270588 0.24474694 0.20026137
-0.33500713 -0.19732496 -0.42261538 0.47680008 -0.18802975 -0.15672283 0.043955687 0.27696148
-0.18845531 0.45533875 0.38223922 -0.18359625 -0.0546967 -0.028380638 -0.10135914 -0.14320286
00000000: 0b2d 1a3e ea17 5ebe 413e 45be baca ee3e
00000010: 3dde de3d b3a8 873e eed5 b63e f2f8 223e
00000020: 4873 703e cb20 0d3f 3362 52be b7eb 1bbd
00000030: b451 673e 21a4 823e a03b 9abe 26b1 323e
00000040: a9ee 033f d773 af3e 6553 513e 2931 93be
00000050: de92 363e afeb c8be 6403 363e 05a2 9bbb
00000060: c710 4d3e 4153 6bbd 5408 3ebd 3202 3d3e
00000070: 90ad ed3e af60 073e 2cad 50bc 4e83 e93e
00000080: b8de c9bd 8bf7 56bd 2b45 99be b144 8dbd
00000090: d96c 943e 4fe7 653e 61f8 d33e 95c4 f1be
000000a0: 20a5 ab3d 5a11 ecbd b863 8b3d 837a a9bd
000000b0: ffa9 eebc e034 28be a3a9 03be ef4f 323b
000000c0: f114 85be cc1a 14be cbbf bf3d c1ee 5d3e
000000d0: 9bd3 ebbe e2fc c6bd 9b68 c0be b610 263e
000000e0: 0e14 8e3e 4bbe 1b3f 1427 7ebd 078d 393e
000000f0: ad62 103f c07f 9a3e 46d4 1dbe 79e4 cf3d
00000100: 8279 e23e cd89 1b3e ec3b 7abe 2238 c23e
00000110: b219 8b3e a09f a1be 30e3 48be 36bd 41be
00000120: e83b bf3e 850e 903e c51d 5cbc e1da 213e
00000130: 09fd dbbd 60d9 c7be 42e7 6dbe b837 4bbe
00000140: 9ca2 1c3e 9cc0 c5bd ab59 0bbf a1e1 57be
00000150: 85c4 e6bd a4e7 083d 7f2e 683e 41e4 da3e
00000160: c115 773e c2e6 e23e be6d 35be e241 df3e
00000170: eacf 643e d189 9e3c ad14 a53e 2359 a13e
00000180: bb07 00be c6e9 1ebe 25d4 ba3e 8174 ec3d
00000190: 50eb 81be 2c2c 96bd 8f70 e03e 15a8 ea3e
000001a0: a819 8a3d b3d6 333e c6aa ca3e 1341 ba3e
000001b0: 9754 b93e 1a82 683e f19e 7a3e 5111 4d3e
000001c0: 0e86 abbe 8e0f 4abe 0b61 d8be 241f f43e
000001d0: df8a 40be f37b 20be e10a 343d e5cd 8d3e
000001e0: 6efa 40be 2922 e93e dcb4 c33e a800 3cbe
000001f0: a609 60bd 837e e8bc 6195 cfbd c5a3 12be

layer2.weight f4 [128, 128]
-0.042038403 -0.012708808 -0.039117817 0.0021609734 -0.021656742 -0.043854825 0.038399503 -0.04926955
-0.044025373 -0.011651559 -0.0024493434 0.031465456 -0.047084674 -0.020012055 0.010630169 0.028371045
0.0014824041 -0.046617597 0.012123451 -0.012435244 0.011544141 -0.03603653 0.015655173 0.016479256
-0.020147603 -0.009939303 -0.03705736 0.006376039 -0.04594637 -0.035359737 -0.010336707 -0.024362663
0.050902735 0.021075968 -0.0013051109 -0.047465626 0.010580789 -0.04119365 0.0025784727 -0.031740885
-0.04214163 0.008216026 -0.019731184 -0.015117964 -0.045361683 -0.0015612342 0.00063677784 -0.042355716
0.049269293 -0.017144853 0.038271196 -0.026530959 -0.023722488 0.015588997 0.041051485 0.04803188
-0.019913208 -0.03399201 0.010765521 0.031616293 0.02168525 -0.027074229 -0.045322858 -0.03954577
0.0029207817 0.05020395 0.014496704 -0.008222411 0.00827996 -0.009779618 -0.0032788299 -0.033588834
0.027052848 -0.03768336 -0.03791204 -0.044409722 0.046552204 0.0006454641 -0.032369323 -0.02657416
-0.020181503 0.042401984 -0.035253253 0.03122595 0.027649114 0.020037267 -0.04524977 -0.0021806913
0.009725084 0.004361246 0.041801803 0.00514868 0.022909261 -0.0014115945 -0.03777574 0.03991535
-0.017104805 -0.0064210827 -0.018587409 -0.0139633445 -0.004415168 -0.03667274 0.017626515 0.0011161816
-0.02605944 -0.022089835 -0.021234239 0.01101938 0.046131425 -0.024651386 -0.0050614527 0.015141717
0.004098533 -0.004051029 -0.045906935 0.0053727357 0.0060658734 0.005780841 -9.442162e-05 0.013717227
0.006192954 -0.018888487 -0.018289523 -0.019409131 -0.013122023 -0.011001613 0.017239487 -0.04841159
-0.017843492 -0.022461455 -0.048885617 -0.02245704 -0.0063265725 0.0351207 0.04297278 0.015287379
-0.08248188 -0.01652932 0.015864072 -0.008098834 0.021734571 -0.014209231 0.00010798435 -0.001913425
-0.015178068 0.0033533133 0.04478976 0.033870082 0.038190294 0.018005611 -0.035626017 0.024320869
0.0018175556 -0.0056059775 0.038781777 -0.00123153 0.051038742 0.098490976 0.035093375 0.06188661
-0.022672523 0.006822597 -0.036505934 0.019738622 -0.04496698 0.009154557 0.007861542 0.012970741
-0.013450713 -0.030633975 -0.03455284 0.01957602 -0.0266872 -0.017389446 0.0016626058 -0.033140596
-0.016144164 0.0056073596 -0.029870959 -0.0042451597 -0.025743326 -0.012268707 -0.06794471 0.0125327185
-0.0010009569 0.008425861 -0.030737754 -0.047730263 -0.027714629 -0.029400295 0.043379474 0.031412628
0.005939189 -0.01983409 -0.041788124 0.03037096 -0.020025384 -0.06997516 -0.04223816 0.045065474
0.020685561 0.008724935 -0.016046267 0.068053804 -0.0338984 -0.028811017 -0.02414229 0.008393777
0.018361488 0.03891587 -0.010054351 -0.042087294 -0.016402021 0.1339947 0.0054187053 -0.019461796
-0.011766376 0.06450141 0.027074344 0.05654331 -0.0015168369 -0.0288106 -0.012648481 -0.002955179
0.014760398 -0.0013095028 0.08331583 -0.01125551 -0.033460446 -0.0055518975 0.0326134 0.0495095
-0.037188657 0.021427572 0.0021982498 0.014832219 0.030874826 0.03865061 -0.009987787 0.028064843
-0.030357718 0.037938926 -0.00068794086 0.017689783 0.0034403808 -0.0032050607 0.006508442 0.06842704
-0.030281125 -0.011006168 0.038392745 0.0118381865 0.07139864 0.011911178 -0.007940204 0.03405135
00000000: 7630 2cbd 9b38 50bc 013a 20bd 1e9f 0d3b
00000010: 7b69 b1bc 1ea1 33bd cc48 1d3d dece 49bd
00000020: f353 34bd 2ee6 3ebc 2a85 20bb ece1 003d
00000030: dcdb 40bd 52f0 a3bc 292a 2e3c 656a e83c
00000040: 3a4d c23a 18f2 3ebd 70a1 463c 32bd 4bbc
00000050: a323 3d3c 0a9b 13bd 473f 803c 81ff 863c
00000060: 960c a5bc 75d8 22bc 75c9 17bd 17ee d03b
00000070: 4332 3cbd 5fd5 10bd 4b5b 29bc 3594 c7bc
00000080: 637f 503d 82a7 ac3c 4110 abba 516b 42bd
00000090: 0c5b 2d3c acba 28bd 98fb 283b bb02 02bd
000000a0: b49c 2cbd 839c 063c 4ba3 a1bc 56b1 77bc
000000b0: 2ccd 39bd 54a2 ccba 70ed 263a 307d 2dbd
000000c0: 99ce 493d 5d73 8cbc 42c2 1c3d 7457 d9bc
000000d0: aa55 c2bc fe68 7f3c 9a25 283d 14bd 443d
000000e0: 0621 a3bc 353b 0bbd de61 303c 1680 013d
000000f0: 44a5 b13c c6ca ddbc 76a4 39bd bffa 21bd
00000100: 966a 3f3b a8a2 4d3d 9583 6d3c 4bb7 06bc
00000110: aba8 073c b13a 20bc a3e1 56bb 7294 09bd
00000120: ef9d dd3c de59 1abd a849 1bbd f8e6 35bd
00000130: 86ad 3e3d 5d34 293a b295 04bd 0eb2 d9bc
00000140: ae53 a5bc b4ad 2d3d b765 10bd 90cd ff3c
00000150: 6580 e23c 3225 a43c d357 39bd eee9 0ebb
00000160: f555 1f3c c8e8 8e3b 5e38 2b3d 42b6 a83b
00000170: 34ac bb3c 4005 b9ba bcba 1abd 477e 233d
00000180: 601f 8cbc f267 d2bb 9f44 98bc 83c6 64bc
00000190: 1dad 90bb 2836 16bd 7b65 903c d74c 923a
000001a0: 9b7a d5bc bef5 b4bc 6df3 adbc a18a 343c
000001b0: 4ef4 3c3d b4f1 c9bc 8bda a5bb f714 783c
000001c0: fd4c 863b 7fbe 84bb e908 3cbd c60d b03b
000001d0: 3cc4 c63b 366d bd3b 3904 c6b8 38be 603c
000001e0: 43ee ca3b 07bc 9abc e9d3 95bc e6ff 9ebc
000001f0: c1fd 56bc 1c40 34bc d339 8d3c 3b4b 46bd
00000200: 842c 92bc 1601 b8bc 493c 48bd d4f7 b7bc
00000210: 234f cfbb b9da 0f3d 3a04 303d ea77 7a3c
00000220: 43ec a8bd 7f68 87bc 5ff5 813c f9b0 04bc
00000230: b30c b23c d6cd 68bc a875 e238 e4cb faba
00000240: 6ead 78bc 43c3 5b3b 7875 373d 5bbb 0a3d
00000250: 6d6d 1c3d 8180 933c 96ec 11bd 8f3c c73c
00000260: 0c3b ee3a 59b2 b7bb a4d9 1e3d 4a6b a1ba
00000270: 000e 513d a3b5 c93d 12be 0f3d d07c 7d3d
00000280: babb b9bc 1790 df3b 3f87 15bd e4b2 a13c
00000290: 4c2f 38bd fffc 153c b2cd 003c 3b83 543c
000002a0: 6160 5cbc 1af4 fabc 4787 0dbd e45d a03c
000002b0: 1d9f dabc 5074 8ebc cbeb d93a 6fbe 07bd
000002c0: c440 84bc f1bd b73b f1b3 f4bc fb1a 8bbb
000002d0: abe3 d2bc b002 49bc 9926 8bbd 0856 4d3c
000002e0: 8a32 83ba 9f0c 0a3c becd fbbc cf80 43bd
000002f0: ca09 e3bc e3d8 f0bc adae 313d 87aa 003d
00000300: 879d c23b 1a7b a2bc 062a 2bbd 85cc f83c
00000310: 460c a4bc 234f 8fbd ec01 2dbd 9396 383d
00000320: c474 a93c 08f3 0e3c 7673 83bc cb5f 8b3d
00000330: 0cd9 0abd 1505 ecbc 0dc6 c5bc 0d86 093c
00000340: d56a 963c 3f66 1f3d 01bb 24bc ba63 2cbd
00000350: 885d 86bc e835 093e 658f b13b 586e 9fbc
00000360: c2c7 40bc 5119 843d 04cb dd3c f599 673d
00000370: 9ad0 c6ba 3504 ecbc 933b 4fbc adab 41bb
00000380: 99d5 713c 9fa3 abba 7da1 aa3d 0869 38bc
00000390: d20d 09bd b1ec b5bb a195 053d 79ca 4a3d
000003a0: 2253 18bd e088 af3c 8310 103b d602 733c
000003b0: 34ed fc3c 1a50 1e3d d1a3 23bc 3ee8 e53c
000003c0: c0b0 f8bc d965 1b3d ee56 34ba 2aea 903c
000003d0: 0378 613b ff0b 52bb c544 d53b 7a23 8c3d
000003e0: 1f10 f8bc 3753 34bc b641 1d3d f4f4 413c
000003f0: 7339 923d 1a27 433c a117 02bc 6e79 0b3d

layer2.bias f4 [128]
0.0115542505 -0.02214605 0.018365351 0.0068835104 -0.10517179 0.016668465 -0.029058395 0.047932286
-0.23774156 0.001543091 -0.01909864 0.0074935593 0.23257574 0.06329957 0.06288399 -0.002945859
0.0038699133 0.12840049 -0.35474464 -0.020417636 0.17472382 -0.02390397 0.19144252 0.10190228
-0.27591118 0.005656841 0.19630052 -0.12602194 -0.044143047 0.111429766 0.14415938 0.014439141
0.2984901 -0.052077185 0.12589298 0.012511018 0.090612516 0.18821873 -0.022537466 -0.17867751
-0.041058037 -0.12629467 0.13186419 0.39679536 0.035446115 -0.004732853 0.087156 -0.1686823
0.22858016 -0.042049143 0.019476835 0.20735107 0.13808031 -0.032711744 0.19979733 -0.018758353
0.063819766 0.07478372 0.0019612527 -0.16864406 0.06387417 0.14726529 -0.05630693 0.24387299
0.033698563 0.28265792 0.2956859 0.24941121 -0.014068994 0.0474537 -0.25713152 -0.046576295
-0.025473729 -0.032880705 -0.36040083 -0.026637549 0.21559893 -0.012236665 -0.03127853 -0.04565069
0.21638203 -0.045461737 -0.11293728 0.01184426 -0.18469922 0.07726701 0.2360231 0.21808468
0.2572481 0.0057889246 -0.013054757 -0.27933532 -0.036774777 0.039984286 0.0030145398 0.037861094
0.030571567 -0.004640078 -0.2370807 -0.096553355 0.034413364 0.1874992 0.011046435 0.06462163
0.09878201 0.2677623 -0.015777629 0.0017638981 -0.008175198 0.01522328 -0.24879555 -0.066893324
-0.031575296 0.06674775 -0.013465752 0.025266849 -0.1782457 -0.2824743 -0.26039633 0.11100564
-0.023749983 -0.020386627 -0.026398527 -0.0010459821 0.018130623 0.027588509 -0.22267754 -0.040388543
00000000: 0a4e 3d3c a26b b5bc ef72 963c 128f e13b
00000010: 4f64 d7bd 4e8c 883c df0b eebc a554 443d
00000020: 8672 73be 8b41 ca3a c074 9cbc 888c f53b
00000030: 5628 6e3e 34a3 813d 52c9 803d 500f 41bb
00000040: 5f9e 7d3b 6b7b 033e 17a1 b5be e342 a7bc
00000050: cdea 323e 42d2 c3bc 8209 443e 24b2 d03d
00000060: 3b44 8dbe 065d b93b 0103 493e e50b 01be
00000070: 57cf 34bd 4a35 e43d 849e 133e 2692 6c3c
00000080: b2d3 983e e34e 55bd 17ea 003e 03fb 4c3c
00000090: 0e93 b93d 69bc 403e 7ea0 b8bc 3df7 36be
000000a0: 792c 28bd 6453 01be 6807 073e c328 cb3e
000000b0: f22f 113d 0c16 9bbb d87e b23d 0ebb 2cbe
000000c0: eb10 6a3e b93b 2cbd e28d 9f3c d753 543e
000000d0: ed64 0d3e c0fc 05bd ac97 4c3e 1eab 99bc
000000e0: f0b3 823d 3528 993d 5c88 003b 07b1 2cbe
000000f0: 76d0 823d b6cc 163e 18a2 66bd d7b9 793e
00000100: 8107 0a3d 8ab8 903e 2464 973e a765 7f3e
00000110: a381 66bc d05e 423d bea6 83be c9c6 3ebd
00000120: 48ae d0bc ebad 06bd 7586 b8be fd36 dabc
00000130: f7c5 5c3e 4b7c 48bc ea1d 00bd 38fc 3abd
00000140: 4093 5d3e 1636 3abd a94b e7bd 6d0e 423c
00000150: cb21 3dbe 2b3e 9e3d 0ab0 713e 9751 5f3e
00000160: 06b6 833e 05b1 bd3b 9fe3 55bc 0a05 8fbe
00000170: 26a1 16bd 90c6 233d 968f 453b 3c14 1b3d
00000180: 3971 fa3c cc0b 98bb 48c5 72be c4bd c5bd
00000190: 07f5 0c3d caff 3f3e 1bfc 343c 5858 843d
000001a0: 394e ca3d 2418 893e 1640 81bc 9932 e73a
000001b0: 44f1 05bc 106b 793c 43c4 7ebe 5eff 88bd
000001c0: 1955 01bd 0bb3 883d 759f 5cbc 6cfc ce3c
000001d0: 0a86 36be 79a0 90be ab52 85be ed56 e33d
000001e0: 538f c2bc db01 a7bc b941 d8bc 5619 89ba
000001f0: ac86 943c 4c01 e23c 9505 64be 756e 25bd

layer3.weight f4 [2, 128]
0.0020380544 -0.033757344 0.00066508603 -0.0118825305 -0.0147015685 -0.12285578 -0.012038165 0.011433963
-0.016063238 0.014997068 -0.03620883 0.000862832 0.0097466605 0.00046855936 0.00055472745 -0.009781298
-0.004045944 -4.2388157e-05 -0.0025108564 -0.019777108 0.0026393589 -0.034420036 0.007055406 0.008297713
-0.026507923 0.0077534397 -0.00030287344 -0.0010239816 0.0054748547 0.113684505 0.162943 -0.037949536
0.02626183 0.035058703 0.022858346 0.016576778 0.0016952786 -9.791094e-05 0.004005421 -0.014586321
-0.01073464 -8.464426e-05 0.009244472 0.053641398 -0.01080923 0.038160194 0.109467305 -0.005294419
-0.00029281637 -0.0063222307 0.006321198 0.018226672 0.030458298 0.0075405007 -0.0005659026 0.105831206
0.023084098 0.0025119127 -0.18880975 -0.036946297 0.011696728 0.002442061 -0.012664306 0.0029673888
-0.025782958 0.007233496 0.015966931 -0.017993594 0.025058215 0.023815725 -0.008172915 -0.020390093
-0.032741927 0.019844338 -0.027215548 0.017499633 -0.010193331 -0.032753725 0.014781597 -0.03156932
0.0069916113 0.016147397 -0.0031451914 -0.114718944 -0.014874265 -0.009797987 0.011335765 0.016561875
0.0039161923 -0.042544775 -0.031912904 0.0005696661 -0.004844608 0.039081465 -0.0026054217 -0.018487733
0.0173399 0.0049129683 -0.023126997 -0.0012154881 -0.011526142 0.0072638774 0.0073550576 0.103217185
-0.00022609584 0.009127615 -0.027018525 -0.018676529 -0.022937521 -0.023707101 -0.007373591 -0.00086880854
-0.021346947 -0.009001919 -0.048446666 -0.039393052 -0.0019331868 -0.014765556 -0.034266822 0.0019861436
0.006486015 -0.007537939 0.012609289 -0.013535493 -0.0044590565 -0.03459793 -0.012162668 0.042150963
-0.043358285 -0.09674623 -0.016119847 -0.0029960189 0.011136475 -0.03970958 0.01302488 -0.027234333
0.0013698565 0.0075357426 0.009416105 -0.00063134934 0.0071640685 0.000882702 0.004318478 -0.01689502
-0.0340935 6.293464e-05 0.0020253551 -0.0059494628 0.022728667 -0.032870967 0.01827792 0.006955493
0.0015711582 0.0009834506 0.00022119372 -0.0025997264 -0.012652036 0.09167688 0.12825042 0.027268011
0.041904725 -0.030468652 0.02185095 -0.014182952 0.0041948645 0.00093255565 -0.019221853 0.0025433768
0.035681542 -0.021977972 0.021158395 0.04952045 -0.047658637 0.039039653 0.06574857 -0.013542815
-0.00014786361 -0.045199633 -0.003204699 0.02969034 -0.0006716058 -0.017191771 0.00013058481 -0.09640302
-0.00023506436 0.02526186 -0.1028986 0.0090731615 0.017042974 0.0056535597 0.014854467 0.014364875
-0.03157462 0.019156696 0.016093226 0.02164806 -0.010105557 -0.026871609 0.0005252435 0.024952931
-0.0006490602 0.019556057 0.00083184376 -0.02455079 0.017430034 -0.0054047606 -0.039799493 -0.046134032
0.015536305 -0.012494973 -0.008102423 -0.1109328 0.0006311212 0.019287733 0.026832735 -0.0009373849
0.009137997 0.0312997 0.040786672 0.0008159826 -0.022008533 0.0070619346 0.010270571 0.0023128206
0.010205616 0.0048614223 0.0019334452 -0.0020197171 0.0178689 -0.00038296272 -0.0031293528 0.07095551
0.004760151 0.0074161226 -0.047954734 -0.016676964 -0.037756372 -0.029292615 0.0015367891 -0.0027202915
-0.027573992 0.016794184 0.04010578 -0.014457531 -0.0034747357 0.00079677027 -0.022418108 0.0063271094
-0.045667425 -0.03099669 -0.0126826 0.01983011 -0.009225391 -0.020188423 -0.011550898 -0.0183395
00000000: e190 053b 2445 0abd 2b59 2e3a f2ae 42bc
00000010: d9de 70bc d09b fbbd b93b 45bc 8455 3b3c
00000020: 0d97 83bc 43b6 753c b64f 14bd ad2f 623a
00000030: 75b0 1f3c f9a8 f539 216b 113a bd41 20bc
00000040: d793 84bb f0c9 31b8 2e8d 24bb 9a03 a2bc
00000050: 18f9 2c3b 06fc 0cbd 0931 e73b 21f3 073c
00000060: 2527 d9bc 9110 fe3b fcca 9eb9 1f37 86ba
00000070: 6966 b33b 6cd3 e83d 88da 263e f970 1bbd
00000080: 0d23 d73c b799 0f3d 6d41 bb3c 06cc 873c
00000090: 1c34 de3a 8955 cdb8 e83f 833b 77fb 6ebc
000000a0: 58e0 2fbc 0b83 b1b8 2076 173c 15b7 5b3d
000000b0: 3219 31bc dd4d 1c3d 6530 e03d ce7c adbb
000000c0: 2685 99b9 b72a cfbb 0d22 cf3b 1a50 953c
000000d0: ae83 f93c 4e16 f73b 1559 14ba 08be d83d
000000e0: dd1a bd3c e79e 243b 5857 41be 0055 17bd
000000f0: a2a3 3f3c fc0a 203b f37d 4fbc 8678 423b
00000100: c836 d3bc f606 ed3b 15cd 823c 4d67 93bc
00000110: e346 cd3c 3219 c33c b1e7 05bc 2009 a7bc
00000120: 661c 06bd 9890 a23c 24f3 debc 645b 8f3c
00000130: ee01 27bc c528 06bd 832e 723c d54e 01bd
00000140: e319 e53b 8c47 843c 8e1f 4ebb c4f1 eabd
00000150: 30b3 73bc bc87 20bc a5b9 393c c5ac 873c
00000160: 6753 803b 6e43 2ebd 1bb7 02bd a555 153a
00000170: 84bf 9ebb e313 203d b9bf 2abb 9673 97bc
00000180: 680c 8e3c f7fc a03b d474 bdbc 0351 9fba
00000190: 25d8 3cbc d205 ee3b b202 f13b 8863 d33d
000001a0: 2414 6db9 fe8b 153c f455 ddbc 85ff 98bc
000001b0: 78e7 bbbc 6535 c2bc 2a9e f1bb c1c0 63ba
000001c0: cbdf aebc c97c 13bc 0370 46bd 9c5a 21bd
000001d0: fc62 fdba 3beb 71bc 5e5b 0cbd f629 023b
000001e0: a388 d43b d100 f7bb 3197 4e3c f9c3 5dbc
000001f0: 471d 92bb 8fb6 0dbd ed45 47bc 7da6 2c3d
00000200: 7598 31bd e322 c6bd c50d 84bc db58 44bb
00000210: c375 363c 83a6 22bd 4e66 553c 891a dfbc
00000220: c28c b33a 64ee f63b 0246 1a3c 2381 25ba
00000230: 90c0 ea3b 2165 673a 0582 8d3b 6d67 8abc
00000240: a0a5 0bbd c7fb 8338 d2bb 043b b6f3 c2bb
00000250: 7831 ba3c b5a3 06bd 94bb 953c e7ea e33b
00000260: 52ef cd3a 20e7 803a 3df0 6739 2c60 2abb
00000270: 7c4a 4fbc 17c1 bb3d 1454 033e 2a61 df3c
00000280: 4aa4 2b3d 6599 f9bc c300 b33c 9d5f 68bc
00000290: 1375 893b c076 743a 2677 9dbc c8ae 263b
000002a0: cf26 123d 260b b4bc 5f54 ad3c f5d5 4a3d
000002b0: b435 43bd 0be8 1f3d 30a7 863d afe2 5dbc
000002c0: d60b 1bb9 4023 39bd ed05 52bb 2839 f33c
000002d0: b40e 30ba c2d5 8cbc 98ed 0839 f26e c5bd
000002e0: 9c7b 76b9 f6f1 ce3c 80bc d2bd 99a7 143c
000002f0: b59d 8b3c 7f41 b93b 2660 733c a75a 6b3c
00000300: 6454 01bd 81ee 9c3c f1d5 833c 4657 b13c
00000310: c791 25bc d921 dcbc 7fb0 093a 176a cc3c
00000320: b125 2aba 0634 a03c 1710 5a3a bd1e c9bc
00000330: 6ec9 8e3c 6b1a b1bb cb04 23bd 0af7 3cbd
00000340: fc8b 7e3c b7b7 4cbc 06c0 04bc bc30 e3bd
00000350: d471 253a 4f01 9e3c 53d0 db3c d6ba 75ba
00000360: 8ab7 153c 1d34 003d ed0f 273d aae7 553a
00000370: 3d4b b4bc cd67 e73b e645 283c b192 173b
00000380: 7535 273c 914c 9f3b a86b fd3a 3b5d 04bb
00000390: cd61 923c 63c8 c8b9 d415 4dbb 1f51 913d
000003a0: 0afb 9b3b f202 f33b 2f6c 44bd 219e 88bc
000003b0: 6da6 1abd 11f7 efbc 166e c93a eb46 32bb
000003c0: dae2 e1bc f593 893c f545 243d 48df 6cbc
000003d0: 64b8 63bb 59de 503a 2ea6 b7bc a453 cf3b
000003e0: c40d 3bbd c5ec fdbc aeca 4fbc c172 a23c
000003f0: 1826 17bc 3162 a5bc fa3f 3dbc b83c 96bc

layer3.bias f4 [2]
0.27731913 0.32712424
00000000: c6fc 8d3e d47c a73e
