masscart_cartpole_v1_best_model_DSP_Random.pth (torch, 73254 bytes, 6 tensors)

layer1.weight f4 [128, 5]
0	0x3e106892	0.1410239
1	0xbe5f4d85	-0.21806915
2	0x3a521075	0.00080133165
3	0x3e98f40f	0.29873702
4	0xbeb04005	-0.34423843
5	0xbeaf91b5	-0.34290853
6	0xbe0e6fd1	-0.13909842
7	0x3dc6342a	0.09677918
8	0x3e9f619c	0.31129158
9	0x3de1dde6	0.11028652
10	0x3e8fe57e	0.28104776
11	0xbe6c3168	-0.23065722
12	0xbeb11da3	-0.34592924
13	0xbe84c1a2	-0.2592898
14	0xb8c30dd2	-9.300899e-05
15	0x3d9edec3	0.07757332
16	0xbe8e9ff0	-0.27856398
17	0x3e857231	0.26063684
18	0xbdbf00b4	-0.09326306
19	0x3eb3b747	0.35100767
20	0xbe8fd717	-0.28093788
21	0xbeb434b2	-0.35196453
22	0x3e0aeca4	0.13566834
23	0x3e75e59c	0.2401337
24	0x3eb5be25	0.3549663
25	0xbda96318	-0.08270854
26	0xbec0b97d	-0.37641516
27	0x3e571905	0.21005638
28	0xbe81fbfa	-0.25387555
29	0xbea8817f	-0.32911298
30	0xbedc74b1	-0.43057778
31	0x3dc45c95	0.09587971
32	0xbdb4dcc3	-0.088311695
33	0xbdbcc254	-0.09216753
34	0xbe6fcaf1	-0.2341726
35	0x3e5e77f2	0.21725443
36	0xbe8fa229	-0.28053406
37	0x3e825755	0.25457254
38	0x3e8a9a49	0.27070835
39	0x3e27defe	0.16393659
40	0xbe918cd3	-0.28427753
41	0xbddac40d	-0.10681925
42	0x3d3f306c	0.046677038
43	0xbe4c375b	-0.19942991
44	0x3e8685df	0.2627401
45	0x3ee9e47e	0.45682138
46	0x3b814cb2	0.0039459104
47	0xbded5a1c	-0.115894526
48	0x3e3e39ee	0.18576786
49	0x3e8de200	0.27711487
50	0xbea313c5	-0.3185102
51	0xbedc623b	-0.43043694
52	0xbdbd0ef4	-0.09231368
53	0x3e0b1d8d	0.13585491
54	0x3e63c859	0.22244395
55	0xbeb5bbe6	-0.35494918
56	0x3e98760f	0.29777572
57	0xbe8cb1f6	-0.27479523
58	0xbea99c9d	-0.331273
59	0xbdc10969	-0.09425623
60	0x3e93c359	0.28859976
61	0x3e95246f	0.2912936
62	0x3ec9579b	0.3932465
63	0xbd92c3df	-0.07166266
64	0xbed72c27	-0.42025873
65	0xbe6d16d5	-0.23153241
66	0xbe058fe4	-0.13043171
67	0x3dc92c7a	0.09822936
68	0xbe886383	-0.2663842
69	0x3dea5e84	0.11443809
70	0xbdd6160b	-0.10453423
71	0x3e44b576	0.19209847
72	0x3e68802a	0.2270514
73	0x3e57944d	0.21052666
74	0x3ecab7a1	0.39593223
75	0xbe07295b	-0.1319937
76	0x3e97f96d	0.29682484
77	0x3d4cb4a5	0.049976964
78	0xbdbae40e	-0.09125529
79	0x3e851fe1	0.26000884
80	0xbdf012c9	-0.11722333
81	0x3bc7d374	0.006098205
82	0xbddcc54a	-0.107798174
83	0xbdaab438	-0.08335155
84	0xbdc3c4f3	-0.095590495
85	0xbd44adde	-0.048017375
86	0x3e127a42	0.1430445
87	0x3ed54668	0.41655278
88	0x3e5dcfd4	0.21661311
89	0x3e981fcb	0.29711756
90	0xbe971e32	-0.29515225
91	0xbe7842a6	-0.24244174
92	0x3c8bca98	0.017064378
93	0xbe227675	-0.158655
94	0xbd842836	-0.06452982
95	0x3e874d3c	0.26426113
96	0x3d70d038	0.058792323
97	0x3ea60f1e	0.32433408
98	0x3d5d460f	0.05402189
99	0xbcdb198f	-0.026745586
100	0x3e8ee833	0.2791153
101	0x3dcafc90	0.09911454
102	0xbec6d170	-0.38831663
103	0x3cbd74e9	0.023127036
104	0xbde2ce35	-0.11074487
105	0xbe46373d	-0.19357009
106	0x3df0bd56	0.11754863
107	0xbea4591c	-0.32099235
108	0x3e71434c	0.23560828
109	0xb8bc0973	-8.9662986e-05
110	0xbe97c5aa	-0.29642993
111	0xbe9de4de	-0.30838674
112	0xbe4e6fe0	-0.20159864
113	0xbeae4654	-0.3403803
114	0xbecfd6ef	-0.4059367
115	0xbea3db63	-0.32003316
116	0x3b87738c	0.0041336473
117	0xbd901eb3	-0.070371054
118	0xbd0011b5	-0.031266887
119	0xb8bce21c	-9.006655e-05
120	0x3c48dea2	0.012260111
121	0x3dea9fd4	0.11456266
122	0xbca90e41	-0.02063668
123	0xbda1b800	-0.07896423
124	0x3e414e27	0.18877469
125	0xbea5ac30	-0.3235793
126	0xbde2ecf3	-0.11080351
127	0x3eaa93f8	0.33316016
128	0xbea8fd53	-0.3300577
129	0x3db3203f	0.08746385
130	0x3e00107b	0.12506287
131	0xbeecc1ab	-0.46241507
132	0xbed01c66	-0.40646666
133	0x3cef4471	0.02920744
134	0xbd086167	-0.033296015
135	0x3ebba3c4	0.3664838
136	0x3e9e5df1	0.30931047
137	0x3da8bbee	0.0823897
138	0x3ec76470	0.38943815
139	0x3e47a061	0.19494773
140	0x3e9f7aff	0.31148526
141	0xbd4d4770	-0.050116956
142	0xbeaf6c64	-0.34262383
143	0xbd8bd8dc	-0.06828472
144	0x3e306f93	0.17230062
145	0xbedafcca	-0.42770988
146	0x3eb26635	0.34843603
147	0x3e87f656	0.26555127
148	0x3df43e13	0.11925902
149	0x3d6ac83d	0.05731987
150	0x3ea8adaa	0.32944995
151	0xbde2bd16	-0.110712215
152	0xbe86e4cc	-0.26346433
153	0x3e7a640e	0.2445223
154	0xbcfed2d0	-0.031106383
155	0x3e1f9432	0.15583876
156	0xbe03034d	-0.12794228
157	0xbe029448	-0.12751877
158	0x3dfaec00	0.12252045
159	0xb9193cca	-0.00014613863
160	0x3dd718be	0.10502766
161	0xbe9cd70f	-0.30632827
162	0x3dc804c1	0.09766532
163	0xbe1c7cb4	-0.15281945
164	0x3e2efd2b	0.17088763
165	0x3e67b368	0.22627032
166	0xbe937cca	-0.28806144
167	0x3d596a8e	0.053080134
168	0xbe094ffa	-0.13409415
169	0xbd4a56f0	-0.049399316
170	0xbe8e8878	-0.27838492
171	0xbea210a3	-0.31653318
172	0xbecde8ea	-0.40216762
173	0xbe43ef5a	-0.19134274
174	0x3e940a68	0.2891419
175	0xbec53759	-0.3851879
176	0x3e58020c	0.21094531
177	0x3e964b5d	0.29354373
178	0x3e83273a	0.25615865
179	0xbe86ea00	-0.26350403
180	0x3e4a4195	0.1975158
181	0xbe561519	-0.20906486
182	0x3e2ec751	0.1706822
183	0xbe19ad77	-0.15007578
184	0x3e9cc566	0.30619353
185	0xbe81fd09	-0.25388363
186	0x3eda6f04	0.42662823
187	0x3eafbacc	0.34322202
188	0xbc98e1ed	-0.018662417
189	0x3e9f6478	0.3113134
190	0xbe1478ae	-0.1449916
191	0x3ddafa32	0.10692252
192	0xbe6426f1	-0.2228048
193	0x3e8cec3e	0.27523988
194	0xbebafe61	-0.365222
195	0x3dd069e0	0.10176444
196	0x3e8c467f	0.27397534
197	0x3c476384	0.0121697225
198	0xbec9935c	-0.3937024
199	0x3ec7ca63	0.39021596
200	0xbd2986e2	-0.0413884
201	0xbeb86a46	-0.3601858
202	0xbd41c7d0	-0.047309697
203	0xbe2554e4	-0.16145664
204	0x3e2e81af	0.17041658
205	0xbd597f53	-0.05309994
206	0x3e118afd	0.14213176
207	0xbee7cd94	-0.4527403
208	0xbeb5d17c	-0.35511386
209	0xbeb5e1a0	-0.355237
210	0x3e6f5df7	0.23375688
211	0x3d9a14e5	0.075235166
212	0xbea6e9bc	-0.326002
213	0xbe57e0d4	-0.21081859
214	0xbe4cc8ac	-0.19998425
215	0x3ec476ea	0.38371974
216	0xbed26d24	-0.41098893
217	0x3e5b8a2c	0.21439427
218	0x3eab814f	0.33497092
219	0x3ea2f2b9	0.31825808
220	0x3ea07c73	0.31344947
221	0x3e560ba6	0.20902881
222	0xbee001a8	-0.43751264
223	0xbe29c9af	-0.16580842
224	0x3e0e72ad	0.13910933
225	0x3e3596db	0.17733328
226	0xbcc81b96	-0.024427217
227	0xbe10ba3f	-0.14133547
228	0x3ec5c5ca	0.38627464
229	0x3eaee949	0.34162357
230	0xbe828148	-0.2548926
231	0xbe284d94	-0.16435844
232	0x3d08d48f	0.033405837
233	0xbec5ceaf	-0.3863425
234	0xbeafc125	-0.34327045
235	0x3e37cf80	0.17950249
236	0x3ef6acd1	0.48178723
237	0xbd0cd088	-0.03437856
238	0x3e8fa0f7	0.28052494
239	0x3ea4d243	0.32191667
240	0xbd4a5daf	-0.04940575
241	0xbeb2c78b	-0.34917864
242	0xbedd4063	-0.43213186
243	0xbcf21914	-0.029552974
244	0x3e3af1f3	0.18256359
245	0xbec16fd9	-0.37780645
246	0x3e22c649	0.15895952
247	0xbeafcf05	-0.3433763
248	0x3dc10ab5	0.0942587
249	0x3dff59f3	0.12468328
250	0xbe83f9a0	-0.25776386
251	0xbe216ad8	-0.15763414
252	0xbe10e47b	-0.14149658
253	0x3e29555a	0.16536465
254	0x3de68b90	0.11257088
255	0xbeca3938	-0.3949678

layer1.bias f4 [128]
0	0xbecd9ea3	-0.40160093
1	0x3e472907	0.19449244
2	0x3ee1dd75	0.4411427
3	0xbea33fa6	-0.31884497
4	0xbd37408c	-0.04473929
5	0x3e79b222	0.24384359
6	0x3ed6543e	0.41861147
7	0xbe03cb1b	-0.12870447
8	0x3f13bf43	0.5771372
9	0x3f0ae3bf	0.5425376
10	0x3e591b4b	0.21201818
11	0x3d251fa4	0.040313378
12	0xbe365939	-0.17807473
13	0x3f0e89ac	0.5567882
14	0x3e2255e8	0.15853083
15	0x3e96dfd1	0.29467633
16	0x3edbac4f	0.429049
17	0xbeead9fb	-0.4586943
18	0x3e8f8a2f	0.28035113
19	0xbcae605f	-0.021286188
20	0x3eb8d27e	0.36098093
21	0x3f37432f	0.7158689
22	0xbe10f724	-0.14156777
23	0x3f19bfe8	0.6005845
24	0x3e0fed60	0.14055395
25	0x3eced36d	0.4039568
26	0x3f0e8b49	0.5568128
27	0x3ea70d02	0.32627112
28	0xbf23683f	-0.6383094
29	0xbee4ec34	-0.4471146
30	0xbe404ee2	-0.18780091
31	0x3f0e9263	0.5569212
32	0xbd3820a1	-0.044952992
33	0xbd8e5259	-0.069493
34	0xbe3df755	-0.18551381
35	0xbda61157	-0.08108776
36	0x3e2075bb	0.1566991
37	0xbe995dd9	-0.29954413
38	0x3ee99d5d	0.4562787
39	0x3ebe0ce4	0.3711921
40	0x3ede7d70	0.43455076
41	0x3e8d8d7d	0.2764701
42	0xbe66a4ec	-0.2252385
43	0xbe02f5fd	-0.1278915
44	0x3f143a3b	0.5790135
45	0xbefb7f2c	-0.49120462
46	0xbdab0d76	-0.08352177
47	0xbef5eef4	-0.4803387
48	0xbe8df571	-0.2772632
49	0x3ed99ea9	0.4250386
50	0x3e17ba87	0.14817248
51	0x3c134d2d	0.008990568
52	0xbee5e5c8	-0.44901872
53	0xbb5c0a99	-0.0033575653
54	0x3e2f847b	0.17140381
55	0xbe874b9b	-0.2642487
56	0x3e8e2cc8	0.2776854
57	0x3e2a3a3d	0.16623779
58	0x3de3245b	0.11090919
59	0x3e056278	0.13025844
60	0x3e68d85f	0.22738789
61	0xbb8d599d	-0.0043136613
62	0x3f134f3d	0.57542783
63	0x3eee4c21	0.46542457
64	0x3e57e181	0.21082117
65	0x3ea84c81	0.32870868
66	0xbeb67108	-0.3563311
67	0x3ebe091b	0.37116322
68	0x3f0f7e6b	0.56052274
69	0x3e132c96	0.14372477
70	0x3f160541	0.58601767
71	0xbe768e1d	-0.2407765
72	0x3ef3daea	0.47627956
73	0x3c3d169f	0.011541038
74	0x3e8b4f53	0.27208957
75	0x3e9e8eee	0.30968422
76	0x3c622557	0.013802848
77	0x3f18e4b6	0.59723985
78	0x3e8ba85b	0.27276883
79	0x3ee20069	0.44140938
80	0x3f0478f0	0.51747036
81	0xbf288498	-0.6582732
82	0xbf0148f9	-0.5050197
83	0xbe5b7c0d	-0.2143404
84	0x3f2a445d	0.66510564
85	0x3e4efb6f	0.20213102
86	0xbe1ba205	-0.15198524
87	0xbdff6874	-0.12471095
88	0x3d3883f8	0.04504773
89	0xbe5ee204	-0.21765906
90	0xbea0e20b	-0.31422457
91	0x3eaba3a3	0.33523282
92	0xbea2c862	-0.31793505
93	0xbf0a09d5	-0.5392125
94	0x3f151f43	0.58250827
95	0xbe23138a	-0.15925422
96	0xbe845559	-0.25846365
97	0xbe9f2d72	-0.3108936
98	0x3d6025a2	0.05472339
99	0xbc96fd96	-0.018431466
100	0xbee2868e	-0.44243282
101	0x3d58092f	0.052743133
102	0xbdd9069b	-0.10596963
103	0xbe09ef3b	-0.13470165
104	0xbece7645	-0.40324607
105	0xbe843ca9	-0.2582753
106	0xbd9ee861	-0.077591665
107	0xbe834920	-0.25641727
108	0x3d4916cb	0.049094003
109	0x3dcac32b	0.099005066
110	0x3f27d945	0.655659
111	0xbdbafbaf	-0.09130036
112	0xbe68a9da	-0.22721043
113	0xbdb7a4f9	-0.08967013
114	0xbdf4897c	-0.119402856
115	0xbf0374ed	-0.5135029
116	0xbf163945	-0.58681136
117	0xbe91d3af	-0.28481814
118	0xbf17d0ba	-0.59302866
119	0x3d90b2a3	0.07065322
120	0x3e8901e9	0.2675927
121	0x3e862f2f	0.26207873
122	0xbdd5eb52	-0.104452744
123	0xbd3ef410	-0.046619475
124	0xbe9d99a0	-0.3078127
125	0xbe1110fe	-0.14166638
126	0x3ed5d5e0	0.41764736
127	0x3f2740d8	0.6533332

layer2.weight f4 [128, 128]
0	0xbcd1ae01	-0.025595667
1	0x3d09f725	0.03368296
2	0x3e4c1ebd	0.199336
3	0x3da15d81	0.078791626
4	0xbc352cef	-0.011058076
5	0x3da0f835	0.07859842
6	0x3d74c3fc	0.059757218
7	0x3d85d80e	0.0653535
8	0x3cbad9c0	0.02280891
9	0x3ce0ecd2	0.027456675
10	0x3d8adca2	0.067803636
11	0x3bcde761	0.006283686
12	0x3d0421d6	0.03225883
13	0x3d7bb8e2	0.061455615
14	0xbd6d6af9	-0.057963345
15	0x3d3826ac	0.044958755
16	0x3d122421	0.035678986
17	0x3c79efc8	0.015254922
18	0x3c5cdf12	0.0134809185
19	0x3cab45e7	0.020907355
20	0xb8905ad0	-6.88337e-05
21	0x3e2e194c	0.17001837
22	0xbd70d998	-0.058801264
23	0x3da1e625	0.07905225
24	0x3da3051a	0.079599574
25	0xbc9b1321	-0.01893002
26	0x3e27aef0	0.16375327
27	0x3d7aa163	0.061189067
28	0xbafceecd	-0.0019297242
29	0x3ce94171	0.028473588
30	0x3d466f5c	0.048446044
31	0x3e528902	0.20560077
32	0xbb795d64	-0.003805005
33	0xbd0bb494	-0.03410776
34	0x3cb306d1	0.021853836
35	0xbd8baad2	-0.06819691
36	0xbd7f2657	-0.062292423
37	0x3d8f2c59	0.069908805
38	0x3dc48f03	0.0959759
39	0xbc4aa992	-0.01236953
40	0x3dbb83b3	0.09155979
41	0x3d6399d8	0.05556664
42	0x3cf6bc26	0.030119013
43	0xbd883beb	-0.066520534
44	0xbd5039ce	-0.050836377
45	0x3da3649c	0.07978174
46	0xbd7ea116	-0.062165342
47	0x3db3a886	0.08772378
48	0xbd28bd9b	-0.041196447
49	0xbcefaec6	-0.029258143
50	0x3d42e43f	0.047580954
51	0xbd251109	-0.04029945
52	0x3cb9c635	0.02267752
53	0x3c96f4cd	0.018427277
54	0xbd179244	-0.037004724
55	0x3db5942e	0.08866154
56	0x3cbc9810	0.023021728
57	0x3d13b931	0.036065284
58	0xbd024eaf	-0.03181332
59	0x3dcee3aa	0.10102017
60	0xbd4ce63c	-0.050024256
61	0x3d83b3f2	0.06430806
62	0x3c4bdf04	0.012443308
63	0xbd65ad53	-0.056073498
64	0x3dc550fd	0.09634588
65	0xb94ffae7	-0.00019834527
66	0xbd32176b	-0.043479364
67	0x3babab9c	0.0052389633
68	0x3e5c8021	0.21533252
69	0xbde9eed5	-0.11422507
70	0x3e038c6b	0.12846534
71	0x3cbe640c	0.023241065
72	0x3b35947f	0.0027706919
73	0x3d7d13ca	0.06178645
74	0x3d50f0f9	0.05101106
75	0x3d8f036a	0.06983073
76	0xbd82c6cc	-0.06385574
77	0x3d7928d6	0.06082996
78	0xbb9d1f84	-0.0047950167
79	0x3d0bcbf1	0.03413004
80	0x3bb74e8b	0.00559408
81	0x3dc05fe3	0.09393289
82	0x3a947f1b	0.0011329384
83	0x3d0527d3	0.032508682
84	0xbdef930d	-0.116979696
85	0x3b526224	0.0032101953
86	0xbd8fbd15	-0.070184864
87	0xbd41a61e	-0.047277562
88	0xbd1afbc4	-0.03783776
89	0xbd64edc4	-0.055890813
90	0x3d125796	0.03572806
91	0x3e10a983	0.14127164
92	0xbc8d6800	-0.017261505
93	0x3d16209a	0.036652185
94	0x3d3d9848	0.046287805
95	0xbc8a5c64	-0.016889758
96	0xbd0f7e5c	-0.035032615
97	0x3d7438e2	0.05962456
98	0x3d0fb994	0.03508909
99	0xbccb793a	-0.024838079
100	0xbd925858	-0.071457565
101	0x3d155e4c	0.03646688
102	0xbc7d8d22	-0.015475543
103	0xbd93f104	-0.072237045
104	0xbd1b6e5a	-0.037947036
105	0xbc0ba3c3	-0.008522931
106	0x3d92e141	0.0717187
107	0x3ca0ff0c	0.019652866
108	0xbc704155	-0.014664014
109	0xbcaf1fa7	-0.021377398
110	0x3e133751	0.1437657
111	0x3b9efebf	0.0048521454
112	0x3c899b33	0.016797638
113	0xbd85c26e	-0.06531225
114	0x3d3ce73c	0.04611896
115	0x3d43be96	0.04778918
116	0x3cd983e2	0.026552144
117	0xbd91c485	-0.07117561
118	0x3d8fedc9	0.07027776
119	0xbcbe1881	-0.023205044
120	0x3d0cc4f2	0.03436751
121	0xbd28a899	-0.041176412
122	0xbd7388a6	-0.05945649
123	0xbb4ba269	-0.0031072146
124	0xbd9a0fb5	-0.07522527
125	0xbc1454c9	-0.0090534175
126	0x3e0d6487	0.1380788
127	0x3d75dbcc	0.060024068
128	0xbd2f8501	-0.04285145
129	0xbd8036f8	-0.062604845
130	0x3dd7aa69	0.1053055
131	0x3d5a262d	0.053259064
132	0x3d3f7610	0.046743453
133	0xbccc6105	-0.024948606
134	0xbbea1fb2	-0.0071448917
135	0x3d546bfa	0.051860787
136	0x3d5d5d09	0.054043803
137	0x3d4ffd7d	0.050778855
138	0xbd3af121	-0.045640115
139	0xbc423986	-0.011854535
140	0x3d331074	0.043716863
141	0xbd437625	-0.047720093
142	0xbd362e33	-0.044477653
143	0x3d48e06a	0.049042143
144	0x3de472b0	0.111546874
145	0xbd870251	-0.06592239
146	0x3d2b00d7	0.041748848
147	0x3d8dc151	0.06921638
148	0x3b5798b9	0.0032897426
149	0x3e882f71	0.26598695
150	0xbd55e698	-0.052221864
151	0x3e400e72	0.1875551
152	0x3c33ad4d	0.010966611
153	0x3d980dc2	0.07424499
154	0x3d2fc194	0.04290922
155	0x3d5ed633	0.054403495
156	0xbb31bcba	-0.0027120546
157	0x3d52076e	0.051276617
158	0xbc2f36ec	-0.010694247
159	0x3def997d	0.116991974
160	0x3c278cdd	0.0102264555
161	0x3d83fd35	0.0644478
162	0xbc7b0d74	-0.015323032
163	0x3d64650e	0.055760436
164	0x3d98d53f	0.074625485
165	0x3adc599d	0.0016811375
166	0x3dc25cd3	0.09490361
167	0xbd653235	-0.055956084
168	0x3c98f98e	0.018673684
169	0xbd0d4603	-0.034490597
170	0xbc2de8a3	-0.010614547
171	0x3db28306	0.08716397
172	0x3d24673a	0.040137507
173	0xbd3adb55	-0.045619328
174	0xbce7322e	-0.02822217
175	0x3d01da04	0.031702057
176	0x3d962af5	0.07332412
177	0xbd521b08	-0.05129531
178	0x3d61cddc	0.055127963
179	0x3d0045d2	0.031316586
180	0x3ce82578	0.028338179
181	0x3c8e6ca5	0.01738579
182	0xbca468d9	-0.020069527
183	0x3b83bfc7	0.0040206644
184	0x3d79086a	0.06079904
185	0x3e03d610	0.12874627
186	0x3ddfc853	0.10926881
187	0x3c9fdf11	0.019515546
188	0xbc58f384	-0.013241652
189	0x3daa1d32	0.0830635
190	0x3d1f9375	0.038958985
191	0x3c8e48c1	0.017368676
192	0xbd111cd7	-0.035427894
193	0x3d380634	0.04492779
194	0xbc769404	-0.015049938
195	0x3b689392	0.003548835
196	0x3e948b2a	0.29012424
197	0x3d71b2ce	0.059008412
198	0x3dcbf5c6	0.09958987
199	0xbd3c02a8	-0.04590097
200	0x3c01341e	0.007885961
201	0x3d91a97b	0.07112404
202	0x3dab00b4	0.083497435
203	0x3dc7d9d4	0.09758344
204	0xbd4847b8	-0.04889652
205	0x3ccf9c33	0.025343036
206	0x3dd122ad	0.10211692
207	0x3e02f4d1	0.12788703
208	0x3bc423f9	0.0059857336
209	0xbd558047	-0.052124288
210	0x3c343f98	0.01100149
211	0xbd811206	-0.06302266
212	0xbca493df	-0.020090042
213	0x3d9c31ef	0.076267116
214	0xbcb99a08	-0.022656456
215	0xbd4084ae	-0.047001533
216	0x3d57ed99	0.052716825
217	0x3c01960a	0.007909307
218	0xbd855ea8	-0.06512195
219	0x3e339b47	0.17539702
220	0x3d68df31	0.056853477
221	0xbd0f3bed	-0.03496926
222	0xbd7977fe	-0.06090545
223	0x3c7717cc	0.015081357
224	0xbd2e55ea	-0.042562403
225	0xbc36ad42	-0.011149706
226	0x3bae4b60	0.005319044
227	0xbd9a8505	-0.07544903
228	0xbd1fd4f0	-0.039021432
229	0xbd75002d	-0.05981462
230	0xbac8a114	-0.0015306794
231	0x3d110179	0.035401795
232	0xbce1fab3	-0.027585363
233	0x3c181925	0.009283339
234	0xbd237906	-0.03991034
235	0xbd027303	-0.031847965
236	0xbd50bdd6	-0.05096229
237	0x3c149afe	0.009070156
238	0x3e69a264	0.22815853
239	0xba20990c	-0.00061263214
240	0xbd4f3ff2	-0.050598092
241	0x3d2eb67e	0.042654507
242	0xb965e783	-0.00021925387
243	0xbcb81efa	-0.022475708
244	0xbc1ab5ba	-0.009442741
245	0xbbad063b	-0.0052802837
246	0xbcb94607	-0.0226164
247	0x3da18671	0.07886971
248	0x3be6dd3e	0.007045417
249	0x3cd81769	0.02637835
250	0xbd0bd9de	-0.03414332
251	0x3d217317	0.0394164
252	0x3cebfc60	0.028806865
253	0x3d6d4003	0.057922374
254	0x3d2e480f	0.04254919
255	0x3d68012f	0.056641754

layer2.bias f4 [128]
0	0x3e221715	0.15829118
1	0x3e7795b8	0.24178207
2	0x3bac67fe	0.0052614203
3	0x3d4d6e28	0.05015388
4	0xbd55824c	-0.052126214
5	0xbd00ccb3	-0.031445216
6	0x3e5baa3b	0.21451657
7	0x3e0dfce4	0.13866001
8	0x3e6c624f	0.23084377
9	0x3e122504	0.14271933
10	0xbd607610	-0.054800093
11	0x3e8f6f22	0.28014475
12	0x3da31e68	0.07964784
13	0xbdfe3516	-0.12412469
14	0x3dad9cdb	0.084771834
15	0xbe1ccb81	-0.15312006
16	0x3a8f979f	0.0010955221
17	0x3e9080de	0.28223318
18	0x3c61cc2f	0.013781591
19	0x3ccd8dea	0.025092084
20	0x3d5dc896	0.05414637
21	0xbe21d744	-0.15804774
22	0x3deafcd2	0.11474003
23	0x3d96b97f	0.07359599
24	0x3e8db6c9	0.27678517
25	0x3e881344	0.26577199
26	0x3e7da7b6	0.24771008
27	0xbb297517	-0.0025857145
28	0x3d22660c	0.0396481
29	0x3d4e9cfe	0.05044269
30	0xbe2f8341	-0.17139913
31	0xbd2108d9	-0.03931508
32	0x3e7a8b3a	0.24467173
33	0xbd11dcce	-0.035610966
34	0xbc47dc2c	-0.012198489
35	0xbe71a049	-0.235963
36	0xbd8bc67d	-0.06824968
37	0xbda449aa	-0.08021863
38	0xbd8b3fd0	-0.06799281
39	0x3e57d578	0.21077526
40	0x3da51264	0.08060148
41	0xbe198a99	-0.14994277
42	0xbc8bae0a	-0.017050762
43	0x3dd588a5	0.104264535
44	0xbe225af3	-0.15855007
45	0x3df3d59d	0.11905978
46	0x3d9dcabe	0.07704686
47	0x3e97f623	0.29679975
48	0x3d47435b	0.04864822
49	0xbc373e24	-0.011184249
50	0xbd2d61c7	-0.042329576
51	0xbda618b2	-0.08110179
52	0xbe6b64a9	-0.22987618
53	0x3dd261d9	0.10272569
54	0x3e08140e	0.132889
55	0xbd91c46e	-0.07117544
56	0x3dc81e93	0.097714566
57	0x3e2bca73	0.16776447
58	0xbda10e88	-0.078641
59	0x3c204119	0.0097811455
60	0xbe3ee733	-0.18642883
61	0x3e83d452	0.25747925
62	0x3cccbb2d	0.024991596
63	0x3d156e47	0.03648212
64	0xbd849004	-0.06472781
65	0x3d6a5f8d	0.05722003
66	0xbe220ccf	-0.15825199
67	0x3d832e3c	0.06405303
68	0x3daa3feb	0.08312973
69	0x3e276725	0.1634794
70	0x3ea1c6bd	0.31596938
71	0xbd9579fd	-0.07298658
72	0x3e1e08bb	0.15433018
73	0xbd968f3b	-0.07351538
74	0xbd13c9e1	-0.0360812
75	0x3e1fbcd3	0.15599374
76	0xbd85aac8	-0.065267146
77	0xbb3a4d4a	-0.0028427416
78	0xbc0e27d6	-0.00867649
79	0x3e4cbb72	0.1999338
80	0xbdee6f78	-0.11642355
81	0xbd88a1af	-0.06671464
82	0x3d8e9f07	0.06963926
83	0xbd4151dd	-0.04719721
84	0x3e6ede1d	0.23326917
85	0xbdc7e776	-0.097609445
86	0x3d9d6e2b	0.076870285
87	0xbe30a308	-0.17249691
88	0x3e1c8ab7	0.1528729
89	0x3e937760	0.28802013
90	0x3e5d3325	0.21601541
91	0x3e6b3533	0.22969513
92	0xbe115fec	-0.14196748
93	0xbe2d516b	-0.1692559
94	0x3e547b3b	0.20750134
95	0xbd9d46b9	-0.07679505
96	0x3d67101c	0.056411847
97	0xbd897be0	-0.067130804
98	0xbdf50c6c	-0.1196526
99	0x3e987c61	0.29782394
100	0x3ca63369	0.020288186
101	0x3e578823	0.21048026
102	0xbe0db37b	-0.13837998
103	0x3c2a1332	0.010380553
104	0x3e88e632	0.26738125
105	0xbd9b08b8	-0.07570022
106	0x3b8f5401	0.0043740277
107	0x3e899de3	0.2687827
108	0xbe099ee3	-0.13439517
109	0x3e0367a9	0.12832512
110	0xbd8d577f	-0.06901454
111	0x3eadcec1	0.33946803
112	0x3da7e897	0.0819866
113	0x3e5a833d	0.21339126
114	0xbd82bcd3	-0.063836716
115	0x3e43520a	0.19074264
116	0x3defd5d1	0.11710704
117	0xbc4910fa	-0.012272114
118	0x3d807f47	0.06274276
119	0x3e810055	0.25195566
120	0x3c120b14	0.008913774
121	0x3e36f117	0.17865406
122	0xbd06d4e3	-0.03291787
123	0x3e3f6ef0	0.18694663
124	0x3c28da2c	0.0103059225
125	0xbe1ff9bc	-0.1562261
126	0x3e5f78a2	0.21823362
127	0x3d937996	0.07200925

layer3.weight f4 [2, 128]
0	0x3cbb63b5	0.022874692
1	0x3ddb525e	0.1070907
2	0xbd767fd6	-0.060180508
3	0xbd538474	-0.05163999
4	0x3c365386	0.011128312
5	0xbda0101b	-0.07815572
6	0x3daed097	0.08535879
7	0x3cb4a6fe	0.022052284
8	0x3d5159e2	0.05111111
9	0x3c685195	0.014179607
10	0xbd844283	-0.064579986
11	0x3dd0ca30	0.10194814
12	0x3db1d547	0.086832576
13	0xbb4b84f2	-0.0031054583
14	0xbc2f763a	-0.01070934
15	0xbd873cf0	-0.0660342
16	0xbc36417e	-0.011124013
17	0x3d955108	0.07290846
18	0x3d01314d	0.031541158
19	0x3d8c696c	0.06856045
20	0xbd7f758e	-0.06236797
21	0xbd61b584	-0.055104747
22	0xbd8387ca	-0.06422384
23	0x3cd2ff0c	0.025756381
24	0x3cdc3c7a	0.026884306
25	0x3db8b879	0.0901956
26	0x3ddab9d2	0.10679974
27	0x3b1b2b95	0.00236771
28	0x3c96c24a	0.018403191
29	0xbd3d260b	-0.04617886
30	0x3da0088a	0.07814129
31	0x3d223577	0.03960177
32	0x3d6a2fb4	0.0571744
33	0x3a902b95	0.0010999317
34	0xbd178b0f	-0.03699785
35	0x3af562c1	0.0018721448
36	0x3da3a444	0.079903156
37	0x3d3a9402	0.045551307
38	0xbd51192f	-0.051049408
39	0x3dafce3d	0.08584259
40	0x3dff6d3e	0.12472008
41	0x3cb58a4c	0.022160672
42	0xbc7f96d8	-0.015599929
43	0x3d9bcbbf	0.07607221
44	0x3bb5988f	0.005541868
45	0x3d989274	0.07449809
46	0x3dc18d7d	0.09450815
47	0x3cb5bce1	0.022184791
48	0xbd23eba4	-0.040019646
49	0x3cd604a0	0.026125252
50	0x3d2c70df	0.04209983
51	0x3da0cbb1	0.07851351
52	0x3c317ae8	0.010832526
53	0xbd56b3f9	-0.05241773
54	0x3d43ca76	0.047800504
55	0xba23f2c4	-0.00062541314
56	0xbcfab339	-0.030603038
57	0x3da998ee	0.08281122
58	0x3c2f258e	0.010690106
59	0x3b907508	0.0044084825
60	0xbd37aa91	-0.0448404
61	0x3d508ad3	0.050913643
62	0xbd74b45a	-0.05974231
63	0xbda6d98c	-0.081469625
64	0x3d6b4c02	0.057445534
65	0xbc7db82e	-0.015485806
66	0x3cb1cbf8	0.021703705
67	0xbd7b673c	-0.06137775
68	0x3db5b6d7	0.088727646
69	0x3dccc23b	0.09997984
70	0x3e1d9d9f	0.15392159
71	0x3d5f0e44	0.054456964
72	0x3de14fdf	0.11001562
73	0xbd356e89	-0.044294868
74	0xbd2374be	-0.039906256
75	0xbbdf15c1	-0.006808013
76	0xbd558380	-0.05212736
77	0xbd1eccca	-0.03876952
78	0x3d64ca2d	0.055856872
79	0x3e205c93	0.15660314
80	0xbc263ef5	-0.010146846
81	0x38a5517e	7.882992e-05
82	0xbcd59019	-0.026069688
83	0x3d3ee6d8	0.04660687
84	0x3d8eff7c	0.069823235
85	0x3c9c1488	0.019052759
86	0xbd5bea8b	-0.053690474
87	0x3c8573e0	0.016290605
88	0x3de9b99c	0.11412355
89	0x3cd2b2f1	0.025720092
90	0x3db15786	0.08659272
91	0x3c8b7b96	0.017026704
92	0x3d383874	0.044975713
93	0xbd24f242	-0.040270098
94	0x3bd2fc49	0.006438766
95	0xbc292c59	-0.010325515
96	0x3bb66f59	0.005567473
97	0xbc35e04d	-0.011100841
98	0x39a48892	0.0003138227
99	0x3ddfdd2f	0.10930859
100	0x3ba7045d	0.0050969557
101	0x3bd735e9	0.006567706
102	0xbd6c36b3	-0.057669353
103	0x3c86d50e	0.016459014
104	0x3e0820c1	0.13293745
105	0x3d102b67	0.03519764
106	0xbd9f551d	-0.07779906
107	0x3dd73a01	0.1050911
108	0xbc82d49d	-0.015970523
109	0x3ddbfc0a	0.10741432
110	0xbd6f4a96	-0.05842074
111	0x3e08581e	0.13314864
112	0x3ca51571	0.020151826
113	0xbc674b5e	-0.01411709
114	0xbd3ee5ef	-0.046606
115	0x3cf642d0	0.030061156
116	0x3dc0c2b1	0.094121344
117	0xbc6a8cd1	-0.0143158
118	0xbd145e2b	-0.036222618
119	0x3de1114d	0.10989628
120	0xbd9cdfbc	-0.076598614
121	0x3c34825e	0.01101741
122	0xbd19991a	-0.037499525
123	0x3d4f1623	0.05055822
124	0xbd6b69a0	-0.05747378
125	0xbce47592	-0.027888093
126	0x3dc6d0b7	0.09707778
127	0x3d267252	0.040636368
128	0x3db3e156	0.08783214
129	0x3dabedcf	0.08394968
130	0xbd3f1282	-0.04664851
131	0xbce3d492	-0.027811322
132	0x3d46853c	0.048466906
133	0x3d8ab983	0.06773665
134	0x3d059990	0.03261715
135	0x3d99f206	0.075168654
136	0x3d807e7a	0.062741235
137	0x3d1a191a	0.037621595
138	0x3d4d8aa5	0.05018105
139	0x3d93ba07	0.07213216
140	0xbb8a7f4c	-0.0042266008
141	0xbd41ded5	-0.04733165
142	0x3d84a282	0.064763084
143	0xbc083a95	-0.008314748
144	0x3b59176f	0.003312554
145	0x3da099df	0.078418486
146	0xbd634d72	-0.05549378
147	0x3d499680	0.049215794
148	0x3c75284c	0.014963221
149	0x3c24c603	0.010056975
150	0x3d9debe8	0.07711011
151	0xbce9c7f7	-0.028537733
152	0x3d0a2774	0.03372903
153	0x3da3205e	0.07965158
154	0x3dccfd1d	0.10009215
155	0xbd0dd519	-0.034627054
156	0x3d247000	0.040145874
157	0xbba78d5a	-0.005113286
158	0xbd8e8ca5	-0.069604196
159	0x3c1993cd	0.009373617
160	0x3daee788	0.08540255
161	0xbc860bb2	-0.016362999
162	0xbcf42758	-0.029803917
163	0xbcffbb36	-0.031217199
164	0x3a1044c6	0.0005503412
165	0xbd3e9d90	-0.046536982
166	0x3cf0000c	0.029296897
167	0x3d2ec22f	0.042665657
168	0x3d1bf9e9	0.03808013
169	0xbcad8bfb	-0.021184912
170	0x3abb6210	0.0014296193
171	0x3d133775	0.03594156
172	0xbcddd6e6	-0.02708001
173	0x3d1b487e	0.03791093
174	0xbc47f901	-0.012205363
175	0x3d432df6	0.047651254
176	0x3d368bd0	0.04456693
177	0x3d0109cc	0.031503484
178	0x3d009cda	0.031399585
179	0x3cfc7496	0.030817311
180	0xbd98c53b	-0.07459494
181	0x3d8d5b22	0.06902148
182	0x3d57ed65	0.05271663
183	0x3d27b9a3	0.04094852
184	0x3d88dbdf	0.06682562
185	0x3c1d7f18	0.009612821
186	0x3d873f4d	0.066038705
187	0x3d25e5a7	0.040502217
188	0xbcc3f47f	-0.023920296
189	0x3d477e2e	0.04870432
190	0x3d9bd442	0.07608844
191	0x3d5f9104	0.054581657
192	0xbd4a01c5	-0.049318094
193	0xbd6bbe4c	-0.057554528
194	0xbd94ce24	-0.07265881
195	0x3dbc33e8	0.09189588
196	0xbd914e98	-0.07095069
197	0x3db76a78	0.08955854
198	0x3e157705	0.14596184
199	0xbcb4b461	-0.022058668
200	0x3ddfec43	0.10933735
201	0x3d059050	0.03260833
202	0xbc0542f1	-0.008133636
203	0x3dac285f	0.08406138
204	0xbc4ea062	-0.01261148
205	0xbd8945fe	-0.06702803
206	0xbca701c1	-0.020386579
207	0x3e1f7a12	0.1557391
208	0x3bc987ba	0.006150213
209	0xbcc08a79	-0.023503529
210	0x3d943053	0.072357796
211	0x3d9b9899	0.07597465
212	0x3d1a66c4	0.03769566
213	0xbd0bd238	-0.034136027
214	0x3d549a38	0.051904887
215	0xbd8445c0	-0.06458616
216	0x3d904fbd	0.07046459
217	0x3c805362	0.01566476
218	0x3cef26ae	0.029193249
219	0x3d832294	0.0640308
220	0xbd680597	-0.056645956
221	0xbb9edc8b	-0.004848068
222	0x3d167e61	0.036741618
223	0xbca79e23	-0.020461148
224	0x3d16ee98	0.036848634
225	0xbcc99b5f	-0.02461022
226	0xbd6f80ff	-0.05847263
227	0x3dbebee4	0.09313753
228	0xbd135db1	-0.035978023
229	0x3dafc960	0.08583331
230	0xbd0fd23e	-0.035112612
231	0x3d017037	0.031601157
232	0x3d646a49	0.055765424
233	0xbc7a2ece	-0.015269948
234	0xbda78a92	-0.08180727
235	0x3d5fe3bd	0.054660548
236	0xbb66978a	-0.003518554
237	0x3c39b6ed	0.011335117
238	0x3dd20b2b	0.10256036
239	0x3e41683e	0.18887421
240	0xbb3a654f	-0.0028441732
241	0x3db87ab9	0.090077825
242	0x3caac306	0.020844948
243	0x3d9d5341	0.07681895
244	0x3d191a6b	0.03737871
245	0x3d5b98ed	0.05361264
246	0x3d231ad0	0.039820492
247	0x3d9fe19c	0.078067034
248	0xbd8ea75d	-0.06965516
249	0x3ccba065	0.024856756
250	0x3cc22745	0.023700366
251	0x3da6a47b	0.08136841
252	0xbcb29c16	-0.021802943
253	0xbd089353	-0.033343624
254	0x3d1ded92	0.038556643
255	0x3d3a1e91	0.045439307

layer3.bias f4 [2]
0	0x3e4b6d9b	0.1986603
1	0x3dda3e97	0.10656469
