mountaincar_v0_force_change_DSP.pth (torch, 72632 bytes, 6 tensors)

layer1.weight f4 [128, 3]
-0.5160923 0.06408618 0.22224368 -0.2895911 -0.03926344 0.023815192 -0.027325615 -0.1423338
-0.03219361 0.67276657 -0.65830535 0.06263186 -0.042293876 0.2793493 -0.21693102 0.33570883
-0.38611773 0.01542122 -0.09865169 0.1589461 -0.097635075 0.05825849 -0.00600357 -0.15846077
0.27435347 0.09967615 -0.2831734 0.3121139 -0.76148224 0.26746392 -0.14148203 2.1105213
0.1947886 0.046054777 0.41118354 0.25642297 0.008157558 -0.26594 -0.19563195 -0.086614124
0.02374675 -0.012083563 -0.3509585 0.03393269 -0.052454323 -0.30593088 -0.52354103 0.10909844
-0.17702991 -0.16142835 -0.010617667 0.18563204 0.14943424 0.06688676 0.6270082 0.03867294
-0.1205081 -0.3152912 1.518861 0.10840354 0.3213927 0.106473595 0.25021008 0.027254382
0.14225534 -0.13849688 -0.102813914 0.0961824 -0.039292015 -0.27029017 0.29217207 -0.07612696
0.7026772 -0.29471254 0.024340564 0.20283073 0.33880383 0.0051185717 -0.22802119 -0.47522596
-0.5430854 -0.39308015 -0.18464883 0.14899386 -0.41365707 -0.67719674 -0.22771312 0.955236
-0.3609083 0.098302305 0.30542368 -0.094014294 -0.04368251 -0.32963946 -0.5168135 0.0445558
-0.28794634 0.22009654 0.2526438 -0.20780975 -1.1848536 -0.945773 -0.012598163 0.0387501
-0.21308848 0.16641577 0.8545612 -0.3613055 0.19776678 -0.28945902 -0.072630964 -0.08434471
-0.76855165 0.2747534 -0.13375682 -1.0015175 -0.7513675 -0.021753354 0.3483149 0.12798077
0.03925831 -0.09864357 -0.2696332 0.5194271 0.6971005 0.28675932 0.15993893 -0.2328434
-0.033995736 -0.36494073 -0.4751724 0.20362014 -0.39996627 1.8003027 0.061247133 -0.35590416
-0.72779447 -0.5549526 -0.21850014 -0.4905927 -0.87167245 0.38059393 -0.34816498 -0.054416463
0.0444497 0.35836324 0.072480954 0.46682942 0.2255785 0.27157205 0.09365703 1.6973562
0.17840885 0.38155758 0.34630916 -0.35476825 -0.20413321 0.27337834 -0.08877493 -0.26354983
-0.040167738 0.019612767 -0.08975058 0.21389464 -0.009447123 -0.33017156 -0.0376641 -0.28303435
-0.4440734 -0.35296354 0.10047415 0.09301168 0.28214136 0.39808518 -0.07152234 0.05770592
-0.02712244 0.2530963 -0.230692 0.14797463 -0.16319801 -0.2594052 -0.1382215 -0.19512194
-0.116203174 0.1159282 -0.18504994 -0.0011371126 -0.2374106 -0.009981727 -0.26492685 -0.09094866
0.03880548 1.5946105 0.12293573 0.5360857 0.68845224 0.04620931 0.30191827 0.47572297
0.29408205 0.31247106 0.38067466 -0.13516816 0.32780302 0.00032891388 0.52103627 -0.15365085
1.0669535 0.17040913 -0.087125026 -1.4037206 -0.8944237 0.07544253 0.092127346 -0.1765834
0.103971735 1.9822528 0.14929023 -0.32295972 0.24949293 0.16819234 0.21604183 0.1718071
-0.49180916 0.9772008 0.016112635 -0.0006977855 -0.016785003 -0.29142752 -0.015557165 -0.4452973
-0.082050376 0.014460321 -0.30233446 -0.25231856 0.09630266 -0.06840768 -0.16628002 -0.27157065
-0.20611972 -0.7186605 0.114409804 0.017934244 -0.5348357 0.08042112 -0.310896 -0.8235454
-0.0023108036 -0.3741574 -0.22564405 -0.14489287 -0.2244475 0.19116116 -0.0048438157 -0.028783875
00000000: a01e 04bf 9d3f 833d d993 633e 4945 94be
00000010: b3d2 20bd 1418 c33c f8d9 dfbc f4bf 11be
00000020: 72dd 03bd 6e3a 2c3f b386 28bf 2245 803d
00000030: 583c 2dbd df06 8f3e 2a23 5ebe 07e2 ab3e
00000040: 39b1 c5be 49a9 7c3c e609 cabd c4c2 223e
00000050: e6f4 c7bd 74a0 6e3d 98b9 c4bb 8a43 22be
00000060: 0f78 8c3e 0223 cc3d 1bfc 90be 65cd 9f3e
00000070: 80f0 42bf 08f1 883e aae0 10be c812 0740
00000080: aa76 473e efa3 3c3d a686 d23e df49 833e
00000090: 47a7 053c 4a29 88be be53 48be bf62 b1bd
000000a0: 8b88 c23c 23fa 45bc d5b0 b3be 01fd 0a3d
000000b0: 58da 56bd f9a2 9cbe c906 06bf 016f df3d
000000c0: 5447 35be 794d 25be b9f5 2dbc 5316 3e3e
000000d0: 4a05 193e edfb 883d 9c83 203f 8467 1e3d
000000e0: f3cc f6bd d96d a1be 0a6a c23f ad02 de3d
000000f0: 958d a43e d40e da3d 891b 803e 9544 df3c
00000100: 62ab 113e 20d2 0dbe 1a90 d2bd 47fb c43d
00000110: aaf0 20bd 7963 8abe 9497 953e 74e8 9bbd
00000120: a7e2 333f 90e4 96be dd65 c73c dcb2 4f3e
00000130: b277 ad3e b1b9 a73b 637e 69be d150 f3be
00000140: a507 0bbf cd41 c9be 9514 3dbe d991 183e
00000150: dcca d3be c45c 2dbf a12d 69be 598a 743f
00000160: f9c8 b8be b852 c93d 7e60 9c3e 918a c0bd
00000170: 6eec 32bd 81c6 a8be e44d 04bf 2480 363d
00000180: b46d 93be fd60 613e 875a 813e 14cc 54be
00000190: 48a9 97bf 2e1e 72bf 8768 4ebc 6db8 1e3d
000001a0: de33 5abe e568 2a3e 86c4 5a3f 09fd b8be
000001b0: 6083 4a3e f933 94be 8bbf 94bd ebbc acbd
000001c0: cdbf 44bf 7aac 8c3e 8cf7 08be ba31 80bf
000001d0: 9f59 40bf 1734 b2bc 5556 b23e 640d 033e
000001e0: 52cd 203d a405 cabd 5d0d 8abe 2df9 043f
000001f0: 2e75 323f 1ed2 923e 08c7 233e 806e 6ebe
00000200: 1d3f 0bbd 83d9 babe cc49 f3be cc81 503e
00000210: 61c8 ccbe 5270 e63f 46de 7a3d 1239 b6be
00000220: bd50 3abf 6011 0ebf 80be 5fbe f72e fbbe
00000230: ed25 5fbf 35dd c23e ae42 b2be cce3 5ebd
00000240: e310 363d 637b b73e e570 943d 4404 ef3e
00000250: 0dfe 663e 7e0b 8b3e 42cf bf3d f842 d93f
00000260: cfb0 363e 845b c33e 6f4f b13e 2fa4 b5be
00000270: 4c08 51be 3ff8 8b3e a1cf b5bd 01f0 86be
00000280: ed86 24bd f4aa a03c 27cf b7bd 3207 5b3e
00000290: 1bc8 1abc 3f0c a9be ac45 1abd e1e9 90be
000002a0: 975d e3be a3b7 b4be 64c5 cd3d e87c be3d
000002b0: d574 903e d2d1 cb3e 4e7a 92bd 0b5d 6c3d
000002c0: e12f debc d795 813e 863a 6cbe a986 173e
000002d0: 611d 27be c2d0 84be f089 0dbe 0cce 47be
000002e0: eefb edbd c46b ed3d bb7d 3dbe 2b0b 95ba
000002f0: c41b 73be 668a 23bc 7ea4 87be 4b43 babd
00000300: 7ff2 1e3d 321c cc3f bac5 fb3d ea3c 093f
00000310: 683e 303f f945 3d3d 0895 9a3e f691 f33e
00000320: ec91 963e 35fc 9f3e cae7 c23e 8669 0abe
00000330: ccd5 a73e 1372 ac39 a262 053f a656 1dbe
00000340: ef91 883f bb7f 2e3e 9b6e b2bd 1ead b3bf
00000350: f4f8 64bf 9d81 9a3d 43ad bc3d 47d2 34be
00000360: 22ef d43d 76ba fd3f 8adf 183e fa5a a5be
00000370: 137b 7f3e 9d3a 2c3e 123a 5d3e 33ee 2f3e
00000380: 69ce fbbe d529 7a3f a5fe 833c 98eb 36ba
00000390: b480 89bc fd35 95be 7be3 7ebc 02fe e3be
000003a0: 070a a8bd fbea 6c3c 95cb 9abe e62f 81be
000003b0: 543a c53d 5319 8cbd 4f45 2abe 4f0b 8bbe
000003c0: 0c11 53be 22fa 37bf b04f ea3d d6ea 923c
000003d0: feea 08bf d4b3 a43d c32d 9fbe dfd3 52bf
000003e0: da70 17bb 8f91 bfbe 3c0f 67be cc5e 14be
000003f0: 91d5 65be c0bf 433e dfb8 9ebb 29cc ebbc

layer1.bias f4 [128]
0.4042408 0.18936883 -0.20614834 0.13218287 -0.22979957 0.16374956 -0.11867876 -0.028007397
-0.2797013 0.09274594 0.009626315 -0.17449951 -0.17808682 0.28040943 -0.13709079 0.21960467
0.25634685 0.034799926 0.05642358 -0.081686206 -0.02767075 -0.15439728 -0.21366662 0.26903883
0.07703402 0.23992334 -0.007740348 0.35739794 -0.12317828 -0.09055952 0.1734488 -0.3618703
0.11690713 0.13961989 -0.17968921 0.09779918 -0.22445846 0.34192374 -0.080146335 0.24917293
-0.14777997 0.044653386 -0.105966665 -0.08073133 -0.30699426 0.16013719 -0.041117273 0.10838054
-0.21813482 -0.03902193 0.034642287 0.25448948 -0.26411822 -0.3310888 0.29137823 0.04065658
-0.02227118 -0.0091003515 0.41401082 -0.27960908 -0.24026121 0.14515963 -0.27282152 -0.28742668
0.12620811 0.1540515 0.023938546 0.38053662 0.1411789 0.08605554 0.10470935 -0.09647237
0.05589059 0.208633 0.20452657 -0.41319218 0.39569697 0.23905906 0.335294 -0.10481442
-0.27804756 0.0033971402 0.19991666 0.43749797 0.1501795 0.22833407 0.07687668 0.2110824
0.24846625 0.48026767 0.14091119 0.28123048 -0.17062579 0.30063885 0.21299842 0.13305797
0.43070272 0.044810817 -0.11676731 -0.0912517 0.20780307 0.16651112 0.4001833 0.022629708
0.024077093 0.071659625 -0.08323739 0.33904466 0.32777226 -0.288309 -0.28486782 0.37667525
-0.15629005 0.09374548 -0.25763544 0.35550568 0.30414873 -0.22708392 0.32123438 0.2024212
0.119334064 -0.25859004 0.009209806 -0.024592716 0.24708849 0.3790281 0.33800426 0.27749667
00000000: a6f8 ce3e e7e9 413e 8d18 53be f25a 073e
00000010: 9450 6bbe f7ad 273e da0d f3bd c56f e5bc
00000020: 0235 8fbe 95f1 bd3d b1b7 1d3c 00b0 32be
00000030: 645c 36be d391 8f3e 8761 0cbe 0ce0 603e
00000040: e53f 833e 5e8a 0e3d 691c 673d 194b a7bd
00000050: c5ad e2bc 521a 1ebe 6ccb 5abe 75bf 893e
00000060: 03c4 9d3d 77ae 753e bfa2 fdbb ddfc b63e
00000070: e544 fcbd 4577 b9bd 909c 313e 1047 b9be
00000080: 016d ef3d 84f8 0e3e 7300 38be f04a c83d
00000090: 70d8 65be a110 af3e c323 a4bd 3027 7f3e
000000a0: a253 17be 78e6 363d 0d05 d9bd 7856 a5bd
000000b0: 5a2e 9dbe 01fb 233e 966a 28bd 9ef6 dd3d
000000c0: bc5e 5fbe 76d5 1fbd 12e5 0d3d 724c 823e
000000d0: 813a 87be 7984 a9be 872f 953e 8487 263d
000000e0: 0d72 b6bc a419 15bc 3af9 d33e ec28 8fbe
000000f0: 0907 76be baa4 143e 43af 8bbe 9729 93be
00000100: b33c 013e adbf 1d3e c51a c43c b2d5 c23e
00000110: 3491 103e e33d b03d db71 d63d 4e93 c5bd
00000120: 88ed 643d e4a3 553e 6a6f 513e ed8d d3be
00000130: cb98 ca3e e6cb 743e a8ab ab3e f1a8 d6bd
00000140: 405c 8ebe 8ea2 5e3b f4b6 4c3e bcff df3e
00000150: a8c8 193e 68d0 693e 8571 9d3d fc25 583e
00000160: f06d 7e3e a5e5 f53e 064b 103e 71fd 8f3e
00000170: 87b8 2ebe 56ed 993e 421c 5a3e 5940 083e
00000180: 1185 dc3e 8c8b 373d b323 efbd 2ce2 babd
00000190: 54ca 543e e481 2a3e d3e4 cc3e f061 b93c
000001a0: 533d c53c 48c2 923d 5d78 aabd 4397 ad3e
000001b0: c4d1 a73e 3d9d 93be 32da 91be 94db c03e
000001c0: 800a 20be a1fd bf3d cbe8 83be d704 b63e
000001d0: 62b9 9b3e b088 68be d578 a43e 8147 4f3e
000001e0: 6b65 f43d ea65 84be bae4 163c aa76 c9bc
000001f0: c404 7d3e f90f c23e e50e ad3e 0b14 8e3e

layer2.weight f4 [128, 128]
0.07739399 0.039988324 0.023717698 -0.020219963 0.016282234 -0.12343665 -0.03655658 -0.0007227112
0.037099082 -0.022648243 -0.028694244 -0.013205915 0.045682866 0.15896915 -0.0614458 0.050568916
0.13267028 0.013862976 -0.078549035 -0.014079409 -0.03007633 0.004927525 0.043747924 0.13075587
-0.05253813 -0.078034975 -0.52747893 0.029437993 -0.13749596 -0.025128145 -0.08028492 -0.031241067
0.06055446 0.21503405 0.041314088 -0.20393556 -0.0035968623 0.06774179 -0.39502797 0.05885375
0.01791285 0.005953695 -0.02278793 0.017668325 0.03142006 0.061504558 -0.5069992 0.027337741
0.027543982 -0.013915784 0.0016430337 0.031510238 0.005893019 -0.1365138 0.035082635 0.100687414
0.050927885 -0.00010587831 0.19221537 0.00013742918 -0.012638344 0.04795348 0.0008280344 -0.015548893
0.05080607 -0.23737827 -0.00892289 -0.014068925 -0.035253793 0.010103343 0.310957 0.03563275
0.0050207833 0.064532965 0.42877755 -0.47275072 0.17807755 0.094694845 -0.0012346713 0.0072896252
-0.05635494 -0.008153607 0.08113176 0.16377442 0.1076988 0.16160795 -0.24433309 -0.18829903
0.062879 0.18346514 0.10123426 0.045451786 -0.19733597 0.011071782 0.10132826 0.042695384
0.21778233 0.028279634 -0.005297554 0.017030112 0.07899334 0.057534736 0.17604297 0.0034239234
0.037403844 0.03385022 0.10550027 0.22811386 0.21517687 0.043470576 -0.016271226 0.09762483
0.010768625 0.049788292 0.032136884 0.23492894 0.047466155 0.017428834 0.13895833 0.12890913
0.6866739 -0.019055892 0.049745824 0.0070181177 0.6935093 0.0622964 0.13175571 -0.0001820998
0.053741135 0.104999274 -0.024217756 -0.030940836 0.030389162 -0.23815662 0.004462367 -0.028933758
0.040363878 -0.043478273 0.025017172 -0.062329818 0.035151474 0.1473325 0.0073575634 0.0018741909
0.11348043 0.030107789 -0.10375729 -0.024654483 -0.028635558 -0.01004108 0.02501564 0.13461372
-0.10366645 -0.11900099 -0.5095374 0.050352845 -0.16733737 0.001808577 -0.057183444 -0.058974743
0.03743323 0.19971108 -0.0006802144 -0.13464041 0.01643912 0.045321055 -0.4568569 -0.0140819885
-0.034105647 -0.013123015 0.03018762 0.03700294 0.046983477 0.089422785 -0.39036334 -0.04512876
0.004351474 -0.037088826 0.0018947239 -0.015929716 0.008942922 -0.1390923 0.07797841 0.039615486
0.04257556 -0.032714844 0.1867629 -0.0002956524 -0.033662017 0.067069516 0.042539228 -0.007092513
0.014423032 -0.19587447 0.018082952 0.018452255 -0.038303647 0.064014636 0.27761707 -0.028473096
0.0029781412 0.023996083 0.40158442 -0.416474 0.20758416 0.10666629 0.08832303 0.038302027
-0.07632429 0.028013242 0.12041459 0.15845571 0.16891672 0.23063894 -0.25328007 -0.20704664
0.050231323 0.18155375 0.09347723 0.020031514 -0.17523244 0.047971584 0.15838662 0.019954078
0.24967837 -0.033898864 0.019703543 0.002366847 0.17452767 0.07093288 0.17083971 0.07342686
0.023655333 -0.027406706 0.052274533 0.20452708 0.1897481 0.0043099304 -0.043109357 0.11398862
0.035886187 0.00077276194 -0.0176471 0.25541756 0.08150953 0.033273112 0.15434586 0.07670579
0.63108677 -0.083470136 -0.005330765 -0.018243635 0.72256005 0.10470083 0.18092711 0.082870446
00000000: bd80 9e3d ccca 233d 9e4b c23c 56a4 a5bc
00000010: 5262 853c 5bcc fcbd 5abc 15bd 5474 3dba
00000020: 35f5 173d cf88 b9bc 3110 ebbc 9f5d 58bc
00000030: f51d 3b3d cfc8 223e 97ae 7bbd 5a21 4f3d
00000040: b8da 073e 8921 633c 51de a0bd 52ad 66bc
00000050: a362 f6bc 1377 a13b 0631 333d dee4 053e
00000060: 3932 57bd cdd0 9fbd dc08 07bf f227 f13c
00000070: becb 0cbe 8ad9 cdbc 6c6c a4bd 44ed ffbc
00000080: f407 783d e331 5c3e f638 293d 7cd4 50be
00000090: 56b9 6bbb 35bc 8a3d 1b41 cabe a110 713d
000000a0: f8bd 923c 3717 c33b c1ad babc 2abd 903c
000000b0: 52b2 003d 34ec 7b3d b3ca 01bf 66f3 df3c
000000c0: eba3 e13c 07ff 63bc 105b d73a e110 013d
000000d0: 3a1a c13b 46ca 0bbe cfb2 0f3d 3435 ce3d
000000e0: c299 503d fc0a deb8 1bd4 443e dd1a 1039
000000f0: 0f11 4fbc de6a 443d 7310 593a c9c0 7ebc
00000100: 071a 503d 4a13 73be 5031 12bc 5981 66bc
00000110: 4866 10bd 7e88 253c c235 9f3e a5f3 113d
00000120: 6285 a43b dc29 843d bb88 db3e 620c f2be
00000130: f659 363e 5fef c13d b2d4 a1ba cfdd ee3b
00000140: 70d4 66bd b596 05bc 6828 a63d 7bb4 273e
00000150: 3091 dc3d 8e7c 253e 7432 7abe 76d1 40be
00000160: b5c6 803d 49de 3b3e e853 cf3d a72b 3a3d
00000170: 7112 4abe 6b66 353c 3185 cf3d 5be1 2e3d
00000180: 5502 5f3e b1aa e73c 1b97 adbb bc82 8b3c
00000190: 43c7 a13d 8ba9 6b3d 9c44 343e e763 603b
000001a0: c634 193d 87a6 0a3d 8710 d83d ae96 693e
000001b0: 5357 5c3e 340e 323d 3c4b 85bc 87ef c73d
000001c0: e36e 303c cfee 4b3d f7a1 033d 3691 703e
000001d0: df6b 423d eac6 8e3c 184b 0e3e c100 043e
000001e0: dcc9 2f3f 1a1b 9cbc 47c2 4b3d 3df8 e53b
000001f0: d389 313f 832a 7f3d f8ea 063e 0bf2 3eb9
00000200: aa1f 5c3d dc09 d73d 5164 c6bc a377 fdbc
00000210: b1f2 f83c 54df 73be 0c39 923b 7d06 edbc
00000220: 9854 253d 4616 32bd d0f0 cc3c 8d4d 7fbd
00000230: fefa 0f3d 55de 163e b717 f13b 69a7 f53a
00000240: 6d68 e83d 9ca4 f63c b47e d4bd 33f8 c9bc
00000250: 1e95 eabc 5883 24bc 99ed cc3c 2ed8 093e
00000260: 134f d4bd cbb6 f3bd 0b71 02bf c93e 4e3d
00000270: 7d5a 2bbe c60d ed3a 3039 6abd 808f 71bd
00000280: 9653 193d 1081 4c3e 6a50 32ba 2ddf 09be
00000290: 55ab 863c 92a2 393d 26e9 e9be 24b8 66bc
000002a0: 5db2 0bbd ea01 57bc 074c f73c 6590 173d
000002b0: bf71 403d 4b23 b73d b4dd c7be efd8 38bd
000002c0: cf96 8e3b 74ea 17bd 6258 f83a 097f 82bc
000002d0: 5585 123c 366e 0ebe 25b3 9f3d d943 223d
000002e0: b663 2e3d 0000 06bd c63e 3f3e cb01 9bb9
000002f0: 2fe1 09bd be5b 893d 9d3d 2e3d 5068 e8bb
00000300: 954e 6c3c 5193 48be b322 943c 2f29 973c
00000310: 49e4 1cbd 1b1a 833d d323 8e3e 6940 e9bc
00000320: eb2c 433b 6f93 c43c 799c cd3e 153c d5be
00000330: f190 543e db73 da3d b4e2 b43d 96e2 1c3d
00000340: e94f 9cbd 077c e53c ed9b f63d 3742 223e
00000350: 81f8 2c3e 9d2c 6c3e edad 81be 0904 54be
00000360: 5cbf 4d3d 3ae9 393e fd70 bf3d 2119 a43c
00000370: 2270 33be da7d 443d 1a30 223e bc76 a33c
00000380: b0ab 7f3e 89d9 0abd 5369 a13c 1a1d 1b3b
00000390: 62b7 323e 4245 913d 9bf0 2e3e d260 963d
000003a0: d4c8 c13c 0784 e0bc d21d 563d 8c6f 513e
000003b0: 534d 423e 513a 8d3b 7093 30bd de72 e93d
000003c0: 65fd 123d 2d93 4a3a a790 90bc 17c6 823e
000003d0: 78ee a63d 6349 083d d70c 1e3e ed17 9d3d
000003e0: e78e 213f 64f2 aabd b3ad aebb ad73 95bc
000003f0: b2f9 383f 646d d63d f544 393e fbb7 a93d

layer2.bias f4 [128]
0.15575206 0.16424912 0.032575652 -0.051527057 0.12912267 0.09245721 -0.044999357 0.0016597344
-0.17241047 0.11338236 0.05432655 0.12853466 -0.011272526 0.049160637 0.022875002 -0.03242683
0.012619666 -0.014353842 0.035360858 -0.017552033 -0.032701243 0.02206001 -0.040077247 0.17119631
-0.026596023 -0.0141562605 -0.016974183 0.1313269 -0.025365604 0.20769139 0.08909311 -0.00140127
-0.025742935 0.06426096 -0.013267654 -0.028132312 -0.043873098 0.19316603 0.018078314 0.16704431
-0.033009447 -0.037466004 -0.022506114 0.017968608 0.023758514 0.015589608 0.19533442 0.022949865
-0.0465145 0.12400817 0.013246535 -0.013664826 -0.025316471 -0.01269248 -0.028093416 -0.026723487
-0.0023812256 -0.029439833 0.107816376 -0.0051634805 -0.04811599 0.008980389 0.16321042 -0.0029702995
-0.03973739 -0.027385304 0.0131153045 -0.04957857 0.12510549 0.19065383 -0.03335764 0.1338039
-0.04422475 -0.0075494996 0.014738811 0.13809888 -0.040092196 0.03746178 0.028708233 0.03354672
0.020159863 0.046533875 0.16125068 0.0001344182 0.12840791 -0.0058913757 0.15955122 0.1536202
0.024951871 -0.029136447 0.1747107 0.02539342 0.15719143 -0.04647726 -0.011863042 0.036777265
-0.040129527 -0.039034255 0.12102376 -0.038435277 0.00134563 0.026376467 -0.008603995 -0.050757907
-0.013691824 0.05874966 -0.026690781 0.025334388 0.0026971013 -0.010336373 0.023735857 -0.04847746
0.0246089 0.15768813 -0.038856555 0.030200405 0.017106308 0.07941013 0.028302547 0.15629174
0.037044026 0.011351788 0.0632098 0.006239742 0.005681645 -0.03380425 -0.014375263 0.042957354
00000000: 787d 1f3e ec30 283e 0c6e 053d 090e 53bd
00000010: bc38 043e 355a bd3d 3f51 38bd 728b d93a
00000020: 5f8c 30be 0335 e83d 8485 5e3d 979e 033e
00000030: 67b0 38bc aa5c 493d 5b64 bb3c ffd1 04bd
00000040: b7c2 4e3c 602c 6bbc 8cd6 103d 48c9 8fbc
00000050: bdf1 05bd 32b7 b43c 0a28 24bd 164e 2f3e
00000060: e7df d9bc a9ef 67bc 710d 8bbc 8f7a 063e
00000070: 87cb cfbc 0dad 543e 7376 b63d d2aa b7ba
00000080: d9e2 d2bc 409b 833d 9360 59bc bc75 e6bc
00000090: 47b4 33bd 51cd 453e f918 943c aa0d 2b3e
000000a0: ea34 07bd f475 19bd be5e b8bc e732 933c
000000b0: 37a1 c23c 8e6b 7f3c bf05 483e 5b01 bc3c
000000c0: fd85 3ebd fff7 fd3d ff07 593c 6fe2 5fbc
000000d0: 7d64 cfbc 1ff4 4fbc 2a24 e6bc 37eb dabc
000000e0: 560e 1cbb ce2b f1bc d5ce dc3d 6a32 a9bb
000000f0: 4615 45bd 7b22 133c a220 273e 5ba9 42bb
00000100: acc3 22bd 2557 e0bc 93e1 563c e612 4bbd
00000110: a71b 003e c23a 433e 05a2 08bd e403 093e
00000120: 0325 35bd cb61 f7bb 0e7b 713c cb69 0d3e
00000130: b737 24bd 8671 193d 872d eb3c 4968 093d
00000140: 4c26 a53c 4e9a 3e3d e61e 253e 9cf2 0c39
00000150: 5d7d 033e 710c c1bb 6561 233e 9d4e 1d3e
00000160: de67 cc3c 8faf eebc 5de7 323e dd05 d03c
00000170: caf6 203e f05e 3ebd 345d 42bc c2a3 163d
00000180: dc5e 24bd 62e2 1fbd 4edb f73d 4f6e 1dbd
00000190: da5f b03a 7613 d83c c5f7 0cbc 86e7 4fbd
000001a0: ac53 60bc 7ca3 703d a0a6 dabc 108a cf3c
000001b0: dac1 303b e459 29bc b371 c23c 4d90 46bd
000001c0: 9b98 c93c ff78 213e 0d28 1fbd d766 f73c
000001d0: 8722 8c3c c7a1 a23d beda e73c f10a 203e
000001e0: 7abb 173d dafc 393c 2474 813d c076 cc3b
000001f0: 182d ba3b 5376 0abd 3986 6bbc 0df4 2f3d

layer3.weight f4 [3, 128]
-0.08987652 -0.18178871 -0.12568949 -0.03825368 -0.13702391 -0.11991265 0.04547079 0.02279211
0.0625088 -0.1936185 -0.20037688 -0.097208686 0.016583765 -0.1124558 0.012432881 -0.054767843
0.03694744 0.00583561 0.025835201 -0.009446357 0.018058527 0.00066260144 0.040423036 -0.20376402
0.010131791 -0.0332987 0.03645955 -0.23899995 -0.004164131 -0.24796781 -0.11062525 -0.031976856
-0.114223465 -0.107727475 -0.029803341 0.036008786 -0.027866079 -0.23143083 0.027945 -0.15476999
-0.06321123 -0.02985783 -0.044301007 0.018103056 0.03830383 0.03676986 -0.20951535 0.045962602
-0.02930655 -0.14734456 -0.014900739 -0.016895106 -0.037481524 0.002557632 0.014351664 0.010543578
-0.036589097 -0.02407799 -0.1470068 -0.053678676 0.027223784 0.045931537 -0.274923 -0.023191623
0.0267122 -0.10178255 -0.004950771 -0.01148865 -0.13496873 -0.17708007 -0.008135454 -0.11822844
0.0041845324 -0.023275686 0.022881797 -0.16323909 -0.022801705 -0.02040712 0.0018020393 0.038388748
-0.18556874 -0.15987603 -0.12928009 -0.016942678 -0.0821357 0.13817726 -0.20997201 -0.13897601
-0.105532065 -0.028188443 -0.21323904 -0.012615002 -0.13012126 0.08160546 0.03772459 -0.17318474
-0.024811972 -0.017512642 -0.15780063 0.042925496 -0.019803017 0.03730737 0.030625949 -0.029822323
-0.041523017 -0.16805556 -0.02420152 0.013347519 -0.010429656 0.009167496 -0.036073025 -0.0069739986
0.01670324 -0.17611371 -0.036312692 0.023253955 0.007628638 -0.8136543 0.019255308 -0.030138979
0.013220147 0.03382202 1.1588964 0.018868918 -0.19148783 0.034352474 -0.011907459 0.040791776
-0.088244 -0.08532254 -0.03946822 0.0021683553 -0.3921617 -0.053211335 0.024587763 0.005411971
-0.6839802 0.018722892 -0.09299171 -0.333761 -0.03622792 -0.07563523 0.036475062 0.02012022
0.017467055 0.025356086 -0.030022675 -0.005111486 0.02900842 0.01051317 0.04077597 0.008899805
-0.028203756 0.04306675 0.040943705 -0.06400966 -0.036269385 -0.12452119 -0.09667627 -0.014709522
-0.18124846 -0.3658211 -0.03282105 0.025683258 0.003633842 -0.017789325 -0.001359706 -0.34106958
-0.07645789 0.044082638 0.2521308 0.02989554 0.0043633757 -0.041347396 -0.020250391 -0.1702626
0.036701582 -0.059234124 0.018010067 0.04135863 0.0037258847 -0.04413753 -0.01207148 -0.037192516
-0.08256566 0.00686823 -0.05846409 -0.12890328 0.018377282 -0.016555153 -0.13460611 0.0075048795
0.0005295757 0.34770462 0.026716087 0.026237743 -0.062248066 -0.42946 0.011242946 -0.38927975
-0.028721893 0.043996096 -0.2949737 -0.4902185 0.00032676762 -0.050170742 0.024297792 0.008008578
0.22956236 0.06124603 -0.10521552 -0.060296163 -0.06899335 -0.45293394 -0.0772939 -0.14455892
0.040503614 0.024952129 -0.1314376 0.014401998 -0.026973903 0.12541425 0.025896423 0.042811546
0.042628694 -0.09062557 -0.019205406 0.014956785 0.017205922 0.04355918 -0.0162758 0.032712206
0.024436926 -0.18289123 -0.0035096526 0.01964454 -0.022664841 -0.030851282 -0.042111512 0.058835577
-0.01317742 -0.2849023 -0.024892464 0.009058827 0.0015926665 0.25730306 -0.005662185 -0.07590506
0.02421598 -0.007013601 -0.57214594 0.0066929287 -0.10955271 -0.011474184 -0.031541765 0.016003337
00000000: 2e11 b8bd d226 3abe bfb4 00be e4af 1cbd
00000010: ff4f 0cbe c394 f5bd 943f 3a3d 85b6 ba3c
00000020: 9d04 803d ee43 46be 992f 4dbe 5915 c7bd
00000030: adda 873c 3a4f e6bd 48b3 4b3c 3f54 60bd
00000040: 3356 173d a538 bf3b 58a4 d33c e5c4 1abc
00000050: 7aef 933c 6eb2 2d3a a092 253d 84a7 50be
00000060: d0ff 253c 3864 08bd 9c56 153d 67bc 74be
00000070: 4373 88bb 46eb 7dbe 7e8f e2bd 2afa 02bd
00000080: feed e9bd 39a0 dcbd 2326 f4bc f37d 133d
00000090: 6747 e4bc 34fc 6cbe eaec e43c 067c 1ebe
000000a0: e474 81bd 6898 f4bc f974 35bd dc4c 943c
000000b0: 7ae4 1c3d fe9b 163d 318b 56be 4843 3c3d
000000c0: 4a14 f0bc 7ee1 16be 3b22 74bc 9b67 8abc
000000d0: 3a86 19bd f29d 273b 3e23 6b3c f9be 2c3c
000000e0: 73de 15bd 343f c5bc f388 16be 2cde 5bbd
000000f0: 6a04 df3c b522 3c3d b5c2 8cbe 5cfc bdbc
00000100: 8bd3 da3c 5f73 d0bd 143a a2bb e43a 3cbc
00000110: 3e35 0abe 7a54 35be 914a 05bc c121 f2bd
00000120: 671e 893b a7ac bebc 9b72 bb3c 2628 27be
00000130: a4ca babc d52c a7bc 6832 ec3a 853d 1d3d
00000140: bb05 3ebe 8bb6 23be 0062 04be 5fcb 8abc
00000150: c336 a8bd 577e 0d3e e702 57be ba4f 0ebe
00000160: 3221 d8bd 73eb e6bc 565b 5abe 27af 4ebc
00000170: 823e 05be c320 a73d 1a85 1a3d 5757 31be
00000180: 7a42 cbbc ac76 8fbc 7d96 21be a5d2 2f3d
00000190: f039 a2bc 9dcf 183d 45e3 fa3c f24d f4bc
000001a0: 0a14 2abd c216 2cbe 4442 c6bc 8daf 5a3c
000001b0: 26e1 2abc 4433 163c 4fc1 13bd 2486 e4bb
000001c0: 3cd5 883c 2757 34be 9ebc 14bd 147f be3c
000001d0: a7f9 f93b a64b 50bf 4fbd 9d3c 05e6 f6bc
000001e0: 5199 583c f588 0a3d b856 943f fd92 9a3c
000001f0: 6315 44be 2eb5 0c3d 8117 43bc 4715 273d
00000200: 45b9 b4bd 95bd aebd 6ea9 21bd f71a 0e3b
00000210: 6bc9 c8be 21f4 59bd 476c c93c e756 b13b
00000220: 5419 2fbf c060 993c 7072 bebd b9e2 aabe
00000230: ba63 14bd a5e6 9abd e066 153d 29d3 a43c
00000240: 1217 8f3c 91b7 cf3c 1df2 f5bc 417e a7bb
00000250: 11a3 ed3c 6e3f 2c3c b404 273d 7dd0 113c
00000260: 900b e7bc c366 303d 96b4 273d 7f17 83bd
00000270: 358f 14bd f704 ffbd 35fe c5bd 3500 71bc
00000280: 3299 39be e74c bbbe 5e6f 06bd b265 d23c
00000290: c125 6e3b ebba 91bc 2a38 b2ba aca0 aebe
000002a0: f495 9cbd ff8f 343d 4a17 813e 7ee7 f43c
000002b0: a6fa 8e3b e35b 29bd 26e4 a5bc 5259 2ebe
000002c0: 6654 163d 7b9f 72bd d989 933c ab67 293d
000002d0: f92d 743b 8ec9 34bd 75c7 45bc 2e57 18bd
000002e0: 2f18 a9bd e40e e13b 0b78 6fbd 39ff 03be
000002f0: f48b 963c ac9e 87bc 2fd6 09be 7eeb f53b
00000300: 39d3 0a3a 5706 b23e b2db da3c 89f0 d63c
00000310: d4f7 7ebd 2ee2 dbbe 5534 383c ad4f c7be
00000320: 2d4a ebbc 4035 343d cb06 97be ebfd fabe
00000330: 0252 ab39 d67f 4dbd 2a0c c73c 6936 033c
00000340: 6512 6b3e 1edd 7a3d 3c7b d7bd 1cf9 76bd
00000350: 634c 8dbd f5e6 e7be 444c 9ebd 4107 14be
00000360: 1ee7 253d 6868 cc3c 9497 06be 5cf6 6b3c
00000370: 60f8 dcbc 986c 003e bc24 d43c 295b 2f3d
00000380: 6d9b 2e3d e699 b9bd a854 9dbc 4e0d 753c
00000390: 6ff3 8c3c 1c6b 323d d454 85bc 3cfd 053d
000003a0: f32f c83c d747 3bbe 3302 66bb 96ed a03c
000003b0: 9eab b9bc d4bb fcbc 1f7d 2cbd 93fd 703d
000003c0: 1be6 57bc b7de 91be 48eb cbbc 796b 143c
000003d0: 05c1 d03a 3abd 833e da89 b9bb 1d74 9bbd
000003e0: 9760 c63c 59d2 e5bb 2878 12bf 5b50 db3b
000003f0: 2c5d e0bd 37fe 3bbc f031 01bd 6e19 833c

layer3.bias f4 [3]
-0.040995266 -0.09505401 -0.120745175
00000000: a7ea 27bd adab c2bd 3f49 f7bd
