mountaincar_v0_NoDSP.pth (torch, 72458 bytes, 6 tensors)

layer1.weight f4 [128, 3]
000000 c7 35 a7 be 0a a6 8d 3f 5b 6d e3 3e 9f ff 19 3e
       -0.32658216 1.1066296 0.4441937 0.15038918
000010 96 e0 03 bf f6 a8 48 be 0e ce b2 3e c0 eb 4f bf
       -0.51514566 -0.19595703 0.34922832 -0.812191
000020 ef 25 08 3f 38 a0 3c 3f 1a fc 1f 3f ea 17 d1 3e
       0.5318288 0.73681974 0.6249405 0.40838557
000030 2a 59 88 be 96 12 45 3f 85 39 fb be 09 e1 97 be
       -0.26630527 0.76981485 -0.4906732 -0.29663876
000040 18 a1 91 3e b4 4e 5b bd af 6a bd be 4c fa c3 be
       0.28443217 -0.053541854 -0.36995456 -0.382769
000050 06 07 46 be 52 ff a7 be dd 96 8a 3e b5 6e fa 3e
       -0.19338617 -0.3281198 0.27068225 0.48912588
000060 54 f6 1d 3f 89 48 4d 3f 1e 5d 62 be 6d 47 f5 be
       0.6170399 0.80188805 -0.22105834 -0.47906056
000070 c6 dd 90 3c f0 d5 c5 bd 4c 41 48 be 06 7c a0 3e
       0.017683875 -0.09659946 -0.19556159 0.31344622
000080 c5 30 15 3e c0 09 be be c0 60 82 3e 82 11 0f 3f
       0.14569385 -0.37116814 0.2546444 0.5588609
000090 f0 cd 99 be e8 c3 75 bf e8 89 f4 3e 69 1a 8d bd
       -0.3003993 -0.96002054 0.47761464 -0.06889803
0000a0 06 91 e9 3e 95 b9 5f bd 26 17 a3 3e 69 ce 17 3f
       0.45618457 -0.054620344 0.31853598 0.5929933
0000b0 c2 e9 95 3e ae f2 9c be f0 2e 2d bf 6a 4c ae 3d
       0.29279906 -0.306539 -0.67649746 0.085106686
0000c0 29 95 88 3d e0 a7 f3 3d 92 20 fb be 6f 54 30 bd
       0.06669075 0.11897254 -0.49048287 -0.043049272
0000d0 e3 10 01 bf c4 74 86 3e 68 38 9a bd 83 a8 6a bc
       -0.5041639 0.2626096 -0.0753029 -0.014322403
0000e0 bd 0c 95 be 13 3c 8e 3d 02 b7 c2 3e c4 54 a1 be
       -0.2911128 0.06945052 0.3803025 -0.31509984
0000f0 9a 84 92 be 82 e5 db 3e 9c 2b 91 bd 92 22 72 be
       -0.28616792 0.42948538 -0.07088396 -0.23646
000100 16 c1 10 bf 10 29 df be 7e e0 77 3e b3 e8 16 3f
       -0.56544626 -0.43586016 0.2420673 0.5894882
000110 28 fc a4 3e fe e4 92 3e fd bd 08 bf 71 33 59 be
       0.3222363 0.28690332 -0.534149 -0.2121103
000120 35 29 00 bf 9c 1a 94 bc 23 8a 9f 3e 0c 2e ce be
       -0.50062877 -0.018079095 0.31160077 -0.40269506
000130 e2 a3 be 3d b0 ca 05 3e 31 fd 0c 3f 06 18 01 bf
       0.09308602 0.130656 0.5507384 -0.5042728
000140 4d 13 0b bf 04 a2 0b be b3 4a 05 3e f4 d1 f2 be
       -0.54326326 -0.13636023 0.13016777 -0.47425807
000150 a3 ef ca 3d 8f 65 dc bd 56 3c 0d be cd b7 18 ba
       0.09908988 -0.10761558 -0.13792548 -0.00058257283
000160 12 70 e4 3d 87 81 b0 be da 99 24 3f b0 61 06 bc
       0.11154188 -0.34473822 0.6429726 -0.008202001
000170 65 1b 08 3f d3 a6 04 bf 51 22 f2 bd dc ae 1e 3d
       0.531668 -0.51817054 -0.118229516 0.038740978
000180 5b 8c 1e 3f 55 dd a5 be 94 da c1 3e 13 b1 18 bf
       0.61932915 -0.32395425 0.37862074 -0.59645194
000190 9b a7 47 3f 7b c1 95 3c 96 35 3e 3f e6 eb b0 be
       0.7799012 0.018280735 0.74300516 -0.34554976
0001a0 94 30 20 3e 2e fc 3f be 13 b6 f0 be 5a 17 01 3e
       0.15643531 -0.18748543 -0.47013912 0.12606564
0001b0 3c 8d c7 be e9 58 bb 3e be 56 38 3e 00 fa f6 bd
       -0.3897494 0.3659127 0.1800184 -0.120594025
0001c0 e9 5d 21 bf 61 36 17 bd 0c 75 01 3f a7 32 f5 3e
       -0.6303392 -0.036917094 0.50569224 0.47890207
0001d0 09 de 0d be 73 a3 0e bf 48 fd a8 be 64 a9 a6 3e
       -0.13854231 -0.55718154 -0.33005738 0.3255111
0001e0 20 95 13 bf f6 a3 48 bc cf 49 aa be 4e dc d3 3e
       -0.5764942 -0.012246123 -0.33259436 0.41379017
0001f0 ac ac 0e 3f 4f d8 80 3e ce b8 d6 be b9 ce 9b 3d
       0.55732226 0.2516503 -0.4193787 0.076077886
000200 08 ab 2a 3d e1 8e c9 be 0b 38 83 bf 70 53 e8 be
       0.041667014 -0.3936682 -1.0251478 -0.45376158
000210 13 94 f8 be 1d 2f a4 be 2a d7 ec be a6 d7 e9 3e
       -0.48550472 -0.32067195 -0.46257907 0.4567234
000220 f1 6a 99 3e 7b 1a 03 bf a0 6b 1b 3d cd cb 11 3f
       0.29964402 -0.5121228 0.037944436 0.569516
000230 3d 54 e5 bb 43 af 14 3e aa 0e 17 bd ac bf b2 3e
       -0.0069985674 0.14519982 -0.03687922 0.3491186
000240 0d 9f 46 be af e7 55 be c9 17 c3 3d 2a a8 e6 3e
       -0.1939661 -0.20889162 0.09526021 0.45050174
000250 f1 97 1f be 24 4c 83 3b 0e 0e 9e be 1f e8 d4 3e
       -0.15585305 0.0040068794 -0.30870098 0.41583344
000260 36 2b 10 bf 6b be bb bd 52 45 6a be 2f dc e1 3e
       -0.56315935 -0.09167179 -0.22878006 0.441133
000270 b4 db 43 be 05 0f c7 be a5 cf dd be 2c 1b 7c 3e
       -0.19126779 -0.38878646 -0.43322483 0.2461974
000280 bc ff 15 be 23 d8 60 be 99 a0 3f 3f 82 7f b0 be
       -0.14648336 -0.2195745 0.7485443 -0.3447228
000290 3f df d2 3d 33 f1 91 be b4 2b 3c be cd 92 98 3e
       0.10296487 -0.28504333 -0.18376046 0.297995
0002a0 20 da 5c be 9a dd 83 be 84 db fe be 4a 0b 19 bf
       -0.21567583 -0.25755006 -0.49776852 -0.5978285
0002b0 6b 2c 6c be aa d5 04 bf 98 87 ea be 78 b1 b7 be
       -0.23063819 -0.51888525 -0.45806575 -0.35877585
0002c0 20 c0 d5 3e 27 5c 7d bd 29 8d b4 3e 24 81 91 bd
       0.41748142 -0.06185546 0.35263947 -0.0710471
0002d0 07 27 c1 bd dd ca 8a 3f 27 7a ac 3e ad 22 fa be
       -0.09431272 1.0843159 0.33686945 -0.4885458
0002e0 37 21 90 3e 8a c8 f2 be 12 ce 02 3f 94 bd ab be
       0.2815034 -0.47418624 0.5109569 -0.33543074
0002f0 e9 ba 0d bf f1 54 1b bf f2 d9 cc 3d 84 10 64 bf
       -0.5536333 -0.60676485 0.10002507 -0.890877
000300 0f 20 9e 3e f8 e3 43 3e d2 18 d2 bc 42 8b 80 3e
       0.30883834 0.19129932 -0.0256466 0.25106245
000310 89 48 dd 3d bd a9 b2 be 3c 19 21 be a0 79 3c bd
       0.108048506 -0.34895125 -0.15732282 -0.04601443
000320 65 7a f8 3e a9 98 34 3f 58 59 00 bf 04 4e b8 3e
       0.4853088 0.7054544 -0.5013633 0.3599702
000330 1f b4 59 be aa 52 23 3e 5f 88 8e 3e a9 7b 42 3f
       -0.21260117 0.15949503 0.27838418 0.7596994
000340 d9 c8 24 3f 56 5d ae bd 2d a9 c1 3e 0a fe 48 be
       0.6436897 -0.08513896 0.37824383 -0.19628158
000350 a3 87 05 3e c2 ca f7 be 09 81 87 be e2 6a 22 3e
       0.13040023 -0.4839688 -0.26465634 0.15861085
000360 d9 46 f1 3e a5 62 9c be 12 e2 96 3e f8 89 0c bf
       0.47124365 -0.3054401 0.29469353 -0.54898024
000370 38 c9 88 3e b3 0b 08 3f 87 d7 2c be 2d dc 8c 3f
       0.26716018 0.5314285 -0.16879092 1.1004692
000380 fa 04 10 3f 22 5f a6 3e 7e 2a ec 3d 23 a7 10 3e
       0.56257594 0.32494456 0.11531542 0.14126258
000390 23 69 93 3e 52 88 be 3d ca 85 c3 be c7 03 0e bf
       0.2879115 0.09303345 -0.3818801 -0.55474514
0003a0 49 4d bf bc 44 06 17 bf ad 46 e5 3d 66 0c c1 3e
       -0.023352282 -0.58993936 0.11195121 0.37704772
0003b0 0c ad 5b be 68 12 52 3e 32 0e 4d 3f a4 42 b3 3e
       -0.21452731 0.20514834 0.80099785 0.3501178
0003c0 3b f7 aa 3e c2 e7 26 3f 85 97 2d 3e b9 03 d4 3e
       0.33391747 0.65197384 0.16952331 0.4140909
0003d0 31 b3 17 3e 37 92 be 3e 1b 83 7c be d6 b3 ea be
       0.1481445 0.37220928 -0.24659388 -0.4584033
0003e0 8e c1 05 bd 38 e0 0b 3f c0 cd ff 3d 60 c7 08 3f
       -0.03265529 0.54639006 0.124904156 0.5342922
0003f0 ea 24 13 bf 71 95 05 bf 48 85 aa 3e 47 1b 44 3f
       -0.574782 -0.52181154 0.3330481 0.7660412

layer1.bias f4 [128]
000000 7d 9a 7f be 9b 90 16 3f c6 91 88 3e f1 81 b4 be
       -0.24961276 0.588144 0.26673716 -0.35255387
000010 47 1e 0d bd b7 2b e8 be 96 35 1e 3f d1 d5 63 3e
       -0.034452703 -0.45345852 0.61800516 0.22249533
000020 c1 cc 8c 3e 8d 31 c6 3e fd 08 9c 3e 3b 53 2c bd
       0.27499965 0.3870968 0.30475608 -0.042071562
000030 93 9b ac be ac 36 d1 3e 54 db f8 3e a5 96 74 be
       -0.33712444 0.40862024 0.48604834 -0.23885591
000040 dd 6c 86 be cd cd b3 3e 67 96 f4 3e 66 b4 3e be
       -0.2625493 0.3511795 0.47770998 -0.18623504
000050 fe 0f a1 bd a8 70 95 3d 01 d7 16 3f de 9b c9 be
       -0.078643784 0.07296878 0.5892182 -0.3937673
000060 a8 41 89 be 8d 50 97 be 9d 22 8d be a4 6c 5b 3e
       -0.26807904 -0.29553643 -0.2756547 0.21428162
000070 1c 20 1d 3f 78 1a b7 be 94 2a 03 bf 6b 17 ba be
       0.6137712 -0.35762382 -0.51236844 -0.36345991
000080 38 9c 13 be 94 d6 4a 3e 59 ae 88 be 7d 8f 1f 3f
       -0.14415061 0.19808418 -0.26695517 0.6232832
000090 33 0b b3 be 0a 5d 85 3e 47 8b b9 3e 55 6a 7e 3e
       -0.34969482 0.26047546 0.36239073 0.2484525
0000a0 fd 7a 35 3f 35 36 15 3f 60 e0 e8 3e 88 36 8c 3c
       0.7089079 0.5828584 0.45483685 0.017115846
0000b0 97 b5 d1 3e 45 eb d6 be 8b ff 94 3e 36 82 89 3e
       0.40958855 -0.4197637 0.29101214 0.26857156
0000c0 ef 09 d1 3d 3b 74 f4 be c2 77 08 bf 0d c4 ef 3e
       0.10206973 -0.47744927 -0.53307736 0.46829262
0000d0 a5 cb 0f bf fd 24 9e be 4d ab 9d bd 0d 71 e8 3e
       -0.5617011 -0.30887595 -0.07698689 0.4539875
0000e0 73 70 86 3e f1 cd fc 3e 63 3e a5 3e e6 e4 19 3f
       0.26257667 0.4937587 0.3227416 0.60114896
0000f0 b1 31 dd bd 02 d6 98 3e 04 a2 db be f8 c0 83 be
       -0.108004935 0.29850775 -0.42897046 -0.2573316
000100 45 c6 2c 3f f8 59 77 be 79 ce f6 bd b7 bf 5c 3e
       0.67490035 -0.24155414 -0.120511 0.21557508
000110 69 e4 ba be 86 97 a6 3b f0 af 12 be 00 b6 0f 3f
       -0.36502388 0.005083981 -0.14324927 0.56137085
000120 1f 90 f2 bd 1e 64 a5 3c 25 6f 48 be 35 89 bf bd
       -0.11843895 0.020189341 -0.19573648 -0.09352342
000130 30 b1 50 be 13 43 98 3e ea 22 0e bf 6f 13 3b 3e
       -0.20380092 0.29738674 -0.55522025 0.18269132
000140 e2 03 2c be ae 14 11 3f 61 4b 8d 3e d0 3c a0 3e
       -0.16798356 0.5667218 0.27596572 0.31296396
000150 f6 b7 08 3f 66 47 09 3e 51 b0 a2 be 44 79 da be
       0.534057 0.13406143 -0.31775144 -0.42670643
000160 1f a5 b7 be e8 08 20 be e6 20 60 bd e1 1b ee 3d
       -0.35868165 -0.15628397 -0.054718874 0.11626411
000170 b0 43 40 ba 69 6f 15 3f 52 55 f3 be 99 d7 b5 be
       -0.0007334305 0.58373123 -0.47526032 -0.3551605
000180 a8 cf 04 3f 3f 93 60 3e 9b 87 d2 be e4 6b ef be
       0.5187936 0.2193117 -0.41119084 -0.46762002
000190 d1 04 f0 be 94 96 21 3f 95 a2 0e 3f f3 09 e3 3e
       -0.46878675 0.6312039 0.5571683 0.44343528
0001a0 60 7d c6 3e f4 d0 98 be a3 3c ab 3e c5 62 e1 3e
       0.3876753 -0.2984692 0.334447 0.44020668
0001b0 c9 31 5e 3e 04 4d 16 3f 8a 68 bf 3e d7 6c 0c be
       0.21698679 0.58711267 0.37384444 -0.13713394
0001c0 86 13 27 3d 09 c6 3f be 2c ef dd be 85 5a 00 be
       0.040790103 -0.18727888 -0.43346536 -0.1253453
0001d0 e2 a1 32 be b9 6c 17 be 3e 5f 78 3e 8a 87 4e be
       -0.17444566 -0.14787568 0.24255082 -0.20168892
0001e0 91 4a 5d 3e 3f 1e 14 be 34 5b c8 be 4c 23 10 be
       0.21610476 -0.14464663 -0.39132082 -0.14075965
0001f0 2e b8 d7 be 8b 2a ab be 1a 4f 9b 3e 13 fe f6 3e
       -0.42132705 -0.33430895 0.30333787 0.48240718

layer2.weight f4 [128, 128]
000000 2c c6 07 bd 95 56 a9 3d a7 b8 ee 3c 62 b0 df bb
       -0.033147976 0.08268467 0.029140783 -0.0068264464
000010 89 e9 8d 3e ba 55 72 3c 20 6f 79 3d f3 bc 40 bc
       0.27717236 0.014790947 0.060896993 -0.011763799
000020 9f fd 12 3e d0 2b 45 bd 81 bb 50 3d 4b 0b 6b bd
       0.14354561 -0.048137486 0.050960068 -0.057383817
000030 e4 c3 6a bd b2 78 05 3d fe 74 9b 3d 86 a5 c6 bd
       -0.057315722 0.032585807 0.07590674 -0.0969954
000040 2c cf ae bd 18 54 aa bc b5 20 53 3d d6 73 7f bd
       -0.08535609 -0.020792052 0.051544864 -0.06236633
000050 6b fe 1a 3e 4e 8f b4 bd 56 00 67 3d 3f 64 38 3d
       0.15136115 -0.08816396 0.056396805 0.045017477
000060 e0 e9 40 bc 33 31 d9 3c a9 d0 8e 3c 9e aa 52 3d
       -0.01177451 0.026512718 0.017433481 0.051432244
000070 9a 97 0d bd db c4 92 3c 82 dc 98 3d d3 b9 a4 bd
       -0.034568407 0.017916134 0.074639335 -0.08043256
000080 97 2c 9a 3d 7a 97 33 bd 66 46 c8 3d f6 e8 66 3d
       0.07528036 -0.04384563 0.097790524 0.056374513
000090 33 46 6c bc 75 57 0d be 4f ac 1f 3e c9 55 33 bd
       -0.014421034 -0.13802893 0.15593074 -0.043782983
0000a0 cf a0 88 3d b9 5f b9 3d ff 12 11 bd 06 58 34 be
       0.06671297 0.09051461 -0.035418507 -0.17611703
0000b0 c6 93 0f bd 17 2b ab 3d 47 01 86 3c 22 41 3b 3d
       -0.035053037 0.08357828 0.016358031 0.045716412
0000c0 f6 2a ba 39 77 a4 0a 3d f6 0e 96 3d f8 95 98 bc
       0.00035508693 0.033848252 0.07327072 -0.018626198
0000d0 7a 8a a8 bd 34 aa ac bc bc 5b 18 3e b6 07 eb bc
       -0.08229537 -0.021077253 0.14878744 -0.0286902
0000e0 ae 05 c5 bd 4d 60 02 3d 8e 92 44 bd f0 26 94 3d
       -0.09620224 0.03183012 -0.047991328 0.07233989
0000f0 99 74 9c bd b6 53 f9 bc 2d 5a 9f 3d f4 fb 88 3e
       -0.07639427 -0.030435424 0.077808715 0.26754725
000100 7f 6c ca 3d 6d da 9a 3d 51 6d 5b 3d 4a e1 90 bd
       0.09883975 0.07561193 0.05357105 -0.070742205
000110 4a 7b be bd 13 d5 64 3e de d5 0f 3e 56 d7 09 3d
       -0.09300859 0.22346906 0.14046428 0.033652626
000120 b7 b4 8d bd 59 ce a1 3c 1a 3e 07 bd a2 b0 08 3d
       -0.06919234 0.019751715 -0.03301821 0.033371575
000130 fc aa fd 3c 92 85 5d 3d 55 2c 36 3c 08 71 06 3d
       0.03096532 0.05408246 0.011118968 0.03282264
000140 13 ca d3 3b f4 52 85 3d a1 25 1b bd cc db 3b 3d
       0.006463298 0.06509963 -0.037877683 0.04586391
000150 d8 f4 07 bd 5c 18 cc 3d f3 5c 62 bd b0 ad 36 bc
       -0.033192486 0.09965584 -0.055264425 -0.011149809
000160 90 32 96 bd 8a 47 99 bd 61 5f a4 bd 7c e3 2b 3d
       -0.07333863 -0.07484348 -0.080260046 0.041964993
000170 b2 c8 80 bd 1c 03 97 3d 2e d9 22 3d 7c 44 5b bd
       -0.062882796 0.0737364 0.0397579 -0.05353211
000180 b5 0f 4c 3d 61 85 2b 3d 2d ec 94 bd ee 9f 26 3b
       0.049819667 0.041875247 -0.072716095 0.0025424915
000190 8d 26 32 3d 07 7e 7d bd e2 3b 5e bc c1 cd a5 bd
       0.043493796 -0.061887767 -0.013564082 -0.08095885
0001a0 b7 7f 45 3c 44 41 7d bd 6d 17 5f bd 99 bf 11 3e
       0.012054375 -0.06182982 -0.0544657 0.14233245
0001b0 53 57 37 3e e1 00 b0 3d 3e e4 00 be 2b 51 a3 3d
       0.17904405 0.08593918 -0.12587067 0.07974466
0001c0 eb 6d 41 3d ff 01 90 3c c1 90 73 bd dd 77 90 bd
       0.047223967 0.017579077 -0.05946422 -0.07054112
0001d0 6e 80 97 3d a3 5e ec bc f6 6e fc 3c d6 72 18 3d
       0.07397543 -0.02885372 0.030814629 0.03721889
0001e0 db 88 82 3d 30 a1 2c 3d c6 48 8e 3d cd 72 03 be
       0.06373759 0.042145908 0.06947474 -0.12836762
0001f0 c0 fc aa bd 50 7e 84 bd 1e ff 9a bd 8d f6 c3 3c
       -0.083489895 -0.06469405 -0.07568191 0.023921276
000200 da fc 8d 3d b7 b9 39 3d ea e6 a6 3c 29 e3 4b 3d
       0.06932993 0.045343127 0.02037378 0.049777184
000210 14 c1 cc bc 7d 33 80 bd 3e 2a c4 bc e8 62 87 bd
       -0.02499441 -0.062598206 -0.023945924 -0.06610662
000220 08 01 3d 3d 95 3c 69 bd c3 02 99 bc bc 23 d7 3c
       0.04614356 -0.05694254 -0.018678075 0.026262157
000230 9f fe 1e 3d 94 e9 98 3d c9 53 00 bd 97 ba 91 bc
       0.038817044 0.074664265 -0.031329904 -0.017789168
000240 fb 4d 81 3d bf 4b d0 3c d9 c6 9a 3c 4a 34 df 3c
       0.06313702 0.025426744 0.018893646 0.027246613
000250 60 77 10 3d 64 e6 a5 3d a2 5f 1a 3d fa df 2e bd
       0.035270095 0.08100584 0.03768886 -0.04269407
000260 5c 89 3c 3d d0 cb 95 3d 51 1e 54 bd 4b 23 5b 3c
       0.046029434 0.07314265 -0.051786724 0.013375114
000270 7b 12 8b 3d 13 21 a7 bd ec e3 9b 3c fa 12 06 bd
       0.06790634 -0.08160605 0.01902958 -0.03273294
000280 28 3d 90 bd d5 26 89 3d 0d 19 84 bd 9c 53 4c bd
       -0.07042915 0.0669686 -0.064500906 -0.049884424
000290 07 42 6e bd 85 64 e7 bc 17 b7 95 bd 2d 4b 5e 3d
       -0.058168437 -0.028246174 -0.07310312 0.054270912
0002a0 aa 06 9a bd 18 2a b7 b9 3e 1a 55 bd 0b 7e aa bd
       -0.07520802 -0.00034935842 -0.05202698 -0.08324822
0002b0 f3 56 a4 bd 90 85 9b 3d 36 12 72 3d 94 e2 2b 3d
       -0.08024397 0.075938344 0.0590994 0.04196413
0002c0 50 43 a5 3c 22 94 80 bd 84 51 7f bd 18 ee 3d bd
       0.020173699 -0.06278254 -0.0623336 -0.046369642
0002d0 bb a0 63 bd 5b 7a a8 bd e7 02 5f 3d be 7b d8 bc
       -0.055573206 -0.082264625 0.054446127 -0.026426192
0002e0 48 84 ce 3c a2 06 93 bd 59 ce 82 bd 5d cd a0 bd
       0.025209561 -0.071789995 -0.06387014 -0.0785167
0002f0 21 9f e8 3c cc 1c 69 bd da a0 e3 ba 0f 82 a7 3c
       0.028396191 -0.05691223 -0.0017366663 0.020447759
000300 42 a4 83 3c 84 0f 7d bd 5d f1 73 bd 59 00 8e bc
       0.016069535 -0.061782375 -0.059556354 -0.01733415
000310 78 8e 45 bd 6e d7 a6 3d 74 05 dd 38 28 a2 ab bd
       -0.048231572 0.08146559 0.00010539117 -0.08380538
000320 a2 b3 95 bd d3 8b 46 bd d6 98 40 3d 57 db 86 bd
       -0.07309653 -0.04847319 0.047020756 -0.065848045
000330 82 32 a2 3d 32 7f 3c bd bb 04 99 b9 1d cc af bd
       0.0791979 -0.04601974 -0.0002918596 -0.085838534
000340 bb 7e 04 3c b6 2a 8e 3c d2 23 cb bb fc cb 46 bc
       0.0080868555 0.01735435 -0.0061993385 -0.012133595
000350 bd 8e a3 bc 37 d6 94 bd 74 e9 43 3c da f0 c4 bc
       -0.019965524 -0.07267421 0.011957515 -0.024040628
000360 74 dc ee 3c 97 eb 76 bd d8 b5 ad 3c dc c7 fb bc
       0.029157855 -0.06028327 0.021204874 -0.030734949
000370 a5 49 16 bd 3d 9e 93 3b 44 4b 00 3d 98 8f 98 bd
       -0.036691327 0.0045049475 0.03132178 -0.07449263
000380 a2 b5 3e bd b9 f6 86 bd e6 7e 2b bd 25 9d 49 bd
       -0.046559937 -0.06590027 -0.041869067 -0.04922213
000390 1f 06 17 3d 0b e4 2c 3d 5d 78 8e 3d 1f f4 32 bd
       0.036871072 0.042209666 0.06956551 -0.043689843
0003a0 be a1 51 bc 87 98 2c bd 95 7c a8 3d ab f6 89 bd
       -0.01279491 -0.04213765 0.08226887 -0.06736501
0003b0 e3 97 ee bc a1 c1 9f bd 62 e1 51 3d 70 8e 4d 3d
       -0.02912516 -0.07800604 0.051240332 0.050184667
0003c0 49 1e e8 3c 64 bf 61 3d 32 69 9b bd 06 83 54 bd
       0.028334754 0.055114165 -0.07588424 -0.051882766
0003d0 ac a2 f2 bc 47 df 2d bd fe fb a0 3d 4d 19 80 3d
       -0.029618584 -0.042449262 0.07860564 0.06254826
0003e0 93 f7 73 bd 98 20 1d 3d 1b 36 28 3d ea d4 9c 3c
       -0.059562277 0.038361162 0.041067224 0.019144494
0003f0 88 03 7c 3d b7 b0 29 bd bb f4 84 bc 1a 33 c9 3c
       0.061526805 -0.041428294 -0.016229978 0.0245605

layer2.bias f4 [128]
000000 54 11 6f bd 81 fe 4b bd 19 91 2c 3d c1 0f 54 bd
       -0.058366135 -0.04980326 0.042130563 -0.051772837
000010 3c 8f f6 3d de ee 60 3d f7 87 a1 3d 93 80 56 3d
       0.120390385 0.0549153 0.07887261 0.05236871
000020 0e bd b9 3d 5c cb 61 bc 16 45 0d 3e 35 37 c3 3d
       0.090692624 -0.013781395 0.13795885 0.09532014
000030 fa 69 ea 3d a2 96 63 3d 58 33 c4 3c f4 75 6c 3d
       0.11445995 0.055563577 0.023950264 0.057729676
000040 f2 7d 12 bd 25 15 40 3c a4 34 01 3c aa d5 43 3d
       -0.035764642 0.011723791 0.007886086 0.047811188
000050 f7 b5 6c 3b 73 d3 93 3b cb 39 f3 bc 1c df 90 3d
       0.0036119202 0.0045112907 -0.029690644 0.07073805
000060 ff 79 19 bd 96 0d 3d bc 93 04 75 bd b2 ee 62 bc
       -0.03746986 -0.011538884 -0.059818815 -0.013850855
000070 e5 0d 82 3c c0 9f 07 bd be 7f d3 3c d2 c2 b0 bc
       0.015875766 -0.033111334 0.025817748 -0.021577273
000080 58 74 fb 3d a6 88 36 bd e7 21 83 3d 6e 9b 1a 3e
       0.1227805 -0.04456391 0.06402951 0.15098354
000090 42 9d 51 3d 62 a6 93 3b 79 99 89 bb 7b 04 ee 3d
       0.051175363 0.0045059184 -0.0041992036 0.11621948
0000a0 23 d5 47 bd 8b 97 ed 3c ac 94 21 bd 52 0a 1d bd
       -0.048787247 0.029002925 -0.039448425 -0.03833992
0000b0 11 06 8a bd 99 68 39 bc 59 48 07 bb db f9 3a bd
       -0.06739438 -0.011316442 -0.0020642488 -0.045648437
0000c0 75 8b 83 3d ff b6 bc 3d 7f 52 fc 3c 50 3f 76 3d
       0.06423084 0.09214591 0.030801056 0.060118973
0000d0 ef 4d f6 3c a6 c7 09 3e a6 01 37 3d ef 03 0b 3d
       0.030066459 0.13455066 0.044679306 0.0339393
0000e0 46 1e 9e 3d 65 69 e3 3d eb 8a 5f 3d 28 e4 05 bd
       0.07720618 0.11104087 0.054575842 -0.03268829
0000f0 6c 60 db 3c 61 93 49 3d 5b 38 13 3e 5f e9 28 3c
       0.026779376 0.049212817 0.14376967 0.010309546
000100 fd 85 06 3d f5 ec 1b 3d 94 51 d8 3d ab 40 bc 3d
       0.032842625 0.038067777 0.10562435 0.09192022
000110 7c 80 58 3d aa fd e2 3c 4b 33 4a bd 20 a0 d9 3c
       0.052856907 0.027708847 -0.049365323 0.026565611
000120 09 02 da 3d c5 4e 2a bc 05 8b a0 3d f3 07 7a 3c
       0.106449194 -0.010394757 0.07839016 0.015260684
000130 e9 7b 83 3d 31 d8 66 3d 74 25 1e 3d 36 5d 83 3d
       0.06420118 0.05635852 0.038609937 0.06414263
000140 c6 05 8a bd 5a 93 65 bd c9 29 e6 bc 3a 33 0b 3d
       -0.067393824 -0.05604873 -0.028096097 0.0339844
000150 c3 e2 64 3b 53 10 5c 3d 22 0c 68 3d ca 62 94 3d
       0.00349252 0.053726505 0.056652196 0.07245405
000160 3c 96 15 bb 6f 45 80 bc 28 5a 89 3d c2 d4 c1 3d
       -0.0022825142 -0.015658109 0.06706649 0.094644085
000170 43 b8 6d 3d 48 80 b9 3c 22 70 4a 3b a7 2f 6f 3d
       0.058037054 0.022644177 0.003088959 0.058395054
000180 e5 92 45 bd 0d 3e fc 3d 88 00 a8 3b a4 59 21 3e
       -0.048235793 0.12316523 0.0051270165 0.15756851
000190 ab 98 1b 3d 3a f9 ff 3d 8b af 21 bd e3 80 04 3e
       0.037987392 0.12498708 -0.03947405 0.12939791
0001a0 2a 2e da 3c 69 62 5b bd c6 f2 fe bc 07 6c 01 3d
       0.02663334 -0.053560648 -0.031121623 0.031597164
0001b0 5f f5 73 3d 2b f9 9d bd 92 b7 33 bd 1b fc 49 bd
       0.059560176 -0.07713541 -0.04387624 -0.049312692
0001c0 d4 83 d6 3d 2c 4e a0 bd 27 b3 e2 3d 18 9f 37 3d
       0.10474363 -0.0782741 0.11069327 0.044829458
0001d0 3c 63 95 bb f9 a4 6f bd dd 12 1b bc 08 89 6b bd
       -0.004558949 -0.05850694 -0.009464947 -0.05750373
0001e0 49 62 bc 3b e4 e4 fc 3d c3 21 da 3d 30 d4 7f 3a
       0.005749021 0.12348345 0.10650971 0.00097590964
0001f0 9c 16 67 3c 1f 56 c3 3c 61 4f 04 bd fb 52 8b bd
       0.014104512 0.023844777 -0.032302264 -0.06802937

layer3.weight f4 [3, 128]
000000 24 00 5c bd 77 96 92 bd c6 c1 a7 3d b5 1b 68 bb
       -0.05371107 -0.07157605 0.08191256 -0.0035416905
000010 89 89 8f bc a4 55 0f be cf 23 80 bd cb 39 63 bc
       -0.017521637 -0.13997513 -0.0625683 -0.013868759
000020 5a 95 20 be fc 15 e9 bd 5e f3 0b be d1 9c 06 bd
       -0.15681973 -0.11381146 -0.13667056 -0.032864396
000030 7b d7 dc bd 89 be 36 be 33 97 c4 bd dc ca b1 3d
       -0.10783287 -0.17846121 -0.095991515 0.086812705
000040 78 b2 74 3d 86 60 aa 3b 7f 04 98 bd a7 05 74 3d
       0.059740514 0.005199495 -0.074227326 0.059575703
000050 ea 9a 59 3d 63 0f f9 3d fa 94 cf 3d a6 fb 27 3b
       0.053126253 0.12161138 0.10135837 0.0025632172
000060 a6 cf ec 3c 98 10 0d 3d f6 a0 91 3d a6 18 50 bc
       0.028907608 0.034439653 0.07110779 -0.012701189
000070 c2 94 6f bd 91 bf 8a bc 45 d6 2a be 2f 2d 9a 3d
       -0.058491476 -0.01693705 -0.166833 0.07528149
000080 42 af 15 be d6 23 b8 3d ed ba ab bd 09 d9 8a bd
       -0.14617637 0.0899121 -0.08385263 -0.067796774
000090 9b 54 a7 3d ea 00 18 3e 70 72 2c be 1b 74 ae bd
       0.08170434 0.14844099 -0.1684053 -0.08518239
0000a0 55 44 41 3d a0 97 32 3e e0 7d 84 bd 55 a8 13 be
       0.047184307 0.17440653 -0.06469321 -0.14419682
0000b0 66 73 a0 bd 6f 5a 8f 3c 03 92 20 be 1c 10 ae 3d
       -0.078345105 0.017499177 -0.15680699 0.08499166
0000c0 cf 17 9f bd 0d 79 d0 bd 56 65 ec bd 94 b6 f2 3c
       -0.07768213 -0.101793386 -0.11542766 0.029628076
0000d0 f7 1c ec bd a0 4b 1f be e7 9d ae bd cb 4e 23 3c
       -0.11528962 -0.15556192 -0.08526211 0.009967516
0000e0 fb 7e 3c 3c 1e 35 3b bd 50 3d 97 bc e3 3b b2 3c
       0.011504884 -0.045704953 -0.018461853 0.021757072
0000f0 7f 6f 3f bd 8b ca ab 3d 37 91 51 bd 46 2e 1e 3e
       -0.04673719 0.083882414 -0.05116388 0.1544734
000100 4a 22 b3 3c c3 f0 e2 bd 48 47 72 bd e3 a7 9a bd
       0.021866936 -0.11081078 -0.05915001 -0.07551553
000110 e7 8c 06 3e 83 20 80 3d 7b 2f 3d 3d d0 35 89 be
       0.13139687 0.06256201 0.04618786 -0.26798868
000120 2e dc 93 bb 93 15 91 3d 6b e4 b5 bd 90 b3 ed bd
       -0.0045123314 0.07084193 -0.08881458 -0.116065145
000130 eb 8f e0 bd 13 dc be 3d 0d 42 71 3b bf d2 97 3c
       -0.1096495 0.093193196 0.003681305 0.018533109
000140 64 48 ad bd fb 79 59 bd d2 9a ce bc 95 20 6d bd
       -0.08461073 -0.053094845 -0.025220308 -0.0578924
000150 59 10 16 bd 86 b0 ac 3c 68 5e f9 bd d1 26 b2 bd
       -0.036636684 0.021080267 -0.1217621 -0.0869881
000160 9f d0 23 3d c6 4b d5 bd 12 a2 9b 3d d0 62 aa 3c
       0.03999388 -0.10414843 0.07599272 0.02079907
000170 ba 7c 26 be c1 1e 3e bd a3 70 3f bd cf 08 ba bd
       -0.16258517 -0.046416048 -0.046738278 -0.09083711
000180 14 23 1b 3d a1 1e 1b be 96 a5 ee bd 54 3c 12 be
       0.03787525 -0.15148403 -0.11652677 -0.14280826
000190 f4 10 0e 3d fc 5a af bd c1 9c 03 3e 5f 71 c8 bd
       0.034684137 -0.08562276 0.12852766 -0.09787249
0001a0 b3 53 d3 bd 77 06 98 3b 9d d1 ca bd 55 9f 7f 3d
       -0.10318699 0.0046394425 -0.09903262 0.06240781
0001b0 4c a5 3e bd ca f1 85 3d 9a d5 74 3d 84 47 90 bd
       -0.046544358 0.06540258 0.05977402 -0.070448905
0001c0 aa 8b 0f bd 78 a0 15 bd 07 16 5f bd ab 7c 88 bd
       -0.035045303 -0.036529988 -0.054464366 -0.066644035
0001d0 ce 1f 03 be 4a 8f 6e 3d 0e 19 7c bd 60 88 8d 3d
       -0.12805101 0.05824212 -0.06154733 0.06910777
0001e0 ee ff 74 3d 1d 6c f2 bd 20 05 07 bd b0 04 cf bb
       0.059814386 -0.11837027 -0.032963872 -0.0063176975
0001f0 4c 5e 31 bd fa 58 b8 3d b1 d3 8b bd f8 b1 86 3d
       -0.04330282 0.09001346 -0.06827486 0.065769136
000200 dd 54 b4 3d 1e 86 83 bc 88 e8 03 3d bc 07 85 3c
       0.08805249 -0.016055163 0.03220418 0.01623904
000210 6f d6 cc bd 67 2c 3c be f2 a5 d1 bd 85 e2 91 3d
       -0.100018375 -0.18376313 -0.1023673 0.07123283
000220 5c 51 0e be 47 4a 01 bd e2 34 b8 bd 16 7c ff bc
       -0.13898224 -0.031564977 -0.089944616 -0.031187098
000230 70 39 ce bd b8 e9 07 bc d2 ce 11 bd 8a 19 45 3e
       -0.10069549 -0.008295469 -0.03559763 0.19248024
000240 ec a1 18 3e 04 34 19 bd d8 29 83 bd c1 d2 80 3d
       0.14905518 -0.03740312 -0.064044654 0.06290198
000250 59 7a 3b bd 3c be b9 be 5e 09 35 3e 1a 63 5d 3d
       -0.045770977 -0.3627795 0.17679355 0.05404959
000260 0e 0d 6f bd 85 de 06 3d b4 9b 74 3c 7f ce 81 3d
       -0.05836206 0.032927055 0.014929701 0.06338214
000270 90 0c 63 bd 3d b9 4f 3e e2 fa 3f be 80 51 02 bd
       -0.055431902 0.20285507 -0.18748048 -0.031816006
000280 dd 6f 93 bc 40 9d 4a 3e a0 0e cb bd 5b 11 a7 bd
       -0.017997677 0.19786549 -0.09914899 -0.08157607
000290 77 99 85 3c 2f 22 86 3d 17 91 8d bc 6e 6d 21 be
       0.01630853 0.06549489 -0.017281098 -0.157644
0002a0 af d4 6c bc c5 2c 52 3e 68 ec 97 bc 3c fd c4 bd
       -0.014455005 0.2052489 -0.018545344 -0.09618613
0002b0 65 d5 ae 3d 4b 34 97 3d 08 1d 05 be ad 84 16 bd
       0.085367955 0.07383021 -0.12999356 -0.036747623
0002c0 d5 a4 a3 3d 93 49 1a bd 7f 99 6b bd 45 3e 64 3d
       0.079904236 -0.037667822 -0.057519432 0.055723447
0002d0 d2 8b 26 be bd 46 44 be de 50 4c bd 45 91 76 3d
       -0.16264275 -0.1916761 -0.04988181 0.060197134
0002e0 83 83 84 3d 97 8d 1c be 53 78 67 bd c3 9b 6a 3d
       0.06470396 -0.15288387 -0.056511234 0.057277452
0002f0 97 b0 b2 3b 5d f8 13 3e da cb 16 be e2 ef 25 3e
       0.00545318 0.14450212 -0.147262 0.1620479
000300 f8 fc b1 3d 01 fe 3e be aa 67 24 be 58 54 06 be
       0.08690828 -0.18651582 -0.1605517 -0.13118112
000310 87 a1 a4 3e cc 5b aa bd 40 26 ba 3d c2 c5 5b 3d
       0.32154486 -0.0831829 0.09089327 0.053655393
000320 3a fa 97 3e 42 c4 a3 bd 67 b7 15 be 60 0c e1 3c
       0.29683095 -0.079964176 -0.14620744 0.027471721
000330 71 73 aa bd 9b ba 8d bb d4 aa 82 be 65 10 e0 3c
       -0.083228 -0.0043252236 -0.25520957 0.027351568
000340 98 d0 8e bd 20 92 8d 3d 44 6e df 3d 74 a5 f0 bd
       -0.0697338 0.06912637 0.109097034 -0.11750308
000350 15 05 01 bd 3f e0 a3 3c ec 75 4a bd 25 cd 11 be
       -0.031498987 0.02000439 -0.049428865 -0.14238413
000360 8c 1c 2b be 62 5b 19 be bf 56 56 3d aa 36 32 bd
       -0.16710109 -0.14976266 0.05232882 -0.043509163
000370 11 89 3d 3c dd 78 06 bd 14 8c 11 be bb 81 10 be
       0.011568324 -0.032830108 -0.14213592 -0.14111988
000380 4f 83 77 3d ed 70 01 be 64 e2 a9 bd 57 69 ee bd
       0.06042796 -0.12640734 -0.08295134 -0.11641186
000390 e7 4e 34 3e 03 8b 47 bd 2a ae a3 3d 9e 33 ad 3c
       0.17608224 -0.048716556 0.079922035 0.021142777
0003a0 3d 74 49 bc 0d 9e d0 3c d8 6e d0 bd 47 e0 e8 bc
       -0.01229578 0.02546599 -0.10177392 -0.028427256
0003b0 79 71 71 bd ac e8 7d 3d fe d0 bb 3d 16 f8 91 bd
       -0.058946107 0.06198947 0.091707215 -0.07127397
0003c0 40 ed e7 bd 1c 00 7d 3d 48 63 03 bd 5f 86 f7 bd
       -0.11324549 0.061767682 -0.032077104 -0.12086176
0003d0 09 3e 0a be 37 89 62 bd 89 4d a0 3d c7 fa a4 3d
       -0.13500227 -0.05530664 0.07827289 0.080556445
0003e0 7a f8 06 3d 1b 00 f3 bd de 18 e4 bd 53 7b af bd
       0.03295181 -0.118652545 -0.111375555 -0.08568444
0003f0 88 6b b1 bc 31 43 0b be d4 78 09 bd 62 94 8a bd
       -0.02165772 -0.1359985 -0.033562496 -0.06766583

layer3.bias f4 [3]
000000 fa c5 0a 3d e3 bb 8b 3b 16 89 c5 bc
       0.03388021 0.004264341 -0.02411322
